checkpoint_actor0.pth (torch_old, 159204 bytes, 6 tensors)

fc1.weight f4 [256, 24]
00000000: f48f 2b3d 2c78 aabd 9ebd f6bc be4e a1bd
00000010: 4895 a9bd 40c0 ee3c d982 d1bc b2f9 e5ba
00000020: c0d6 303d 2076 9ebd 59f5 a83c 1183 c73c
00000030: 50cc e83d 05d8 a6bd 6d54 a93d e3d2 9e3d
00000040: 4fd4 d4bc 2275 1dbe 253f c0bd 5dcf 2a3d
00000050: c5db 463e c557 44be e731 e9bc f11e 63bb
00000060: 797d a2bc efd0 903c 596d 93bd a9cb 533d
00000070: 974b a3bc e588 cabc d2fb 81bd c021 28bd
00000080: 36f6 cbbc c6c0 74bd b51b 973c 5f89 57bd
00000090: a3e2 23bc c819 00bd 0f5c edbc 7d53 2ebd
000000a0: 2a2d 20bc e1a6 2bbe a1e9 44bc 4758 e33c
000000b0: 9034 dd3d 20fc 673d 9df7 073d d215 2dbc
000000c0: a1f4 5cbd 422b 8f3e 9736 f0b9 cf73 cdbc
000000d0: 27ad 163e a53a c43d 4d70 aabd acde a1bd
000000e0: b70b 7c3d b06a a13e b829 6cbd 78c1 1cbd
000000f0: 6e78 eb3d dffd 8c3c b095 1dbd 4c04 97bc
00000100: 44a0 8c3d 4ce6 983e d489 93bd d628 28bd
00000110: e8bb 723d f74c 063c 0536 d2bc 558b 0b3d
00000120: aea7 ce3c 6850 7abc 4a61 c63c d68f 99bd
00000130: 1568 a83d 8d1d 293c e4c2 443d 60d1 a7bd
00000140: e284 81bc fa10 a8bd ae1c 35bd 7981 23bd
00000150: fa85 243e 5190 4b3d a205 bdbb f9c6 023d
00000160: aeb2 3f3d 18c5 37bd 38ba 80bd 79e8 8a3d
00000170: 9794 163e 6f9f 043e 5fbc 093d f070 c73d
00000180: 8006 2abd 879c c2bc a975 623d 4f46 143c
00000190: 8309 9bbb 4182 273d 02ab 4ebd 2f67 81bd
000001a0: 0521 77bd b5f5 10bc 7d48 513d 2cee b6bd
000001b0: 7c33 9a3d 987e 313e bda9 953d ee4f b4bc
000001c0: 6168 fd3c 6a7d de3c d89c db3b 39a4 96bd
000001d0: f150 eb3c 3fe7 373e 78bb 393d 29b8 adbb
000001e0: 1532 62bd 8b75 e53c 0109 c4bc 4441 f4bc
000001f0: 0c45 123d f61d 1f3d af58 5e3d c4d9 3dbc
00000200: 3953 dfbd f993 623c 666a a83c d150 bbbd
00000210: 8bee 32bd c1c1 7f3d 7c89 b43d ad1e 86bd
00000220: 7abb 95bd cfa8 e4bd c480 3e3d 37d3 c0bd
00000230: 53f0 0a3b 2517 df3d ac42 603d d579 f6bd
00000240: 1a61 a9bd 077b c33d f47b 6ebd d1d2 2abc
00000250: 1c8b 0c3e 43f9 06ba 1520 fcbc 5605 a23d
00000260: 4fe4 7fbb 9bf3 213d b072 6c3c 3529 38bd
00000270: fb09 963d 7e5e b73d 1939 dfbb d66c 16bd
00000280: fb59 48bd cc54 213d 7b96 0a3d 6b17 9dbb
00000290: 4897 273e ce23 c73c 612d 023d 47c2 d43c
000002a0: 1cf2 08bc 63f6 db3d 4d96 a2bd fc36 7e3c
000002b0: 881c 48bd 483e 85bd 8fd9 52bd 7831 f8bc
000002c0: 7eab 9bbc 573f 073e 21e4 9cbd 5e9d 04be
000002d0: 2985 61bd 6ecd cdbc a26c 81bd 12db f9bd
000002e0: 46c7 b63b 447f 9d3d 9661 123c 4a56 4b3d
000002f0: 3a67 c4bb fc22 083c b710 af3d 0907 f73c
00000300: 8ada 8ebd 82a2 063e 0f1c ba3d d6ec a53c
00000310: fa0c 35bc 8522 0d3b af22 bf3d 096f a7bb
00000320: 96c8 90bc 462f 8e3d f7b4 243d a937 9cbd
00000330: 4c04 023d 36f5 423d 9480 773d 5218 53bd
00000340: 3bc3 6c3c 9a59 663c 3a74 c93c 3c9e 3dbc
00000350: 4731 f33c a6ce 523b a475 59bd 676d 9fbd
00000360: 75dc 78bc b677 cebd c6d0 68bd 7b9e 7a3d
00000370: 9042 22bd fe93 8d3d 7626 85bd 8055 a13d
00000380: d0c7 05be 8889 0ebe 84a8 ea3c bdaf 633d
00000390: c0fc ecbc 5107 c23d 2b2f 88bc 1204 71bc
000003a0: 7ed1 41bd 7a5b 1bbe 746c bdbc 1da4 fb3d
000003b0: 4e51 38bc fc51 9dbc ed33 973d 4325 c63d
000003c0: 3ac3 123d 1a07 fd3d 490c c3bc 941a 9abd
000003d0: 2509 043e 7b5e 9e3d 498d 87bd 4f8b 9fbc
000003e0: bfcf ae3d aeec dc3d 8ddd 21bd 0573 d03b
000003f0: 1a48 d33d 1ad2 2cbd 40a5 a5bd c51a e43c
0.04188533 -0.08323702 -0.030119713 -0.07876347 -0.08280426 0.029144406 -0.025575088 -0.0017545728
0.04317355 -0.07737374 0.020624803 0.02435449 0.113670945 -0.08146671 0.08268056 0.07755067
-0.025980143 -0.15376714 -0.09387044 0.041701663 0.19419773 -0.19174106 -0.028466178 -0.0034655894
-0.01983522 0.017677752 -0.07198591 0.051707897 -0.019933505 -0.02472348 -0.06346859 -0.04104781
-0.024897676 -0.059754156 0.018445829 -0.05262124 -0.010002765 -0.031274587 -0.028974561 -0.04256009
-0.009776393 -0.16762878 -0.012018592 0.027752055 0.10801041 0.05663693 0.033195127 -0.010564284
-0.053944234 0.2796269 -0.0004581704 -0.025079636 0.1471449 0.09581498 -0.08322201 -0.079037994
0.06153461 0.3152671 -0.057656974 -0.038270444 0.114975795 0.017210899 -0.03847283 -0.018434666
0.06866506 0.29863203 -0.07204023 -0.04105457 0.059261233 0.008197061 -0.025660524 0.034068424
0.02522644 -0.015277959 0.024216313 -0.07498138 0.08222977 0.010321987 0.048037425 -0.08194232
-0.015810434 -0.08206363 -0.044216804 -0.039918397 0.16066733 0.049698178 -0.0057684937 0.031928036
0.04680126 -0.044865698 -0.062855184 0.06782622 0.1470512 0.12951444 0.03362691 0.09738338
-0.041510105 -0.023756279 0.05528799 0.009049966 -0.0047313585 0.040895704 -0.050456055 -0.06318509
-0.060334224 -0.008847644 0.05109452 -0.089321464 0.07529351 0.17333448 0.07307766 -0.02201077
0.03093356 0.027159411 0.006702047 -0.07355542 0.02872512 0.17959307 0.0453448 -0.0053014946
-0.055223543 0.02801015 -0.023930075 -0.029816277 0.03571038 0.038846932 0.054283794 -0.011587564
-0.10904545 0.013829225 0.020558547 -0.09146274 -0.043684524 0.062440637 0.088152856 -0.0654882
-0.07311149 -0.1116501 0.04650952 -0.09415286 0.0021200373 0.10893086 0.054751083 -0.12034956
-0.08270474 0.0954495 -0.05822368 -0.010426239 0.13724941 -0.0005148837 -0.030777017 0.07911174
-0.0039045995 0.03953896 0.0144316405 -0.044961173 0.073261224 0.0895357 -0.0068122265 -0.036724888
-0.048913937 0.03938751 0.033834916 -0.0047940514 0.16366303 0.024309065 0.031781558 0.025971545
-0.008358505 0.10740354 -0.07938824 0.015516039 -0.048855335 -0.0650602 -0.05147701 -0.030297026
-0.019002672 0.13207756 -0.076607 -0.12950656 -0.055058632 -0.02512237 -0.06319548 -0.121999875
0.0055779545 0.076902896 0.008934399 0.04964284 -0.005993751 0.008309122 0.0854811 0.030154722
-0.06975277 0.1314793 0.09087383 0.020254534 -0.011050457 0.0021535468 0.09332787 -0.005109672
-0.017673772 0.069426104 0.040211644 -0.07627804 0.03174238 0.047597133 0.060425356 -0.051536866
0.014450843 0.014059449 0.024591554 -0.011573371 0.029686583 0.003216663 -0.053090706 -0.07784539
-0.01518928 -0.10081427 -0.056839727 0.061186295 -0.03961426 0.06912993 -0.065014765 0.07877636
-0.13064504 -0.13919652 0.028644808 0.05558752 -0.028929114 0.09474052 -0.016624054 -0.014710443
-0.047318928 -0.15171614 -0.023123004 0.122871615 -0.011249853 -0.019204132 0.07382951 0.09675076
0.035830714 0.1235487 -0.023809569 -0.075246006 0.12894113 0.077328645 -0.06618745 -0.019475607
0.08535718 0.107873306 -0.039517928 0.0063613676 0.10316487 -0.042192556 -0.080881596 0.027844796

fc1.bias f4 [256]
00000000: a0fc 37bd 4e33 243e aa68 b13d a20f bc3d
00000010: 407d 59bd bed4 c0bd ae1f 32be 8372 ba3c
00000020: 6225 1cbe a512 c1bd c422 983d 6e17 fbbd
00000030: 3277 9f3d 5313 d3bd d499 c73d 28c8 5f3e
00000040: 809d 5a3d b669 09bd 3c90 28be c39c f3bd
00000050: d227 223e c0a7 2bbe 524a 82bc 94d5 15be
00000060: ec3c a53d a347 d6bd b4e8 9d3d 7954 473d
00000070: fd51 9bbd b05a 1cbe 72e7 87bd 1c5e 6abd
00000080: cfb5 243d 0463 213d a655 cdbd 65ee 333d
00000090: 6fc9 e9bd fdb6 573e 7116 e3bd 2b1e 083d
000000a0: 1d58 d1bd 4eea 2bbe 64ae 393d bb26 7fbd
000000b0: ee1a 4dbd 5e8c 83bc 0744 5ebd 9eb3 e6bd
000000c0: df2e 5b3e 3d18 153e 3df6 b83a 11f7 153e
000000d0: 60b3 bcbd 579d fabd d52e d53c 6e12 88bd
000000e0: 6f32 233e 173c febb 20e2 efbd ec65 4d3e
000000f0: fbc9 273d bdbd b73d c2f1 583c b162 fbbd
00000100: c2f1 073e ee87 263d be42 17be c198 193e
00000110: a211 1dbe f238 dabd 047f 8abd 6d8c 3bbe
00000120: 8200 16be 2566 8ebc eb03 8cbc ad38 2e3e
00000130: 2445 5a3d 62f6 3b3e c37b c53d 26e1 3d3c
00000140: 994c fb3c 313a 16bd 910f 3dbe a8ff 4ebe
00000150: 8cd4 a93d 17f7 f3bd ad3c fcbd 9e1a a43d
00000160: 6e33 a3bd 4228 083e f321 ba3d 438e 033c
00000170: 0d2b 08be b17f 303e d7cf 43be 8b4a 2bbe
00000180: d27b 363e ddc5 e2bd 75ec 3c3e 6253 293e
00000190: 3f61 c53d eacf 873a af7a 063d 4d01 4b3c
000001a0: 1971 d6bd 7767 543e 3e47 1e3e 347b 0e3d
000001b0: e2b4 733d f6e0 143d c497 69bd 2525 25be
000001c0: 8abd 65bd 77d1 3fbe d94f 3fbd f88c 133e
000001d0: 4d23 4a3e 17f9 24be f14a 27be a58c 453e
000001e0: ebd4 2cba c570 9ebc 4381 ee3d aa7d 683e
000001f0: 2a70 3e3d 46ce 143d cdcc a0bd cf4c bd3c
00000200: 4d83 813d cb5c 2ebe ebfd 59be f24f bc3d
00000210: e575 82be ccbf fe3d 822c b13d fd4e d23d
00000220: 9a55 8f3d 9e8f 393b 8173 0e3e f168 303e
00000230: 9e19 f63c 9386 0bbe 48ae 153e 7c0c 4fbc
00000240: b664 ac3d 02ab dcbd af58 38bd 3c32 2ebe
00000250: c89a 253d 128b 853e e8eb 943d 355e 5d3e
00000260: 4457 093e 4f50 a6bd 06ee 673e 93ee 3c3d
00000270: 6aa1 513e bf88 973d 16e9 5abd 379b 043e
00000280: 3760 9bbd 0f62 ddbc 2205 1b3d 2f85 043d
00000290: 38dd 5abd 7156 0a3e a67e 653c ae52 f03d
000002a0: ecf3 be3d 6cf4 3a3e 6c50 443d 9e21 cebd
000002b0: 483a 34be acec 2ebe e506 0ebe 17df 4abe
000002c0: 6ffa 8d3d b858 2f3e 78b6 ffbd f47c e13d
000002d0: 2ba1 00bd 5e61 413e 5436 1e3e e652 b13d
000002e0: 55cd 543e e5dc a6bd 0973 26be b239 48be
000002f0: cada a93d e4f0 513e 096e 2c3e 8cce 693d
00000300: 2ae6 4ebd b7d2 04be e72f 633e f8c3 46be
00000310: 3406 90bd 9225 033e 129b ee3d 07a9 cd3c
00000320: 71ba d93c 3ef8 a03c fd5e 553c 5d5d afbd
00000330: ae23 7f3e 1eae 4b3e 7cec 59bd 1cc4 4f3e
00000340: 561f c2bc c9ee 3dbe 8aba 3b3d 9812 5ebd
00000350: 31b2 343e 6b29 2a3c d028 cf3b eb1f 4dbe
00000360: 7b1d 093e 778b 1f3e be86 5d3d 8cd6 143c
00000370: 45a6 8cbd fcdd b63d fa6f 613e a43a bc3a
00000380: ee27 b63b c5a4 97bd b8b7 fc3c ffcb ccbd
00000390: b8ef abbd a082 dcbc fd16 483e 77d0 0b3e
000003a0: 71ce 95bd f383 2abd ace2 38bd f5a1 bc3d
000003b0: 24cf a1bd a8d7 683d 80a4 163d 1b64 f33d
000003c0: cb28 b7bd 7c3e 0abe e88f ba3d 0497 6abc
000003d0: 3d58 6abd 1743 1c3e 1314 9a3d ccd0 cbbb
000003e0: 5739 0dbd 746e d8bd c864 e43b 5bfc 0abe
000003f0: aec6 0c3e 7702 4e3e 0998 2ebe f358 173e
-0.044918656 0.16035196 0.08662541 0.09182669 -0.053097963 -0.09415577 -0.17394897 0.022759682
-0.15248635 -0.09427384 0.07428506 -0.12260328 0.077864066 -0.1030642 0.09746137 0.21853697
0.05337286 -0.03354808 -0.16461271 -0.11895134 0.15835503 -0.1676321 -0.01590458 -0.14632255
0.080682606 -0.10462882 0.077104 0.048664544 -0.075839974 -0.1526897 -0.066359416 -0.057218656
0.04021245 0.03940107 -0.10026102 0.043928523 -0.114153735 0.21065898 -0.11088265 0.033231895
-0.102218844 -0.16788599 0.045332327 -0.062292796 -0.05007451 -0.016058143 -0.054264095 -0.11264728
0.21404599 0.14560027 0.0014111471 0.1464503 -0.092139006 -0.122370414 0.026023308 -0.0664414
0.15937208 -0.007758628 -0.11713052 0.20058411 0.040964108 0.089717366 0.013241233 -0.12274683
0.13275817 0.040656976 -0.14771554 0.14999677 -0.15338758 -0.10655393 -0.067625076 -0.18315287
-0.14648631 -0.01738269 -0.017091712 0.17013808 0.053288594 0.18355706 0.09642746 0.011589324
0.030676173 -0.03667659 -0.1846297 -0.20214713 0.08292493 -0.11912363 -0.123162605 0.08012889
-0.07968794 0.13296607 0.090885065 0.008029523 -0.13297673 0.1723621 -0.19122253 -0.16727655
0.17820671 -0.11072896 0.18449576 0.16535714 0.09637689 0.0010361646 0.032831844 0.012390447
-0.104707904 0.20742594 0.15456864 0.034785464 0.059498675 0.036347352 -0.0570295 -0.16127451
-0.05608896 -0.18732248 -0.046707008 0.14409244 0.19740029 -0.16110645 -0.16337182 0.19291933
-0.00065930065 -0.019340882 0.116457485 0.22704187 0.046493687 0.03632953 -0.07851563 0.023107914
0.06323872 -0.17027585 -0.21288268 0.09194936 -0.2548057 0.12438926 0.08651067 0.10268972
0.06998749 0.0028314362 0.13911249 0.17227532 0.030041512 -0.13625555 0.14617264 -0.012637254
0.084176466 -0.10774805 -0.04500645 -0.1701135 0.040430814 0.26082665 0.07271558 0.21617968
0.13412195 -0.081207864 0.22649392 0.04612596 0.20471731 0.07399129 -0.053444944 0.12949835
-0.07586711 -0.027024297 0.037846692 0.032353576 -0.053433627 0.13509537 0.014007246 0.1173452
0.09323868 0.18257302 0.04792826 -0.10065006 -0.17600358 -0.1708247 -0.13869818 -0.19811665
0.06932532 0.17123687 -0.12485975 0.11010161 -0.0314037 0.18884799 0.15450412 0.0865839
0.20781453 -0.08147601 -0.1625482 -0.19553259 0.08293684 0.20502049 0.1683885 0.057081744
-0.05051247 -0.12971006 0.22186242 -0.19410694 -0.07032433 0.128073 0.11650671 0.025105013
0.02657816 0.019649621 0.013023135 -0.085627295 0.24915954 0.19890639 -0.053204045 0.20289654
-0.023696583 -0.1854812 0.045832194 -0.05421695 0.176461 0.010385851 0.006322004 -0.20031707
0.13390152 0.15580545 0.05408358 0.009084355 -0.06867651 0.08929059 0.22015372 0.0014360738
0.005558959 -0.07404474 0.030849323 -0.09999847 -0.08395332 -0.026917756 0.1954002 0.13653742
-0.07314766 -0.041629743 -0.045138046 0.09210578 -0.07900837 0.05684629 0.036777973 0.11884328
-0.089433275 -0.13500398 0.09109479 -0.0143182315 -0.057213057 0.15259968 0.0752336 -0.006219959
-0.03447851 -0.10567942 0.006970022 -0.13572828 0.13747665 0.20118128 -0.17050184 0.14780025

fc2.weight f4 [128, 256]
00000000: 75b2 07be 2403 22be 07c6 3a3c 6a3c 483d
00000010: 3f87 903d 9cbb 0f3d 0ffd d0bc 2f6e 03bb
00000020: acc7 6b3c 38bb ab3d c08a 25bd db06 16be
00000030: df46 2dbe 3565 c0bd 7774 ffbd 17d4 bb3d
00000040: b74c e83d 2cf4 9fbd ef51 0bbd bac9 65bd
00000050: 2a3f 00be 89bf f83d f98e 8c3d dcfd f0bc
00000060: 8aa6 e73d 917e aabd a4f4 66bd 6398 68bd
00000070: 7b86 003c 378e 2abd a55f c63d 1bf8 dbbd
00000080: 6742 c03d f9fb dc3c de31 6dbb 66fc 38bd
00000090: 4f26 8f3d 1b9e 96bd 5173 353d a63f 7ebd
000000a0: a80d 8d3d 6e17 4e3d 714c 61bd 7fe0 b7bd
000000b0: ad8f 0ebe 939c cc3d 6800 183e 9aaf 96bd
000000c0: 1caa 953d 4478 263d 75a4 56bc 2a0e 68bc
000000d0: d14a 3dbc 53f5 9bbc 9ae6 85bd 163f c7bd
000000e0: d623 fa3b f3d0 fdbc 9c90 1dbd 44a6 e63c
000000f0: 9af1 acbd 47ee 103d c583 0f3d 60d5 453d
00000100: 33ad bfbc 3ff3 b93b 3368 9fbd f2fc d43c
00000110: 4812 efbd 8683 5e3d bb58 fb3c 5e68 71bc
00000120: 7f19 fbbd 6722 983d 2c62 fe3c 1068 3d3c
00000130: 5658 61bd f35d f0bc 2832 04bc 2035 19bd
00000140: b0ed 44be 9605 b5bd 98fb 403c 1ac5 7d3c
00000150: 90ea 083c 14a9 33be b07b 1fbc 6de2 2b3c
00000160: ace9 9bbd bb08 683d 292c c6bc 3664 88bd
00000170: 8e44 fdbd 6c0d 943d d9ea 9f3c 16d7 bcbc
00000180: dfce e63d a422 c3bd ced4 053e 6d5b c1bc
00000190: f4ff 0bbd 7369 acbc 388f a23d fa4c f53d
000001a0: 9879 d43d 0f6f 73bc 05d9 a5bd eb2d 1f3d
000001b0: 88ce cabb 018d c73d 08a3 01be e5f0 dfbd
000001c0: fbdc 9cbd 50ba 3f3d 75ba fb3b c559 0a3d
000001d0: d150 703c 4e1f 6e3d 8cac 19be aba6 0e3d
000001e0: 3937 623d 8c8e c7bd 5c8f 28be 7fda 61bd
000001f0: fc6b ccbb f628 2a3d a51b 62ba cb3b 033c
00000200: c6ec 533c a038 243e dacd dfbc d1f4 0d3e
00000210: cbe4 ddbb ccfa 1d3e e328 323e 22d3 46be
00000220: d31a ed3b ecea c73c 542c 63bd 2921 27be
00000230: bff2 bebb 2305 f3bd 2b40 3c3e 789e 18bd
00000240: 30c5 03bd cd9e 533d b2dd 6c3b a2d3 4a3d
00000250: 6ba8 d4bd 0c52 d63d ad37 033d 869e 2ebd
00000260: a275 34bd 47fc 0fbc ca16 2c3d d434 c23d
00000270: 402b 29bd 6785 ae3d 9a9d 50be 7763 853c
00000280: bfbb 0a3e 0941 82bd 9b29 f23d 3f77 87bd
00000290: 7769 c93d 8806 18bc bf64 12be b8ad 183d
000002a0: ac2c 023d 19a8 103d 41e6 4cbc dacf 9fbd
000002b0: f3d9 483e b5ea ffbc e114 62bb b4c1 ecbd
000002c0: 13e9 e23c 39a2 e8bd 47d0 98bd 8ceb cc3d
000002d0: 7a08 70bc 5e3f 843c 3a62 8e3d 66fc c9ba
000002e0: abf4 d13d 4a67 b9bd 36b8 ce3c 49a8 8d3d
000002f0: 8bc1 5a3d 52d5 c9bb 9905 9abd 4648 54bd
00000300: d93c 51bd 08fb 69be ab7e c5bc 6751 a93d
00000310: fccf 57bd f7ce a3bc e858 f43b 0db0 ad3c
00000320: 49c6 593c 86a6 80bd 36cd 583d 89b0 ac3c
00000330: 4cdb be3d e2b2 a23d 5645 61bd cca5 0b3e
00000340: 8747 9dbc 8ffe 823d a7d1 13bd 3354 8e3a
00000350: a3b5 5e3d 24dc 1b3c f0cc 0f3e 8f64 15bd
00000360: 287e f9bc 5c3c 013e 9a2f 09be b1dc 68bd
00000370: 4980 3c3d dc87 d63d 36c0 d3ba bd93 b6bd
00000380: 3803 1c3d 4e97 c7bd a353 b6bd eba3 d73d
00000390: 7c3c a5be 20b9 15be d265 7c3d 4847 f9bd
000003a0: 9914 1ebe a644 0b3c ea43 06be 5622 933d
000003b0: f492 613d 2e04 4a3d 7dd6 853d 4b39 06be
000003c0: 8e6d 43bd b492 37be e114 8a3d e3b0 e6bb
000003d0: 0a77 3abd f6c5 0c3e a420 243e 9a5f a3bd
000003e0: e05b 483d ef12 313e 2138 b9bc f4f5 54bd
000003f0: ee35 d5bc 927c 4fbc 955c 073c 1e61 0abe
-0.1325167 -0.1582151 0.011399752 0.04888574 0.07057046 0.035091028 -0.025511293 -0.0020054688
0.014390867 0.083853185 -0.040415525 -0.14651053 -0.16921566 -0.09394304 -0.12473386 0.09171312
0.11342757 -0.07810244 -0.034013685 -0.056100585 -0.12524095 0.121459074 0.06863207 -0.029417925
0.11311062 -0.08324922 -0.05638565 -0.056785952 0.007844563 -0.041639533 0.096862115 -0.10740682
0.09387665 0.026975619 -0.0036193053 -0.04516258 0.06989729 -0.07354375 0.044299427 -0.06207242
0.0688737 0.050315313 -0.05500454 -0.08978366 -0.13921995 0.09990802 0.14843905 -0.07357712
0.073078364 0.040642038 -0.013100733 -0.014163533 -0.011553482 -0.019037878 -0.065381244 -0.097288296
0.0076336665 -0.030983424 -0.03846799 0.028155454 -0.08444519 0.03538349 0.035037775 0.048299193
-0.023398018 0.005674749 -0.07783546 0.02599952 -0.11673409 0.05432465 0.030681958 -0.014734356
-0.12260722 0.07428437 0.031052671 0.011560455 -0.055015884 -0.029341673 -0.008068599 -0.03740418
-0.19231296 -0.08838956 0.011778735 0.015488887 0.008356705 -0.17544967 -0.009734079 0.010490996
-0.07612929 0.05664895 -0.02419098 -0.06659739 -0.123665914 0.072291225 0.019521164 -0.02305178
0.11269926 -0.095280915 0.1306946 -0.023603166 -0.034179643 -0.021046376 0.07937473 0.11977573
0.10374755 -0.014858021 -0.08098034 0.03886215 -0.006189171 0.09743691 -0.12659848 -0.10934619
-0.07659336 0.04680854 0.0076821395 0.033777017 0.014667706 0.058135323 -0.15007228 0.034826916
0.055228446 -0.097439855 -0.16460937 -0.055140015 -0.0062384587 0.04154297 -0.0008625335 0.008009861
0.012934869 0.16037226 -0.027319837 0.13862921 -0.006771659 0.15427703 0.1739841 -0.19416478
0.0072358637 0.024404012 -0.055462196 -0.16321243 -0.0058272774 -0.11866214 0.18383853 -0.037260503
-0.032170475 0.051665116 0.0036142883 0.049518235 -0.10383686 0.10464868 0.03203552 -0.04263165
-0.044057496 -0.008788175 0.04201392 0.094827324 -0.041301012 0.08521538 -0.2037262 0.01628278
0.13548182 -0.06360061 0.11824342 -0.06614541 0.09834569 -0.009278901 -0.14296244 0.037275046
0.031780884 0.03531656 -0.012506069 -0.078033164 0.19614391 -0.031239847 -0.0034497308 -0.115603834
0.02769903 -0.113590665 -0.07461601 0.100058645 -0.0146504585 0.016143497 0.06952329 -0.0015410304
0.10251745 -0.09052904 0.025234323 0.069168635 0.053407233 -0.006159463 -0.07520599 -0.051826738
-0.05108342 -0.22849667 -0.024108252 0.082674794 -0.052688584 -0.01999615 0.0074568875 0.021202112
0.013291904 -0.06281762 0.05293008 0.021080272 0.09319171 0.079442754 -0.054997765 0.13637465
-0.019199146 0.063962094 -0.036088612 0.0010858834 0.05437244 0.009512935 0.14043021 -0.036472853
-0.030455664 0.12620682 -0.13397065 -0.056851093 0.04602078 0.10475132 -0.0016155306 -0.089148976
0.038089007 -0.09745656 -0.08902671 0.10529312 -0.32272708 -0.14621401 0.06162054 -0.12171799
-0.15437545 0.008500254 -0.13111845 0.071842834 0.055071786 0.049320392 0.06535051 -0.13107793
-0.0477119 -0.17927057 0.067422636 -0.0070401295 -0.04552368 0.13747391 0.16028076 -0.07977219
0.048915744 0.17292379 -0.022609772 -0.05199237 -0.026026692 -0.012663977 0.008261819 -0.1351361

fc2.bias f4 [128]
00000000: c0c1 083e 4116 103d 5065 29bd d65a 773d
00000010: cc72 cf3c a68d 843d 7c12 3a3d 3831 9fbd
00000020: e670 083d e4f0 933d 963e 193d ed74 993d
00000030: 5001 03bd c2c7 5f3c 47d9 2bbc 9d9e 933c
00000040: 1f1b 97bd 957a f53c 7456 b5bc 71c9 dcbb
00000050: 3204 61bc cf60 ab3c fcf4 6f3c c552 1a3d
00000060: 7019 ef3d 8746 4c3c e8b9 22bd ae7d 4b3d
00000070: 2030 2d3d 7b75 3a3d 3a4a 203d ec58 853d
00000080: 8ff9 3ebc 111d d6ba 6b5b b5bc 84f3 1b3c
00000090: 2f0b f43c 782d c1ba cd98 76ba 7f95 34bd
000000a0: 0ff0 603d 191d 793d 57cf 0d3d 8e57 ac3d
000000b0: d235 b83d 538e 13bd 8823 debb 8b1a 933d
000000c0: cc1e 10bd a656 0fbc 39d4 aebc 9446 23bc
000000d0: ff24 b3bc 617c be3c 79ae 50bc 1f52 9d3d
000000e0: e96e 293d b439 d73c 667d 103b 9055 863d
000000f0: 720b 363c 9ab5 02bb 6dd7 1ebc 80f6 393c
00000100: 0067 563d 8402 c03d 56fa 40bc 44be e2bb
00000110: 8ab8 eebc 5dc9 703d ace3 0f3d 8833 0abd
00000120: 2266 573d 7b95 403c 7180 eb3c 0808 403d
00000130: 338c 21bd 1e28 8b3d 0ff5 fabb d330 2dbc
00000140: 0a09 b03c aa82 8bbc 8bf5 36bb b05b 79bb
00000150: 86ec d83b d9c1 123d bc2a c7bb 2172 cebc
00000160: e16f c73d e5cf 96bc 75fe ad3d 1d02 cb3d
00000170: 385b 4f3d 7d28 c5bc 4c21 2a3d 5a3e 4b3d
00000180: 041a 983d 99c5 b5bb 0d6c 343d fad1 563d
00000190: 17fb 403d 07e0 363d c51a 0bbd b1b5 653d
000001a0: 897b 58bc 939f a0bc 11a0 21bc 0e6b 1b3d
000001b0: 6d8f ce3c 66d7 4a3d 773d 0cbd 61ed c0bc
000001c0: e808 b4bb 812c 9b3d 0b95 573d 8df5 343d
000001d0: 7b95 3e3a 08c8 63bc efb5 2f3d 188b 393c
000001e0: c2a5 4b3d 29d2 9b3d 24c3 493d 0e7c fdbb
000001f0: f4b6 273d 369f 3b3d 175c 4c3d 0c6b 2cbc
0.1335516 0.035177473 -0.041356385 0.060389362 0.025323294 0.0647233 0.045427784 -0.077730596
0.033310793 0.072236806 0.037413202 0.07493005 -0.031983674 0.013658466 -0.010488815 0.018019969
-0.0737822 0.029965678 -0.02213595 -0.006737881 -0.01373391 0.020920185 0.014645811 0.03767659
0.11674774 0.012467987 -0.039728075 0.049680404 0.042282224 0.045522194 0.039133288 0.06511101
-0.011656179 -0.0016335567 -0.022138318 0.009518508 0.029790489 -0.0014738282 -0.00094069244 -0.044087883
0.054916438 0.060818765 0.034621563 0.08415137 0.089946404 -0.036024403 -0.006779138 0.07182797
-0.03518562 -0.008748686 -0.02134143 -0.009965558 -0.021868227 0.023252668 -0.01273691 0.07681679
0.041365538 0.026272632 0.00220474 0.065592885 0.011111127 -0.0019944669 -0.009694916 0.011350274
0.052344322 0.0937548 -0.011778435 -0.006919654 -0.02914073 0.058785785 0.035129234 -0.03374055
0.052587636 0.011754389 0.02874777 0.04688266 -0.039440345 0.06794761 -0.007658608 -0.010570723
0.021488685 -0.017030079 -0.002791735 -0.0038049035 0.0066199927 0.0358294 -0.0060780924 -0.025200905
0.09738136 -0.018409679 0.084957995 0.099125125 0.050624102 -0.024067158 0.04153566 0.04962001
0.07426837 -0.005547237 0.044048358 0.052446343 0.047114458 0.044647243 -0.033961076 0.056081478
-0.013213047 -0.01960734 -0.009864823 0.037943892 0.025214875 0.049521826 -0.034238305 -0.023550691
-0.005494226 0.07576848 0.052632373 0.044179488 0.0007270199 -0.013902672 0.042898115 0.011324666
0.049718626 0.07608444 0.049258366 -0.0077357357 0.040945962 0.045806132 0.04989251 -0.010523569

fc3.weight f4 [2, 128]
00000000: 0a8e c03d a282 553c cbd9 3e3c 2a6e dd3d
00000010: 4ee2 6f3d 423f d0bd 0962 dbbd 47de adbd
00000020: b29f 3c3d 6753 893d 05f8 49be 355a cd3d
00000030: dca2 8ebd 1704 fabd 47d0 d1bd 7e19 3d3e
00000040: a386 80bd 93e7 26be 2440 bdbd 8ade 9d3d
00000050: 4299 70bc cb57 843e bc76 04be f604 4e3d
00000060: cebe 0d3d 8c53 c83d 916a 51bc 36fb 003d
00000070: 1176 0f3e c577 c93c 6218 14bd 33ea adbd
00000080: 6543 1a3e 0f2d 3e3e 3467 eebd 8ff5 9e3c
00000090: 45b5 a23b 5b88 3dbe aa97 e8bd 57f2 86bd
000000a0: eb8a 39bd 88e4 29be de79 c1bd 0659 3b3d
000000b0: df10 92bd e70e e3bd 7f84 963d eb54 4f3e
000000c0: 35d4 04be ccc4 9c3d 0351 9f3d 1c66 463e
000000d0: d24c 8abd 53b5 0c3e 6dba dabd 3b0b fe3d
000000e0: 7fb9 cb3d c331 53be dba2 36be f509 c23d
000000f0: 32f4 913d a56e 103e 2fad bc3d 4a88 703e
00000100: 1e05 a73d ff6a 473e 4887 b3bd 9279 8fbd
00000110: 8797 3fbe d1d2 e63d 7ef2 323d 93ce 3ebd
00000120: a5ba 003e 7d11 52be ce14 5bbe 1d3d 8bbd
00000130: 1113 81be 294b b0bd d7d1 543e 561b a73d
00000140: 744b 943d 56cc 04be 1677 0cbe 7849 2f3e
00000150: 6bd2 c7be ba23 c03d 80dc 903e 80e6 733c
00000160: 1242 84bc 26db bd3d 1606 4fbd 78e7 6a3e
00000170: 2fc3 70be 0cb3 08be ad39 ad3d 32b7 4f3e
00000180: ff9a d73d 38e5 39be 35e9 c43d f53c a53e
00000190: 6934 1e3e d3cd e83d 8000 a6bd 2812 9b3d
000001a0: 8e49 1f3e b0b8 21be a87b 15be 9a55 943d
000001b0: a9b0 d03d 703f 063e db44 7dbd 109b 07be
000001c0: abc3 9fbc 9fa0 03be 0a05 1dbe c683 1dbe
000001d0: 864a 073e 5f31 9d3d efe6 6fbd e142 f3bc
000001e0: c33e 0abe bcee ab3d 529e d7bd 098a e9bd
000001f0: 5615 633e 9bec 36be 5690 cdbd 4110 f1bd
00000200: 6a8b 04be 9d8c a73e f867 983e a2da 60bd
00000210: 1b9a 8abd 5626 12be 8d26 debd ba00 b43c
00000220: 4e76 8a3e e3a9 f1bb 7160 203e f29c 58bd
00000230: b4ce 663d f834 edbd 45af 9ebd 1c77 a1bc
00000240: 3d53 de3e fd70 173e b05c 1e3e 86da 273c
00000250: 575b 3d3e c630 a6bd 00e1 05bd f253 143e
00000260: 81b1 0bbe c04e d0bd 6d7c 833e 600f 8f3e
00000270: 21e2 683e 1e18 803e 3372 e5bd 5110 febd
00000280: c030 90bc 9989 5b3d 2226 763e 8eb3 58be
00000290: 0e58 673e 30e0 b53e 0f9e c63d 5372 1d3e
000002a0: b7c9 3f3e 5fd7 803e e1d4 153e ae28 fdbd
000002b0: a51a 8a3e 2950 403e eddb 14bd ba8e 6a3d
000002c0: 350a 053e ecfb 31bb fe2e 88bc db54 a83e
000002d0: 179c 8c3e 6c47 3f3c 3e4b ef3d bda0 3abd
000002e0: eb5b 46bb 4e76 c2be 997b c23e 6f69 943d
000002f0: 8345 b5bc a886 323e c5e0 b9bb 8b65 823e
00000300: b16b 3bbd 3e3c 333e f6be 51bc 4ed4 ea3d
00000310: cf90 d23d 9194 78bd 3f6c 463d 36b3 2c3e
00000320: 4952 f73e f2fb ab3e 3638 e5bb b4ea 343e
00000330: fbb3 3b3e 8460 0cbe 1fed d93e 27c8 1e3e
00000340: e82e 3b3e fa05 1e3e 15f0 39bd f041 463d
00000350: 3044 993e 5c9e b239 87ed 413e f2f8 993e
00000360: 1327 823e 9224 cebc 8cb9 00be 4c81 16be
00000370: 060d 8ebe b819 263e 6f1b ddbc 5c48 d33d
00000380: a80e ab3c 180c b83e 3e4d 3f3e 10ff 8b3c
00000390: fd23 0a3e 76f2 5b3d 315a bf3d fc3d 9f3d
000003a0: fc76 1d3e 5262 acbc 2de0 413d 4d24 c13d
000003b0: 788d e23d f2b0 7d3d 2003 bf3e bd69 033e
000003c0: 87ac 513e f155 31be dab1 fdbd 78de 843e
000003d0: 1549 54bc de16 823d b53c 2f3e 149b 763e
000003e0: 8684 3e3e dfbf 913d 2b4f 63bd 19fd 0abd
000003f0: 37d7 19be b4af c23d bd12 97bd efa0 70bd
0.09402092 0.013031634 0.011648606 0.10812028 0.05856543 -0.101683155 -0.10712058 -0.08489662
0.046050735 0.06705361 -0.19723518 0.10026971 -0.06964657 -0.12207811 -0.10244804 0.18466756
-0.0627568 -0.16299276 -0.092407495 0.077084616 -0.014684977 0.2584823 -0.12935919 0.0502977
0.034605794 0.0978156 -0.012781755 0.031489573 0.14009883 0.024593243 -0.036156066 -0.084919356
0.15064771 0.18571876 -0.11640778 0.0194042 0.0049654567 -0.18509047 -0.113570526 -0.065891914
-0.045298498 -0.16591084 -0.094470724 0.045739196 -0.07132124 -0.11086827 0.073494904 0.20247237
-0.12971576 0.076547235 0.07779124 0.19374889 -0.067529336 0.13741045 -0.10680089 0.12404486
0.0994749 -0.20624451 -0.17835562 0.094745554 0.07126655 0.14104708 0.0921272 0.2348949
0.08155273 0.1947441 -0.08766037 -0.070056096 -0.18710147 0.11270679 0.04368829 -0.046583723
0.12571199 -0.20514484 -0.21394655 -0.06798766 -0.2520986 -0.08608086 0.20783173 0.08159511
0.07240954 -0.12968573 -0.13717303 0.1711787 -0.39027724 0.09381814 0.28293228 0.014886498
-0.016144786 0.09270315 -0.050542913 0.22939861 -0.23511957 -0.13349551 0.084582664 0.20284727
0.1052761 -0.18153846 0.09614793 0.3227307 0.1544968 0.11367383 -0.08105564 0.075718224
0.15555403 -0.15793109 -0.14597952 0.0724289 0.10189945 0.13110137 -0.061833244 -0.13242745
-0.019502481 -0.12854241 -0.15333953 -0.15382299 0.13212022 0.076754324 -0.058569845 -0.029694976
-0.13500504 0.08395144 -0.10528244 -0.11403281 0.22176108 -0.17863695 -0.100372955 -0.11770678
-0.12943807 0.32724467 0.29766822 -0.054896004 -0.067676745 -0.14272436 -0.10847197 0.021973003
0.27043384 -0.0073749884 0.1566179 -0.05288405 0.05634947 -0.115823686 -0.07748274 -0.019710116
0.4342288 0.14789195 0.15465045 0.010244971 0.18491875 -0.081147715 -0.03268528 0.14485148
-0.13641931 -0.1017127 0.25680867 0.27941418 0.22742511 0.250184 -0.112034224 -0.12405456
-0.01760137 0.05359802 0.24037984 -0.21162245 0.22592184 0.35522604 0.09698116 0.15375642
0.18729292 0.25164315 0.14631988 -0.12361275 0.26973453 0.18780579 -0.03634255 0.05726502
0.12992175 -0.0027158214 -0.01662397 0.3287724 0.27462837 0.011674743 0.11684273 -0.04556345
-0.003026719 -0.37980884 0.37984923 0.07246672 -0.022127872 0.1743418 -0.0056725466 0.25468096
-0.045757 0.1750345 -0.012801876 0.11466275 0.10281526 -0.06068856 0.048443075 0.16865239
0.48304966 0.33590657 -0.0069952263 0.17667657 0.18330376 -0.13708693 0.42563722 0.1550604
0.18279612 0.15431967 -0.045394976 0.048402727 0.29934835 0.00034068793 0.18938266 0.30072743
0.25420436 -0.025163922 -0.1257078 -0.1469776 -0.2774431 0.16220748 -0.02699062 0.10316536
0.020881012 0.35946727 0.1868181 0.017089397 0.13490291 0.053698026 0.093433745 0.077754945
0.1537742 -0.021042977 0.04733293 0.09430752 0.11062139 0.061936326 0.37307072 0.12833305
0.2047597 -0.1731794 -0.12387438 0.2595098 -0.012956877 0.06352018 0.17113002 0.24082595
0.18605241 0.07116675 -0.055495422 -0.03393278 -0.15023504 0.09506169 -0.07376621 -0.05874723

fc3.bias f4 [2]
00000000: 4ab9 643c 163d 613c
0.013960192 0.013747474
