checkpoint_actor.pth (torch_old, 159204 bytes, 6 tensors)

fc1.weight f4 [256, 24]
000000 76 6d 88 3d 88 6a e8 bd ca 1a a5 3c e2 64 60 3d
       0.06661503 -0.11348444 0.020154376 0.05478371
000010 31 66 ea bc be 81 a3 3c 80 55 ca 3c 92 f4 06 3e
       -0.028613182 0.019959327 0.024698973 0.13179234
000020 bd 1d 4e 3d 27 76 79 bd b8 b1 8d 3c 41 b0 a6 3d
       0.05032133 -0.060903694 0.017296657 0.081390865
000030 f6 0e 96 3d a2 56 75 3c 7e 83 a2 3d 4d d1 09 3e
       0.07327072 0.014974268 0.079352364 0.13458748
000040 74 c7 27 3c f9 6e 87 bd 0f 3b 46 bd 34 7e 63 3e
       0.010240424 -0.06612963 -0.048396166 0.22216111
000050 10 0c b9 3d 23 57 d2 39 4d 54 8b 3c a7 3d 35 3e
       0.09035504 0.00040119243 0.017007971 0.176993
000060 57 05 43 3c d9 2a 4c bd 81 29 1e bd d2 eb 18 3e
       0.011903129 -0.04984555 -0.0386138 0.14933708
000070 46 4f 90 bd 48 2d b9 ba e2 8c f6 bc b3 bf 67 3d
       -0.0704637 -0.0014127875 -0.030096475 0.056579303
000080 cc b3 32 3c 5c 85 b9 bd dd 7c 11 3d 8e 9c e2 bb
       0.010907125 -0.090586394 0.03551947 -0.0069156354
000090 d4 0e 1b be e1 6f e2 b9 1f fb 42 bc 17 1e 4e 3b
       -0.15142375 -0.00043189435 -0.011900692 0.003145104
0000a0 ce 37 8b 3c 45 cb ec bd c8 8f c0 bc 83 66 1b 3e
       0.016994383 -0.11562208 -0.02350606 0.15175824
0000b0 ef f1 ac bd d1 2e aa 3d 34 d4 b1 3c 72 54 e8 3d
       -0.08444583 0.08309711 0.021707632 0.11344232
0000c0 07 b8 e3 bd df 75 15 3d 03 18 69 3c c9 ae cf 3d
       -0.11119085 0.036489364 0.014226916 0.101407595
0000d0 f2 36 68 bd bf a2 b5 3d db 5d 8c bd e6 59 42 3d
       -0.056693025 0.08868932 -0.06853839 0.047449015
0000e0 49 f6 b0 bc f4 b8 e2 3d a4 70 1b bd 00 d2 a0 3c
       -0.021601813 0.11070433 -0.03794922 0.019631386
0000f0 4c 3f 8e 3b f5 7e d1 3c 20 ba 99 bc 1a a8 21 3d
       0.0043410417 0.025573233 -0.01876551 0.039466955
000100 81 16 a3 bc 3a 8a 7d 3d 18 33 cd bd cd 5f 07 3c
       -0.019908192 0.0618994 -0.10019511 0.008262587
000110 f4 4e df bc 45 44 00 3d 48 6d 5c bd 6a c6 aa 3d
       -0.027259327 0.031315107 -0.053815156 0.08338626
000120 a9 fc 42 bd 18 d1 1a bd 2e 23 f8 3c 71 4d be bd
       -0.047604237 -0.037797064 0.030290212 -0.092921145
000130 62 d3 a5 3d cd ac 87 bc 08 a2 5d 3d ad 8e cc bd
       0.08096959 -0.01656189 0.054109603 -0.09988151
000140 6b a4 85 bd 80 25 c3 bd b9 98 e6 3c 6f 36 87 3c
       -0.06525501 -0.09528637 0.028148996 0.016505448
000150 68 e7 00 3e 7e ea b3 bc 1f 64 88 3d 68 f1 b4 3d
       0.12588274 -0.0219624 0.066597216 0.08835107
000160 6b 4a f1 3b 89 05 8e bc e0 c4 49 bd 35 c6 21 3e
       0.0073636076 -0.017336624 -0.04926002 0.15798266
000170 33 fa 20 3e 67 19 75 3d fc 6b 41 3d 9d 0a 40 3e
       0.15720443 0.05983868 0.047222123 0.18754049
000180 71 54 0c bd eb c8 c7 bd ac b3 8c 3d 3f 81 f1 bc
       -0.034260217 -0.09755119 0.06870207 -0.029480575
000190 b1 70 2d bc ec 63 94 bc 3d b9 17 bd b8 50 d0 bd
       -0.01058595 -0.018114053 -0.03704189 -0.10171646
0001a0 ed a7 19 bd 11 d9 3e bd c4 d6 53 3d 2c b4 c6 bd
       -0.037513662 -0.04659373 0.05171849 -0.09702334
0001b0 2f 2d 1a 3d e5 73 28 3d be f0 96 3d 4d 69 f3 bc
       0.037640747 0.04112615 0.07370137 -0.029713297
0001c0 32 e3 7e 3c 17 14 8d bd b1 f5 94 3b 72 f5 aa bd
       0.015557097 -0.068885975 0.0045458903 -0.08347596
0001d0 72 3f aa bd dc c6 c0 3d 5f e7 30 3d 06 66 79 bc
       -0.083128825 0.094129294 0.043189403 -0.015222078
0001e0 6d d5 b9 bc 05 51 15 3e de dd 8f bd d1 d5 f8 bd
       -0.022684777 0.14581688 -0.0702474 -0.12150157
0001f0 59 f5 41 3e 35 66 02 bc 28 81 02 3c a9 80 d3 bd
       0.18941249 -0.007958938 0.007965364 -0.10327274
000200 bf ca b4 bc 0c 47 11 3e 32 e4 55 3d 9c 88 10 be
       -0.022069333 0.14187258 0.052219577 -0.14114612
000210 c5 cf 19 3d 74 0f 45 bd 1b 61 f5 3d d3 de eb bd
       0.03755166 -0.04811044 0.11981412 -0.1151711
000220 25 22 0b 3a 39 19 dd bb 8c 9a 11 3d a6 7a 7d bd
       0.0005307517 -0.0067473915 0.035547778 -0.061884545
000230 44 00 51 bc ae e7 1d 3d ae 5c 33 3d 88 63 b4 bd
       -0.012756411 0.038551025 0.043789558 -0.088080466
000240 2c bf 98 bd e7 ed ec bc c6 c1 00 bc 73 e3 af bd
       -0.07458338 -0.028922034 -0.007858699 -0.08588304
000250 13 a7 5f bb 45 a6 8d bd a3 77 a0 3c 19 83 6f 3b
       -0.0034126684 -0.06916479 0.019588297 0.0036546646
000260 9f 14 d2 3c 06 36 2d bd e3 06 f6 bc ce 7e 9b bc
       0.025644599 -0.04228785 -0.03003258 -0.018981364
000270 d8 2a ae bd cc 3b 03 bc a2 07 52 bd bb 0d 30 bc
       -0.085042655 -0.008009862 -0.05127681 -0.010745461
000280 4b f1 5f bd 4b 9a ac bd c7 57 7e 3d 4d 99 b3 3d
       -0.054673474 -0.084278665 0.06209543 0.08769474
000290 5b 29 2a bd 97 44 d7 bc 21 ee 75 3d dd 9a f2 3d
       -0.041543346 -0.026277823 0.06004155 0.11845944
0002a0 9a 6e 89 bd b8 34 8a bd 50 14 5a bd 56 b2 12 3d
       -0.06710549 -0.067483366 -0.053242028 0.035814606
0002b0 f3 ec ae 3c 33 52 12 bd c4 82 cf bc 21 cf 23 bc
       0.02135322 -0.035722923 -0.025330909 -0.009998114
0002c0 67 34 84 bd 2d 65 6c bc 23 3b 95 bd ff 5b 54 3d
       -0.064553075 -0.014428419 -0.0728667 0.051845547
0002d0 85 bb 62 bd 9d 0f bb 3c b9 88 73 bd 71 1b 73 3d
       -0.055354614 0.022834593 -0.05945656 0.059352342
0002e0 41 d4 b3 bc 83 61 fd 3b 88 b8 9c 3c 1b ab d4 3d
       -0.021951796 0.0077325716 0.01913096 0.10384198
0002f0 fd 3d a9 bd b8 90 87 3c 6f f2 c3 3d de c1 ac 3d
       -0.082637765 0.0165485 0.09567725 0.08435415
000300 5e 1d 9f bd 4a d4 25 bd ce 7a 85 3d d9 d0 51 3d
       -0.07769273 -0.040485658 0.06517564 0.051224563
000310 b2 55 84 3d e1 60 60 3d 28 81 8a 3d 42 da d3 3c
       0.064616576 0.05477989 0.06762916 0.02586091
000320 b2 32 01 bd d4 34 1e bc 6d b8 ad 3c c3 af 86 3d
       -0.031542487 -0.00965615 0.021206105 0.06576493
000330 71 44 1f 3e b1 d5 c0 3d d7 a7 29 3d 90 5b b9 3d
       0.15553452 0.094157584 0.04141983 0.09050667
000340 5a e7 16 3d 56 f6 f5 3b ae 62 2a 3d de e9 9f 3d
       0.036841728 0.007506172 0.041598015 0.078082785
000350 7d 9e 12 3e 3e 6c 92 3d d7 cc 13 bd 84 82 41 3c
       0.14318271 0.07149552 -0.036084022 0.0118109025
000360 f5 df 1a 3d 20 42 23 3e b7 ba 0b bd ea d1 1f 3e
       0.03781124 0.15943193 -0.034113612 0.1560742
000370 20 d2 fa bb 40 7b 78 3d a7 36 2d bd 1f d5 31 3e
       -0.0076544434 0.060664415 -0.04228845 0.17366455
000380 28 ea 44 bd cd c0 c2 3d ed 7f e1 3c 4d ab dc 3c
       -0.04807487 0.0950943 0.02752682 0.026937151
000390 60 a5 08 bd 98 5c 9e 3d 8e 57 91 bc 6b 9b 31 bd
       -0.03336084 0.077325046 -0.017741945 -0.04336111
0003a0 c5 7a 6d 3c f4 8d d2 3d 0a 2e e6 bd 24 1c 27 3d
       0.014494603 0.10280982 -0.1123925 0.04079832
0003b0 cb c1 43 bd c0 62 ad bc a2 f3 7c bc f0 76 70 3c
       -0.047792237 -0.021165252 -0.015438946 0.014676794
0003c0 5c 2a 8e bd c5 79 67 bd 10 56 53 bd 3d 8a ea bc
       -0.06941673 -0.056512613 -0.051595747 -0.02863037
0003d0 07 11 58 3d bf 42 0e 3e 6f 75 c0 bd d2 55 de 3c
       0.052750614 0.13892649 -0.09397399 0.027140532
0003e0 1a b6 ea 3b b3 d8 44 3d d1 8c a3 bd 53 92 18 3d
       0.0071628215 0.048058223 -0.07985843 0.03724892
0003f0 e2 29 f2 3d b3 c9 87 3b 05 44 f8 bd 84 91 70 3d
       0.11824395 0.0041439175 -0.12122349 0.058732525

fc1.bias f4 [256]
000000 3e 7b 8d bd 14 7e d0 3d c2 04 27 3e aa 39 12 3e
       -0.06908272 0.101802975 0.16310409 0.1427981
000010 71 72 77 bc 5c e8 2f be cd 47 36 be e8 4e 70 3c
       -0.015102969 -0.17178482 -0.17800827 0.01466725
000020 38 65 54 be 07 27 25 be 37 24 3f 3e b3 6c 33 bc
       -0.20741737 -0.16128169 0.18666159 -0.010951209
000030 29 a3 75 3d 5d 57 a7 bd 30 86 91 3c 0a 59 2b 3e
       0.059970055 -0.0817096 0.01776418 0.16733184
000040 52 1e 3c 3c cd c9 2e 3d 5c d7 6d bd 0d a2 f6 bd
       0.011481838 0.04267292 -0.05806671 -0.120426275
000050 44 bf ec 3d 4a 2e 0e be 0b 46 4d 3c bc 48 00 be
       0.115599185 -0.13884845 0.012528907 -0.12527746
000060 44 70 2d 3d 41 08 55 be c0 e0 af 3d 1d 45 ae 3d
       0.042343393 -0.2080393 0.085877895 0.08509276
000070 6c 49 1b be f6 45 fa bd b4 89 ad bd 9d cb 12 bd
       -0.15164727 -0.12220375 -0.084735304 -0.035838712
000080 13 69 8b ba be 4a aa 3d b2 93 b1 bd e5 46 83 3d
       -0.0010636173 0.08315037 -0.08670749 0.064100064
000090 ce 0c 13 be cd 29 6f 3e 96 ee 3a be 89 21 0e 3e
       -0.14360353 0.2335579 -0.18255076 0.1387998
0000a0 2f 28 0b be 65 e6 2f be 8d 0e b9 bc 83 6d e0 bd
       -0.13589548 -0.17177732 -0.022589946 -0.10958388
0000b0 6e 09 94 bd e4 a3 60 be 41 d7 2c bb 93 ab 0d be
       -0.07228361 -0.2193752 -0.0026373419 -0.13834982
0000c0 69 b2 83 3e ab 89 fd 3d e9 cd 8b bd fa 1a fc 3d
       0.25722054 0.12379774 -0.068263836 0.12309833
0000d0 8a cf b9 bd af 1b ec bd f6 bd c8 3d b5 c9 a2 bd
       -0.09072788 -0.11528718 0.09801857 -0.07948629
0000e0 84 bf 1a 3e a6 06 e1 bb bd 4f 56 be 27 86 44 3e
       0.1511212 -0.0068672476 -0.20928855 0.191918
0000f0 b1 5d 9c 3d 87 3d d8 3d d0 39 d4 bb 5d bb e0 bd
       0.07635058 0.105586104 -0.0064766183 -0.10973237
000100 ff 46 d6 3d c6 a0 2a bc 2a e0 27 be 8d ac 28 3e
       0.1046276 -0.010414308 -0.16394106 0.16472073
000110 9d 39 5a be e3 f4 1d be 63 08 9c bd e5 3f 5e be
       -0.2131104 -0.15425448 -0.07618787 -0.21704061
000120 03 e5 24 be b2 9a 60 bd 60 de 4a bd 0d 95 25 3e
       -0.16102986 -0.05483503 -0.04952848 0.1617014
000130 52 1e df 3d f0 a5 76 3e e8 fa e1 3c d9 83 bc bd
       0.10894455 0.24086738 0.027585462 -0.092048354
000140 18 ec 57 bd 18 ee 73 bd 73 a9 61 be 85 80 0a be
       -0.05271539 -0.059553236 -0.22037296 -0.13525589
000150 55 c5 0e 3e 8b d2 8e bd 8c c2 a7 bd f6 81 e6 3d
       0.13942464 -0.06973752 -0.08191404 0.11255257
000160 b2 a9 00 be e0 ee 5b 3d f8 97 9a 3c 5e ba e1 bc
       -0.12564734 0.053694606 0.018871292 -0.027554687
000170 c5 1c 14 bd 0d 14 11 3e a3 bb 1a be 5a 5b 3b be
       -0.03616025 0.14167805 -0.1511064 -0.18296567
000180 45 ed 12 3e 45 e4 bc bd 38 a2 4d 3e ff 57 a1 3d
       0.14348324 -0.092232265 0.20081413 0.07878112
000190 5e 47 04 3e 76 58 d0 3a 43 cf a0 3d 4f 53 b2 3a
       0.1291785 0.0015895504 0.07852032 0.001360515
0001a0 75 bc 88 bc fe f3 0e 3e 06 94 09 3e ef ee ff 3d
       -0.016691426 0.13960263 0.13435373 0.12496745
0001b0 a5 d5 c1 3d 9c 4d 19 bd 9c 2f 0c be e4 b3 be bd
       0.094645776 -0.03742753 -0.13690037 -0.09311655
0001c0 67 aa c0 bd 84 ef 6a be 1a 1b 21 bd 26 38 f5 3d
       -0.09407502 -0.2294293 -0.039332487 0.119736
0001d0 ae 8c 30 3e b8 6e 6b be 71 d6 35 be 35 4c 57 3e
       0.17241165 -0.22991455 -0.17757584 0.21025164
0001e0 5f 0b b2 bb cf 6d 81 3c a7 16 2f 3e 37 1e 4f 3e
       -0.0054334844 0.015799431 0.17098485 0.2022637
0001f0 e1 80 18 3e 7a 4f dd 3d 73 17 03 3c 7e c5 c5 bc
       0.14892913 0.108061746 0.008001196 -0.024142023
000200 58 fe a9 3d 38 b2 1e be 50 bc 17 be af 13 14 3e
       0.08300465 -0.15497673 -0.1481793 0.14460634
000210 ca 9c 66 be 35 cc 38 3e f4 7c 4d 3e 01 ae 18 3e
       -0.22520748 0.18046649 0.20067197 0.14910127
000220 3c 00 74 3d d2 32 86 3d 81 d9 22 3e 37 0d 07 3e
       0.059570536 0.06552662 0.15903284 0.13188635
000230 ec 57 bc 3d 0d ce 39 be 3d 34 2c 3e 53 41 8c 3d
       0.09196457 -0.18145008 0.16816802 0.06848397
000240 c7 9b c6 3d 73 9f 08 be ea a3 41 bd 29 c4 85 bd
       0.09697681 -0.13342075 -0.04727546 -0.06531555
000250 ca a8 0e bd 78 4c 79 3e a3 00 4d 3d d0 fe 4f 3e
       -0.03482894 0.24345577 0.050049435 0.20312047
000260 d9 57 41 3e a4 63 11 be 66 7e 43 3e de 1a 39 3d
       0.18881167 -0.14198166 0.19091186 0.04519164
000270 bd 90 4a 3e 1c de 00 3d 40 17 88 bd b7 93 51 3e
       0.19781776 0.03146182 -0.066450596 0.20466505
000280 9b ba 10 be 4a d3 69 3d 16 64 28 3c e5 34 2c bc
       -0.14133684 0.057086267 0.010277769 -0.010510658
000290 21 5c 2f bd 16 f9 59 3e 76 de af bc a7 90 85 3d
       -0.04281247 0.21286425 -0.021468382 0.06521731
0002a0 ef 20 eb 3d e9 7d 48 3e 4e 76 f6 3c ee 30 71 be
       0.11480891 0.19579281 0.030085709 -0.23553821
0002b0 c4 57 52 be 74 23 1f be ad df 27 be 06 c1 44 be
       -0.20541292 -0.15540868 -0.1639392 -0.19214258
0002c0 46 2c 9b bc 33 04 42 3e d2 35 11 be da ed cc 3d
       -0.01894201 0.18946914 -0.14180687 0.10006304
0002d0 f3 4c 71 bd 8a 2e 56 3e 64 c4 fe 3d 9d ca 29 3e
       -0.058911275 0.2091619 0.12439802 0.16581197
0002e0 8b 2d 71 3e 9c 7b 4e be 09 32 37 be bf da 0a bd
       0.2355253 -0.2016434 -0.1789018 -0.03390002
0002f0 15 0f b6 3d bb 9c 59 3e 64 27 18 3e 1a b6 b5 3d
       0.088895954 0.21251194 0.14858776 0.08872624
000300 4b 55 ad bd 14 62 c8 bc 44 08 5f 3e 5e 65 26 be
       -0.08463534 -0.02446083 0.21780497 -0.16249606
000310 e8 83 f5 bd 71 59 22 3d f2 81 54 3e fa 0c ec 3d
       -0.1198805 0.03963608 0.20752695 0.115259126
000320 5a fe 2d bc 7e 9d 89 3d c7 7f bf bc a4 3a a3 bd
       -0.010619724 0.067194924 -0.023376359 -0.07970169
000330 97 59 77 3e 51 35 89 3e 13 34 7a bd a2 37 49 3e
       0.2415527 0.2679849 -0.061084818 0.19650128
000340 08 88 31 bd d5 57 2c be 69 71 b6 3d 71 dc 09 bd
       -0.04334262 -0.1683038 0.0890835 -0.033657495
000350 f7 a6 4a 3e 2b ad 0f 3d 67 ff 6e bd 27 3a 4b be
       0.19790255 0.035077255 -0.05834904 -0.19846402
000360 55 05 36 3e c9 ad 55 3e 3c 2f 96 3d d4 22 f1 bb
       0.17775472 0.20867075 0.07333228 -0.007358888
000370 2d 9c b4 bb 9a 1f b1 3b 70 34 6a 3e 21 5b 42 3d
       -0.0055117817 0.0054053785 0.22871566 0.04745019
000380 6d 05 74 bc ae 4c 17 be bb ed 0a 3e 4f a8 aa bc
       -0.014893872 -0.14775345 0.1356725 -0.020832209
000390 32 46 5a 3d 9e ed 6c bd c2 69 3a 3e ab 9c 0a 3e
       0.0532896 -0.057843797 0.18204406 0.13536327
0003a0 de fd 62 bd 6b 39 a7 bd 58 44 f8 3d 13 4b ac 3d
       -0.055417888 -0.081652485 0.121224105 0.08412757
0003b0 e5 7c ed bd f1 de 11 3e a7 e0 48 bc 8b eb 45 3e
       -0.11596087 0.14245202 -0.012260593 0.19328134
0003c0 60 18 a6 3a b4 a1 24 be 80 fa 09 3e ee f7 6a bc
       0.0012672059 -0.1607731 0.13474464 -0.014341338
0003d0 56 14 9c bd fc c6 0f 3e a3 45 8a bc 18 04 cf bd
       -0.07621066 0.1404075 -0.016878909 -0.10108203
0003e0 02 6a 8e 3c 28 4b 05 be 7d e1 89 bd b3 0a 00 be
       0.017384533 -0.13016951 -0.067324616 -0.12504081
0003f0 1e 9b 22 3e aa 9c 69 3e 50 a4 01 be ad 7c 2b 3e
       0.15879485 0.22813669 -0.12660336 0.16746779

fc2.weight f4 [128, 256]
000000 eb d4 00 bd 66 e5 03 bd ad 6f 06 3e 38 32 45 3c
       -0.031453054 -0.032201193 0.13128538 0.012035899
000010 40 bf 84 3d 5e b7 f8 3b c9 2b 2b 3d ff 5c 35 3b
       0.064817905 0.0075902184 0.041789804 0.0027673838
000020 37 aa 0d 3c bf 4a 77 3d f6 b5 ac bc 18 6d 82 bc
       0.008646539 0.060374018 -0.02108286 -0.01592116
000030 27 6d b4 bd 69 33 42 bd 68 10 0e 3e 81 85 38 3d
       -0.08809882 -0.04741231 0.13873446 0.045049194
000040 6c b8 5b 3d 92 a4 e1 bc 8a 1d 14 bd 2e ea 13 3c
       0.053642675 -0.027544294 -0.036160983 0.009028001
000050 75 e4 22 bc 0c 88 01 3e f2 35 71 3c 17 9c 97 bd
       -0.009942164 0.12649554 0.014722334 -0.07402819
000060 72 71 a3 bc 51 f5 87 bb 97 f5 ee 3c 64 be 07 bc
       -0.019951556 -0.004149117 0.02916984 -0.008285139
000070 19 ea 67 bd 0e 23 1c bb 2d 37 e6 3d d6 a5 09 be
       -0.056619737 -0.0023824605 0.11240993 -0.13442168
000080 96 b8 16 3d af 70 10 3d b9 96 ac 3d 72 aa 0a bc
       0.03679713 0.035263713 0.084271856 -0.008463489
000090 bd 57 6b bc ec ae 2c bd 05 bb 82 3c 42 57 21 3e
       -0.01436418 -0.042159006 0.015958318 0.15755942
0000a0 f3 ec bf 3d f4 cf b0 bd f8 e9 8e 3d de 61 19 be
       0.09371366 -0.08633414 0.0697822 -0.1497874
0000b0 9b 9f b4 3d 00 8f 30 bd 5d a5 01 3e a3 90 8f bd
       0.08819505 -0.043105125 0.12660737 -0.07010009
0000c0 67 0f 97 3d 99 13 04 bd 31 59 fd 3b 81 d9 4c bd
       0.07375985 -0.032245252 0.0077315797 -0.050012115
0000d0 08 e3 de bc 3f d9 82 ba 51 bf 49 3d 4f d1 38 3d
       -0.027207866 -0.0009982957 0.04925472 0.045121487
0000e0 43 fb 32 3d 98 b1 e8 3b 45 de a7 bd fc 37 b9 bb
       0.043696653 0.007101249 -0.081966914 -0.005652426
0000f0 ab c8 64 bc fd 57 82 3d d1 9d 50 3d 26 0f ae bd
       -0.013963859 0.06364439 0.050931755 -0.08498983
000100 4e 5c ea bd cf 1e 0b 3a 2d 85 29 bd 4e ea 75 3d
       -0.11443387 0.000530702 -0.041386772 0.060037903
000110 8b be 1f bc e1 c6 5b 3d bc 32 50 3d f7 5f 0e bc
       -0.009750019 0.053656463 0.050829634 -0.008689872
000120 2a ec dd bd e5 62 ed 3c d3 18 9a 3d a9 b6 15 3c
       -0.1083606 0.02897782 0.07524266 0.009137788
000130 f6 d6 cd bd 80 14 18 3d 7c b4 e0 3c a6 fc f7 3d
       -0.10050766 0.037128925 0.027429812 0.12108736
000140 48 b1 53 bd 5d 08 ab bd e4 1d 9d bc e4 1a 7f 3d
       -0.05168274 -0.083512045 -0.019179292 0.062281504
000150 e1 b6 c9 3d e8 1e 83 bd 69 46 50 bd 3f e4 69 3d
       0.098493345 -0.06402379 -0.0508484 0.057102438
000160 b3 99 19 3c fe a0 67 3b e7 c4 77 3e 86 c9 5d be
       0.009375024 0.0035343762 0.24196206 -0.21658906
000170 71 b8 0c bc 5e c5 be 3d 45 c4 ae ba c2 0b b1 bd
       -0.008588896 0.093149886 -0.0013333639 -0.08644821
000180 84 48 57 3d a7 d6 c5 ba f4 8a cc 3d 05 43 03 bd
       0.05255939 -0.0015093879 0.09987441 -0.032046337
000190 36 30 29 be 9e 1b 63 3d 28 46 ca 3d b8 1f 44 3e
       -0.16522297 0.05544626 0.098766625 0.19152725
0001a0 26 b6 3f 3d 48 28 fc bc 65 d4 04 3b da c8 03 3e
       0.04680457 -0.030780926 0.0020268199 0.12869588
0001b0 79 d5 8f 3b 7a b9 43 3e 78 01 56 bd c7 dd fa 3d
       0.0043894616 0.19113722 -0.052247494 0.12249332
0001c0 da d8 33 be 99 94 2e 3e f6 de 84 ba 06 bf 8d 3d
       -0.17563191 0.17048873 -0.0010137248 0.069212005
0001d0 e5 f8 84 3d 54 dd b5 3d 02 2e 04 3d 6e 30 0f 3c
       0.06492785 0.088801056 0.03227044 0.008739574
0001e0 eb 70 37 3c 5c 9e 57 be 28 c3 22 be 8d 48 12 bd
       0.011196355 -0.21056503 -0.15894759 -0.03571372
0001f0 21 82 d7 3c 9a 27 e3 3d 5c 4a 8c 3d 1d 12 05 bd
       0.026307167 0.11091538 0.068501204 -0.032487977
000200 85 de 96 3d e6 73 6d 3e 6d c4 07 3e ab d0 f5 3d
       0.07366661 0.23188743 0.13258524 0.12002691
000210 49 02 1d 3d ce 5c 10 3e 0a 0a f5 3d 81 01 7e bd
       0.038332257 0.14097902 0.119648054 -0.062013153
000220 2a e4 8b 3c d0 3f 98 bb 14 28 c6 bd 9e 3f bc 3d
       0.01707657 -0.004646279 -0.09675613 0.091918215
000230 7f 96 01 bd 2d 5c 48 3d ae 6c f5 3d 98 5c 81 bd
       -0.031637665 0.04891603 0.1198362 -0.06316489
000240 07 71 e2 bc 7c eb 77 3d 11 53 9f 3c f4 c5 88 bd
       -0.027641786 0.06052731 0.019448789 -0.066783816
000250 41 24 22 3d fa 8f ab 3d 10 b9 cf 3d c3 a8 d0 bd
       0.039585356 0.08377071 0.1014272 -0.10188439
000260 05 a0 09 be d6 3d 08 3c 7b 47 5a 3d 39 6a d4 3a
       -0.13439949 0.008315524 0.053290825 0.0016205973
000270 da 70 b8 bd 30 c3 cf 3c e8 c7 b6 3a 35 17 d3 3d
       -0.090059 0.025361627 0.0013945075 0.10307161
000280 56 35 81 3d 9e fb 20 be 3e ff fe 3d 6e f3 ca 3d
       0.06309001 -0.15720984 0.12451027 0.09909712
000290 d9 f2 18 3e c1 3a aa bc 6a df 85 bd 3b 18 0f 3d
       0.14936389 -0.02077997 -0.065367535 0.034935217
0002a0 bd 18 ee 3c eb 43 dc 3c 6d 79 3e bb 9d be 09 bd
       0.02906453 0.026887855 -0.0029064075 -0.03362905
0002b0 92 d2 a0 bc 52 22 ad bc 19 69 df ba c1 2e 2c be
       -0.019631658 -0.02113453 -0.0017044871 -0.1681471
0002c0 05 0e d5 3a 2d eb 10 bd 8f 13 9a 3d 7f 9f 25 3e
       0.0016254788 -0.03538053 0.07523262 0.16174124
0002d0 8e ba 9f 3d de db 44 3c 0d 0e b2 3a 98 1f a8 3b
       0.07799254 0.012015311 0.001358451 0.0051307194
0002e0 41 79 b0 3d fd 55 06 3b 7a e5 03 3e a7 eb a8 3c
       0.08616877 0.002049803 0.12880507 0.02062018
0002f0 f9 ee ad 3d 99 74 d6 3b 1f 9b 38 be 3e 7c 55 bc
       0.08492846 0.0065446612 -0.18027924 -0.01303011
000300 48 c6 26 3d 53 d1 5e 3d 71 ce 73 bd 43 6d 32 3d
       0.04071644 0.054398846 -0.05952305 0.04356123
000310 c0 82 9a bd 3a f6 2a bc ce 58 27 3d 3d fc b9 3d
       -0.0754447 -0.010434682 0.040856175 0.09081314
000320 35 df cf 3d bb cb bc bd 45 20 ec 3c 78 b0 7c 3d
       0.10149995 -0.09218546 0.028823981 0.06169173
000330 4e 1e da 3d 31 34 40 3e d3 30 d8 bd 26 81 97 3d
       0.106503114 0.1876991 -0.105561875 0.0739768
000340 0b 0b 66 bb 09 05 f4 3d be d6 a6 3c 47 b5 e0 3c
       -0.0035101797 0.11915023 0.020366069 0.02743019
000350 6d bd e4 3d 37 42 a5 3d 65 c9 03 3e 4a 1b 5c 3d
       0.111689426 0.0806927 0.12869795 0.053736962
000360 f2 a8 97 3d b1 b1 21 3d 80 15 13 be 8b bb fb bd
       0.07405271 0.0394761 -0.1436367 -0.1229163
000370 31 f2 b3 3c 8d 1f ee 3d 7b 89 19 3e 93 8c 0e 3e
       0.021966072 0.116271116 0.14993851 0.13920812
000380 cb 0f 82 3c 46 31 b5 bd bb 1d 01 bd b7 bf b9 3d
       0.015876671 -0.08847289 -0.031522494 0.0906977
000390 b3 a8 76 bd cd 74 f5 bd 55 d4 38 3d 42 02 f1 bb
       -0.060219478 -0.119851686 0.04512437 -0.0073550055
0003a0 20 3b d2 3a 13 b5 23 3d 57 4c 87 bd 78 6e d1 3d
       0.0016039349 0.039967608 -0.066063575 0.10226148
0003b0 b3 f3 1a 3e 96 41 d1 3d 65 1e 86 3d 9c 65 55 be
       0.15132026 0.10217588 0.06548766 -0.20839542
0003c0 e9 90 98 3b 5e 36 5d be ee 5e 2c 3d 21 ea ac ba
       0.0046559465 -0.2160277 0.04208272 -0.0013192334
0003d0 db a3 b0 bd 51 b8 c0 3d 7a 76 ba 3d 5c 46 b4 bd
       -0.08625003 0.094101556 0.09104629 -0.088024825
0003e0 91 a6 d5 bd 9c ed 91 3d ce e9 3f 3a 34 53 50 bd
       -0.10432161 0.071253985 0.00073209114 -0.0508606
0003f0 db e7 c9 bd 56 c8 89 3d a2 d3 0a 3e ca 05 aa bd
       -0.09858676 0.06727664 0.13557294 -0.083018854

fc2.bias f4 [128]
000000 0f c4 c8 3d dd dd 38 3d fe d5 40 bc 5f 2c 92 3c
       0.0980302 0.04513346 -0.01176977 0.017843423
000010 e9 74 89 3c f1 b2 28 3c 7d 68 08 3d 92 d6 9d bd
       0.01677938 0.010296569 0.033302773 -0.07706942
000020 39 32 cc bc d2 9c a1 3d 20 c6 2c 3d 22 b9 9a 3d
       -0.024926292 0.07891239 0.042181134 0.075548425
000030 a6 32 45 bd 79 81 e2 bc 44 78 00 bd 77 c1 f8 3c
       -0.048144005 -0.027649628 -0.031364694 0.030365689
000040 d2 06 46 bd cb bd bc 3b 51 66 35 bd 21 3e 86 3c
       -0.048346348 0.00575993 -0.04428703 0.016387047
000050 5d 20 ac bc b7 4a 16 3d 25 08 86 3c ab 38 5c 3d
       -0.021011526 0.036692347 0.016361305 0.05376498
000060 bf b1 02 3e 8a fc 2f 3d d6 87 b6 bd 10 0c 9b 3d
       0.12763117 0.04296545 -0.089126274 0.0757066
000070 49 d5 97 3d 1f c1 25 bd 23 e5 4d 3c c3 f7 50 3d
       0.07413728 -0.040467378 0.0125668375 0.051017534
000080 f2 39 95 bc ef 92 c1 bb 2c 2c 85 bd 70 d7 2d bc
       -0.018216107 -0.0059074084 -0.06502566 -0.010610446
000090 19 d3 9d 3d 01 2e 90 3c 4b e7 87 3c 54 f0 67 bd
       0.07706279 0.017600061 0.016589781 -0.05662568
0000a0 96 63 2b 3c 95 52 b6 3d 9c a1 a3 3c fa 5b a9 3d
       0.010460755 0.0890247 0.019974522 0.08269496
0000b0 00 6e 80 3d bd 0b cc 3b 88 7e fb bc 73 62 6d 3d
       0.06270981 0.0062269852 -0.030699983 0.057955217
0000c0 56 50 13 bd 70 54 48 3c f0 28 7f 3c cc 68 2a bd
       -0.035965286 0.012227163 0.015573725 -0.04160385
0000d0 c2 0d 10 3c 94 c7 1d 3d 1b 6a f0 bb a4 ea 8a 3d
       0.008792343 0.03852041 -0.0073368675 0.067830354
0000e0 10 67 97 bb 76 c7 2a 3d 28 d8 21 3c 7c 8b b1 3d
       -0.0046204403 0.041694127 0.009878196 0.08669183
0000f0 90 9c 75 bc 8e 81 8c 3c ef df 49 bd d4 92 16 3d
       -0.014990941 0.01715162 -0.049285825 0.03676112
000100 48 07 42 3b 95 f9 b5 3d 26 14 2f bd b9 b0 05 bd
       0.002960639 0.088854946 -0.042743824 -0.03263924
000110 0f 63 21 bd f0 76 81 3d 60 26 9d 3d 3c 5c 77 bd
       -0.03940111 0.06321514 0.07673335 -0.060390696
000120 f0 30 8a 3d dc 42 8b bc e1 fd da 3c 6d f4 11 3d
       0.06747615 -0.016999654 0.026732387 0.035633493
000130 b5 90 86 bd c4 60 45 3d 08 3e 27 3c 5f 3a ab bd
       -0.065705694 0.048187986 0.0102076605 -0.08360743
000140 89 8a d0 bb 21 60 08 bd d1 09 95 3b e5 82 58 3c
       -0.006364171 -0.0332948 0.0045482893 0.013214801
000150 48 ba 8e 3d 54 e7 81 3d 42 5e b2 3b 28 d8 d1 39
       0.06969124 0.063429505 0.0054433653 0.00040024635
000160 f6 8a b6 3d 08 9c 0a bd 95 51 1b 3d a7 01 84 3d
       0.089132234 -0.03384021 0.0379196 0.06445628
000170 27 ea c4 3d 55 72 64 bb 82 ba 69 3d 3b 98 4d 3d
       0.096149735 -0.0034858186 0.057062633 0.050194006
000180 00 d6 c3 3d f4 45 71 3d 2f 35 a0 3d 70 0f c2 3d
       0.09562302 0.058904603 0.07822644 0.09475601
000190 b3 42 bf 3d 56 09 9c 3d c1 5d 47 bd d6 5e 9f 3d
       0.09338894 0.07618968 -0.048673395 0.077817604
0001a0 90 b8 39 bc a2 3a 93 bc ef bd c2 bc 8e dc ba ba
       -0.011335507 -0.017972294 -0.023772208 -0.0014256404
0001b0 04 1d bb 3c f2 8e bc 3d 8e 09 fd bb c5 25 22 bd
       0.022840984 0.09206952 -0.0077220863 -0.0395868
0001c0 c1 cd 4b bc eb be 80 3d 30 03 f2 3c 71 7c 8d 3c
       -0.012439192 0.06286415 0.029542536 0.017271252
0001d0 44 07 39 3d a6 e4 f1 3c 09 c5 02 3d e0 42 e3 3c
       0.045172945 0.029527973 0.03192619 0.02774185
0001e0 70 e0 11 3d 46 83 a1 3d df 43 8d 3c c6 4b bc 3c
       0.03561443 0.078863665 0.017244278 0.02298535
0001f0 40 ad 77 3d cb 1e 9f 3d 83 ff 52 3d 08 e5 9f bc
       0.06046796 0.07769545 0.051513206 -0.01951839

fc3.weight f4 [2, 128]
000000 b0 da 54 3d 2c d1 22 3d 86 2f 8c ba 92 de cf bc
       0.05196637 0.039750263 -0.0010695315 -0.025374684
000010 e1 de 87 bd 3d e7 98 bd 3c 11 a5 3d d0 1d d9 bd
       -0.06634308 -0.0746598 0.08059928 -0.106013894
000020 75 1f 41 bd de 69 65 3d ff cf bf bd d4 b7 80 3d
       -0.04714914 0.056009166 -0.09365844 0.062850624
000030 f1 51 a1 bd ca fe fd bd d5 98 a7 bd c0 29 3c 3d
       -0.07876957 -0.12402113 -0.08183447 0.045938253
000040 97 11 af bc 35 7a 45 bd 0f 10 bd bd 28 57 0c 3e
       -0.021370692 -0.04821225 -0.092315786 0.13705122
000050 57 fb 92 3d e3 f8 74 3d 24 ad 99 bd ea bd 8e 3d
       0.071768455 0.05980767 -0.07503727 0.06969817
000060 3f 41 5a 3e f3 00 83 3c 93 75 20 bc 53 b2 c1 3d
       0.21313952 0.015991664 -0.009793657 0.09457841
000070 bd ce 36 3e 92 ed 93 bd 25 94 0a bd 89 2d f0 3c
       0.17852302 -0.07223047 -0.033832688 0.029318588
000080 57 74 7d 3d e0 ad 97 3c 60 7a c5 bd 3f 59 29 bc
       0.06187853 0.018515527 -0.09642482 -0.010336219
000090 13 18 5a 3d 00 82 0b bc a6 8b 2d 3d 7b 79 9c bd
       0.053245615 -0.008514881 0.042369507 -0.07640358
0000a0 7c 04 8e bd da d6 d2 bd c5 87 7f bd 30 a0 21 3d
       -0.06934449 -0.10294886 -0.06238534 0.039459407
0000b0 cf d6 72 3c 42 f6 b4 3c ce 41 f9 3d 81 b1 84 bd
       0.014821722 0.022090081 0.121707544 -0.06479169
0000c0 20 30 d6 bd fe 8d 17 3e 63 03 a9 3d 4c a4 08 3e
       -0.10458398 0.1480026 0.08252599 0.13343924
0000d0 64 02 91 3d 47 17 a1 3d 53 b7 c1 bd aa 4a f8 3d
       0.07080534 0.07865768 -0.094587944 0.12123616
0000e0 c5 3a 29 3e 16 8c ab bd f8 99 6e 3d 8a 07 c6 3d
       0.16526325 -0.08376329 0.058252305 0.09669407
0000f0 85 be aa 3d c5 47 3e 3d 9c a0 54 3e 0e 2d 4c 3e
       0.0833712 0.046455164 0.20764393 0.19939062
000100 07 11 cc bd cb 44 9f 3d 9f 12 b4 bd f4 07 a3 bd
       -0.09964185 0.07776793 -0.08792614 -0.07960501
000110 cb a4 c7 bd a3 71 ac 3d ff cf 93 3d 80 fa ae bd
       -0.09748229 0.08420112 0.072174065 -0.08543873
000120 69 8e a6 3d 9b 39 9d bd ea 7a 76 bd 94 e6 7e bd
       0.08132631 -0.07677003 -0.060175814 -0.062231615
000130 d5 b3 cc bd 17 54 9b bd 64 c8 61 3d fb b8 be bd
       -0.09995238 -0.07584398 0.055122748 -0.09312626
000140 6d 6b ec 3d 4a 40 58 bd ec f6 a8 bd 1f 66 40 3d
       0.11543927 -0.052795686 -0.082502216 0.04697239
000150 e6 40 11 3e 4b c6 90 3d ac 23 2d 3d 34 3c 9d 3d
       0.14184913 0.070690714 0.042270347 0.076774985
000160 3d 23 c2 3d 04 9e b0 3b 6c b6 c7 3d 65 59 b9 3d
       0.094793774 0.0053899307 0.09751591 0.09050254
000170 71 cd 39 3e ef 68 c0 bc 72 2d 1f 3d 4b 42 9c 3d
       0.18144776 -0.023487536 0.0388617 0.07629832
000180 d2 db d1 3d 30 e4 08 3e 3f 98 a9 3d 2f cc c1 3d
       0.102470055 0.13368297 0.08280992 0.09462773
000190 e1 53 94 3d 80 e8 01 3e b1 9b a6 bd d7 50 94 3d
       0.07242561 0.12686348 -0.081351645 0.072419815
0001a0 c9 bf 8e 3d 2c f6 3e 3d ae 00 ca bd f5 30 03 3e
       0.06970174 0.046621487 -0.09863411 0.12811644
0001b0 5c 93 9d 3d 2d c3 91 3d fc a8 c6 3d 42 95 a3 bd
       0.07694122 0.07117305 0.097002 -0.07987453
0001c0 64 da 9e bd 5d d8 4d bd 20 61 b2 bd bd 61 c0 bd
       -0.077564985 -0.05025517 -0.087099314 -0.09393642
0001d0 4f fd 0f 3e a2 b5 03 3e 6f 0b 7d bd 40 58 f5 3d
       0.14061473 0.12862256 -0.061778482 0.11979723
0001e0 e4 4e 52 bd a9 ef 9d 3d 61 44 a3 bd f1 5a b5 3d
       -0.051344767 0.07711727 -0.079720266 0.08855236
0001f0 99 c4 16 3e a1 00 8f 3c ad 7c 6a bd 8e 5d 6c bc
       0.14723434 0.017456355 -0.057247806 -0.014426602
000200 ae 37 c0 bd fe 61 a3 3e 2e 98 52 3e f1 5a c8 bd
       -0.0938562 0.319107 0.20565864 -0.09782971
000210 16 bb c8 bd 98 02 c8 bd 85 a3 e8 bd a5 ce e3 bd
       -0.09801309 -0.0976612 -0.11359314 -0.11123399
000220 79 07 d5 3d cc 70 10 3e ee 4f 14 3e 73 dd aa bd
       0.10401816 0.14105529 0.14483616 -0.08343019
000230 78 93 6a bd a6 65 34 3d 98 19 f3 bd e2 90 50 3e
       -0.057269543 0.044042252 -0.11870116 0.20367768
000240 db 34 89 3e 29 ba 26 3e 46 65 b2 3d 2c 86 76 3d
       0.26798138 0.16281952 0.087107226 0.06018655
000250 b6 a5 6e 3e b1 4e 53 3d 1f 1f 08 be ff 63 d5 3d
       0.23305401 0.051588718 -0.13293122 0.10419463
000260 d9 ab 8f 3e d3 6e b8 bd b9 60 5d 3e c2 62 fc 3b
       0.28060797 -0.09005513 0.21618928 0.0077022025
000270 35 67 c7 3d b8 61 b8 bd b1 f7 c5 bd c5 48 1b be
       0.09736482 -0.09003013 -0.09666384 -0.15164478
000280 c1 08 0c 3e 7d e2 52 3e 1d 06 aa bb 52 c7 c1 3e
       0.13675214 0.20594211 -0.005188717 0.37847382
000290 0b 94 44 3e 13 56 93 3e 10 07 31 3e a0 5a 2f 3e
       0.19197099 0.28776607 0.1728785 0.17124414
0002a0 80 fe 51 3e e7 99 af 3e a0 41 dc bd ef 38 ed bd
       0.2050724 0.34297106 -0.107547045 -0.11583125
0002b0 27 a7 77 3e 1b 33 2b 3e 59 ee c6 bd 08 dd 24 be
       0.24184857 0.16718714 -0.0971343 -0.16099942
0002c0 95 f9 fc bd d0 5e c2 bc 3b 50 3a bd 30 6a 3b bd
       -0.123522915 -0.02372685 -0.04548667 -0.045755565
0002d0 eb 74 82 3e f7 e5 04 be 88 fb 03 be 3c 29 33 bd
       0.25479826 -0.1297835 -0.1288892 -0.043740496
0002e0 3d 6e b7 bd 6b be f1 bd 5f 50 13 3e 50 e8 33 3d
       -0.08956573 -0.118038975 0.14386128 0.043922722
0002f0 77 6d b4 bd ba 01 96 3d 0b 67 db bd e5 96 4e 3e
       -0.08809941 0.07324548 -0.10713013 0.20174749
000300 d1 14 42 3e 8d 24 26 3e 99 af 16 be 24 08 cd bd
       0.18953253 0.1622488 -0.14715423 -0.10011318
000310 a3 0b f9 3b 57 65 92 bd 18 00 b1 bb e8 c3 0a be
       0.007600264 -0.07148235 -0.0054016225 -0.13551295
000320 5a 00 9f 3e 93 8c 9e bd 4d 7a c4 bd a5 9d 82 3e
       0.31054956 -0.07741656 -0.095936395 0.25510898
000330 43 ee b6 bd 04 d0 da 3c 4f 83 2c 3e 59 47 c7 bc
       -0.089321636 0.026710518 0.16846965 -0.024326013
000340 9a 4c b6 bd 61 b2 89 bd ce 19 f2 bd 13 8c 90 3d
       -0.08901329 -0.06723476 -0.11821328 0.07057967
000350 28 4a 96 3d f0 e1 ee 3a 6c d0 54 3e 3f 52 4c 3e
       0.07338363 0.0018225294 0.20782632 0.1995325
000360 6b 43 ab bb 78 aa ce bd 0b e2 0a bd 04 31 be bd
       -0.0052265427 -0.10091108 -0.033906978 -0.09286693
000370 72 78 0f 3d 69 99 32 3e 08 de 8e 3e 8b d6 57 3d
       0.035026975 0.17441334 0.2790377 0.05269484
000380 97 5d 43 3d 78 16 f0 3a c6 d0 aa bc a8 c0 90 bc
       0.047696676 0.0018317243 -0.020851504 -0.01766999
000390 70 1e 81 3b 05 b4 41 3e c8 f1 78 3b f4 3f 12 bc
       0.003940396 0.18916328 0.003798591 -0.00892638
0003a0 1e 87 7c 3d 88 6e 73 3e 6a a8 b1 bd b2 2a d7 bd
       0.061652295 0.23772633 -0.086747006 -0.1050619
0003b0 ec 49 57 3e 4f 12 a1 3d 94 30 fe 3d 6a 22 d0 3d
       0.21024293 0.0786482 0.12411609 0.10162814
0003c0 87 99 bf bd 32 cd 0c be 59 6e c2 3d b3 ba bb bd
       -0.09355455 -0.13750151 0.094937034 -0.091664694
0003d0 4a 94 be bd ed 3d 87 3e 48 43 4c 3e 19 9b e1 bc
       -0.09305628 0.26414433 0.19947541 -0.027539777
0003e0 3e 0e 1b be 52 0d 48 3e e8 42 d2 bd 33 48 48 3d
       -0.15142152 0.19536331 -0.102666676 0.04889698
0003f0 02 f0 2e 3b c0 5c 3e 3e d6 a9 59 3e 73 8e 84 3e
       0.0026693349 0.18590069 0.21256194 0.2588993

fc3.bias f4 [2]
000000 23 41 12 3d ad 21 38 bb
       0.03570665 -0.0028096244
