checkpoint_critic.pth (torch_old, 159653 bytes, 5 tensors)

fc1.weight f4 [256, 24]
0	0xbb63730a	-0.003470602
1	0xbde22e70	-0.110440135
2	0x3cdb7fb9	0.026794301
3	0xbd013ca4	-0.031551972
4	0xbdcbbb22	-0.09947802
5	0xbe0a894b	-0.13528936
6	0xbcabd1bf	-0.020974038
7	0x3d13a129	0.036042366
8	0xbce6d706	-0.028178703
9	0xbdbd4d46	-0.09243254
10	0xbd4a626d	-0.049410272
11	0x3c89fe5d	0.016844923
12	0x3c9cee5e	0.019156631
13	0xbd5b0b4e	-0.053477578
14	0x3d4e8f77	0.050429787
15	0x3ccd825a	0.02508657
16	0x3b97e94b	0.004635965
17	0xbe29abe5	-0.16569479
18	0x3d4f8170	0.05066055
19	0x3cdea280	0.027177095
20	0x3ca57815	0.020198861
21	0x3d2d40f9	0.04229829
22	0xbd36fda2	-0.044675477
23	0x3d5fbd74	0.054624036
24	0x3dd283c9	0.10279042
25	0x3dbc808d	0.092042066
26	0xbc45a920	-0.012064248
27	0x3cd61435	0.026132682
28	0x3cd8ce03	0.026465422
29	0x3bdecb6f	0.0067991535
30	0x3d0595de	0.032613628
31	0x3ba0343e	0.0048890403
32	0x3cc02243	0.023453837
33	0x3d4949ae	0.049142532
34	0x3c3e4bc4	0.011614744
35	0x3d96c3c4	0.07361558
36	0x3d49ebd2	0.04929716
37	0x3cf68ce4	0.030096479
38	0xbcc8208c	-0.024429582
39	0x3d928f36	0.071562216
40	0x3d689cd7	0.0567902
41	0x3d81fb7d	0.06346796
42	0xbd0d6ed6	-0.03452953
43	0xbb8cd1bc	-0.004297463
44	0x3d8db998	0.06920165
45	0xbd602272	-0.05472035
46	0x3c0139f4	0.007887352
47	0x3cc172ae	0.023614254
48	0x3c0ebd56	0.008712133
49	0xbd398570	-0.04529327
50	0xbc3362f2	-0.010948883
51	0xbd1fc6ca	-0.03900794
52	0xbdabc78f	-0.08387672
53	0xbd6eb145	-0.058274526
54	0x3c29adea	0.010356406
55	0xbcd1aeda	-0.025596071
56	0xbc6c2aa3	-0.014414462
57	0xbd2e263b	-0.04251693
58	0xb98e7e2e	-0.00027178362
59	0xbd22517c	-0.03962849
60	0xbbd242f9	-0.006416675
61	0x3d6fced4	0.058546856
62	0x3c6698b4	0.014074493
63	0x3d1737f4	0.036918595
64	0x3c1283f0	0.008942589
65	0xbe1b52c7	-0.15168296
66	0x3d05ec06	0.032695793
67	0x3ce35584	0.027750738
68	0x3db0c0ef	0.08630549
69	0x3e58cf0c	0.21172732
70	0xbcd99353	-0.026559507
71	0x3cf76fc0	0.030204654
72	0x3d0034b2	0.031300254
73	0x3d2476eb	0.04015247
74	0x3b3fa8e8	0.0029244963
75	0x3b76a61b	0.0037635628
76	0xbd3a57e7	-0.045493986
77	0x3ce97911	0.028500112
78	0x3c657d10	0.014006868
79	0x3cc46cc6	0.023977648
80	0xbcad2f49	-0.021140711
81	0x3dbf5a39	0.093433805
82	0xbca1505f	-0.019691644
83	0x3d28b107	0.04118445
84	0xbcb1b84f	-0.02169433
85	0xbd36fd3f	-0.044675108
86	0x3d355731	0.044272605
87	0xbd157e33	-0.036497306
88	0xbd960a6d	-0.07326207
89	0x3db7351b	0.08945676
90	0x3c2388fc	0.00998139
91	0x3bbcba3c	0.0057595056
92	0x3cc97d21	0.024595799
93	0xbe022aa2	-0.12711576
94	0x3ccce459	0.025011228
95	0xbb1e4a61	-0.002415322
96	0x3d747998	0.059686273
97	0xbda3a254	-0.07989946
98	0xbcb5667d	-0.022143597
99	0x3d65ed81	0.056134705
100	0x3d3ba94a	0.045815744
101	0x3cd07dc3	0.025450593
102	0x3d1de769	0.038550768
103	0x3c32084c	0.010866236
104	0xbd20a00e	-0.03921514
105	0xbc92c284	-0.017915018
106	0xbc935a3d	-0.017987365
107	0xbd6fac65	-0.058514018
108	0x3dcd20d4	0.10016027
109	0xbd394bea	-0.045238413
110	0xbd2307cf	-0.03980237
111	0x3d1d7213	0.038438868
112	0x3d4e5f83	0.050384056
113	0xbd9fc971	-0.07802094
114	0xbc6684ce	-0.014069749
115	0x3be52b9e	0.006993725
116	0xbcb66f9a	-0.022270013
117	0xbdc4aed1	-0.09603656
118	0x3cdf9508	0.027292743
119	0xbd10efa3	-0.035384785
120	0x3d25195b	0.040307384
121	0xbd5b0294	-0.053469256
122	0x3c9d147c	0.019174807
123	0x3bb2e8f8	0.005459901
124	0x3d07b4f4	0.033131555
125	0xbb564204	-0.0032693157
126	0xbcb17ab4	-0.021664955
127	0xbd131014	-0.035904005
128	0x3d3c9e44	0.04604937
129	0xbdca3036	-0.09872477
130	0x3c71f24e	0.014767243
131	0x3b12714a	0.0022345358
132	0xbd73e3d8	-0.05954346
133	0x3dbb8fa6	0.09158258
134	0xbc234e70	-0.009967431
135	0xbcaee808	-0.021350875
136	0x3ccfd14c	0.025368355
137	0xbd65ebc9	-0.056133065
138	0xbbb5f0d9	-0.005552393
139	0x3d18b444	0.03728129
140	0xbe36eb85	-0.17863281
141	0x3e4b554a	0.19856754
142	0x3c24e010	0.010063186
143	0xbd1266f8	-0.03574273
144	0x3d267699	0.040640447
145	0x3d97268f	0.07380401
146	0xbd3f1a05	-0.046655674
147	0x3d04a36b	0.03238241
148	0xbcbb00a2	-0.02282745
149	0x3d42d379	0.047564957
150	0xbbc57bb0	-0.0060267076
151	0x3dafe6b1	0.08588923
152	0x3cb880c4	0.022522338
153	0x3d8a1cf8	0.067438066
154	0x3d5100cb	0.051026147
155	0x3d4e7023	0.05039991
156	0xbd26194e	-0.040551476
157	0xbd084368	-0.03326741
158	0xbcf9ed7b	-0.030508747
159	0x3b6a82ab	0.003578345
160	0x3d045d66	0.032315634
161	0x3defa8fc	0.11702153
162	0xbcab57ca	-0.020915885
163	0xbd9421b9	-0.072329946
164	0x3cc8aac4	0.02449549
165	0xbdae503b	-0.085113965
166	0xbcc0cdac	-0.023535572
167	0xbcfe1e75	-0.031020382
168	0xb98c1992	-0.00026721932
169	0x3c815349	0.015786784
170	0xbc8bf850	-0.017086178
171	0x3b8c2eaf	0.004278026
172	0x3c0ed157	0.008716903
173	0xbcff299e	-0.031147774
174	0x3c8976e9	0.016780334
175	0x3cdc6e0b	0.026907941
176	0x3ce65a9f	0.028119383
177	0x3c41107e	0.011783717
178	0xbd09ffd8	-0.033691257
179	0xbd1cd3fd	-0.038288105
180	0xbd99b33b	-0.075048886
181	0xbd0bfc1b	-0.034175973
182	0x3d1b2340	0.037875414
183	0x3d010d58	0.031506866
184	0xba91db34	-0.001112795
185	0xbda79726	-0.08183126
186	0xbb9bd192	-0.0047552073
187	0xbc0db74c	-0.008649658
188	0xbe3ac5a7	-0.18239461
189	0x3da71503	0.081583045
190	0x3c8a214b	0.016861578
191	0xbd350a3b	-0.04419921
192	0x3b15f148	0.002287941
193	0xbcd294e2	-0.025705758
194	0xbd11568d	-0.035482932
195	0x3c080f8b	0.008304487
196	0x3cc39e50	0.0238792
197	0xbc00b301	-0.007855178
198	0xbc6b5dbf	-0.0143656125
199	0xbc829a38	-0.015942678
200	0xbd75c814	-0.060005262
201	0xbca99364	-0.020700164
202	0x3d01d806	0.031700157
203	0x3d886973	0.06660738
204	0xbc6f2e14	-0.014598388
205	0x3ce84c3f	0.02835667
206	0xbd551136	-0.052018367
207	0xbc46c9a6	-0.012133038
208	0xbbd0f23a	-0.006376532
209	0xbd970525	-0.07374028
210	0xbcb148ad	-0.0216411
211	0x3beb767f	0.0071857567
212	0x3b30c0e6	0.0026970445
213	0x3dbe382c	0.09288058
214	0xbca1b1ad	-0.019738043
215	0xbc8dafdf	-0.017295776
216	0xbd357466	-0.04430046
217	0x3d5bd029	0.053665314
218	0xbd072650	-0.032995522
219	0xbc67b013	-0.0141411
220	0xbce7e1c1	-0.02830589
221	0xbe268ac1	-0.16263868
222	0x3d0f3e3c	0.03497146
223	0xbcb52324	-0.022111483
224	0x3d9349ee	0.07191835
225	0x3b06f306	0.002059163
226	0x3d4d6052	0.050140686
227	0xbcbc90e7	-0.023018314
228	0xbd3ab120	-0.045579076
229	0xbd937d7c	-0.072016686
230	0xbc943277	-0.01809047
231	0xbd094310	-0.03351122
232	0xbbd9ed6d	-0.006650618
233	0x3d9bb362	0.07602574
234	0xbd5a4b3a	-0.053294398
235	0x3d46b5ee	0.048513345
236	0xbdbceaf3	-0.092245005
237	0x3d8d39cf	0.06895792
238	0x3ce0f03a	0.027458299
239	0x3c4c7a98	0.0124804005
240	0xbcd9cdcb	-0.026587388
241	0xbc7763c5	-0.0150994705
242	0x3d0e8eaa	0.034804024
243	0xbc846a1e	-0.016163882
244	0xbd240c39	-0.04005072
245	0x3dcd3d52	0.100214615
246	0x3cb18b38	0.02167283
247	0x3d072326	0.032992505
248	0xbcfb6e09	-0.030692117
249	0xbd38cbf2	-0.045116372
250	0x3d022934	0.031777576
251	0xbb73de05	-0.0037211191
252	0x3cab5c3a	0.020918
253	0xbc93c6fc	-0.01803922
254	0xbd57ba95	-0.052668173
255	0x3c183874	0.009290803

fc1.bias f4 [256]
0	0xbdabf706	-0.08396725
1	0x3dd01c3a	0.10161634
2	0x3d192e1a	0.03739748
3	0x3e0a4346	0.13502225
4	0xbd181e0a	-0.037138022
5	0xbea231d4	-0.3167864
6	0xbe50815b	-0.20361845
7	0xbdc9b360	-0.09848666
8	0xbe66c778	-0.22537029
9	0xbe3c52f4	-0.18391019
10	0x3e3cafdb	0.18426459
11	0xbdd0ff49	-0.10204942
12	0x3e07f512	0.1327708
13	0xbe765275	-0.24054892
14	0x3c92fb9b	0.01794224
15	0x3e0e6c70	0.13908553
16	0x3d8d8e45	0.069119014
17	0x3d2e38e5	0.042534728
18	0xbe13222a	-0.14368501
19	0xbe146440	-0.14491367
20	0x3bea53f2	0.0071511203
21	0xbe7aa742	-0.24477866
22	0xbc7d8ee8	-0.015475966
23	0xbe394932	-0.18094328
24	0xbb8095a2	-0.0039240876
25	0xbe677dd9	-0.22606601
26	0xbb7cc807	-0.0038571374
27	0xbb9e8781	-0.0048379307
28	0xbdf44919	-0.11928005
29	0xbdcc41ce	-0.09973489
30	0xbdb7bb40	-0.08971262
31	0xbdecaaac	-0.115559906
32	0xbdd1ff9a	-0.1025383
33	0x3c47754c	0.012173962
34	0xbd00ee55	-0.03147729
35	0x3de5a68c	0.11213407
36	0xbe0f0591	-0.13966967
37	0x3e3b1efe	0.18273541
38	0xbdd752ac	-0.10513815
39	0x3e0cc703	0.13747792
40	0xbe00e6a3	-0.12587981
41	0xbe0f5180	-0.13995934
42	0x3cd635c5	0.026148686
43	0xbe041288	-0.12897694
44	0xbdb01ee9	-0.08599646
45	0xbde6b47d	-0.11264894
46	0xbd8c9221	-0.068638094
47	0xbe456363	-0.19276194
48	0x3e047375	0.12934668
49	0x3d9c6c69	0.07637865
50	0xbc53848c	-0.01291002
51	0x3e0f187a	0.13974181
52	0xbd90b817	-0.07066362
53	0xbe6c28f6	-0.230625
54	0x3e0a6024	0.13513237
55	0xbd37299a	-0.04471741
56	0x3e26b7e9	0.16281094
57	0xbd3fa643	-0.04678942
58	0xbe34e55d	-0.1766562
59	0x3e5111f0	0.20416999
60	0x3dc12b7d	0.09432123
61	0x3cf052b7	0.029336317
62	0x3bad5b27	0.005290407
63	0xbe4f9ff6	-0.20275864
64	0x3da3b08a	0.079926565
65	0xbcff07cf	-0.031131653
66	0xbe069b7f	-0.13145255
67	0x3e19a3f1	0.15003945
68	0xbe8460c9	-0.2585509
69	0xbdc5c954	-0.09657541
70	0xbdc8c7b2	-0.09803714
71	0xbe53452a	-0.20631853
72	0xbe462531	-0.19350125
73	0xbd790308	-0.060793906
74	0x3cc1c019	0.02365117
75	0x3e4ba53b	0.19887249
76	0x3e0b717b	0.13617508
77	0x3e4010b0	0.18756366
78	0x3d90407a	0.07043548
79	0xbd685293	-0.056719374
80	0xbd6c6d66	-0.057721518
81	0xbdb43055	-0.08798281
82	0xbe002625	-0.12514551
83	0xbe28e5e7	-0.16493951
84	0x3d3df780	0.046378613
85	0xbdf9547f	-0.121743195
86	0xbda5a144	-0.080873996
87	0xbcf0072b	-0.029300293
88	0xbda303f2	-0.07959737
89	0x3dc0bd49	0.09411103
90	0xbd28cf9d	-0.04121362
91	0x3db250ba	0.087068036
92	0xbe03735d	-0.12836976
93	0x3e3390b3	0.17535667
94	0xbe3f42bf	-0.18677805
95	0xbe3212a9	-0.17389931
96	0x3e143d1e	0.1447644
97	0xbe384076	-0.1799334
98	0x3e3d9ef7	0.18517672
99	0x3da96004	0.08270267
100	0x3dfbaa97	0.12288397
101	0x3c92b23d	0.017907256
102	0x3bcdf059	0.006284755
103	0x3c3fffd1	0.011718706
104	0xbde7400b	-0.11291512
105	0x3e3c6b85	0.1840039
106	0x3dd28c0b	0.10280617
107	0xbc93e803	-0.018054968
108	0x3d0b5b3f	0.034022566
109	0x3c4d2923	0.012522015
110	0xbd9ed42d	-0.07755313
111	0xbe33ac81	-0.17546274
112	0xbde8b59c	-0.11362764
113	0xbe3eb337	-0.18623053
114	0xbd7fb202	-0.06242562
115	0x3db1fab0	0.08690393
116	0x3dfac1fe	0.12244032
117	0xbe4217d3	-0.189544
118	0xbe0085d1	-0.12551047
119	0x3e0d97a1	0.13827373
120	0xbd5224db	-0.05130468
121	0xbbf2ea68	-0.0074131973
122	0x3dcfe4b4	0.101510435
123	0x3e3d014a	0.18457523
124	0x3dc0603e	0.09393357
125	0x3dd1885e	0.10231088
126	0xbd4c4177	-0.04986712
127	0xbd033541	-0.03203321
128	0x3d38d812	0.045127936
129	0xbe381386	-0.17976198
130	0xbe48b7ba	-0.19601336
131	0x3d9e3198	0.07724303
132	0xbe1d485f	-0.15359639
133	0x3dbd8d62	0.09255482
134	0x3e4c8426	0.19972286
135	0x3e4071da	0.18793431
136	0x3ce84dfb	0.028357496
137	0x3d8bc672	0.0682496
138	0x3d1e44b1	0.038639728
139	0x3d875b22	0.06609179
140	0x3cd4150e	0.025888946
141	0xbe674754	-0.22585803
142	0x3e0f37de	0.13986155
143	0xbd703250	-0.05864173
144	0x3e251682	0.16121867
145	0xbe736222	-0.23767903
146	0xbd9ced07	-0.07662397
147	0xbe0da8bb	-0.13833897
148	0x3c4dc0e9	0.0125582
149	0x3df23684	0.11826804
150	0xbbe5651d	-0.007000579
151	0x3e262d9e	0.16228339
152	0x3e25dc93	0.16197424
153	0xbe474bb3	-0.1946247
154	0x3e3d2ffb	0.18475334
155	0x3cae3a27	0.021267964
156	0x3e167b8e	0.1469557
157	0xbc59f54c	-0.013303112
158	0xbd59a675	-0.05313726
159	0x3e364c67	0.17802583
160	0xbe43c76d	-0.19119044
161	0xbd236f30	-0.03990096
162	0xbd9ec324	-0.07752064
163	0xbcb77dcf	-0.022398857
164	0xbd5d564a	-0.05403737
165	0x3e052fd9	0.13006534
166	0x3bab7995	0.0052329996
167	0x3d9f1847	0.077683024
168	0xbd03fd89	-0.03222421
169	0x3e136357	0.14393364
170	0x3d9bb68b	0.07603177
171	0xbe4f7aa0	-0.20261621
172	0xbe2ff42c	-0.17182988
173	0xbe33dd4c	-0.17564887
174	0xbe63076f	-0.22170804
175	0xbe28f8e2	-0.16501191
176	0xbce04df6	-0.027380925
177	0x3e49d5ac	0.19710416
178	0xbe1b6cd6	-0.15178236
179	0x3dfe9411	0.12430585
180	0xbd947c4b	-0.072502695
181	0x3dfeb098	0.12436026
182	0x3e276da3	0.16350417
183	0x3d8db6a8	0.069196045
184	0x3e5ceff4	0.2157591
185	0xbe5bab1f	-0.21451996
186	0xbe3b3288	-0.18280995
187	0xbdab92dc	-0.083776206
188	0x3d0ab30b	0.033862155
189	0x3e1c35b7	0.15254866
190	0x3dcee31f	0.10101914
191	0x3e33e4e3	0.17567782
192	0xbcc62cda	-0.024191309
193	0xbe406f21	-0.18792392
194	0x3e4c8f1c	0.19976467
195	0xbe8e2817	-0.2776496
196	0xbd63b8ff	-0.055596348
197	0x3de5886e	0.112076625
198	0x3e0a29f9	0.13492574
199	0xbcee870b	-0.029117128
200	0x3c940092	0.018066678
201	0x3cef2ff5	0.029197672
202	0x3da6189e	0.08110164
203	0xbe1d99ac	-0.15390652
204	0x3e1ecadf	0.15507077
205	0x3e826eeb	0.2547525
206	0xbd959e8c	-0.07305631
207	0x3e2db8fd	0.16965099
208	0xbcded841	-0.027202727
209	0xbe3c7049	-0.18402208
210	0x3d3bf52f	0.045888122
211	0xbd053d4f	-0.03252917
212	0x3e29273e	0.16518876
213	0xbb02c934	-0.0019956352
214	0xbdefea67	-0.117146306
215	0xbe89b659	-0.26896933
216	0x3e636ca8	0.22209418
217	0x3dcdb0f7	0.10043519
218	0xbc898f68	-0.016792014
219	0xbd7a899a	-0.061166383
220	0xbd8389d6	-0.064227745
221	0x3d807f6c	0.06274304
222	0x3e563528	0.20918715
223	0xbd65eeff	-0.056136128
224	0x3d47485b	0.048652988
225	0xbe87d7ad	-0.26531735
226	0x3da1fd9e	0.07909702
227	0xbd9cbc1c	-0.076530665
228	0xba13de98	-0.0005640774
229	0xbdde0b42	-0.10841991
230	0x3e621b5b	0.22080748
231	0x3e21f5be	0.158164
232	0xbd5c8da6	-0.053846024
233	0xbdbdd5f6	-0.092693254
234	0x3dd5566f	0.104168765
235	0x3d9ce5ad	0.07660995
236	0xbded7514	-0.115945965
237	0x3ddbbe13	0.10729613
238	0x3d282cd9	0.041058395
239	0x3e1e797f	0.15476035
240	0xbe0c102c	-0.13678044
241	0xbe015b37	-0.12632452
242	0x3d7f122e	0.062273197
243	0xbcb6c0ed	-0.022308791
244	0xbda4247d	-0.08014772
245	0x3d976d13	0.07393851
246	0xbd98cabb	-0.07460543
247	0xbe1b3cc0	-0.15159893
248	0xbcea2997	-0.028584285
249	0xbd608ecd	-0.054823685
250	0xbd26ba9a	-0.0407053
251	0xbe4922a6	-0.19642124
252	0x3e121463	0.1426559
253	0x3e958d38	0.29209304
254	0xbe12b4b4	-0.14326745
255	0x3e3eff84	0.18652159

fc2.weight f4 [128, 258]
0	0xbc98b9ab	-0.01864322
1	0xbc064f8f	-0.008197679
2	0x3da79c3a	0.08184095
3	0x3c1da711	0.009622351
4	0x3d313cb0	0.043270767
5	0xbcc62422	-0.024187151
6	0x3db16454	0.08661714
7	0x3db3ea9c	0.087849826
8	0xbd961fb9	-0.07330269
9	0x3cb539fc	0.022122376
10	0x3cd881c5	0.026429066
11	0xbd5cc56c	-0.053899214
12	0xbc29ad12	-0.010356205
13	0xbd3e637f	-0.046481606
14	0x3bc83657	0.0061099934
15	0x3dc63c9c	0.09679529
16	0xbd447410	-0.04796225
17	0x3c291f3e	0.01032239
18	0x3d36044f	0.044437703
19	0x3c9e43d3	0.01931945
20	0xbb0c7c05	-0.0021436226
21	0xbc226ea4	-0.009914074
22	0x3cc75c38	0.024335966
23	0x3c7dd71b	0.01549318
24	0xbdaf9e1f	-0.08575081
25	0xbd58ec9b	-0.05296002
26	0xbce9afeb	-0.028526267
27	0x3d82f5ff	0.06394576
28	0x3d141665	0.03615417
29	0xbbd124f5	-0.0063825794
30	0x3cdf5e43	0.027266627
31	0xbc30cef1	-0.010791526
32	0x3d9e1f54	0.07720819
33	0x3cd0904b	0.02545943
34	0xbd155b15	-0.036463816
35	0x3d9c7263	0.07639005
36	0xbcc5e8fc	-0.024158947
37	0x3daeed84	0.08541396
38	0xbdabb40a	-0.08383949
39	0xbd724def	-0.059156355
40	0x3cb4f144	0.0220877
41	0x3cb1209c	0.021621995
42	0x3c650107	0.013977296
43	0xbd92437a	-0.071417764
44	0xbd65939b	-0.05604897
45	0xbdabebfe	-0.08394621
46	0xbc2887ce	-0.010286285
47	0xbcfe6d6f	-0.031058041
48	0xbd4e0c49	-0.050304685
49	0x3cb126dc	0.021624975
50	0x3a89e881	0.0010521562
51	0x3cdb90af	0.026802389
52	0x3db1d227	0.086826615
53	0x3c23dde5	0.010001634
54	0xbc2bf31f	-0.010494976
55	0x3da7e979	0.08198828
56	0xbca3db0b	-0.020001909
57	0x3d3196e5	0.043356795
58	0x3bff9541	0.007799775
59	0x3de1760e	0.11008845
60	0xbce6157a	-0.028086413
61	0x3c66da93	0.014090198
62	0x3dd5b0f8	0.10434145
63	0xbdc31d68	-0.09527093
64	0xbceacb73	-0.028661465
65	0xbdbcd7ba	-0.09220834
66	0xbd201992	-0.039086886
67	0xbd5fe7ea	-0.05466453
68	0xbbdf99a1	-0.006823734
69	0xbd5dda19	-0.054163072
70	0x3c849079	0.016182171
71	0x3d437704	0.047720924
72	0xbc832365	-0.016008088
73	0x3d3f30fa	0.046677567
74	0xbd70e110	-0.058808386
75	0xbc1d6a45	-0.009607856
76	0x3d55da79	0.052210305
77	0x3d4a78b5	0.04943152
78	0x3d915578	0.0709638
79	0xbda671e5	-0.081271924
80	0x3da9cf5d	0.082915045
81	0xbd01126f	-0.03151172
82	0x3d92b438	0.0716328
83	0xbcb4e459	-0.02208154
84	0x3d37cbee	0.044872217
85	0x3d01b0fd	0.03166293
86	0x3c9eb3d7	0.019372864
87	0x3d6a683c	0.057228312
88	0xbd335762	-0.043784507
89	0x3c82ea34	0.015980817
90	0x3d9ccfb4	0.07656804
91	0xbddc549e	-0.10758327
92	0xbdc82fcb	-0.09774741
93	0xbc88692f	-0.016651718
94	0x3d399fe0	0.045318484
95	0xbc3e3f85	-0.011611824
96	0x3db8d59b	0.09025117
97	0xbd395663	-0.0452484
98	0xbcfaa670	-0.030596942
99	0xbd859a8a	-0.065236166
100	0x3db75d87	0.08953386
101	0x3cb1b58c	0.021693014
102	0xbd84b3be	-0.064795956
103	0x3d448d71	0.04798645
104	0xbb4a1100	-0.0030832887
105	0xbd965f50	-0.07342398
106	0xbd0cd37a	-0.034381367
107	0xbdd66589	-0.10468585
108	0x3c89fcca	0.016844172
109	0x3d4f6a29	0.05063835
110	0x3d108167	0.035279658
111	0x3d2d575f	0.04231965
112	0xbd53c3d0	-0.051700413
113	0xbc916b91	-0.017751487
114	0xbd73882e	-0.059456043
115	0x3d58a43d	0.052891005
116	0xbd9cf4ac	-0.07663855
117	0x3a52b4c7	0.0008037802
118	0x3dc3c782	0.095595375
119	0x3da82d99	0.08211822
120	0xbd9420eb	-0.07232841
121	0x3d4c06eb	0.049811285
122	0xbd4bb994	-0.049737528
123	0x3cf9cc10	0.030492812
124	0xbd761efb	-0.06008814
125	0xbaef07b5	-0.001823655
126	0xbd1da429	-0.038486633
127	0x3c6a2a4f	0.014292314
128	0xbd2f559e	-0.04280626
129	0xbbf646d6	-0.0075157685
130	0xbd492375	-0.04910608
131	0xbc477465	-0.012173747
132	0xbc7eae6e	-0.015544517
133	0x3cfffc24	0.03124816
134	0x3d062b1f	0.032755967
135	0x3cc8b083	0.02449823
136	0x3d9474be	0.07248829
137	0x3ce1cebb	0.027564397
138	0x3d0dee48	0.03465107
139	0x3d5551cd	0.052079964
140	0xbbe3cbce	-0.0069517856
141	0x3a9ffd7b	0.001220628
142	0x3d120fbb	0.035659533
143	0x3d216420	0.039402127
144	0x3d48b77b	0.049003106
145	0xbd30c66a	-0.043157972
146	0xbc65f1bf	-0.014034688
147	0xbc6b5f8c	-0.014366042
148	0x3db6f975	0.08934299
149	0x3b9021dc	0.0043985676
150	0xbd8633c3	-0.065528415
151	0x3cc802f4	0.02441547
152	0x3d4c14d4	0.04982455
153	0x3d07bd36	0.03313943
154	0xbd304b77	-0.04304072
155	0xbd5b410d	-0.053528834
156	0x3d0eb639	0.03484175
157	0x3da893a5	0.08231286
158	0x3cb207a0	0.021732152
159	0x3dce4d27	0.100733094
160	0x3c2bed71	0.010493622
161	0x3d16baf1	0.036799375
162	0x3d548c2c	0.05189149
163	0xbd2aafcf	-0.04167157
164	0xbd80266c	-0.062573284
165	0x3c1e710f	0.00967051
166	0xbd10187e	-0.035179608
167	0xbd284f2d	-0.041091133
168	0x3d41b0d7	0.04728779
169	0x3b069db5	0.0020540778
170	0xbd5413f4	-0.05177684
171	0x3c7ada35	0.015310814
172	0x3d4c7885	0.049919624
173	0x3c4df646	0.012570923
174	0xbd74e300	-0.059786797
175	0x3d2bc6e3	0.04193772
176	0x3d374eeb	0.044752996
177	0x3ca188d6	0.019718569
178	0xbb2aceb3	-0.0026063144
179	0xbce3c94b	-0.027805945
180	0xbc674f16	-0.014117977
181	0xbd3a7c8e	-0.04552894
182	0xba6eeafa	-0.0009113994
183	0xbd1df826	-0.03856673
184	0xbd4d597b	-0.050134163
185	0x394d6197	0.00019586679
186	0x3d2e3784	0.042533413
187	0xbd0327f8	-0.03202054
188	0xbdc7b7ff	-0.09751891
189	0x3cc3b55d	0.023890192
190	0x3c15099a	0.0090965275
191	0x3d533f59	0.051574085
192	0xbc935138	-0.017983064
193	0x3cb357e7	0.021892501
194	0xbcdd75b1	-0.027033659
195	0x3c845383	0.016153103
196	0x3d14b1c3	0.03630234
197	0x3d732b29	0.059367333
198	0x3dc09322	0.09403063
199	0xbda63003	-0.08114626
200	0x3dc7b25c	0.09750816
201	0xbcae0564	-0.021242805
202	0x3d61a8be	0.055092566
203	0xbc499991	-0.0123046795
204	0x3d14ab54	0.036296204
205	0xbcbab4dc	-0.022791319
206	0x3da8b014	0.08236709
207	0xbcfd3f9c	-0.03091412
208	0xbdd23851	-0.10264648
209	0xbd3de509	-0.046361003
210	0x3cd599f5	0.026074389
211	0xbd30e9ca	-0.04319171
212	0x3d259fc9	0.040435586
213	0xbc404a64	-0.011736486
214	0x3c99a044	0.018753178
215	0x3d813aea	0.06310065
216	0x3d054517	0.032536592
217	0xbdb20d48	-0.086939394
218	0x3da5dd6f	0.08098876
219	0x3da3debb	0.08001467
220	0xbc7f6fe7	-0.015590644
221	0xbd0e4855	-0.03473695
222	0x3d94bdad	0.0726274
223	0xbd109d26	-0.03530612
224	0xbd2789c8	-0.040902883
225	0xbd781e43	-0.060575735
226	0x3d1d7edc	0.03845106
227	0xbd1ca0d8	-0.03823933
228	0xbd2b01aa	-0.041749634
229	0xbd967c44	-0.073479205
230	0xbd359217	-0.044328775
231	0xbc77f8b4	-0.015134979
232	0x3d4ed5b2	0.050496764
233	0xbd19945e	-0.03749501
234	0x3d51adc1	0.051191095
235	0x3de6db3b	0.11272284
236	0xbcd5f589	-0.026118057
237	0x3a9dd3ea	0.0012041305
238	0x3b8ba072	0.00426107
239	0x3d8d8695	0.06910435
240	0x3b0545ea	0.0020335861
241	0xbd0fb25a	-0.0350822
242	0x3d2bcfa7	0.04194608
243	0xbcaabd4b	-0.020842215
244	0x3d9af0a3	0.07565429
245	0xbcb7c8f5	-0.022434691
246	0xbd83992c	-0.064256996
247	0x3d349c7b	0.044094544
248	0xbc6cf529	-0.014462748
249	0xbd224f8b	-0.03962664
250	0x3d48a587	0.048985984
251	0xbd6ad6df	-0.057333823
252	0xbd5601ee	-0.052247934
253	0x3df1afaa	0.118010834
254	0x3d2d116f	0.042252954
255	0x3d933deb	0.07189544

fc2.bias f4 [128]
0	0x3d852b46	0.065023944
1	0x3ccc481e	0.024936732
2	0xbd5ec99a	-0.05439148
3	0xbce6c733	-0.028171157
4	0xbcf50016	-0.029907268
5	0xbbc6fa3a	-0.00607231
6	0x3d5b0db5	0.05347987
7	0x3cb38b16	0.021916907
8	0x3d546272	0.051851697
9	0xbd3d4c72	-0.046215482
10	0x3cc5e4d7	0.02415697
11	0xbd54765d	-0.051870693
12	0x3d7feb16	0.062480055
13	0xbda1e070	-0.07904136
14	0xbd443afd	-0.047907818
15	0xbcbc490f	-0.022984056
16	0xbd0c6caa	-0.034283318
17	0x3d4d66ce	0.05014687
18	0x3d715c55	0.058925945
19	0x3ca9cbbd	0.020727033
20	0xbd1fe039	-0.039032195
21	0x3c9bcabf	0.019017575
22	0x3aacc005	0.0013179785
23	0xbc6753da	-0.014119113
24	0xbcc1a36f	-0.023637502
25	0xbd51e680	-0.051245213
26	0x3ce6076d	0.028079713
27	0x3d927ef2	0.07153119
28	0x3cff924f	0.031197695
29	0x3d5d6b31	0.054057304
30	0xbc1db034	-0.00962453
31	0x3d7672f9	0.06016824
32	0x3d56fb2b	0.052485626
33	0x3c17b6c9	0.009259888
34	0xbc862c0f	-0.01637843
35	0x3cd4c315	0.025971929
36	0x3c5b0b41	0.013369382
37	0x3a7703ee	0.0009422888
38	0x3df827e6	0.12116985
39	0x3b5e2b7a	0.0033900426
40	0xbd8ddeae	-0.069272384
41	0xbd95d473	-0.07315912
42	0xbcc98b90	-0.024602681
43	0x3d38d7dc	0.045127735
44	0x3b855bb7	0.004069771
45	0xbcce10ea	-0.02515455
46	0xbd033338	-0.032031268
47	0xbd5c4e7b	-0.053785782
48	0xbcb0ade4	-0.021567293
49	0x3d9361f1	0.07196415
50	0xbd91888e	-0.07106124
51	0x3c85b434	0.01632128
52	0x3d788277	0.060671296
53	0xbd34ae4e	-0.044111542
54	0x3d184308	0.0371733
55	0xbd6cd94d	-0.05782442
56	0x3da42231	0.08014334
57	0xbd2479b0	-0.040155113
58	0x3d6687f5	0.056282002
59	0xbd5d314f	-0.054002102
60	0xbd0296c4	-0.031882063
61	0xbb9fb8b1	-0.004874312
62	0xbc95b971	-0.018276902
63	0x3d99cbeb	0.075095974
64	0xbd5aacc2	-0.05338741
65	0xbd6c4b80	-0.05768919
66	0x3cf570fd	0.029961104
67	0x3c1805d5	0.009278734
68	0xbd06cabd	-0.03290819
69	0xbdbdbbda	-0.092643455
70	0xbc300602	-0.01074362
71	0x3c40cfc7	0.011768288
72	0xbcce5f16	-0.025191825
73	0xbcd2fe87	-0.025756134
74	0xbd1d2277	-0.038362946
75	0xbcf82942	-0.03029311
76	0xbb7d9215	-0.0038691808
77	0x3d380ab8	0.044932097
78	0x3d04c1ab	0.03241126
79	0xbc2eddb5	-0.010672976
80	0xbd35088f	-0.044197615
81	0xbd19469d	-0.037420858
82	0xb81826ca	-3.627575e-05
83	0xbd9e22c7	-0.07721477
84	0xbcabc983	-0.020970112
85	0x3c5772f7	0.013149968
86	0xbd773108	-0.060349494
87	0xbcfac10d	-0.030609632
88	0x3d2c9704	0.042136207
89	0x3cb0eadc	0.021596365
90	0xbb75abb2	-0.0037486372
91	0xbcce356f	-0.025171963
92	0xbd872405	-0.06598667
93	0x3ce519f8	0.027966484
94	0x3c54c07c	0.012985345
95	0xbd1c2388	-0.038119823
96	0xbcc84af4	-0.024449803
97	0xbd83f3a4	-0.06442955
98	0x3ccd2f11	0.025046857
99	0x3d636442	0.055515535
100	0x3c9683df	0.018373428
101	0x3da5382e	0.08067356
102	0x3b39d3b8	0.0028354954
103	0x3d2808eb	0.04102413
104	0x3cffbc01	0.031217577
105	0xbdab97fb	-0.08378597
106	0x3d043c29	0.032283936
107	0x3ce40d45	0.027838359
108	0x3ca470a2	0.020073239
109	0x3cea334e	0.028588917
110	0x3d165ae9	0.036707792
111	0x3c81f7bd	0.015865201
112	0x3d2b98cb	0.04189376
113	0x3d7efc5e	0.062252395
114	0x3c137a63	0.009001347
115	0x3ce23bf3	0.027616477
116	0x3d2e6d2f	0.042584594
117	0xbd623f7e	-0.055236332
118	0x3dc0e30f	0.09418308
119	0x3c281795	0.010259529
120	0x3d5c51e8	0.05378905
121	0x3d177715	0.0369788
122	0xbd30a856	-0.043129288
123	0xbd1eee3b	-0.038801413
124	0xbce3d019	-0.02780919
125	0xbc8e2b54	-0.017354645
126	0xbd605d4b	-0.05477647
127	0x3be75002	0.007059098

fc3.weight f4 [1, 128]
0	0x3c1a7113	0.009426373
1	0x3bf0061f	0.0073249484
2	0xbc989722	-0.018626753
3	0x3c97d1fb	0.018532744
4	0x3ca63200	0.020287514
5	0x3c94d48d	0.018167758
6	0x3ddedae9	0.108815975
7	0xbc4c9340	-0.012486279
8	0xbc8f2851	-0.017475279
9	0x3ba9001d	0.005157484
10	0x3d35a81d	0.04434978
11	0x3d4dc1bd	0.05023359
12	0xbc538cf7	-0.012912027
13	0xbbf46411	-0.007458218
14	0xbc6d91ef	-0.014500125
15	0x3d884e3a	0.066555455
16	0xbce112b1	-0.027474733
17	0xbbcc8570	-0.006241493
18	0x3d260b7a	0.04053829
19	0x3ba31a35	0.0049774894
20	0x3c994958	0.01871173
21	0xbcb7d6ce	-0.022441294
22	0xbc599113	-0.013279217
23	0xbbfa7ebe	-0.0076445034
24	0x3c07d232	0.008289861
25	0x3ca7a07b	0.020462265
26	0x3cbe494e	0.023228314
27	0xbc3873a8	-0.011258043
28	0xbd2c27d2	-0.042030163
29	0x3cb58242	0.022156838
30	0xbd21b703	-0.039481174
31	0xbc969a28	-0.018384054
32	0xbd49ad98	-0.049237818
33	0x3c54e7ee	0.0129947495
34	0xbcdaad5d	-0.026693994
35	0xbd9ba1ec	-0.075992435
36	0xbbc99ca2	-0.0061527053
37	0x3c2c399a	0.01051178
38	0xbc8a2b03	-0.016866213
39	0x3c18f5e9	0.009335973
40	0x3c1c9bb9	0.009558612
41	0xbc098955	-0.008394559
42	0xbc2ef4cd	-0.010678482
43	0xbd3c3afa	-0.045954682
44	0xbc6918a7	-0.014227069
45	0x3b38da06	0.0028206124
46	0x3c4ab368	0.012371875
47	0xbc601493	-0.01367678
48	0x3d0b8979	0.03406665
49	0xbd8b60f6	-0.06805603
50	0x3ce1d53a	0.027567495
51	0xbcee65aa	-0.029101212
52	0xbc2116b1	-0.00983207
53	0x3bd8d432	0.0066170925
54	0xbc678aaa	-0.014132181
55	0x3d9f47c1	0.07777358
56	0x3d3814b0	0.044941604
57	0xbb9c9eea	-0.004779686
58	0xbcd35035	-0.025795082
59	0xbc103e7d	-0.008803961
60	0xbd002efa	-0.0312948
61	0xbbe6b147	-0.007040176
62	0xbbf7df1c	-0.0075644385
63	0xbc254bac	-0.010088842
64	0x3ce30cd3	0.027716076
65	0xbc172817	-0.009225867
66	0xbc58dc02	-0.013236048
67	0xbbebc39e	-0.0071949502
68	0xbcfbe057	-0.030746622
69	0xbc92d5bc	-0.017924182
70	0x3c8fc982	0.017552141
71	0xbc208f7a	-0.0097998325
72	0x3bb0f8a7	0.0054007354
73	0x3cbde2e6	0.023179483
74	0x3c7d62e3	0.015465471
75	0x3cebe074	0.028793551
76	0xbc1c31d1	-0.0095333615
77	0xbc928534	-0.017885782
78	0x3bfdf767	0.00775044
79	0x3c9823a3	0.01857168
80	0x3c94f0b8	0.01818119
81	0x3c0aea6a	0.00847874
82	0xbc9742eb	-0.018464526
83	0xbd0f16ad	-0.034933735
84	0xbc85a218	-0.016312644
85	0x3bf80c14	0.007569799
86	0xbc1cb589	-0.009564766
87	0x3d4836b4	0.048880294
88	0xbb8b1e3f	-0.004245549
89	0xbc4024e4	-0.011727545
90	0xba755f9a	-0.0009360254
91	0xbdd38b2b	-0.103292786
92	0x3d0950ed	0.033524442
93	0x3cd03eb7	0.02542053
94	0x3cc61e2e	0.024184313
95	0x3c30b7e0	0.010786027
96	0x3cb98361	0.022645654
97	0xbd153aaf	-0.03643292
98	0xbd4e453c	-0.050358996
99	0xbc78d1ce	-0.01518674
100	0x3c2274cf	0.009915545
101	0xbd03594b	-0.03206758
102	0xbc9697e9	-0.018382983
103	0xbcead01c	-0.028663687
104	0x3c3ff3f1	0.011715875
105	0x3c501c60	0.012702078
106	0xbcfa95c9	-0.030589001
107	0xbc80e2d9	-0.01573317
108	0xbc3634ec	-0.011121016
109	0x3cb80924	0.022465296
110	0xbbab0b7e	-0.005219876
111	0x3d0bb5ab	0.0341088
112	0xbc2b2385	-0.01044548
113	0x3c3a8cf4	0.011386145
114	0x3c85489d	0.016269976
115	0x3c9149fe	0.017735478
116	0xbd6d266c	-0.05789797
117	0x3be67b8c	0.007033771
118	0xbd29b90d	-0.041436244
119	0x3be80598	0.007080745
120	0x3c4d2fb1	0.012523578
121	0x3c754d2c	0.0149720125
122	0x3ce31ad5	0.027722755
123	0xbbab9297	-0.0052359807
124	0x3c033836	0.008009007
125	0xbcbe64e6	-0.023241471
126	0x3ce85c20	0.028364241
127	0xbd3749ae	-0.044748
