checkpoint_critic1.pth (torch_old, 159653 bytes, 5 tensors)

fc1.weight f4 [256, 24]
000000 60 77 b1 bc 80 4f c3 bc 6e 14 53 3d 98 2a 21 bc
       -0.021663368 -0.02384162 0.051533155 -0.009836815
000010 16 06 7b bd d0 91 6f bd 20 bd 76 3b 44 93 6c 3d
       -0.0612851 -0.058488667 0.0037649348 0.05775763
000020 b2 a1 10 bd 78 9e 83 3c 94 c9 6e bd 66 3a 53 3d
       -0.035310455 0.016066775 -0.05829771 0.051569365
000030 bc ca cb 3c 68 97 11 3c 46 28 2a 3d 82 fc 74 3d
       0.024876945 0.008886196 0.041542314 0.059811123
000040 00 e5 ac ba 0a ad 78 bd 04 b5 65 3d d0 2f 1e 3c
       -0.0013190806 -0.060711898 0.056080833 0.009654954
000050 5a 98 1d bd b2 e5 34 3d 0e ca 20 bd 12 f8 17 3d
       -0.038475372 0.044164367 -0.039255194 0.037101813
000060 10 27 51 3d f0 fe fa 3c 10 4f 57 3c f4 d9 a3 3c
       0.051062644 0.030639142 0.013141409 0.02000139
000070 88 c6 73 bc 28 46 f4 bc 02 d4 6c 3d 00 df a2 ba
       -0.0148788765 -0.02981861 0.057819374 -0.0012426078
000080 b0 ab d9 bb a0 4d 9c bc 50 7a c4 3b 0a f7 1a 3d
       -0.006642781 -0.019079983 0.005996026 0.03783325
000090 60 86 23 3b 1c 4d e5 3c 58 28 f6 bc f0 8d 12 3d
       0.002495192 0.02799087 -0.030048534 0.035779893
0000a0 38 3c 08 3d 16 b3 03 bd f4 36 f3 bc 04 8a 6d bd
       0.033260554 -0.03215321 -0.02968929 -0.05799295
0000b0 1a 6b 33 3d 60 ab 3a bb 00 86 50 3c d4 6d f6 bc
       0.043803312 -0.0028483495 0.012727261 -0.030081667
0000c0 60 b1 03 bb 58 2d 04 bd f0 04 99 3c 8a 6b 5c bd
       -0.0020094737 -0.032269806 0.018679112 -0.053813495
0000d0 3e 15 03 bd c6 b6 57 bd ac c6 23 3d 4c 7c 25 bd
       -0.03200268 -0.05266454 0.03998439 -0.04040174
0000e0 e4 aa c8 bc 40 78 de 3a 60 0a 97 3b 70 46 9c bc
       -0.02449555 0.0016973093 0.004609391 -0.019076556
0000f0 44 70 b7 3c ee 21 06 bd b4 49 9b 3c 32 66 6b 3d
       0.0223924 -0.0327472 0.018956043 0.057470508
000100 a0 54 3e 3b 08 31 70 bd a2 30 60 3d 36 6c 72 3d
       0.002904214 -0.05864051 0.05473388 0.05918523
000110 b4 73 49 3d 30 bd 5c bc 20 23 94 bb 6c 79 7c 3d
       0.04918261 -0.01347284 -0.004520789 0.061639234
000120 78 1f c3 3c 38 d1 5b 3c 66 75 01 3d c4 c3 c5 3c
       0.023818716 0.013416581 0.0316061 0.0241412
000130 34 29 1b bd 38 3f 5a 3c f8 d9 2e 3d 8a ad 35 3d
       -0.03788109 0.013320737 0.04268834 0.044354953
000140 40 44 57 bc 52 b5 5c 3d c0 20 d9 ba 0c 64 80 3c
       -0.013138831 0.053883858 -0.0016565546 0.015672706
000150 c0 e3 d8 3b c8 be f1 bc 34 36 7f 3d 54 fd 7d bd
       0.006618947 -0.029509917 0.06230755 -0.06200917
000160 10 57 74 bd d4 8f a6 3c 64 b5 12 3d b4 3a 9c bc
       -0.05965334 0.020332254 0.03581752 -0.01907096
000170 5c c8 0b 3d d8 10 92 bc da 45 50 3d a8 32 df bc
       0.034126624 -0.017830297 0.050847866 -0.027245834
000180 e4 d4 53 3d 68 cd 6e bd 40 ab c6 ba 3a 5e 34 3d
       0.0517167 -0.05830136 -0.0015157238 0.044035174
000190 08 cb 6a 3c 40 d0 71 bc e0 65 72 3d 40 af a1 ba
       0.014330633 -0.014759123 0.059179187 -0.0012335554
0001a0 4c 3e 65 bd 70 cf a8 3c 44 87 db bc 3a 9a 52 bd
       -0.055967614 0.020606726 -0.026797898 -0.051416613
0001b0 46 37 7d 3d d0 b4 fe bb 6e 1e 47 bd b8 84 3a 3d
       0.06182029 -0.0077730194 -0.048613004 0.045536727
0001c0 aa 38 12 3d 20 d9 f1 bc 38 b0 a1 3c e0 29 0b 3b
       0.03569857 -0.029522479 0.019737348 0.0021234676
0001d0 80 4f c6 3b c4 2e 10 bd e6 43 7a 3d 06 e2 24 bd
       0.0060519576 -0.03520085 0.06109991 -0.040254615
0001e0 62 39 7d 3d 40 e4 2f 3c e0 23 0a 3d 28 26 59 bc
       0.061822303 0.010735571 0.03372562 -0.013253726
0001f0 50 72 f0 3c b4 4d 6e 3d b0 1c e9 bb 0a b7 5f bd
       0.029351383 0.058179572 -0.0071140155 -0.05461792
000200 1c 38 50 3d c8 36 67 bd 50 5f 35 3d 90 90 99 bc
       0.05083476 -0.056448728 0.04428035 -0.01874569
000210 d0 72 8d bb e8 71 34 3d 8c 1e a0 3c fa 63 2d bd
       -0.004316665 0.044053942 0.019545816 -0.042331673
000220 d0 98 b0 bb 68 2a 40 3c 00 d6 4a bb 4a 94 4f 3d
       -0.0053893104 0.01172886 -0.0030950308 0.05067853
000230 6a 87 35 bd 9c 6f 03 3d 50 22 4d 3c 28 0d b7 bc
       -0.044318594 0.03208886 0.012520388 -0.02234514
000240 b2 38 3e 3d 46 e1 7b 3d 4e 14 7e bd 00 57 16 3a
       0.046440788 0.061494134 -0.062031083 0.000573501
000250 7c fd 8d bc 24 c3 e2 3c 98 52 af bc 94 84 5d 3d
       -0.017332785 0.02768094 -0.021401688 0.054081514
000260 68 c5 bd 3c 0c da 00 3d d2 0a 6e 3d fe ac 18 3d
       0.02316542 0.031457946 0.058115788 0.037274353
000270 b8 31 09 bd 8c 43 99 bc b4 d9 bf bc e8 6d 1c bc
       -0.03349468 -0.018708967 -0.023419239 -0.009547688
000280 68 f6 14 3d 44 75 54 3d 30 67 08 bd 38 da f3 bc
       0.036367804 0.051869646 -0.033301532 -0.02976714
000290 a0 f3 d0 3c 02 18 44 bd 7c 22 13 bd 98 1f 3d 3c
       0.025506794 -0.047874458 -0.03592156 0.011543177
0002a0 e4 38 83 bc ba 4d 45 3d 40 1e 22 3b 88 bc 27 3c
       -0.016018339 0.04816983 0.0024737269 0.01023782
0002b0 a0 08 56 bd 6e a1 05 3d 52 d9 14 3d 6c a0 06 3d
       -0.05225432 0.032624654 0.036340065 0.032867834
0002c0 18 c5 43 bc 58 bc c8 3c be ec 56 bd 66 f4 38 bd
       -0.011948846 0.024503872 -0.05247187 -0.04515495
0002d0 de f4 49 bd f2 dd 08 bd b8 6c 9c 3c 90 da c9 3c
       -0.04930579 -0.03341479 0.01909481 0.024640352
0002e0 78 2a 7e bd ca 1b 44 bd 00 14 d7 39 50 2f 19 3c
       -0.06205222 -0.047878064 0.00041022897 0.009349659
0002f0 f4 ca 3a bd c4 21 c7 3c 2c 71 b4 3c 48 a1 d6 bc
       -0.045603707 0.024308093 0.02202662 -0.026199952
000300 5c 36 b4 3c 48 ae 00 3c 10 b2 47 bd d4 11 e7 3c
       0.021998577 0.007854052 -0.048753798 0.028206743
000310 bc eb 47 3d e4 dc e6 3c 64 67 e2 bc f0 c0 81 3b
       0.0488088 0.0281815 -0.027637191 0.0039597675
000320 e8 55 57 bd 68 a8 de 3c e0 8b f2 3c 0a 91 7f 3d
       -0.05257216 0.027179912 0.029607713 0.06239418
000330 e0 b7 9f 3b ca 4a 1e 3d 76 a3 5d bd 20 e7 85 bc
       0.0048742145 0.038645543 -0.054110967 -0.01634556
000340 70 75 13 bc e6 e4 7c bd 96 dd 02 bd 20 38 d9 bb
       -0.009000167 -0.061741732 -0.031949602 -0.006629005
000350 00 18 07 3b ea af 57 3d b8 23 f6 bc 14 db fe bc
       0.002061367 0.052658 -0.030046329 -0.031110324
000360 04 81 79 bd 70 f8 bc 3c d0 7c 36 bc d8 5b 11 bc
       -0.060914055 0.023067683 -0.011138156 -0.008871995
000370 5a e8 6e bd 5e bf 7a bd 5a c5 68 3d 48 f9 89 bc
       -0.058327056 -0.06121766 0.056828834 -0.0168425
000380 78 b0 4a 3d 68 10 8a bc 32 77 7f 3d c6 e1 1f bd
       0.0494847 -0.016853526 0.062369533 -0.039033674
000390 e4 5a 4d bd 0c e2 29 bd d0 13 c0 bb 3c dc 4a bd
       -0.05013551 -0.04147534 -0.005861737 -0.049526438
0003a0 9e 9d 3b bd 86 f7 61 3d b2 b4 67 bd 96 7f 35 3d
       -0.045804612 0.055167697 -0.05656881 0.04431113
0003b0 b0 b7 02 bd a4 8a c5 3c 54 1b c6 3c e0 a0 07 3c
       -0.03191346 0.02411396 0.024182953 0.008278102
0003c0 50 5d 62 bd 8c 14 47 3d 14 5c 67 3d 5e 11 5c bd
       -0.05526477 0.04860358 0.056484297 -0.0537275
0003d0 00 10 84 37 24 6a 38 3d 9e 92 31 3d d0 c9 95 bb
       1.5743077e-05 0.0450231 0.043352716 -0.004571177
0003e0 08 dc 26 bd 00 8d ac ba ca 05 0c 3d 80 b7 20 3b
       -0.040737182 -0.001316458 0.03418521 0.0024523437
0003f0 06 ad 2d 3d 96 3c 67 bd f6 dd 4d bd f0 5d 7d 3c
       0.042401336 -0.056454264 -0.050260507 0.015464291

fc1.bias f4 [256]
000000 a2 66 a0 bd d4 8a ea 3d f0 5c c6 3d d0 61 e6 3d
       -0.07832076 0.114522606 0.09685695 0.11249125
000010 38 f8 46 bd 46 0c 37 be 09 a8 4c be 58 04 89 3c
       -0.048576564 -0.17875776 -0.19985975 0.016725704
000020 1e 37 4a be 5e c9 09 be 88 98 08 3e 28 b7 00 bd
       -0.19747588 -0.13455722 0.13339436 -0.03142467
000030 24 e8 91 3d ec 70 24 be e4 87 04 3d f0 58 3c 3e
       0.071243554 -0.16058701 0.032356158 0.18393302
000040 c0 00 18 3d b4 79 13 3d 65 fd 00 be 5e 22 17 be
       0.03711009 0.036004737 -0.12596662 -0.14759204
000050 d8 b4 f3 3d 5a 22 3b be c0 de 4c bc b3 7c 27 be
       0.118997276 -0.18274823 -0.01250428 -0.16356163
000060 f0 0c 6b 3c c1 d1 4c be 00 65 8a 3d 00 1a b6 39
       0.014346346 -0.2000189 0.067575455 0.00034733117
000070 5a 72 09 be bc a8 9b bd 23 0f a7 bd 15 a8 bb bd
       -0.13422528 -0.07600543 -0.08157184 -0.091629185
000080 54 7e 50 bd 70 0b 1a 3d f0 87 f0 bd 48 02 53 3d
       -0.050901726 0.037608564 -0.11744678 0.051515847
000090 36 3d 2c be 80 d8 44 3e 87 8f fa bd 44 c3 b1 3d
       -0.16820225 0.19223213 -0.12234407 0.08679822
0000a0 2f 13 0f be 8a ab 0e be 00 74 f5 bc d3 25 ee bd
       -0.13972162 -0.13932624 -0.02996254 -0.11628308
0000b0 e0 ec 69 bd 20 d7 b5 bd 6c d4 69 bd 9a 95 21 be
       -0.057110667 -0.088789225 -0.057087347 -0.15779725
0000c0 d8 db 4b 3e b4 c7 eb 3d 4e 57 95 bd 84 c9 17 3e
       0.19908082 0.115127 -0.07292043 0.14822966
0000d0 b9 40 ba bd 5f c0 2a be a0 e6 85 3d da da 8f bd
       -0.09094376 -0.16674946 0.06538129 -0.070241645
0000e0 b8 33 1d 3e d8 fc 60 bd c4 2f 2a be f2 40 30 3e
       0.1535176 -0.05492863 -0.16619784 0.17212275
0000f0 58 ac 3b 3d 08 c0 7d 3d 00 b8 a1 bc 33 34 26 be
       0.045818657 0.061950713 -0.019741058 -0.1623085
000100 98 94 86 3d 00 85 10 3a 5c 64 0a be 94 3a ee 3d
       0.06571311 0.00055129826 -0.13514847 0.11632267
000110 86 bb 43 be ca b9 01 be 48 f2 42 bd bc eb 43 be
       -0.19114503 -0.12668529 -0.04759434 -0.19132894
000120 74 2c 3c be 34 31 7b bd 18 9c 1d bd 60 54 19 3e
       -0.18376333 -0.06132622 -0.03847894 0.14973593
000130 c4 14 c3 3d 10 58 42 3e 08 da 81 3d 30 a4 df 3c
       0.09525445 0.18978906 0.06340414 0.02729997
000140 70 20 21 bd 9e 5b b0 bd 12 41 3b be 61 eb 3e be
       -0.039337575 -0.086112246 -0.18286541 -0.18644477
000150 94 e0 b1 3d 9d 4e 04 be 38 7e ab bd c4 5d c3 3d
       0.08685413 -0.12920614 -0.08373684 0.09539369
000160 39 36 01 be 1c 90 9a 3d d0 10 39 bc f0 86 2c 3d
       -0.1261834 0.07547018 -0.011295512 0.042120874
000170 bf 6d be bd 58 69 18 3e 41 f7 2a be ab 23 43 be
       -0.09298276 0.14883935 -0.16695882 -0.19056575
000180 64 15 23 3e 36 37 0d be b0 a6 48 3e d8 ae b9 3d
       0.15926129 -0.13790593 0.19594836 0.09066552
000190 30 58 a1 3d 90 13 cf bc b8 43 1d 3d 30 69 56 3d
       0.078781486 -0.025277883 0.03839466 0.05234641
0001a0 cb 94 c4 bd 9c da 19 3e 2e 78 00 3e e0 a2 44 3c
       -0.095986925 0.15024799 0.12545845 0.012001723
0001b0 f0 b9 6f 3d f0 f4 ca bc 52 00 97 bd c8 1e 21 be
       0.058526933 -0.024774998 -0.07373108 -0.15734398
0001c0 98 98 a0 bd f1 2b 48 be 5e 77 83 bd e0 b7 da 3d
       -0.07841605 -0.19548012 -0.06419252 0.106796026
0001d0 ce cd 4a 3e 2b 45 3f be 6a c2 2d be 46 85 2c 3e
       0.19805071 -0.18678729 -0.16968694 0.16847715
0001e0 d4 8f 93 bd 00 ca 90 39 0a 28 03 3e 04 25 39 3e
       -0.072051674 0.00027616322 0.12808242 0.18080527
0001f0 5c 51 9e 3d 40 1a 4f 3d a0 47 a1 bb 80 8f a8 3b
       0.07730362 0.050562143 -0.0049218684 0.0051440597
000200 64 ae a8 3d b5 9e 44 be 6a 58 4a be f2 f0 0c 3e
       0.08236387 -0.19201167 -0.1976029 0.13763788
000210 9a 9b 4c be c8 af db 3d 46 4c 17 3e aa 9c 0a 3e
       -0.19981232 0.10726887 0.1477519 0.13536325
000220 c8 05 7f 3d 08 c9 b9 3c 38 10 c1 3d 44 1c f9 3d
       0.062261373 0.022678867 0.094269216 0.12163594
000230 c0 9d d2 3b 90 66 16 be 6e 0b 02 3e a8 48 ba 3c
       0.0064274967 -0.14687562 0.12699673 0.022739723
000240 dc d3 fb 3d 39 13 0c be 1c 00 51 bd b4 46 06 be
       0.12296268 -0.13679208 -0.051025495 -0.13112909
000250 c0 8c 3f 3c 6e a0 31 3e 94 ea 1e 3d 6c ad 31 3e
       0.011691272 0.17346355 0.03879793 0.17351311
000260 c0 93 19 3e 40 c5 0f be 98 a5 48 3e 90 c1 39 3c
       0.14997768 -0.14040089 0.19594419 0.011337653
000270 04 03 2f 3e c0 e6 21 3d c0 c0 0e bd fe 71 31 3e
       0.17090994 0.0395267 -0.03485179 0.17328641
000280 c4 a9 1a be 60 08 96 3b a0 3c ea bc 20 1d 17 3c
       -0.15103823 0.004578635 -0.028593361 0.009223253
000290 4c e0 6f bd 82 f4 25 3e 50 ce 2e bc bc bc ac 3d
       -0.058563516 0.16206554 -0.010669306 0.08434436
0002a0 fc 05 b4 3d ee 72 3e 3e bc 51 96 3d 22 5e 50 be
       0.08790204 0.1859853 0.07339808 -0.20348409
0002b0 08 49 2d be 74 7a 45 be c1 eb 4c be b2 e8 2d be
       -0.1692239 -0.19284993 -0.20011808 -0.16983297
0002c0 00 fc 42 bb 6a d4 45 3e ec 47 07 be b0 df af 3d
       -0.0029752254 0.19319311 -0.1321103 0.08587587
0002d0 39 be be bd 58 ed 21 3e ac f1 07 3e c0 3d c2 3d
       -0.09313626 0.15813196 0.13275784 0.09484434
0002e0 8a 24 38 3e fd a6 1d be 3a 7d 31 be d7 93 d5 bd
       0.17982689 -0.15395732 -0.17332926 -0.10428589
0002f0 1c 75 29 3d 80 c9 38 3e 5e 01 0a 3e f0 ab 82 3d
       0.04137145 0.18045616 0.13477084 0.06380451
000300 34 6e 14 bd 40 5c ed bd 20 e0 4f 3e 5d f5 36 be
       -0.03623791 -0.11589861 0.2030034 -0.17867036
000310 a3 2f 10 be 40 06 f6 3d 88 0f 23 3e e0 be 5b 3d
       -0.14080672 0.12012911 0.15923893 0.05364883
000320 c0 b4 69 bb 80 ac c6 bc e8 cb d9 3c 39 57 d2 bd
       -0.0035660714 -0.024252176 0.026586488 -0.10270543
000330 b6 a6 4e 3e c6 c1 50 3e 1c c9 a1 bd 28 20 11 3e
       0.20180783 0.20386419 -0.07899687 0.14172423
000340 9c ba 46 bd 98 a0 17 be 2c 8b 0f 3d 74 cb 1f bd
       -0.04851781 -0.14807355 0.035044834 -0.039012387
000350 6a d2 2d 3e e0 c3 67 3c 60 63 37 bd 13 0a 26 be
       0.16974798 0.014145821 -0.044772506 -0.1621478
000360 c2 bd 08 3e 62 82 0b 3e 70 31 eb 3c 98 7e 92 bc
       0.13353637 0.13623956 0.028710097 -0.01788263
000370 e2 0d 8c bd f0 cb 41 3d fa 96 48 3e 84 c0 09 bd
       -0.068385854 0.04731363 0.19588843 -0.033630863
000380 b8 91 98 3c 02 25 47 be 78 72 55 3d b7 1c b3 bd
       0.018624172 -0.19447711 0.05211112 -0.08745711
000390 dc 3b 46 bd 99 b3 dd bd ea 91 41 3e a4 55 0e 3e
       -0.04839693 -0.10825271 0.18903318 0.13899857
0003a0 65 07 b4 bd 80 0f 4d bd e8 a9 7e 3d 60 50 9d 3d
       -0.08790473 -0.05006361 0.062173754 0.07681346
0003b0 d0 cf c4 bd c8 c6 a9 3d f0 ef 04 3d 54 3a f0 3d
       -0.096099496 0.08289868 0.032455385 0.11729875
0003c0 4a e8 e1 bd 80 f6 06 be 04 5f c2 3d a0 7e 02 bc
       -0.11030634 -0.1317997 0.09490779 -0.00796476
0003d0 12 2b b6 bd c8 0d 24 3e 68 03 ba bc 19 98 0b be
       -0.08894934 0.16020882 -0.022706702 -0.1363224
0003e0 60 ab ee bc ce ae c1 bd d0 60 90 bd a0 12 2c be
       -0.029134452 -0.094571695 -0.070497155 -0.1680398
0003f0 fe d9 26 3e 10 eb 37 3e c8 54 30 be c8 c1 02 3e
       0.16294095 0.17960763 -0.17219841 0.12769234

fc2.weight f4 [128, 258]
000000 f4 42 1c bd f8 ee a6 bc d5 68 a5 3d 80 5c 0d ba
       -0.03814979 -0.020377621 0.08076636 -0.0005392507
000010 1a 33 62 3d f8 72 b0 bc 8b b8 ad 3d 55 ce b1 3d
       0.055224515 -0.021539196 0.084824644 0.08681933
000020 e4 ea ab bd b8 9f 01 3c 28 0c dd 3c b4 90 89 bd
       -0.08394411 0.007911615 0.026983336 -0.06717053
000030 1e 4b e1 bc ca 72 34 bd f0 e3 7b 3c fd 25 ab 3d
       -0.027501639 -0.044054784 0.015374169 0.08356855
000040 0d 45 94 bd 40 fa ee 3b b6 91 51 3d a4 66 b0 bc
       -0.07239733 0.0072930157 0.05116435 -0.021533318
000050 50 cf ad 3b 9e 68 5d bd 30 3e f4 3c 3e 63 3c 3d
       0.0053042546 -0.05405485 0.02981481 0.045993082
000060 9c 51 b3 bd 14 36 25 bd a4 b9 45 bd 16 46 18 3d
       -0.087558 -0.040334776 -0.048272744 0.037176214
000070 f4 0a 0f 3d 80 26 3d ba 24 68 bb 3c 20 8f b2 3b
       0.034922555 -0.0007215515 0.022876807 0.0054491907
000080 c9 40 89 3d 42 1c 42 3d b8 5f 6d bd c3 ae 87 3d
       0.0670181 0.04739023 -0.057952613 0.0662513
000090 8c 9d 95 bc fd d5 86 3d 66 7d a0 bd 54 d9 88 bd
       -0.0182636 0.06583784 -0.07836418 -0.06682077
0000a0 60 e0 3a 3c 00 f0 6b 3c 50 ac 2d 3c ea e3 87 bd
       0.011406034 0.014400482 0.0106001645 -0.06635268
0000b0 af d4 4c bd 7c 40 ae bd b0 e5 c1 bc 16 2e e1 bc
       -0.05000752 -0.08508393 -0.023669094 -0.027487796
0000c0 4c 7d 5c bd 08 c0 ab 3c dc 16 9f bc 7c 2a 89 3c
       -0.05383043 0.020965591 -0.01942008 0.016743891
0000d0 a2 9b 68 3d de 7c 33 3d d0 3c 24 bd 2f c1 85 3d
       0.056789048 0.043820255 -0.040097058 0.065309875
0000e0 50 93 11 bd ea e7 46 3d 50 dd c0 3b 3e e8 2d 3d
       -0.03554088 0.048561014 0.0058857575 0.04245781
0000f0 70 2d 93 bc 84 76 93 3c 9d 9d a0 3d d0 72 9c bd
       -0.017966002 0.018000849 0.07842562 -0.07639086
000100 cf bf 12 bd 60 ea ac bd df a3 5b bd 8e ea 88 bd
       -0.035827454 -0.08443141 -0.053623077 -0.06685363
000110 78 13 94 3c 4e 67 96 bd 50 8b 40 bc 2c 7c e1 3c
       0.01807569 -0.073439226 -0.011751965 0.02752503
000120 94 c1 99 bc d4 e1 e7 3c 1d 11 11 bd 68 1a 01 3c
       -0.018769063 0.028305925 -0.03541671 0.007879831
000130 d4 ab c2 3c 26 a0 20 3d 06 29 3c 3d 7c 77 b2 bd
       0.023763575 0.03921523 0.04593756 -0.08714196
000140 cf e3 a5 3d 84 9a 92 bc ee 9b 66 3d 40 bd 87 3a
       0.08100092 -0.017895944 0.05630105 0.0010356084
000150 80 e4 ea 3c 46 59 49 3d 3e 20 65 3d fe ef 79 3d
       0.02867341 0.049157403 0.05593895 0.06101989
000160 9b ff 84 bd c0 f8 58 3c d2 69 5f 3d 4e c2 9c bd
       -0.064940654 0.0132429 0.054544277 -0.07654248
000170 22 13 b2 bd 9c 7e d8 bc 2e 24 26 3d 20 3e f9 3b
       -0.086950555 -0.02642756 0.040561847 0.007606283
000180 9b 58 aa 3d 50 c0 00 bd 3c 02 02 bd c6 35 81 bd
       0.083176814 -0.031433403 -0.031740412 -0.063090846
000190 ed 86 ae 3d a5 39 47 bd d7 c5 71 bd 18 d1 5b 3c
       0.08521829 -0.04863896 -0.059026565 0.013416551
0001a0 20 81 24 bb 57 4c 77 bd e8 24 fb bc 7f f9 82 bd
       -0.0025101379 -0.060375538 -0.030657247 -0.06395244
0001b0 1c b3 0c 3d 60 c7 06 3d 70 b6 a2 3c e4 5a c5 3c
       0.0343505 0.032904983 0.019862384 0.024091192
0001c0 ac 18 2a bd 80 9f 5f bc 74 af 83 bd 92 da 73 3d
       -0.041527435 -0.013648868 -0.064299494 0.059534617
0001d0 ed cd 9c bd 70 c2 5b bc 71 4c 92 3d 49 a7 ab 3d
       -0.07656465 -0.013413057 0.07143486 0.083815165
0001e0 3b 0e a1 bd 3a 57 38 3d bb 0b 2b bd 30 a9 80 3c
       -0.07864042 0.04500506 -0.041759234 0.015705675
0001f0 da e1 7d bd 9e 89 1c bd 58 4a d9 bc 48 d0 57 bc
       -0.061982967 -0.03821718 -0.026524708 -0.013172217
000200 24 cb 8a bd 7c 4e cc bc 21 26 8b bd d0 3f 0b bc
       -0.06777027 -0.024939768 -0.06794382 -0.008499101
000210 a8 c0 39 bc 80 89 ab 3c 52 7d 39 3d 60 b2 b1 3b
       -0.011337437 0.020939589 0.04528553 0.0054228753
000220 e9 a6 ad 3d 48 fc 6d bc d6 d0 3d 3d 9d af 90 3d
       0.08479101 -0.014525481 0.04634174 0.070647456
000230 fc 13 9b bc 00 1a 3e 3a ee b2 25 3d 54 f0 c1 3c
       -0.018930428 0.0007251799 0.040453844 0.023674168
000240 00 46 35 bb b9 1d 63 bd 70 41 86 bc 92 87 d5 bc
       -0.0027660131 -0.055448268 -0.016388625 -0.026065622
000250 7f c3 9e 3d 00 0e 6b 3c f6 ee 84 bd 28 c8 86 3c
       0.07752132 0.0143466 -0.06490891 0.016452864
000260 de 21 25 3d 20 7a fd 3c 65 86 3d bd 10 96 80 bd
       0.0403155 0.030942023 -0.046270747 -0.06278622
000270 26 1b 3f 3d 35 17 98 3d 10 4d 42 3c 33 b2 b1 3d
       0.04665675 0.074263014 0.011859193 0.08676567
000280 0c 50 b8 bc 56 11 32 3d 02 b9 25 3d f4 12 64 bd
       -0.022499107 0.043473564 0.04045964 -0.055682138
000290 f6 dd 6c bd c0 ee fb 3b 87 fb 60 bd 33 3f 0f bd
       -0.057828866 0.0076883733 -0.054927375 -0.03497238
0002a0 06 bb 27 3d 90 f3 9a bb 5d 8c 41 bd c2 be 34 bd
       0.040949844 -0.004728742 -0.047253 -0.044127233
0002b0 77 74 89 3d 70 a9 b6 3b 9c 8e 83 bd 26 51 1f 3d
       0.06711667 0.0055743977 -0.06423685 0.03889575
0002c0 99 37 87 3d dc a2 dd 3c b0 ed d5 3c e5 33 13 bd
       0.06602401 0.027055196 0.026114315 -0.035938162
0002d0 b0 35 c6 3b e8 25 f6 bc 48 9e b5 bc 24 04 86 bd
       0.0060488805 -0.030047372 -0.022170201 -0.065437585
0002e0 24 32 84 bd 00 97 c4 bb 3f be 8a 3d 40 c5 6f 3b
       -0.06454876 -0.005999446 0.06774568 0.0036586076
0002f0 12 ca b0 bd 10 c6 ef 3c d8 1f c0 3c 00 fb b8 ba
       -0.08632292 0.029269248 0.023452684 -0.001411289
000300 78 85 5a bc d8 4d ac bc 80 dc 35 ba 94 62 f3 3c
       -0.0133374855 -0.021033213 -0.0006937459 0.029710092
000310 7e 98 34 3d 86 40 30 3d eb 88 95 3d 30 0d a4 bd
       0.04409074 0.043030284 0.07301506 -0.08010328
000320 61 36 b4 3d 7c 5e 8c bc 26 f6 17 3d f0 ad 69 bc
       0.087994345 -0.017134897 0.03709998 -0.014262661
000330 20 ad 55 3c 88 f6 27 bd ed bf 90 3d 60 88 e9 bc
       0.0130417645 -0.041006595 0.07067857 -0.028507411
000340 de f1 21 bd 22 ce fe bc 28 fe 3f 3c 09 a6 2f bd
       -0.039537303 -0.031104151 0.01171831 -0.042882953
000350 c8 2f 0e 3d 20 89 6a bb 40 80 dc 3a 1a 12 58 3d
       0.034713537 -0.00357873 0.001682289 0.052751638
000360 d0 31 a2 3b d1 65 af bd 6e b9 46 3d 73 c2 b4 3d
       0.004949786 -0.08564342 0.048516683 0.08826151
000370 58 2c 16 bc bb 06 26 bd 1b d5 81 3d d0 8c cc bb
       -0.009165846 -0.040533762 0.06339475 -0.006242372
000380 b4 45 33 bd ed 24 9a bd cf 71 3e bd 60 f6 f1 bc
       -0.043767646 -0.07526574 -0.046495255 -0.029536426
000390 73 5b 95 bd 50 78 92 bd ad d2 6b bd 74 64 90 bc
       -0.07292833 -0.07151854 -0.057573963 -0.017626025
0003a0 5a 8b 1e 3d d0 1e 35 bc 9a 21 6a 3d fb 04 a9 3d
       0.038707115 -0.01105471 0.05716095 0.08252903
0003b0 eb 84 19 bd 00 83 45 3a 74 11 d0 3c 55 0d 85 3d
       -0.037480276 0.0007534474 0.025398947 0.064966835
0003c0 40 88 55 3b 89 ec 14 bd d0 4d dc 3c 96 e6 e3 bc
       0.0032582432 -0.03635839 0.026892573 -0.027819913
0003d0 3d a4 a8 3d a0 56 7a bd ce 46 4b bd 48 69 eb 3c
       0.08234451 -0.06111777 -0.04962807 0.028736725
0003e0 00 e3 41 bc ad 2b 26 bd 8c 4e d3 3c da 3d 93 bd
       -0.011833906 -0.040568996 0.02579429 -0.071895316
0003f0 d6 96 37 bd 9f 09 90 3d 62 ff 3f 3d ef 37 85 3d
       -0.044821583 0.07033085 0.04687441 0.06504809

fc2.bias f4 [128]
000000 52 8e 75 3d c4 05 d7 3c 82 28 18 bd c0 1d 69 bc
       0.05995018 0.026247866 -0.037148006 -0.014228284
000010 00 85 e0 bc ce f5 df bc 0c 90 f3 3c 64 f6 1e 3d
       -0.02740717 -0.027338888 0.029731773 0.038809195
000020 60 d4 db 3c bd df 44 bd 22 8a 74 3d c6 26 7e bd
       0.026834667 -0.048064936 0.059702046 -0.062048696
000030 28 df 7e 3d f8 cf 53 bd 00 8f 10 bd 76 bb b1 bc
       0.062224537 -0.051712006 -0.035292625 -0.021695834
000040 3c c5 ab bc bc 80 33 3d a0 fb 44 3d 58 5f 6a 3c
       -0.020968072 0.043823943 0.04809153 0.014304958
000050 22 dd 61 bd 42 41 24 3d c0 02 ab bb ac 23 30 bd
       -0.05514253 0.040101297 -0.0052188337 -0.04300277
000060 80 f4 13 3b 0a e0 3a bd 88 52 88 3c d4 46 05 3d
       0.0022576153 -0.045623817 0.016640916 0.03253825
000070 2c 28 9a 3c 00 04 08 3d 68 9d 70 3c 1a 62 73 3d
       0.018817984 0.03320694 0.014685966 0.05941973
000080 98 58 03 3c 98 66 90 3c 5d 0f 31 bd 4c 04 5b 3d
       0.008016728 0.017627046 -0.043227542 0.053470895
000090 d4 4e bb 3c 28 87 05 3c b0 ed 75 3d d0 b2 c1 3b
       0.022864737 0.0081499 0.06004113 0.0059112087
0000a0 be b2 6c bd 27 38 7b bd 98 8a 37 bc f2 03 18 3d
       -0.05778765 -0.061332848 -0.011202477 0.037113138
0000b0 24 de ac 3c 3e 1e f1 bc 1a f1 66 bd e6 51 33 bd
       0.021102019 -0.029433366 -0.056382276 -0.043779276
0000c0 60 72 51 3b 50 65 70 3c d4 75 64 bd 18 3a a9 3c
       0.0031959042 0.014672592 -0.055776432 0.020657584
0000d0 4c d2 91 3c 2b 0d 30 bd 30 20 5d 3d 49 5f 7d bd
       0.017800473 -0.042981308 0.053985775 -0.06185845
0000e0 fa ad 5c 3d 89 04 3f bd 40 e1 52 3d c5 11 49 bd
       0.053876854 -0.046635184 0.051484346 -0.049089212
0000f0 b4 7a 84 bc 88 cf e8 bc 50 17 9f bc 08 d2 6d 3d
       -0.01617179 -0.028419271 -0.019420296 0.05806163
000100 40 91 e1 bc 04 31 7e bd b6 4d 22 3d 54 92 4b 3d
       -0.02753508 -0.062058464 0.039624892 0.049700096
000110 06 00 dd bc c8 ac 2a bd 90 49 01 bc b4 cd aa 3c
       -0.02697755 -0.041668683 -0.007891074 0.02085004
000120 e7 b9 01 bd 0e ef 98 bc b4 49 9c bc 2c df 06 bd
       -0.03167143 -0.018668678 -0.019078113 -0.032927677
000130 90 48 0c bd 84 a5 ca 3c cc f9 fc 3c 94 d7 8d 3c
       -0.03424889 0.024737127 0.030880831 0.01731471
000140 48 34 00 bd 6a d5 95 bc d8 7f aa 3c c6 91 d5 bc
       -0.03129986 -0.01829024 0.020812914 -0.026070487
000150 00 d9 53 3b 88 63 29 3c 6b 4e 63 bd 30 eb cc bc
       0.0032325387 0.0103386715 -0.055494707 -0.02501449
000160 6c 5c 60 3d 40 d1 8f 3c b0 ad 6a bc 60 6b 37 3b
       0.05477564 0.017555833 -0.014323637 0.0027987584
000170 c5 47 6d bd 2c 0b 19 3d da 7d 06 3d 46 65 dd bc
       -0.057929773 0.03736417 0.032834865 -0.02702583
000180 14 ba bc bc d0 af 0c bd e8 b2 d9 bb 34 85 e4 3c
       -0.023037948 -0.034347355 -0.0066436417 0.027895547
000190 a4 0b d9 3c 42 f3 43 3d 90 b7 e4 3b 6c 78 6f 3d
       0.026494808 0.04783941 0.00697989 0.058464453
0001a0 88 30 1d 3d 19 a0 61 bd 80 dc 71 ba 10 71 44 3d
       0.03837636 -0.05508432 -0.00092262775 0.047959387
0001b0 5e 35 12 3d 88 be fe 3c d8 8f 76 3d 80 ba 9f b9
       0.035695426 0.031096712 0.060195774 -0.00030465797
0001c0 20 84 f2 3c 48 9e 0f 3d e8 01 82 3c 18 aa 2c 3d
       0.029604018 0.03506306 0.01587005 0.0421544
0001d0 70 a4 55 3c 07 df 6b bd 56 98 67 3d a8 f4 06 3c
       0.013039693 -0.057585742 0.056541763 0.0082370415
0001e0 a8 6d 47 3d c0 fa fc 3c 58 84 29 bc 10 5d 59 bc
       0.04868856 0.030881286 -0.010346495 -0.013266817
0001f0 8c 0f ae bc 86 28 07 3d 7c d0 00 bd d6 45 18 3d
       -0.021247648 0.03299763 -0.031448826 0.037175976

fc3.weight f4 [1, 128]
000000 3e e7 36 3b 40 30 35 3a 40 1f 21 bb 4c 4a a5 3a
       0.0027908827 0.0006911792 -0.0024585277 0.0012610643
000010 c0 f9 d0 3a 14 75 08 3a a8 51 53 3a b8 06 8f 3a
       0.0015943572 0.0005205434 0.0008061179 0.0010912037
000020 2c 3f b3 ba fa cd 0b bb 80 7d 56 b9 9d f9 1f bb
       -0.0013675443 -0.0021332488 -0.00020455383 -0.0024410256
000030 24 14 be 3a f4 9a 0f 3a 15 73 0b bb f8 a9 7f ba
       0.0014501852 0.0005478107 -0.002127831 -0.00097528053
000040 54 a5 83 3a 3b 27 20 bb 00 0b 69 39 14 67 0b 3b
       0.0010043778 -0.0024437446 0.0002222471 0.0021271156
000050 80 53 21 bb 81 ff b1 ba 3a 8a 3f bb 94 9b f6 3a
       -0.002461642 -0.0013580174 -0.0029226677 0.0018814676
000060 e8 ed 79 3a c8 7d 4c 3a e4 4f 8b 3a e4 3a 5d ba
       0.0009534047 0.0007800725 0.0010628668 -0.00084392563
000070 36 e0 14 bb 8c 8b 2a 3b e0 86 09 3b d0 f6 0c b9
       -0.0022716648 0.0026023118 0.0020984933 -0.00013443385
000080 90 15 93 ba 18 bb 2b 3b ec 36 68 3a e4 be 40 3a
       -0.0011221636 0.0026204046 0.00088582817 0.00073526637
000090 b5 01 1d bb 80 fe 03 38 72 d3 27 3b 80 5b 4c b9
       -0.0023957316 3.1469855e-05 0.002560821 -0.00019489042
0000a0 0e 97 2a 3b 00 3c 71 38 2c 96 b9 ba ed 67 39 bb
       0.0026029977 5.7514757e-05 -0.0014159135 -0.0028290704
0000b0 00 90 60 b6 b8 24 b0 3a ea 87 31 3b fe 7b b2 ba
       -3.346242e-06 0.0013438677 0.0027089068 -0.0013617275
0000c0 e8 78 82 b9 80 c4 d2 b7 98 ad a3 39 5f d2 24 bb
       -0.00024885614 -2.5125453e-05 0.0003121912 -0.0025149805
0000d0 cc 1e 04 ba 08 80 0e ba 10 ef 42 3a d8 dc fa 39
       -0.00050399895 -0.0005435948 0.0007436136 0.00047848257
0000e0 5e dd 8f ba dd f2 a0 ba 5c 0b 5f ba a3 65 f7 ba
       -0.0010976007 -0.001227941 -0.00085084676 -0.0018874895
0000f0 00 43 ef 37 28 90 93 3a 8e b0 14 bb de 2c 31 bb
       2.852222e-05 0.0011258172 -0.0022688243 -0.00270348
000100 76 a4 bd ba b8 c6 bc 3a b2 5a 24 bb 73 f4 11 bb
       -0.0014468569 0.0014402485 -0.0025078473 -0.0022270947
000110 9b 00 19 bb c6 07 f1 ba a8 0f ab b9 c6 a9 17 bb
       -0.0023346308 -0.0018389157 -0.00032627326 -0.0023141964
000120 5a aa 42 3b 6c f3 e7 ba ba 5a 33 3b 4a 8a 27 3b
       0.0029703588 -0.0017696447 0.002736731 0.0025564604
000130 72 05 f4 ba 30 24 40 bb 58 ff f2 3a fe ec 28 3b
       -0.0018617345 -0.0029318444 0.0018539233 0.0025776024
000140 a8 f4 b7 ba b8 14 b4 3a 9a 31 86 ba cc 3d 52 ba
       -0.0014034705 0.0013739085 -0.0010238171 -0.0008020073
000150 9c 2d c7 3a 20 bd 1d 3b 00 d7 ab b7 bc 6d b0 3a
       0.0015196088 0.0024069026 -2.0484906e-05 0.0013460438
000160 d0 e7 43 3b b0 11 73 b9 b0 f6 59 b9 cc 02 1b 3b
       0.002989281 -0.00023180875 -0.00020786631 0.002365279
000170 f2 3a f6 ba c0 2e b6 3a d0 c2 8b 3a 78 e3 ae 3a
       -0.0018785878 0.0013899431 0.0010662917 0.0013342937
000180 e0 69 fe 3a 54 b4 d8 3a c0 f0 d4 b9 93 c0 e2 ba
       0.0019410215 0.0016533234 -0.00040615164 -0.0017299823
000190 00 41 7b 3a 68 58 12 bb 80 04 a6 b9 78 2d 66 ba
       0.0009584576 -0.0022330526 -0.0003166534 -0.0008780579
0001a0 da 0c 17 3b 14 57 ee 3a f8 28 a1 b9 0e 7e 17 bb
       0.0023048432 0.001818391 -0.00030738837 -0.0023115906
0001b0 26 76 20 bb 48 80 1a 3b f1 a8 92 ba 88 3d 41 3b
       -0.0024484484 0.0023574997 -0.0011189264 0.0029486138
0001c0 0e ff 2c bb ac 83 27 3b 36 0e 11 3b e8 6e 14 bb
       -0.0026397142 0.002556066 0.0022133715 -0.0022649113
0001d0 a9 5e c5 ba 04 84 09 3a b3 3d 20 bb 04 32 aa 3a
       -0.0015058118 0.0005245807 -0.0024450838 0.0012984877
0001e0 18 f7 7a 3a d8 f0 82 3a b6 4f 25 3b 80 1d f2 b9
       0.0009573563 0.000998999 0.0025224513 -0.00046179816
0001f0 d8 94 a3 b9 6d 86 e1 ba 14 ab fb 3a b0 fb 14 3b
       -0.0003120068 -0.00172062 0.0019200766 0.0022733025
