checkpoint_critic.pth (torch_old, 159711 bytes, 5 tensors)

fc1.weight f4 [256, 24]
0	0xbc24ccb9	-0.010058575
1	0xbc75f5ac	-0.015012186
2	0x3d01a584	0.03165199
3	0x3c944dd5	0.01810352
4	0xbdbc48d5	-0.09193579
5	0xbdec9a4b	-0.115528665
6	0xbc840725	-0.016116688
7	0x3daf8223	0.085697435
8	0xbcd070cc	-0.02544441
9	0x3d2a2905	0.041543026
10	0xbd42d0b6	-0.047562324
11	0x3d189728	0.03725353
12	0x3c820719	0.015872525
13	0xbd0c9a53	-0.034326863
14	0x3d562158	0.052277893
15	0x3d3a594e	0.045495324
16	0x3c18e6e2	0.0093323905
17	0xbccd2894	-0.025043763
18	0x3d683c04	0.05669786
19	0x3cd2b116	0.025719207
20	0xbc8a8f8c	-0.016914152
21	0x3d12a803	0.03580476
22	0xbd1e430e	-0.038638167
23	0x3d59c4bf	0.053166147
24	0x3dfc5771	0.123213656
25	0x3c773d2a	0.015090266
26	0xbb256af1	-0.0025240744
27	0x3c30f01b	0.010799433
28	0x3c1ab78e	0.009443177
29	0xbce5e27a	-0.028062094
30	0x3d2ca9b8	0.042154044
31	0xbc2b1f67	-0.010444499
32	0x3ca948f0	0.020664662
33	0xbc52f8ac	-0.012876671
34	0x3bcf2bcb	0.006322359
35	0x3c408b53	0.0117519675
36	0x3c0fbc7f	0.008772968
37	0x3d1a49d3	0.03766806
38	0xbcf37c5d	-0.029722387
39	0x3c1ee70d	0.0096986415
40	0x3d857d4e	0.065180406
41	0xbcb28216	-0.021790545
42	0xbc9ccb91	-0.019140037
43	0xbd193a9f	-0.03740942
44	0x3d94dde5	0.072688855
45	0xbd214c53	-0.03937943
46	0x3cbeae8a	0.023276586
47	0xbc1ba06b	-0.009498696
48	0xbc7430ee	-0.014904244
49	0xbd4a29c5	-0.04935624
50	0xbc64bcc2	-0.013961019
51	0xbd95357b	-0.07285591
52	0xbd1d03df	-0.03833377
53	0xbd053651	-0.032522503
54	0x3bf0a7fa	0.007344243
55	0xbd737bb9	-0.059444163
56	0xbc6f4162	-0.014602991
57	0xbc329801	-0.010900498
58	0x3b350e48	0.002762692
59	0xbdaeea35	-0.08540765
60	0x3cd83ec1	0.02639711
61	0xbd5252c4	-0.051348463
62	0x3c8c2859	0.017109083
63	0xbc112ce8	-0.008860804
64	0x39f97538	0.00047580316
65	0xbe030983	-0.12796597
66	0x3d3ebe62	0.046568282
67	0x3d26a48e	0.040684275
68	0x3cdc1a77	0.026868088
69	0x3d56b618	0.052419752
70	0xbc4fd81b	-0.012685801
71	0x3d30b1bd	0.043138254
72	0x3d1c4bf8	0.038158387
73	0x3a693bed	0.0008897174
74	0x3c31c135	0.010849287
75	0x3c52fe4b	0.012878011
76	0xbd6ab59a	-0.057302095
77	0x3c05a6f7	0.008157483
78	0x3cb3a987	0.021931423
79	0x3d078acf	0.033091363
80	0xbc10ab09	-0.00882984
81	0x3cc4a600	0.024004936
82	0xbc599ad0	-0.013281539
83	0x3b20d0a3	0.002453842
84	0xbc121ce0	-0.008918017
85	0xbd20d93c	-0.03926967
86	0x3d4f980f	0.050682124
87	0xbd9a10b3	-0.075227164
88	0xbd58c95f	-0.052926417
89	0x3a281d73	0.00064130797
90	0x3c5bb06f	0.013408764
91	0x3ba4f974	0.00503462
92	0x3d2382f7	0.03991982
93	0xbdc85fd0	-0.097839
94	0x3ce8f931	0.028439136
95	0xbb4dcb62	-0.0031401743
96	0x3db155eb	0.08658966
97	0xbddc2dc9	-0.1075092
98	0xbc497c43	-0.012297693
99	0x3d7927aa	0.060828842
100	0x3d7d702a	0.061874546
101	0xbc9ad632	-0.018900964
102	0x3d463c51	0.048397366
103	0x3c7ef0b5	0.015560319
104	0xbcd87fce	-0.02642813
105	0xbcf4ad1c	-0.029867701
106	0xbc9345af	-0.017977564
107	0xbd261430	-0.040546596
108	0x3e0c5491	0.13704135
109	0xbc83edc5	-0.016104588
110	0xbd22fd33	-0.03979225
111	0x3d670ac2	0.056406744
112	0x3d8984ee	0.067148075
113	0xbcba3bd0	-0.022733599
114	0x3bf2cfe5	0.007410037
115	0x3b352e8b	0.002764615
116	0x3df258e6	0.11833362
117	0xbcb58b36	-0.022161108
118	0x3d47c625	0.04877295
119	0xbd2241f1	-0.039613668
120	0x3d92cf2f	0.071684234
121	0xbcae71fc	-0.021294586
122	0x3c959e21	0.018263878
123	0xbc2bed18	-0.010493539
124	0x3dae5048	0.08511406
125	0x3dd13cc6	0.1021667
126	0xbcb8eff4	-0.022575356
127	0xbd546894	-0.051857546
128	0x3da2f96e	0.07957731
129	0xbdb27b0d	-0.08714876
130	0x3d0b0245	0.03393771
131	0xbc7a8c28	-0.015292205
132	0x3d068dc2	0.032850035
133	0x3d7a1a01	0.061059956
134	0x3c16c76d	0.00920282
135	0xbd1f3edb	-0.038878303
136	0x3c3f1991	0.01166381
137	0x3c47585d	0.012167064
138	0xbc591738	-0.013250165
139	0x3da01b58	0.078177154
140	0xbd0a4d71	-0.03376526
141	0x3bdfd257	0.0068304944
142	0x3b1b0179	0.0023652
143	0x3ba8e14a	0.0051538097
144	0x3d55d955	0.052209217
145	0xbc28634b	-0.01027758
146	0xbd4bdd81	-0.04977179
147	0x3c4afaca	0.012388894
148	0x3c8e2b1f	0.017354546
149	0x3ba04218	0.0048906915
150	0xbc15cd26	-0.0091431495
151	0x3d86f51c	0.0658972
152	0x3ca7e0fd	0.020493025
153	0xbcba3702	-0.022731308
154	0x3d3ee260	0.046602607
155	0x3cf17d94	0.029478826
156	0xbb58ce19	-0.0033081828
157	0xbd549ede	-0.05190932
158	0xbd0f153c	-0.03493236
159	0xbc8e13ed	-0.017343486
160	0x3d1cf6d0	0.038321316
161	0x3c8123db	0.015764168
162	0xbcbf22bb	-0.02333199
163	0xbcb5b16d	-0.02217933
164	0x3d692723	0.05692209
165	0xbda829fa	-0.082111314
166	0xbcd49955	-0.02595202
167	0x3c9cb876	0.019130927
168	0x3c8f6628	0.017504767
169	0x3cde516c	0.027138434
170	0xbacd2eda	-0.0015654222
171	0x3c68af71	0.014201985
172	0xbc4e5e7d	-0.01259577
173	0x3d1d2171	0.03836197
174	0x3d044dee	0.032300882
175	0x3d16dd5c	0.0368322
176	0x3bf67088	0.007520739
177	0x3c292122	0.010322841
178	0xbd4fe64b	-0.050756734
179	0xbd254964	-0.040353194
180	0xbd2e6f2f	-0.0425865
181	0xbce82e84	-0.028342493
182	0x3caa79d6	0.020810049
183	0x3cf1301b	0.029441884
184	0xbd51050b	-0.0510302
185	0xbd9d284a	-0.076737
186	0xbb647bd8	-0.0034863856
187	0xbc5786d1	-0.013154701
188	0xbd9843fa	-0.074348405
189	0x3b3a89fc	0.0028463593
190	0x3c9484dd	0.01812976
191	0xbd477e0e	-0.0487042
192	0x3cc079b7	0.023495538
193	0xbbcb0b40	-0.0061964095
194	0xbcdf2c99	-0.027242946
195	0x3ca5aa29	0.02022274
196	0x3d7df62b	0.062002342
197	0x3c98fee2	0.018676225
198	0xbbc8befd	-0.006126283
199	0xbb83de6d	-0.004024318
200	0xbd6e04e8	-0.058110148
201	0xbce6f936	-0.028195005
202	0x3d05b59a	0.032643892
203	0x3d2e1c93	0.04250772
204	0xbc659715	-0.014013072
205	0x3d2758a9	0.040856037
206	0xbd513410	-0.05107504
207	0xbd14686c	-0.036232397
208	0xbb86b9ee	-0.00411152
209	0xbdd86304	-0.10565761
210	0xbc9483dc	-0.018129282
211	0xbd58edf4	-0.052961305
212	0xbd0b3c2f	-0.033992942
213	0x3c08a509	0.008340129
214	0xbc84ec66	-0.016226005
215	0xbd9e99c8	-0.07744175
216	0xbd34209f	-0.043976422
217	0x3d15d516	0.036580168
218	0xbc877ea3	-0.016539877
219	0x3c1d3652	0.0095954705
220	0xbcfeb03e	-0.031089898
221	0xbd243036	-0.04008504
222	0x3d52a516	0.05142697
223	0x3ad4fe03	0.0016250018
224	0x3d7d5d0a	0.061856307
225	0x3b3db584	0.0028947303
226	0x3d4588ae	0.04822605
227	0xbd3479ba	-0.0440614
228	0xbd116ba5	-0.03550305
229	0xbd331caa	-0.043728508
230	0xbca3e348	-0.020005837
231	0xbd5f7411	-0.05455405
232	0xbcf068e1	-0.029346885
233	0x3d83756c	0.06418881
234	0xbd4a6572	-0.049413152
235	0x3cee4dfd	0.029089922
236	0xbd06c0bf	-0.03289866
237	0xbcf867d1	-0.030322941
238	0x3d005d61	0.031339053
239	0xbbe38258	-0.0069430284
240	0xbd8254cf	-0.06363832
241	0x3db461ae	0.088076934
242	0x3d4a406d	0.049377847
243	0xbcbb0f9a	-0.022834588
244	0xbc969ca3	-0.018385237
245	0x3d6ae245	0.057344694
246	0x3d1476f7	0.036246266
247	0x3cd7a0fa	0.026321877
248	0xbd2c9e8b	-0.042143386
249	0x3d690e0f	0.056898173
250	0x3d367181	0.04454184
251	0x3bd7549d	0.006571366
252	0x3d5a2ec8	0.05326727
253	0xbd8aaa22	-0.067707315
254	0xbd23723f	-0.039903875
255	0x3ca06d2c	0.019583307

fc1.bias f4 [256]
0	0xbdd4e25e	-0.103947386
1	0x3da83177	0.0821256
2	0x3d8ebc4b	0.06969508
3	0x3dd525b6	0.104075834
4	0xbd841365	-0.06449012
5	0xbe47013a	-0.19434062
6	0xbe4a254b	-0.19740789
7	0xb971c19e	-0.00023055679
8	0xbe71eb38	-0.23624885
9	0xbe178f69	-0.148008
10	0x3e09a859	0.13443126
11	0xbd31b9ac	-0.04338996
12	0x3dfdd931	0.123949416
13	0xbe331e0b	-0.17491929
14	0x3d674165	0.05645885
15	0x3e352023	0.1768804
16	0x3cfe4b92	0.031041894
17	0xbcb0719a	-0.021538544
18	0xbe201dac	-0.15636319
19	0xbe175382	-0.1477795
20	0x3d790e0e	0.06080442
21	0xbe3ec433	-0.18629532
22	0xbd151451	-0.03639633
23	0xbe1b1bf5	-0.15147384
24	0xbca368c4	-0.019947417
25	0xbe60db71	-0.2195871
26	0x3d10a389	0.03531221
27	0xbb069774	-0.002053705
28	0xbe0dd19c	-0.13849491
29	0xbd9ed70b	-0.0775586
30	0xbdb033eb	-0.086036526
31	0xbde51db4	-0.11187306
32	0xbdc332a9	-0.09531147
33	0x3cbc09a5	0.022953818
34	0xbe013124	-0.12616402
35	0x3d903f37	0.07043307
36	0xbe3a1205	-0.18170936
37	0x3e4b7b90	0.19871354
38	0xbdfd0579	-0.123545595
39	0x3ddb1c48	0.106987536
40	0xbdd277ce	-0.10276757
41	0xbe1a106a	-0.15045324
42	0xbcbe5f18	-0.023238704
43	0xbdf83483	-0.12119391
44	0xbda27c19	-0.07933826
45	0xbdfaa106	-0.12237744
46	0xbd9a40db	-0.075319014
47	0xbe398381	-0.18116571
48	0x3e3add77	0.18248545
49	0x3db9dc51	0.09075225
50	0xbdc3e60d	-0.09565363
51	0x3e237bfd	0.15965267
52	0xbd876871	-0.066117175
53	0xbe1b9cc8	-0.15196526
54	0x3d243583	0.040090095
55	0xbdbbca1f	-0.09169411
56	0x3e247123	0.16058783
57	0xbd58cb53	-0.05292828
58	0xbe437da6	-0.190909
59	0x3e6090ab	0.21930186
60	0x3d462148	0.048371583
61	0x3d825340	0.06363535
62	0xbd4280ec	-0.04748623
63	0xbe3e00e4	-0.18555027
64	0x3d608e03	0.054822933
65	0xbd177164	-0.036973372
66	0xbe0133b8	-0.12617385
67	0x3de0226e	0.10944067
68	0xbe3e0181	-0.18555261
69	0xbdc32f90	-0.09530556
70	0xbd3f727f	-0.04674005
71	0xbe67877c	-0.22610277
72	0xbe529311	-0.20563914
73	0xbda2056b	-0.0791119
74	0xbc55b325	-0.0130432
75	0x3e0c5604	0.13704687
76	0x3dc832a7	0.09775286
77	0x3e2e7c1f	0.17039536
78	0x3d3242ee	0.04352086
79	0x3ce097c6	0.027416121
80	0xbd3ff0ba	-0.046860434
81	0xbda72c2f	-0.08162724
82	0xbe42929a	-0.19001237
83	0xbe4957cc	-0.19662398
84	0x3dee86c0	0.11646795
85	0xbde0d408	-0.10977942
86	0xbd9838fe	-0.074327454
87	0x3d73627b	0.05942009
88	0xbe1199ce	-0.14218828
89	0x3dbf4d0f	0.0934087
90	0xbcb95a92	-0.022626195
91	0x3d7d3583	0.06181861
92	0xbdc53896	-0.096299335
93	0x3e45d85e	0.19320819
94	0xbe3fc46f	-0.18727277
95	0xbe5f4e09	-0.21807112
96	0x3e1d836d	0.15382166
97	0xbe3436e1	-0.1759906
98	0x3e2ddb3f	0.16978167
99	0x3da29116	0.07937829
100	0x3db478c2	0.08812095
101	0xbc1dfa46	-0.009642189
102	0xbc3a8842	-0.011385025
103	0x3c963f7c	0.018340819
104	0xbd8f1827	-0.069870286
105	0x3e22d70d	0.15902348
106	0x3dffee73	0.124966525
107	0xbd5c5581	-0.05379248
108	0x3d5c8156	0.05383428
109	0xbc4b4b5f	-0.012408107
110	0xbddc1cbd	-0.10747669
111	0xbe1dc6b6	-0.15407833
112	0xbd99b152	-0.07504524
113	0xbe5bc5f2	-0.21462229
114	0xbd946426	-0.07245664
115	0x3d988f96	0.07449262
116	0x3e452b4f	0.19254802
117	0xbe34972f	-0.17635797
118	0xbe415f0c	-0.18883914
119	0x3e11bec9	0.14232935
120	0xbdd851e8	-0.105624974
121	0xbc89a1a4	-0.01680071
122	0x3df53cc1	0.119744785
123	0x3e3074e2	0.17232087
124	0x3d9224f2	0.07135953
125	0x3d4c0cea	0.049817003
126	0xbbf682c0	-0.007522911
127	0x3c88ee02	0.016715053
128	0x3d5980ab	0.053101223
129	0xbe4e685a	-0.20156994
130	0xbe509ce2	-0.20372346
131	0x3dbb315c	0.09140274
132	0xbe57751c	-0.21040767
133	0x3dfb4f3a	0.12270971
134	0x3e2b43b7	0.1672505
135	0x3deed48a	0.11661632
136	0x3d9e75ab	0.07737287
137	0xbd2a59f0	-0.041589677
138	0x3d32dbb5	0.04366656
139	0x3de4fb91	0.11180795
140	0xbaabc57e	-0.0013105122
141	0xbe19515d	-0.14972444
142	0x3deb5ffa	0.114929155
143	0xbc9f23a3	-0.019426173
144	0x3e0dd853	0.13852052
145	0xbe1dd9cc	-0.15415114
146	0xbdd68fe9	-0.104766674
147	0xbe07f75e	-0.13277957
148	0x3b0caeae	0.0021466422
149	0x3e38aa71	0.18033768
150	0xbc921fa7	-0.017837359
151	0x3e3b1c9e	0.18272635
152	0x3e2e90c5	0.17047413
153	0xbdd4b611	-0.10386289
154	0x3e383436	0.17988667
155	0x3cac0710	0.020999461
156	0x3e318f09	0.1733972
157	0x3cc1e2f7	0.023667796
158	0xbd375560	-0.044759154
159	0x3e590297	0.21192394
160	0xbdf5e7c6	-0.12007098
161	0xbc3309d3	-0.010927635
162	0xbce62209	-0.028092401
163	0x3b21e10e	0.0024700793
164	0xbd94cc5b	-0.0726554
165	0x3e3c2e04	0.18376929
166	0xbc455386	-0.012043839
167	0x3d641989	0.055688415
168	0x3dacf64a	0.084454134
169	0x3e4032cd	0.18769379
170	0x3d986c65	0.074425496
171	0xbe4abb53	-0.19798021
172	0xbe40dbf5	-0.18833907
173	0xbe6d99bb	-0.23203175
174	0xbe42034f	-0.18946575
175	0xbe5b7f0d	-0.21435185
176	0xbcc1d38c	-0.023660444
177	0x3e3d0563	0.18459086
178	0xbe0915fd	-0.13387294
179	0x3d9f084e	0.07765256
180	0xbdc7a574	-0.097483546
181	0x3e1362d3	0.14393167
182	0x3e04d15f	0.12970494
183	0x3d875821	0.06608606
184	0x3e42f3f1	0.19038369
185	0xbe353577	-0.17696176
186	0xbe1a7518	-0.1508373
187	0xbde9b363	-0.114111684
188	0x3ccd2445	0.025041709
189	0x3e3f46f5	0.18679412
190	0x3d825b7e	0.06365107
191	0x3d574be1	0.0525626
192	0xbcc2d893	-0.023784911
193	0xbe077364	-0.13227612
194	0x3e3e0316	0.18555865
195	0xbe612f41	-0.21990682
196	0xbe1df32e	-0.15424797
197	0x3dd180b3	0.102296256
198	0x3e181536	0.14851841
199	0x3d3dca56	0.04633554
200	0x3c512db1	0.012767241
201	0xbd3c7dbe	-0.046018355
202	0x3c3566d2	0.011071878
203	0xbde002e6	-0.10938053
204	0x3e528b83	0.20561032
205	0x3e6af847	0.22946273
206	0xbd777e4c	-0.06042318
207	0x3df933e7	0.12168103
208	0xbd3c9d80	-0.04604864
209	0xbe2bf634	-0.16793138
210	0x3c71578e	0.014730347
211	0xbd8be870	-0.06831443
212	0x3e244bfa	0.16044608
213	0x391be3fe	0.00014866886
214	0xbd43349f	-0.047657605
215	0xbe44ac20	-0.19206285
216	0x3e452be6	0.19255027
217	0x3e0b0dea	0.13579527
218	0x3d043203	0.032274257
219	0xbc8df23a	-0.017327417
220	0xbd8cca53	-0.06874528
221	0x3db4f625	0.08836011
222	0x3e245f70	0.16052032
223	0xbd0d17ab	-0.0344464
224	0x3c21ea68	0.009882547
225	0xbe60ac58	-0.21940744
226	0x3d91bbec	0.071159214
227	0xbdbbbece	-0.091672525
228	0xbd469a6f	-0.048487123
229	0xbdf2edaf	-0.11861741
230	0x3e3289bb	0.17435353
231	0x3e069d98	0.13146055
232	0xbde78800	-0.11305237
233	0xbd599273	-0.05311818
234	0x3d57b7c4	0.052665487
235	0x3dab08e2	0.08351304
236	0xbdad2293	-0.0845386
237	0x3d8e5c6d	0.069512226
238	0x3d39c030	0.0453493
239	0x3d9f8291	0.077885754
240	0xbdf1126b	-0.11771091
241	0xbe2230f9	-0.15838994
242	0x3dbe44a6	0.092904374
243	0xbcf18593	-0.029482638
244	0xbdaa8d2c	-0.08327708
245	0x3e1d85ba	0.15383044
246	0xbd874e01	-0.06606675
247	0xbe1b2757	-0.15151726
248	0xbcb7374c	-0.022365235
249	0xbdc26ee6	-0.094938084
250	0xbdc6fc0b	-0.09716042
251	0xbe2e99f0	-0.1705091
252	0x3e13dc18	0.14439428
253	0x3e406752	0.18789414
254	0xbe5c05a4	-0.21486527
255	0x3e12d9f3	0.14340954

fc2.weight f4 [128, 258]
0	0xbd90b5fa	-0.07065959
1	0x3c953164	0.018212028
2	0x3d9b3412	0.07578291
3	0xbc28d4b7	-0.010304621
4	0x3d97dcbd	0.07415149
5	0xbcf443c6	-0.029817473
6	0x3dc060c5	0.09393457
7	0x3d9e88c6	0.07740931
8	0xbdc55b91	-0.096366055
9	0x3a54efdf	0.0008122902
10	0x3d40596a	0.046960272
11	0xbdb45c93	-0.0880672
12	0xbb3ec6f2	-0.002911028
13	0xbd8dc215	-0.06921784
14	0x3cf6faf9	0.03014897
15	0x3da0e640	0.07856417
16	0xbd8b02be	-0.067876324
17	0x3ca23425	0.019800255
18	0x3d34a93b	0.044106703
19	0xbd05a877	-0.032631364
20	0xbc279698	-0.010228775
21	0xbc6c1310	-0.014408842
22	0x3cbc22c2	0.022965793
23	0x3cd136e2	0.025538865
24	0xbdceb66b	-0.10093387
25	0xbd5a4720	-0.053290486
26	0xbd524817	-0.05133828
27	0x3d65b0bf	0.05607676
28	0x3d56943b	0.052387457
29	0xbc38c60c	-0.011277687
30	0xbc22f420	-0.009945899
31	0xbd701452	-0.05861313
32	0x3d810ecf	0.06301653
33	0x3d24101c	0.040054426
34	0xbd324eec	-0.043532297
35	0x3db3c473	0.08777704
36	0xbbcf58d4	-0.006327728
37	0x3d52b2ea	0.051440157
38	0xbdb0ce63	-0.08633115
39	0xbd3ecd18	-0.04658231
40	0x3c47a059	0.012184226
41	0x3d1b7725	0.037955422
42	0x3d294478	0.041325063
43	0xbdb13690	-0.08652985
44	0xbd8d91f3	-0.06912603
45	0xbdbcd53a	-0.09220357
46	0xbd12922e	-0.03578394
47	0xbcf0f8b8	-0.029415473
48	0xbd791c83	-0.060818207
49	0xbd21fa0e	-0.03954511
50	0xbd3586b6	-0.044317923
51	0x3cb92c7f	0.022604225
52	0x3d8062af	0.062688224
53	0x3ce05173	0.027382588
54	0xbd49a91e	-0.04923355
55	0x3db956bf	0.09049749
56	0xbc162d82	-0.009166123
57	0x3d0f95e2	0.03505505
58	0x3b95a01e	0.0045662066
59	0x3d4ff199	0.050767515
60	0xbd15ec2e	-0.03660219
61	0x3a59d7fd	0.0008310078
62	0x3d450851	0.048103634
63	0xbdc17d74	-0.094477564
64	0xbd0074b8	-0.03136131
65	0xbcf2e3e0	-0.029649675
66	0xbcbae19f	-0.022812663
67	0xbd862d74	-0.06551638
68	0x3c46532e	0.0121047925
69	0xbdaf0dc2	-0.08547546
70	0xbccbc713	-0.0248752
71	0x3ced3e0c	0.02896025
72	0xbce8d473	-0.028421616
73	0x3cca9e3c	0.024733655
74	0xbd26ef03	-0.040755283
75	0xbb12d58d	-0.0022405118
76	0x3c90a6d3	0.017657673
77	0x3d24573b	0.040122252
78	0x3d5ba9b1	0.053628627
79	0xbdd37c99	-0.103264995
80	0x3d40b65d	0.047048915
81	0xbba6dbe9	-0.0050921333
82	0x3de8e250	0.11371291
83	0xbddedd57	-0.10882061
84	0x3cf19e09	0.029494302
85	0x3d5d2ee6	0.053999804
86	0x3d9c6df1	0.07638157
87	0x3d7e9c2b	0.062160652
88	0xbdda1cd3	-0.10650029
89	0x3da14d68	0.07876092
90	0x3d48c55c	0.04901634
91	0xbdda3ea3	-0.10656478
92	0xbdc335ef	-0.095317714
93	0xbd1f48db	-0.03888784
94	0x3daeb131	0.0852989
95	0xbcdb1998	-0.026745602
96	0x3d89dc53	0.06731477
97	0xbd37db52	-0.044886895
98	0xbd5a7d49	-0.053342137
99	0xbd870f2a	-0.06594689
100	0x3d99aec9	0.07504041
101	0xbcde2ae4	-0.027120061
102	0xbd681193	-0.056657385
103	0x3d2db0f7	0.042405095
104	0x3c61a42d	0.013772053
105	0xbd8d01df	-0.068851225
106	0xbcb1a7ad	-0.0216864
107	0xbddf42c9	-0.1090141
108	0x3c8bedfb	0.017081251
109	0x3ccec2fc	0.02523946
110	0x3cbfe298	0.023423478
111	0x3cf85d02	0.030317787
112	0xbd7fc610	-0.062444746
113	0xbc7582f3	-0.014984834
114	0xbd9a4a6e	-0.075337276
115	0x3d837f1b	0.06420728
116	0xbda4e366	-0.08051185
117	0xbca102bc	-0.019654624
118	0x3d797500	0.060902596
119	0x3da342ef	0.07971751
120	0xbda2e650	-0.07954085
121	0x3d2e8a2f	0.04261225
122	0xbd25be2e	-0.040464573
123	0x3cdc37be	0.026882049
124	0xbdc75847	-0.097336344
125	0xbd16cc10	-0.036815703
126	0xbc962676	-0.018328886
127	0xbcd5a97e	-0.026081797
128	0xbd9c168a	-0.076214865
129	0xbd5f926e	-0.054583006
130	0xbd638a9a	-0.055552103
131	0xbc203598	-0.009778403
132	0xbc6df773	-0.0145243285
133	0x3c907cec	0.017637692
134	0x3d07055b	0.03296409
135	0xbcec52a7	-0.028848005
136	0x3d7910b5	0.06080695
137	0xbcae1424	-0.021249838
138	0x3d93b14b	0.0721155
139	0x3d85c268	0.06531221
140	0xbca52e72	-0.020163748
141	0x3c8b168b	0.016978523
142	0x3cebba81	0.028775455
143	0x3ce8716c	0.028374396
144	0x3ca64fba	0.020301688
145	0xbd8e0996	-0.06935422
146	0xbc469d83	-0.012122515
147	0xbc425be5	-0.01186273
148	0x3d84aad0	0.064778924
149	0xbbbf5f66	-0.00584023
150	0xbd2a5488	-0.04158452
151	0x3d9386fd	0.07203481
152	0x3dbf5670	0.093426585
153	0x3d265be2	0.04061497
154	0xbd5c1fcb	-0.053741258
155	0xbd11791d	-0.035515893
156	0x3d29b4e3	0.041432273
157	0x3d9958b3	0.07487621
158	0x3bcc4d2d	0.006234786
159	0x3ddca108	0.10772902
160	0xbc5c9709	-0.013463744
161	0x3d685fa2	0.056731828
162	0x3d4742a6	0.048647545
163	0xbd2925fd	-0.041295994
164	0xbd6059fb	-0.054773312
165	0xbc71e8b8	-0.014764957
166	0xbd3746be	-0.0447452
167	0xbd09ccbe	-0.033642523
168	0x3d0ddcba	0.03463433
169	0x3cb98e3b	0.022650829
170	0xbd0bc25a	-0.034120895
171	0xbc1f7e08	-0.009734638
172	0x3d9b3649	0.075787134
173	0x3c501379	0.012699955
174	0xbd55c7ec	-0.052192613
175	0x3d0b9a16	0.034082495
176	0x3b0d7f72	0.0021590856
177	0x3ce09cc5	0.027418504
178	0xbcbd2811	-0.023090394
179	0xbd253d9c	-0.04034196
180	0x3d31fc9a	0.04345379
181	0xbda90981	-0.08253766
182	0xbb829dfc	-0.0039861184
183	0xbc88fdd1	-0.016722592
184	0xbd18e1dc	-0.03732477
185	0xbba77181	-0.0051099663
186	0x3dc3c2d7	0.09558647
187	0xbc21f04d	-0.009883952
188	0xbdf17a3c	-0.117908925
189	0x3cc8cf21	0.02451283
190	0x3c72fa92	0.014830248
191	0xbb5f6a54	-0.0034090476
192	0x3ad951c5	0.0016580155
193	0xbcbe857f	-0.023257015
194	0x38985188	7.263111e-05
195	0x3ceaf4c5	0.028681168
196	0x3d37cd1b	0.04487334
197	0x3d32fedb	0.04370008
198	0x3d874126	0.06604223
199	0xbd907948	-0.070543826
200	0x3dcea2ff	0.10089683
201	0x3cad30c0	0.02114141
202	0x3d5dc059	0.054138515
203	0x3c1b7e40	0.00949055
204	0x3ca79a3e	0.02045929
205	0xbd1a64cb	-0.03769378
206	0x3dcaec47	0.099083476
207	0xbd10261a	-0.035192586
208	0xbd978832	-0.07399024
209	0xbd8576af	-0.06516778
210	0x3c04a55c	0.008096065
211	0xbcfc3873	-0.030788636
212	0x3b5877ea	0.0033030459
213	0x3c806cb5	0.015676836
214	0xbb1ef79c	-0.0024256473
215	0x3d708917	0.05872449
216	0x3d9661e8	0.07342893
217	0xbdc69150	-0.09695685
218	0x3d7f638b	0.06235079
219	0x3d9c2936	0.07625048
220	0x3c60d561	0.0137227485
221	0x3c47ba1b	0.012190367
222	0x3d9cd963	0.07658651
223	0x3cb3da8c	0.021954797
224	0xbd26a07c	-0.040680394
225	0xbd631269	-0.05543748
226	0xbddb99da	-0.10722704
227	0xbc1b55a1	-0.009480865
228	0xbd6b8725	-0.05750193
229	0xbd8ff65a	-0.0702941
230	0xbd3d3219	-0.046190355
231	0xbcc275ce	-0.023737814
232	0x3d165ab3	0.03670759
233	0xbc5fb3ae	-0.013653679
234	0x3dbfbd86	0.093623206
235	0x3d9efacb	0.07762679
236	0xbd401bbd	-0.046901453
237	0x3d09dd82	0.033658512
238	0x3c9da6dc	0.019244604
239	0x3d560e1f	0.05225956
240	0xbcb80201	-0.022461893
241	0xbd0d65a7	-0.03452077
242	0x3d0f3450	0.034962
243	0xbca8becd	-0.020598793
244	0x3d8d88fc	0.06910893
245	0xbd72a8df	-0.05924308
246	0xbd4a01b6	-0.049318038
247	0x3d23a2d0	0.039950192
248	0xbc1e00f7	-0.009643785
249	0xbcd63af4	-0.026151158
250	0x3d37a13c	0.0448315
251	0xbd9e6e0a	-0.07735832
252	0xbd418366	-0.047244452
253	0x3dcbdbb3	0.09954014
254	0x3d499ca3	0.049221646
255	0x3d92628e	0.07147704

fc2.bias f4 [128]
0	0x3d9d3b31	0.076773055
1	0x3c8f0304	0.017457493
2	0xbca4d6c2	-0.020121936
3	0x3bbab6d4	0.0056980643
4	0xbc7a8b82	-0.01529205
5	0xbc19df48	-0.009391613
6	0x3d1bb1d2	0.03801138
7	0x3d3815e5	0.044942755
8	0xba7aa252	-0.0009560931
9	0xbd882ea7	-0.06649523
10	0x3d6bcbee	0.05756753
11	0xbddd5b65	-0.10808448
12	0x3d371997	0.04470214
13	0xbd7cc8cb	-0.06171493
14	0xbd444674	-0.04791875
15	0xbcbd44c3	-0.023104077
16	0xbbbf305e	-0.0058346232
17	0x3cca5b9b	0.024701884
18	0x3d19fa42	0.03759218
19	0x3d053ce9	0.03252879
20	0xbd87f3cd	-0.06638298
21	0x3c1e6faa	0.0096701775
22	0xbb39c8e0	-0.002834849
23	0xbcd92dcb	-0.026511094
24	0x3ca7fa6b	0.02050515
25	0xbd3bdf4b	-0.045867246
26	0x3d0138fc	0.031548485
27	0x3c16b094	0.009197373
28	0x3b80ea49	0.003934179
29	0x3d2b06f2	0.04175467
30	0x3d061d08	0.03274253
31	0x3d4175ed	0.047231603
32	0x3b1f1356	0.0024273
33	0x3d057cd6	0.032589756
34	0xbd66359b	-0.056203466
35	0x3d91a677	0.07111829
36	0x3ce61b7b	0.028089276
37	0x3c30fc2b	0.010802309
38	0x3d312ae3	0.04325379
39	0xbcbc81d6	-0.02301113
40	0xbd4f3d49	-0.050595555
41	0xbd8c9343	-0.068640254
42	0xbc9e8fd2	-0.019355688
43	0xbba3721c	-0.004987968
44	0x3cd75b17	0.026288552
45	0xbd187441	-0.037220243
46	0xbd42bd8d	-0.04754405
47	0xbd834a10	-0.06410611
48	0x3c5f2d13	0.013621586
49	0x3c028fad	0.007968825
50	0xbd84e530	-0.064890265
51	0x3c0d4a0e	0.008623613
52	0x3bb1fb5d	0.005431576
53	0xbca3a4b3	-0.019975996
54	0x3d90b4a5	0.07065705
55	0xbd3c419b	-0.045961004
56	0x3d82d99c	0.06389162
57	0xbd4dc922	-0.050240643
58	0x3d456957	0.048196163
59	0xbd708b8d	-0.058726836
60	0xbcee57cc	-0.0290946
61	0xbbe542b5	-0.0069964775
62	0xbd0e8f6e	-0.034804754
63	0x3d423956	0.04741796
64	0xbca412b7	-0.020028455
65	0xbd63d658	-0.055624336
66	0x3cdff6cc	0.027339362
67	0x3d0ba23b	0.034090262
68	0xbd64bdb3	-0.055844974
69	0xbd64518b	-0.055741828
70	0x3c9ed977	0.019390805
71	0xbb60a43a	-0.0034277574
72	0xbc8a4bf4	-0.01688192
73	0xb917e5ed	-0.00014486136
74	0xbc371a7c	-0.011175748
75	0xbccfb4ab	-0.025354704
76	0xbd96a5d3	-0.07355847
77	0x3d1f11fe	0.038835518
78	0x3d530ad7	0.05152401
79	0x3cfb7c74	0.030698992
80	0xbd863bc8	-0.06554371
81	0xbc095ada	-0.008383477
82	0xbc581299	-0.013188028
83	0xbd5549a6	-0.05207219
84	0x3c8fc487	0.017549766
85	0x3c336486	0.01094926
86	0xbd7d2344	-0.06180121
87	0xbd165c44	-0.036709085
88	0x3d897493	0.06711688
89	0x3c3ef01e	0.011653928
90	0xbcb3461c	-0.021884017
91	0xba945b6b	-0.0011318749
92	0xbd6406bd	-0.05567049
93	0x3d4cce02	0.05000115
94	0x3c42b257	0.01188334
95	0xbc538a82	-0.012911441
96	0xbcc9aa59	-0.02461736
97	0xbbc0fca4	-0.005889492
98	0xbc1a5756	-0.009420237
99	0x3d072569	0.03299466
100	0x3d2a59f9	0.04158971
101	0x3d10e7a3	0.035377156
102	0xbc5f5ad8	-0.013632499
103	0x3d88a60e	0.066722974
104	0x3cae957e	0.021311518
105	0xbd62d8e3	-0.05538262
106	0xbc7973cc	-0.015225362
107	0x3bb485ae	0.0055091
108	0x3cbc2707	0.022967828
109	0x3d22ef2a	0.039778866
110	0x3d2745fe	0.040838234
111	0xbb1ea49f	-0.0024207009
112	0x3d336f7a	0.043807484
113	0x3c70ad4e	0.014689757
114	0x3d21da3d	0.03951477
115	0x3cd4dd7d	0.02598452
116	0x3cd0ff25	0.025512287
117	0xbd441ca3	-0.047878873
118	0x3d1a93b8	0.03773853
119	0x3ccda598	0.025103375
120	0x3d13f237	0.036119666
121	0x3d4d6d8e	0.050153308
122	0xbbffc3f7	-0.0078053433
123	0xbd22d91a	-0.039757825
124	0xbcc4458f	-0.02395895
125	0x3ce9134f	0.02845159
126	0xbca7dc49	-0.020490782
127	0x3cc7db7d	0.024396652

fc3.weight f4 [1, 128]
0	0x3bb02709	0.005375747
1	0xbcda8e9e	-0.026679333
2	0xbc496cf7	-0.012294046
3	0xbd48380e	-0.048881583
4	0x3c2e1f03	0.010627511
5	0x3d08a0ce	0.03335648
6	0x3cf7f31f	0.030267296
7	0xbc9cf804	-0.019161232
8	0xb97fabc1	-0.00024382678
9	0xbc89c3d6	-0.016817015
10	0xbb363548	-0.0027802754
11	0xbcf97b56	-0.030454319
12	0x3cb8f92c	0.022579752
13	0xbc471043	-0.012149873
14	0xbcee8743	-0.029117232
15	0xbc30bc18	-0.010787033
16	0x3d77e1e5	0.060518164
17	0xbc08abef	-0.008341773
18	0xbd83c718	-0.064344585
19	0x3bc3727e	0.0059645763
20	0xbcd47044	-0.025932439
21	0xbcb48a36	-0.02203856
22	0x3c58c57a	0.013230676
23	0xbd27e7fa	-0.040992714
24	0x3c659408	0.014012344
25	0x3994a5b2	0.00028352212
26	0x3d2b8020	0.041870236
27	0xbc9581e2	-0.01825041
28	0xbc5fa05f	-0.013649075
29	0x3c10ef96	0.008846184
30	0x3c88030a	0.016603012
31	0xbc2a48c0	-0.0103933215
32	0x3d0bc56b	0.03412382
33	0x3c130231	0.00897269
34	0xbcae34e2	-0.02126545
35	0x3bbce95c	0.0057651233
36	0x3c6daea8	0.014506973
37	0x3cd85638	0.0264083
38	0xbc284214	-0.0102696605
39	0xbb8887ed	-0.0041665942
40	0x3b5647ee	0.0032696682
41	0xbc96e094	-0.018417634
42	0xbc6b19f6	-0.014349451
43	0xbccfd21c	-0.025368743
44	0x3ce33ada	0.027738024
45	0xbc0d2d8f	-0.008616819
46	0x3b2d79da	0.0026470334
47	0xbc18f4b9	-0.00933569
48	0xbc3022e6	-0.010750508
49	0xbc2362cd	-0.009972286
50	0xbc7e662b	-0.015527288
51	0xbc068300	-0.008209944
52	0xbc6378a6	-0.013883745
53	0x3c1c4ecc	0.009540271
54	0x3d761e3a	0.06008742
55	0x3d59d41d	0.053180803
56	0x3cc3faa6	0.02392323
57	0xbbd6cad2	-0.00655494
58	0xbc295a6e	-0.0103365015
59	0xbbc66352	-0.0060543204
60	0xbc3b5efa	-0.011436218
61	0xbd102905	-0.03519537
62	0x3c3f2e00	0.011668682
63	0xbc87afff	-0.016563414
64	0x3c5d50b5	0.013508012
65	0x3d416263	0.04721297
66	0xbbcef395	-0.0063156583
67	0xbcb84bdc	-0.02249711
68	0xbcffe97d	-0.031239266
69	0xbc3d13a2	-0.011540325
70	0x3c312d39	0.010814005
71	0xbc1ecf61	-0.009692998
72	0x3c5c52a6	0.013447439
73	0x3c084125	0.008316313
74	0x3c1f1c28	0.009711303
75	0x3cc084bc	0.023500793
76	0xbcdff726	-0.02733953
77	0xbdae414d	-0.08508549
78	0x3c574fb2	0.013141559
79	0x3c28f85c	0.01031312
80	0xbce840a9	-0.028351145
81	0x3c8728d6	0.016498964
82	0xbc3dc57c	-0.0115827285
83	0xbbee9581	-0.007281006
84	0x3bbd15c1	0.0057704155
85	0x3c550394	0.013001341
86	0xbbd53513	-0.006506571
87	0xbbc78e04	-0.0060899276
88	0x3c305c80	0.010764241
89	0x3ca57adf	0.020200191
90	0xbb7184e8	-0.00368529
91	0x3d4c8bfa	0.04993818
92	0xbc8b7ed5	-0.017028252
93	0x3b90c5f4	0.004418129
94	0xbd09361a	-0.03349886
95	0x3c14ccc6	0.009082025
96	0x3c2c0691	0.010499612
97	0x3c792c82	0.015208365
98	0xbb99136b	-0.0046715043
99	0x3c92ff3e	0.017943975
100	0x3b414521	0.0029490667
101	0xbd0e36cb	-0.034720223
102	0xbd808b09	-0.06276519
103	0x3c04a2e9	0.008095481
104	0xbcb98053	-0.022644198
105	0x3c476f2e	0.012172503
106	0x3c275dec	0.010215264
107	0xbbfeb539	-0.0077730683
108	0xbcc4d217	-0.02402596
109	0xbd46fdb3	-0.04858179
110	0xbc54c314	-0.012985963
111	0x3bd91df9	0.0066258875
112	0xbc45f1e7	-0.0120816
113	0x3d2834eb	0.04106609
114	0x3c75ea95	0.015009542
115	0x3cdb059e	0.026736077
116	0xbbb6d49c	-0.005579544
117	0x3bec8618	0.0072181337
118	0xbc734175	-0.014847149
119	0x3c2d2588	0.01056803
120	0x3ce81b44	0.028333314
121	0x3c9635e2	0.01833624
122	0x3aa6335f	0.0012680105
123	0xbc170604	-0.009217743
124	0xbc2800f1	-0.010254131
125	0x3d6195a7	0.05507436
126	0x3de4e021	0.11175562
127	0x3cfbb2b2	0.030724857
