checkpoint_critic0.pth (torch_old, 159739 bytes, 5 tensors)

fc1.weight f4 [256, 24]
00000000: 1c39 14bb 73be 9c3c a2be ee3c 06a1 8bbc
00000010: 48bb 16be 4db3 80bd 7e92 98bc c90c 4f3d
00000020: 8797 a4bc c411 ea3d 15c1 4bbd bed1 993d
00000030: 13ff 71bb 9ed6 f7bc c530 4d3d c7b2 aa3d
00000040: 15f0 973c 2ca6 833d a726 423d 8f82 c53c
00000050: ffb6 ee3c 8500 d8bd 6b58 44bd bd2d 533d
00000060: b2ae b63c f4f8 a53c 676f 4ebc ad7d 513d
00000070: eae0 70bd a617 2dbd 0164 033d 8af4 f43c
00000080: 7481 2fbb 52b1 f33c 8dcc c23c 268d c03d
00000090: f36b 21bd 7961 d73c dcf4 48bc 9558 bc3d
000000a0: 62ac 833d ead0 2e3d 871f 90bc 6987 0bbe
000000b0: 917a 753d 6db7 873c db5a cb3c 34e6 ddbd
000000c0: b031 383c 5569 0dbd ace4 31bb dfb9 72bd
000000d0: 6219 acbd 70f1 9cbd e94b 983c a1ca 3bbd
000000e0: 6eb3 6cbc 2651 513c 4aef 01bc 9684 2fbd
000000f0: b268 d53c a1f6 23bd cc3c d23b e304 0a3d
00000100: 46ca 9e3c 8d82 10bd aa11 5e3d d6c8 6f3d
00000110: 94bf 183e 4120 8cbb 1b18 a5bb 38d6 793d
00000120: 1184 643d 3e24 b23c bcde 583c 7238 cb3c
00000130: cb4f d5bd c47c 773d 7f39 c73c ce67 383d
00000140: 7015 153c bcfb aa3d b9a8 1ebc f89b a73c
00000150: 5141 49bc 3de9 9fbc 9454 5e3d 0f61 6abd
00000160: 5597 61bd 0582 6b3d 7c90 183c 6aed 88bc
00000170: 78bf ce3d 990c 80bd 426a c73c bde5 cbbc
00000180: c1c0 b63c 6b5f b2bc 7935 c1bc 6726 8e3c
00000190: bed9 cf3c 8f5e d6b9 ed00 183d a2b0 e4bc
000001a0: 5c78 83bd ea19 183d 6da1 513b 3d28 75bd
000001b0: 01c4 053d de0a 3ebc 2082 98bc a7f7 173d
000001c0: 8257 953c 2592 84bc 419e e9ba 9734 98bc
000001d0: 5654 b9bd 3ced 45bc e41e 223d fdad 79bd
000001e0: a2e4 673d bab2 983d ea85 d93c 3d1d d7bc
000001f0: 5afa 9b3d aee6 883d b510 6abc 327e 8abd
00000200: 640b 2f3d a616 9dbc e52b b83c e5b3 48bd
00000210: 9fdc 9bbc 7059 ac3d 2ca2 13bb 1ca8 94bd
00000220: 5f0c adbb 1128 193d 6216 c0bb 5690 1b3d
00000230: d956 09be 4eb6 b83d 17cc 1f3c 7b8a 0fbd
00000240: db13 343d c17e 743d 5a48 30bd b69c 80bc
00000250: 2760 b0bc c933 273d 45da 1dbb 37dd 1a3d
00000260: 1ceb 903c a120 7f3d cf33 133d 22d3 953d
00000270: 12c0 26bd 02e6 68bd eac3 3abd 52bc d73c
00000280: 2ba3 da3c 3cbd db3d 9e02 aabc 66bd 6ebd
00000290: ceb0 53b9 84a3 adbd b479 bfbc 4111 8bbc
000002a0: 012a 853c 7bf2 3abb 408c 8dbc d87c 8c3b
000002b0: 42f3 8cbd 57fc 0a3d 5fe2 873c 9882 dc3c
000002c0: b8fc df3b ec24 d0bc 8105 4fbd d1db 26bd
000002d0: 458f 12bd 8476 75bd d33b ac3c 050c ee3c
000002e0: ca24 48bd 3c18 a6bd 5b52 fdbb 03f7 363b
000002f0: 8a97 0dbc 9c22 0a3c 8780 633c 1d2d 06bd
00000300: cafd 223c af7a ee3c 1e01 0bbd 9f9f dd3c
00000310: b249 b23d 0261 013d f10a 52bc c4ee 373b
00000320: d2a8 59bd b8f3 553d 4eb2 ed3c c84c 603d
00000330: 2b32 bc3c d0cf 9fbb 3c10 60bd 3b6f c4bc
00000340: 3a97 d9bb 03e9 d3bc c5fb 83bc 2644 6fbc
00000350: 4405 89bd 2659 263d 6fc8 68bc 8a17 20bd
00000360: c896 12bd a47b 013b 5f36 0cbd a4a6 c73b
00000370: 7bfe 9abe 231b febc 352e 0a3d 2615 f6ba
00000380: 84f8 763d 1666 aebc aca2 033d c710 37bb
00000390: e02c b3be a191 9abc 40d6 13bd aead 59bc
000003a0: 9575 ccbc c848 2a3d 0026 20bd 891f b33c
000003b0: 3f83 a9be 722e fa3c 569c 2a3d 081e 68bc
000003c0: 88c3 03bd df96 cd3d 9492 063d 940a 70bd
000003d0: 7c84 2fbd d005 663d 0793 a13c a1c6 1abc
000003e0: e9d8 c6bc f898 5f3d 5aee 173d c636 e9bc
000003f0: e67b 413d 5983 d8bd 53f5 41bd 5a3d 7dbc
-0.0022617048 0.019133782 0.029143635 -0.017044555 -0.1471988 -0.06284199 -0.01862454 0.050549302
-0.020091785 0.1142917 -0.049744684 0.07510708 -0.0036925718 -0.030253705 0.05009534 0.0833488
0.018547097 0.06428179 0.047400143 0.024110107 0.029139994 -0.10546974 -0.047935884 0.05155729
0.022300098 0.020260312 -0.012599803 0.051145244 -0.058808245 -0.04225888 0.032077793 0.029901762
-0.002678004 0.029747639 0.023779178 0.09401922 -0.03940959 0.026291596 -0.01226541 0.09196583
0.06429364 0.042679705 -0.017593158 -0.13625874 0.05993134 0.016566956 0.024823597 -0.108349234
0.011242315 -0.03452428 -0.0027144356 -0.05925929 -0.08403279 -0.07663238 0.018590884 -0.04584754
-0.014447076 0.012775695 -0.007930586 -0.042851053 0.0260509 -0.040030126 0.006415939 0.033696067
0.01938356 -0.035280753 0.054216065 0.05854114 0.14916831 -0.004276306 -0.005038274 0.06099531
0.05579001 0.021745797 0.013236698 0.024807189 -0.1041561 0.06042172 0.024319408 0.04502087
0.009099349 0.08348796 -0.009683781 0.020460114 -0.012283639 -0.019520396 0.05427988 -0.05722147
-0.055075962 0.057497043 0.0093117915 -0.01671477 0.100951135 -0.06252403 0.02434266 -0.024889821
0.02230871 -0.021774014 -0.023585068 0.017352296 0.025372382 -0.00040887712 0.037110258 -0.027916256
-0.06419441 0.03713409 0.0031987086 -0.059852827 0.032657627 -0.011599271 -0.018616736 0.037101414
0.018230204 -0.016182968 -0.0017823653 -0.018579764 -0.09049289 -0.012080487 0.03958024 -0.060956944
0.056614526 0.074559644 0.026553113 -0.02625906 0.0761611 0.06684624 -0.01428621 -0.06762351
0.042735472 -0.019175839 0.022481868 -0.048999686 -0.019026099 0.08415496 -0.0022527082 -0.07258627
-0.0052810158 0.037391726 -0.0058620432 0.037979446 -0.13412036 0.09019147 0.009753249 -0.035044175
0.04396425 0.059691194 -0.04303775 -0.015699726 -0.021530224 0.04082087 -0.0024086398 0.037808623
0.017690234 0.062286977 0.03593808 0.07315661 -0.040710516 -0.056859978 -0.045596994 0.026334915
0.026689133 0.10729453 -0.020753201 -0.058286093 -0.00020188393 -0.08478454 -0.023373462 -0.016976
0.01625538 -0.0028525877 -0.01727879 0.0042873435 -0.06882335 0.033932056 0.016587434 0.02691774
0.0068355463 -0.02540823 -0.05054236 -0.040736977 -0.035781164 -0.05992748 0.02102462 0.029058466
-0.04886321 -0.08110091 -0.007730765 0.0027918227 -0.008642087 0.008431103 0.013885624 -0.032757867
0.009948203 0.029111234 -0.033936612 0.027053652 0.087054625 0.031586654 -0.012819991 0.00280659
-0.053139515 0.05223438 0.029015686 0.054760724 0.02297314 -0.004877068 -0.054702982 -0.02397882
-0.006640342 -0.025867945 -0.016111264 -0.01460365 -0.066904575 0.040612362 -0.014207943 -0.03908495
-0.035788327 0.0019757533 -0.03423154 0.006092863 -0.30272278 -0.0310188 0.033735473 -0.0018774613
0.060295597 -0.021288913 0.032137558 -0.0027933584 -0.34995174 -0.01886827 -0.036092997 -0.013286037
-0.024958411 0.041573316 -0.03909874 0.021865623 -0.33107945 0.030539725 0.041653 -0.014167316
-0.032168895 0.10038542 0.03285463 -0.058603838 -0.042850956 0.056157887 0.019723428 -0.009446771
-0.024273353 0.05458924 0.037092544 -0.0284685 0.0472373 -0.105719276 -0.0473531 -0.015456522

fc1.bias f4 [256]
00000000: 6c16 b1bd 3b86 a83d 1ff1 b73d b989 0e3e
00000010: 2bb5 48bd 70fa 49be b79d 4dbe 84c0 633b
00000020: 8b0f 60be 8fb5 26be d4ad ee3d fb18 0cbd
00000030: d77e 083d 5fb5 3ebe 5c0d 573d a879 2f3e
00000040: 0813 863c b420 9f3c 4e17 11be de63 37be
00000050: 9b5d e23d cc6a 68be 5f5d 06bd be4b 42be
00000060: 85a5 03bb b9a7 49be 9764 2e3d 4aed e63c
00000070: 34ec 5ebe c68e 08bd dcc1 7cbd a0d2 b3bd
00000080: d4b6 8ebd e554 7e3c ddd7 c8bd c484 9a3d
00000090: f6df 3bbe bc71 5d3e af85 0bbe 1eb4 993d
000000a0: 55bd 0fbe 86d4 35be 85b3 0f3c a1d7 2bbe
000000b0: 4448 90bd 1251 f5bd c966 c2bd 6f5a 10be
000000c0: 43af 4d3e 2fec c93d 8d7b 8ebd 6773 1f3e
000000d0: 5e6e 02bd 72d7 37be 2f01 c23c 5238 7fbd
000000e0: a974 153e 8c6c acbd ed88 28be 8f96 273e
000000f0: b92f 313d f91b 8b3d 3982 28bd a746 44be
00000100: 642a 8f3d a865 babc 640e 02be 0dc4 cb3d
00000110: 66f8 44be 7699 eebd 6c6c 54bd 7933 34be
00000120: 84c1 50be 933e 67bd 5bf9 16bd b47f 303e
00000130: b420 df3d 5114 403e 8f1d 593d eddd 403b
00000140: 7461 65bd c39a a9bd d489 46be 57cf 4fbe
00000150: ee76 7d3d cd5d 09be 3a54 b6bd 0fcc 783d
00000160: f853 12be 0aa0 933d 07f3 15bc 6c79 793d
00000170: c485 a0bd d0ac 0f3e 9dcc 16be d168 4abe
00000180: 7ede 283e 98c1 13be 51a7 353e 45bc c43d
00000190: 1140 093e dc00 333b ec27 a53c 518c 0c3d
000001a0: fec5 dabd aa6c fb3d 1167 0f3e 0320 cdbc
000001b0: 5c8a 423c 36f5 f2bc 0310 a0bd 1263 21be
000001c0: c43f d9bd 311d 6abe 3247 abbd 89d7 ac3d
000001d0: 589b dc3d d9c1 2dbe c11d 36be 9064 e43d
000001e0: bb7a d2bc d88b 4cbc dbc4 f33d a0c5 143e
000001f0: 1d21 8e3d 0eef 323d 33cb 4abd 1302 18bd
00000200: 0718 8e3d bb77 5abe 94c8 69be 7028 063e
00000210: c8cd 4bbe 4107 cd3d 7e0c 273e 30a9 dc3d
00000220: a2a6 813d c787 fd3a 280c 843d 1328 023e
00000230: a822 453c cf20 57be c623 be3d 15f2 a53c
00000240: b63b fd3d 4903 debd 47a7 88bd e554 18be
00000250: 39c7 babc 7a80 3f3e 0a34 b7b9 dc21 d43d
00000260: 7945 013e 9250 0fbe c101 4d3e dd68 693c
00000270: dc7c 303e 8349 0c3c ce85 89bd 6d04 243e
00000280: 0faa 13be c4cf f2bc 75de 07bd 5398 29bc
00000290: 489c 9fbd e4a5 113e d91f 97bc 7d80 7a3d
000002a0: df5d 8d3d 27f5 0e3e b314 523d dbd1 58be
000002b0: 26a3 2abe 189a 57be 5656 5fbe ad05 33be
000002c0: 1fb5 0dbd 2418 1b3e ec35 10be a5d4 c83d
000002d0: 9ca2 e8bd 5f3e 233e aa56 0b3e 1f14 a53d
000002e0: 6056 593e 6955 24be 19c6 12be 6dd3 39bd
000002f0: d473 543d 5b54 293e f872 9a3d ecad d33d
00000300: 9ce4 58bd e4f0 00be d48b 4a3e 66fe 63be
00000310: 6cb4 22be e38f e23d c033 2c3e 2019 3c3c
00000320: 333d 543c 3f6e 0abd f8d5 bb3c ba46 f6bd
00000330: 287b 493e c6fb 5a3e 479f 45bd 86bb d33d
00000340: c529 b7bd ebbe 36be 3352 7f3c a5e4 4ebd
00000350: 9781 413e 5e27 c83b d67c 88bd 4850 20be
00000360: aedc 163e 42b6 063e 8cc0 e43c 89e4 2ebd
00000370: de0e 67bd 04bb 0b3d bf7e 463e ecb7 1ebd
00000380: 7af0 003d 651f 69be 587f 933d a027 d7bd
00000390: c004 34bd 4044 eabd cbba 1e3e 1c3f 6a3d
000003a0: ded3 91bd 12c6 8bbd 8153 9e3d c17a 9a3d
000003b0: 4a2b c7bd 1db0 363d a956 f83c c17e cd3d
000003c0: 17ed 38be 9497 0ebe aad6 873d 6c93 333c
000003d0: b168 f5bd 7114 553e cd24 4dbd da97 07be
000003e0: 4658 7dbd 61bc 80bd 19a1 2ebd 888d 78be
000003f0: b6f0 1e3e 8488 2f3e f129 3dbe 7544 0e3e
-0.08646855 0.082287274 0.08981537 0.13919725 -0.0490009 -0.1972444 -0.20079695 0.00347522
-0.21880929 -0.16280197 0.11654249 -0.03420351 0.03332409 -0.18623875 0.052502975 0.17136252
0.016366497 0.019424774 -0.14169046 -0.1790919 0.1105301 -0.2269699 -0.03280389 -0.18974206
-0.002008767 -0.19692887 0.0425764 0.02818932 -0.21769792 -0.033339284 -0.061708316 -0.08780408
-0.069684654 0.01552317 -0.09806798 0.07544854 -0.18347153 0.21625417 -0.13625215 0.07505058
-0.14037068 -0.17756853 0.008770828 -0.16781475 -0.070450336 -0.119783536 -0.09492261 -0.14096998
0.20086388 0.098595016 -0.06957159 0.15571366 -0.031843536 -0.1795328 0.023682205 -0.06230957
0.14595284 -0.08419141 -0.16458483 0.16366027 0.043258402 0.06792445 -0.041139815 -0.19167577
0.06990507 -0.022753552 -0.12700802 0.09949503 -0.19235381 -0.11650364 -0.05186121 -0.1759776
-0.2038632 -0.05645616 -0.036858898 0.17236215 0.108949095 0.1875775 0.053006705 0.0029429153
-0.05600114 -0.082814716 -0.19388515 -0.20293938 0.061881 -0.13414688 -0.08902784 0.06074148
-0.14289844 0.072082594 -0.0091521805 0.060906813 -0.07838014 0.14030766 -0.14726491 -0.19766547
0.16491124 -0.14429319 0.17739607 0.09606222 0.13403346 0.0027313745 0.020160638 0.034313504
-0.10682295 0.122765854 0.1400416 -0.025039678 0.011873808 -0.029657941 -0.07815554 -0.15760449
-0.106078655 -0.22862698 -0.08363189 0.084395476 0.10771817 -0.16968478 -0.17784788 0.11151993
-0.025693288 -0.012484513 0.119027816 0.14528513 0.069399096 0.04368501 -0.049510192 -0.037111353
0.069381766 -0.21334736 -0.2283042 0.13101363 -0.19902718 0.10011149 0.16313359 0.107744575
0.06330611 0.0019342833 0.06447631 0.127106 0.0120321885 -0.21008609 0.09284167 0.020257035
0.123649046 -0.1084047 -0.066725306 -0.14876135 -0.022800075 0.18701354 -0.00034943252 0.10358021
0.12624158 -0.13995579 0.200202 0.014246193 0.1723513 0.008562448 -0.06714974 0.16017313
-0.14420341 -0.029640086 -0.033171136 -0.010351258 -0.0779348 0.14223439 -0.018447803 0.061157692
0.0690267 0.13960706 0.05128927 -0.21173804 -0.16663799 -0.21054876 -0.21810278 -0.17482634
-0.03459656 0.15145928 -0.1408307 0.09806184 -0.1135914 0.15941761 0.13607278 0.080604784
0.21224356 -0.16048206 -0.14333381 -0.045367647 0.051868275 0.16536085 0.0754146 0.10335907
-0.052952394 -0.12591892 0.19779903 -0.22265014 -0.15889138 0.110626005 0.16816616 0.0114806
0.012954044 -0.033796545 0.022929177 -0.12025209 0.19675887 0.21385106 -0.0482476 0.10338502
-0.08943514 -0.17846267 0.015583563 -0.05051102 0.18897091 0.0061082086 -0.066644356 -0.15655625
0.1473262 0.13155463 0.027923845 -0.042698417 -0.056410663 0.0341139 0.19384287 -0.03874962
0.031479336 -0.22765882 0.07202023 -0.10505605 -0.043949842 -0.11438799 0.15500943 0.057189092
-0.071204886 -0.06824888 0.07730771 0.07542945 -0.097250536 0.04460155 0.03031476 0.10033942
-0.18059193 -0.1392501 0.06632741 0.010960441 -0.11982859 0.20808579 -0.050083924 -0.1324152
-0.061851762 -0.062859304 -0.042634103 -0.2427274 0.15521511 0.1714192 -0.1847303 0.13893302

fc2.weight f4 [128, 258]
00000000: 3982 9abc 177f f0bb e448 d23d e1fb 0dba
00000010: cf9a 6a3d a8fa 11bd 0b50 b23d 4a82 c73d
00000020: a5c9 a9bd f61a 933c 0c6f aa3c c51c 91bd
00000030: 4d1b f3bc 14d8 24bd 152b ba3c 9467 a73d
00000040: 0e9f 96bd 61dc f93a 3dcd 753d 7eef a7bc
00000050: dd4a c53c 28f9 6bbd bedc f13c a439 573d
00000060: 32ab 9ebd b380 f9bc f696 3bbd 0eaf 343d
00000070: 24d4 463d b8fe b33c 2469 2e3c edd8 243c
00000080: e715 843d 9eb4 0a3a 0a2e 6abd 6bdd 853d
00000090: 54f3 b8bb c645 9b3d e4f2 8cbd 9ee1 a1bd
000000a0: a102 24bc 166d ea3b dd04 a63c b38b 85bd
000000b0: 71a1 8abd 4ff2 a3bd 8556 a2bc 77fe 4cbd
000000c0: 4f8a 1fbd 6277 043d 1fb3 db3a 4d41 203c
000000d0: d42d 103a 8af9 023d 4392 14bd a46b 833d
000000e0: 60ee 5f3c 13ca 463d c009 893c 6720 5e3d
000000f0: caf1 04bc af6c c43b da44 bb3d d35e 92bd
00000100: 733d e6bb ea54 87bd 3717 6ebd 06cc 66bd
00000110: 9839 363c 2b4c 8ebd 0240 8e3b cc96 453c
00000120: f495 29bc 5e05 9c3c aa6b d6bc 4c71 703c
00000130: d03c 603d 53e5 523d 848e 233d d94c cdbd
00000140: eff3 b13d 0098 91bc b6fb ae3d f780 713c
00000150: c62e a63c 57e3 103d 8e7f 493d 60a9 9e3d
00000160: 4dee 74bd c1d7 f93c 6e4c 803d 5377 0ebe
00000170: d3ba a3bd b043 e9bc 2c4b ea3d 3448 c73c
00000180: c670 a23d 2912 fabc 1a70 7cbc 4eb8 5abd
00000190: 746b 093e 0495 31bd a379 3dbd 4d2f 1b3d
000001a0: 84f7 013d b9f8 8fbd 6e49 eabc 4f77 09be
000001b0: 67c6 093d 7247 4b3d 11c2 ab3c 9d7e 1c3d
000001c0: 78be 3dbd ae83 8ebc edad 64bd c495 703d
000001d0: 39b0 a0bd e787 21bc c5dd ac3d 619e a03d
000001e0: 4f79 98bd 8398 503d 16c2 f3bc f014 0a3d
000001f0: 9462 6abd 0592 fdbc 259f e6bc 21b1 0c3c
00000200: 12ce 8fbd 78d4 97bc 2d71 88bd 62ee be3b
00000210: ed95 d33b 2e34 a7bc b6a0 893d 723b 5f3c
00000220: cfcc b43d fed4 e33b 016b 5b3d edf1 953d
00000230: 7502 dfbc bde8 e1bb 570e 603d 193f 1a3c
00000240: d2e8 00ba f760 82bd 3036 c03b 0aeb b5bc
00000250: 7c23 883d 21e2 8bbc 3721 58bd 1a6c 2e3d
00000260: 6b39 3c3d da57 133d 7e9f 3ebd 3e05 65bd
00000270: 80ec 413d 7748 803d ac7f 46bb dfde a03d
00000280: 59c9 e4bc 8c3d 1a3d 8164 093d 6863 7abd
00000290: 1b82 4dbd 399d 7bbc e156 e3bc 25a8 14bd
000002a0: 2ce3 5c3d 9074 42bb 1cc4 21bd 7bcc 9fbc
000002b0: 398d 863d ef3d a43c 508d a1bd fdae 763d
000002c0: 0d47 da3d 48fa ad3c b391 433d 24f0 d1bc
000002d0: 0e84 423c ec49 d0bb fe7e 13bd 40d9 9fbd
000002e0: 4122 59bd bc3c e8bb b7a1 883c 89b9 8abd
000002f0: 9f8a d1bd e1f1 053d b86d 0e3b 857d 82bb
00000300: 5436 083c c62f 0cbd 024e e33c c427 0e3d
00000310: d8f7 673d 37ef 803d 9e5f 8b3d affe cdbd
00000320: cd95 cb3d f06c 16bd ecad 523d 75d2 c5bc
00000330: 7ba7 b6b8 6def 2ebd 3dc9 063d 790b 23bd
00000340: 2011 c1bc 0e92 09bd 7703 ef3c 878a 23bd
00000350: 65b6 373d 6cba dabb 29df 12bc b087 793d
00000360: ae07 adbc b417 c9bd 9aa6 383d d1c5 ac3d
00000370: 88e5 f73a 238b 0cbd c049 583d b402 96bb
00000380: 81d4 e4bc 11c1 8fbd 41a4 3dbd 5816 0abd
00000390: ad89 ccbd b746 69bd b536 98bd d5df e5bc
000003a0: 5850 323d b99b 26bc ebb5 8c3d 3af0 813d
000003b0: 6455 2fbd b48e 423c 6ae5 073d 83cf 843d
000003c0: e2ce 1a3c 81ab 1bbd aeb9 df3c ac5e f7bc
000003d0: a34f 853d 9580 56bd 331f 57bd f5ce 4f3d
000003e0: c806 44bc 91ab 3abd 8183 573d 5e0d 85bd
000003f0: 3581 3abd cea3 b23d 8a91 3e3d 7728 833d
-0.018860923 -0.007339369 0.10267809 -0.0005416256 0.057276543 -0.035639435 0.08706673 0.097416475
-0.08290414 0.017957192 0.020804904 -0.070855655 -0.029676104 -0.04024513 0.022725621 0.08174053
-0.07354556 0.001906287 0.060010184 -0.020499941 0.02408355 -0.05761066 0.029524203 0.052545205
-0.07747497 -0.030456876 -0.045798264 0.044112258 0.048542157 0.021972045 0.010645185 0.010061485
0.0644949 0.0005291196 -0.057172813 0.06536373 -0.0056442413 0.075816676 -0.06882265 -0.07904361
-0.010010392 0.0071541173 0.02026599 -0.06520786 -0.06769074 -0.08005201 -0.019816646 -0.050047364
-0.03895026 0.032340415 0.0016761756 0.009781194 0.0005499993 0.03197626 -0.0362723 0.06417015
0.013667673 0.048532557 0.016728282 0.05423012 -0.008114288 0.0059944014 0.09143992 -0.071469925
-0.0070263683 -0.06607993 -0.05812761 -0.056346916 0.01112213 -0.06948122 0.0043411264 0.012059879
-0.010350693 0.019045528 -0.026174385 0.01467545 0.054745495 0.051488232 0.039930835 -0.10024423
0.08689105 -0.017772675 0.08544104 0.01474022 0.020285975 0.03537306 0.04919391 0.077471495
-0.059797574 0.030498387 0.06264578 -0.13912706 -0.07994618 -0.028474659 0.11440119 0.024326421
0.07931666 -0.030526238 -0.0154075865 -0.053398423 0.13419896 -0.043355003 -0.04625858 0.037886906
0.03173019 -0.07029862 -0.028599467 -0.13424419 0.033636477 0.049628682 0.020966562 0.038206685
-0.046324223 -0.017396774 -0.05582993 0.058736578 -0.07846112 -0.009859062 0.08440737 0.078427084
-0.07445013 0.050926697 -0.029755633 0.033711374 -0.057222918 -0.030953417 -0.028152058 0.008587153
-0.07021727 -0.01853393 -0.066622116 0.0058267573 0.0064570815 -0.020410623 0.06720106 0.013625013
0.08828127 0.006952881 0.053568844 0.07321534 -0.027222851 -0.0068941996 0.054701176 0.009414458
-0.00049175054 -0.06366151 0.0058658347 -0.022206802 0.06647393 -0.0170756 -0.05276605 0.042583562
0.045953196 0.035972454 -0.046538822 -0.055913202 0.047344685 0.062638216 -0.00302885 0.07855009
-0.027928041 0.037656352 0.033543114 -0.061129957 -0.050172906 -0.015357309 -0.027751388 -0.036293168
0.053927585 -0.0029671527 -0.039493665 -0.019506684 0.06569905 0.020049063 -0.07888281 0.060225476
0.10658083 0.021237507 0.04774637 -0.025627203 0.011872305 -0.0063564684 -0.03600978 -0.07805109
-0.053011183 -0.007087318 0.016678674 -0.06773669 -0.10231518 0.032701377 0.0021732878 -0.0039822483
0.008313734 -0.034225248 0.027747158 0.034705892 0.056632847 0.062956266 0.06805347 -0.10058343
0.099406816 -0.036724985 0.051435396 -0.024148205 -8.709632e-05 -0.042708803 0.03290676 -0.039805863
-0.023567736 -0.033586554 0.029176457 -0.03992703 0.04485168 -0.0066750553 -0.008964338 0.060920417
-0.021121826 -0.09818974 0.04508076 0.08436168 0.001891301 -0.03431238 0.05280471 -0.004577959
-0.027933361 -0.07019246 -0.046299223 -0.033712715 -0.09987197 -0.056952205 -0.074323095 -0.028060833
0.043533653 -0.010168963 0.068706356 0.06344648 -0.042806044 0.011874843 0.03317777 0.06484892
0.009448739 -0.038005356 0.027310219 -0.03019651 0.0650933 -0.05236872 -0.05251999 0.05073448
-0.011964507 -0.045573775 0.052615646 -0.0649669 -0.045533378 0.087226495 0.046525516 0.064042024

fc2.bias f4 [128]
00000000: 728c af3d 70c8 e33c feea 17bd 348f e5bb
00000010: 184d 11bd 7d15 34bc 21f9 fa3c 6d6b 8b3d
00000020: a125 8c3c a383 d3bc dba0 4a3d 1a0b a5bd
00000030: 7baa 973d 16d0 bcbd 654c 25bd 411d eebc
00000040: cf70 b6bc 8d56 1a3d caef 893d 034b a63c
00000050: 7a7f 87bd 22e6 a838 f498 bebb f04c 6dbd
00000060: 2c59 6a3c a489 48bd 07ee be3b f29a f93c
00000070: bb8e 5d3c 461a 3d3d d7a6 653c 31e5 dc3c
00000080: e14f 323c 0673 113c 602e f4bb 28d2 863d
00000090: 8c5b e93b 9d4e f7bb add5 0a3d 6201 3cbc
000000a0: c6b7 0ebd 6f33 9fbd 350c fabc abd6 1f3c
000000b0: 9fee 053d 7c7a c4bc 62ee 40bd abe7 4ebd
000000c0: eec0 e7bb 08d3 303d dbad 91bd bcfe 8f3c
000000d0: 8131 13bc 2210 babd 1558 0e3d bd66 51bd
000000e0: da49 1c3d 535b 85bd f521 483d 44fd d2bd
000000f0: 6b44 cebc 7135 95bc 2d76 44bd eae4 663d
00000100: 7a41 20bc 3c3e 0ebd 181f 293c 579a 403d
00000110: 9b92 50bc 9e2c 88bd e216 73bc f155 1a3d
00000120: 51b9 4dbc f4d5 afbc 57d8 d339 2083 3abd
00000130: cb3d 46bd 8d3b 2c3d a3a2 3d3d 5851 bc3c
00000140: 6862 fdbc 15aa b0bc 76f9 35bc 4796 39bd
00000150: 3831 083c e063 fb3c 6794 73bd 8534 08bd
00000160: d7b6 253d 52a3 e43c 7f42 50bc 80c9 953c
00000170: a0ed 93bd 45b4 723d 77e8 073d a3ba 66bc
00000180: ffa1 1abd f3dc 04bd 738d 85bc 342f 133d
00000190: 38c3 653d 333e 243d abcf 42bc 9cde 883d
000001a0: 47f8 213d 0410 33bd 7e20 093b 5dc5 953c
000001b0: 1604 783d b95a c93c d09b 0d3d 046c 963c
000001c0: 2b65 fe3c eecc 373d 94d7 083d f9b0 a63b
000001d0: f6bd 003a 5306 51bd 608c e53c d46f 083a
000001e0: 74e8 123c 3651 ec3c 53f2 9d3c 9969 15bd
000001f0: 71ce 9abc e90e e63c fea2 d1bc 0241 333d
0.0857171 0.027805537 -0.03708934 -0.0070055965 -0.035473913 -0.010991451 0.030636372 0.06807599
0.017107787 -0.025819605 0.04946981 -0.08058758 0.074055634 -0.09219377 -0.04035606 -0.029066684
-0.022270588 0.037680198 0.06735189 0.02029944 -0.06616111 8.05373e-05 -0.0058165733 -0.0579347
0.014303487 -0.04895939 0.005826715 0.030469391 0.013522799 0.046167634 0.0140168285 0.026964756
0.010883302 0.008877521 -0.0074518174 0.06583053 0.007121509 -0.007547213 0.033895183 -0.011474939
-0.03484323 -0.07773482 -0.030523399 0.009755771 0.03269827 -0.023984186 -0.04710234 -0.050513905
-0.0070725596 0.043170005 -0.071132384 0.017577522 -0.008983971 -0.09085108 0.03475197 -0.05112337
0.038156368 -0.06511559 0.04886051 -0.10302213 -0.025179109 -0.01821396 -0.047964264 0.056370653
-0.009781236 -0.03472732 0.010322355 0.04702219 -0.012730266 -0.06649135 -0.014836999 0.037679616
-0.01255639 -0.021464325 0.00040406242 -0.045535207 -0.048398774 0.04204898 0.04629768 0.022988006
-0.030930713 -0.021565476 -0.011106839 -0.04530933 0.008312516 0.030687273 -0.0594677 -0.03325321
0.040457573 0.027909908 -0.012711166 0.01828456 -0.07223058 0.05925395 0.03318068 -0.014082584
-0.037752148 -0.032437276 -0.0163028 0.03593369 0.05609438 0.04009838 -0.011890332 0.06683084
0.039543416 -0.043716446 0.0020923908 0.018282587 0.06055077 0.024579393 0.034572423 0.018362053
0.0310541 0.04487317 0.033408716 0.0050870148 0.0004911119 -0.051031422 0.028021038 0.0005204652
0.008966554 0.028847318 0.019280588 -0.03647766 -0.018897267 0.028083282 -0.025590416 0.04376317

fc3.weight f4 [1, 128]
00000000: e0e4 0f3c 689d 1b3b a414 74bd 2a59 8c3c
00000010: cf41 8fbc bfbd 233d 3e70 0b3c c406 2f3c
00000020: 6430 61bd 0aec 813c 5aea ab3d 0705 56bc
00000030: 6629 3e3c 26e2 abbd cbe8 b8bd ac2c 1cbc
00000040: b442 2a3c 0a91 db3d 823a bd3c 3ca9 3f3d
00000050: e6fd 25bc cf3f f6bc 47e3 2f3c 64ab bbbc
00000060: 52bd 543c 28b1 e23b e8ec 8e3d a945 f9bb
00000070: 981b bebd 6177 883c 9b8e 8d3d d06a a5bd
00000080: a4d8 25bd adde 8a3c 9d0e b13c edf0 993b
00000090: 2ec8 5bbc 281e f4bb e96f 13bd d8eb ffbb
000000a0: fdd9 0e3c 8429 3fbc a809 0dbc f2da 47bc
000000b0: e68d 093c 0e23 213c 8725 3e3c 5317 0b3d
000000c0: 5a52 49bc 547b 4fbd c614 d7bc ddb9 9bbb
000000d0: 15ab 01bc 323c 79bc 44ca a2bc 2b25 143c
000000e0: 1792 d5bb 75b6 413b 0b81 4ebc 8c7b abbc
000000f0: 61fb bcbc cab7 ab3c 1518 90bc 3ecc bdbb
00000100: 31bc 983b dc4d ee3b e418 adbc 7a1a 05bd
00000110: d8a5 30bd 5605 f5bb ed68 25bd aee2 f4bc
00000120: d313 8f3a 43be 31bd 770c 8b3c b190 e93c
00000130: 0436 49bd ef27 97bd 21cd 883c 43a3 643c
00000140: 2c03 98bc b102 b73c 03ec 9cbc c3fc 8cbc
00000150: 81f7 0f3c a330 923c 86f9 6dbc 4cdb 613c
00000160: 102a 313d aaa3 533c 7b16 62bc 7c99 193d
00000170: 0807 313d cd70 183c 2e1e f8bb e082 c83a
00000180: 4ea9 313c c7e9 2c3c cfa4 97bc 6001 823b
00000190: 91a7 f93b 0a75 66bc 764d 17bb 3cb6 03bc
000001a0: 71f1 4a3c 7ac4 2dbc 888f 743b 3b1a 30bd
000001b0: 0092 babd e722 d0bc 52de 9ebb 6f10 293c
000001c0: d36a 97bd cb3b 823c 6342 023d 03b3 54bd
000001d0: 2580 7ebc 8f67 3f3c fb11 36bd 2cc2 e8bb
000001e0: 3152 8fbc 54d4 063d 8eda 2e3c 361b d9bc
000001f0: 8b50 a03c 5412 b63c 22f2 163d d935 76bc
0.008782595 0.0023744944 -0.059589997 0.01713236 -0.017487435 0.039975878 0.008510647 0.010682765
-0.05497779 0.015859623 0.083943084 -0.013062722 0.01160655 -0.08392744 -0.09028777 -0.009532135
0.01039188 0.107210234 0.023099188 0.046792254 -0.010131335 -0.030059723 0.0107353395 -0.022908874
0.012984591 0.0069180913 0.0697878 -0.007607181 -0.09282607 0.016658487 0.069119655 -0.080770135
-0.040489808 0.016951883 0.021613413 0.00469791 -0.013414426 -0.007449884 -0.035995398 -0.007810097
0.008718965 -0.011667613 -0.008608259 -0.012198197 0.008395648 0.009835018 0.011605627 0.03395779
-0.012287701 -0.050654724 -0.026255023 -0.0047523812 -0.007914324 -0.015212106 -0.019871838 0.009042065
-0.0065176594 0.0029558216 -0.012604008 -0.020932935 -0.023069086 0.02096166 -0.017589608 -0.00579217
0.004661106 0.007272465 -0.021130033 -0.032495953 -0.04312691 -0.0074774427 -0.04038327 -0.029893246
0.0010915942 -0.04339434 0.016973717 0.028511377 -0.04912378 -0.073806636 0.016699376 0.01395494
-0.0185562 0.02234015 -0.019155508 -0.01721037 0.008787037 0.017845457 -0.014524823 0.013785195
0.043253005 0.0129174385 -0.013799305 0.03749989 0.043219596 0.009304238 -0.007571957 0.0015297793
0.010843588 0.010553784 -0.018511204 0.003967449 0.0076188524 -0.01406599 -0.0023086942 -0.0080390535
0.012386666 -0.010605926 0.0037316997 -0.042993765 -0.091098785 -0.025407268 -0.00484828 0.0103188595
-0.07393422 0.015897652 0.031801593 -0.05192853 -0.015533482 0.011682405 -0.04445074 -0.007103225
-0.017495247 0.032917336 0.010672225 -0.026502233 0.019569656 0.022225536 0.03685201 -0.015027487
