checkpoint_actor.pth (torch_old, 159146 bytes, 6 tensors)

fc1.weight f4 [256, 24]
00000000: 8f3b 783c cce2 9abd c751 593b c0e8 65bd
00000010: 412a 2abd e26d c93d 15ca 003c 0e0a ab3c
00000020: d68f 5a3c d4db 34bc 3a17 d5bc 1dfa 0b3d
00000030: 0eb1 243e d980 a43c b0a1 133d 52f0 b23d
00000040: 937a 26bc eb8e 47bc ab9a 04bd 25f9 083e
00000050: bb32 463e d393 a8bb 044a 073d 8a70 b53d
00000060: 55da 123c 6a91 a53d 061b b9bd 17ea 1fbd
00000070: bfd2 c23d d8a1 fcbc 8aa9 a7bd 13f6 06be
00000080: 5eb8 eebc eb85 27bd 3b07 33bc 4af7 0ebd
00000090: f829 d83c 07a8 0e3d 16fd 6ebd ed82 cbbc
000000a0: d1bc 49bc 67ea afbd 81f5 90bd f13b 8a3d
000000b0: ddfd 0b3e 6a65 da3d b071 d1bc f30b ef3c
000000c0: b9f7 f1bd f821 3c3d f9fb 78bb aac0 9dbb
000000d0: eddd a2bd d61f 9fbc 2b47 b1bd d6b9 70bd
000000e0: c2bb 43bd a090 753d 0a16 46bd 7d1f 57bd
000000f0: 4274 4b3c 7451 a6bd 2004 efbc 25e0 05bd
00000100: a36f 3abd 2343 a63d 3ec1 abbd 77cb 7a3d
00000110: e901 a73d 74a9 ffbd 428a 19bd e19f 0b3e
00000120: 3098 a53c bc99 6fbd d97b d7bc 2f32 1cbe
00000130: 0930 a6bd debf ff3d a4cf 22bb db52 23be
00000140: f9bd edbc a77e 00be 76b4 55bd d211 94bd
00000150: 4993 283c e0c4 033e e5e3 60bc 5e99 edb9
00000160: 678d 7d3c 22d0 5dbd 363a 35bd 8942 3b3d
00000170: ba8c 02bc 8d69 393e 38f6 553d 4729 9a3d
00000180: fa74 f0bc 448e 55be 4a2c 3e3d 3b92 473c
00000190: 5695 993c 88af ef3d 40f4 72bd a6fb 75bd
000001a0: e26d 3bbc 565f 4dbe 7e8e a8bb e25f c1bd
000001b0: 5ce0 f53d 49c6 8a3e eaf2 893c b817 debc
000001c0: c128 df3d e300 50be 44fc 75bc ae17 81bd
000001d0: 723a ea3d 4bb0 9a3e 0d93 c13c b711 ab3b
000001e0: b581 18bc 7ada 06bd 93d4 26bd 8241 8ebd
000001f0: 53df 3e3d efbc 383e 5988 193d 84d8 51bd
00000200: 0d51 1cbd ff28 23bd 7437 47bd 29fd d6bd
00000210: aa3a 0dbd 4a83 0e3e d94b 9b3c cdcb a1bd
00000220: bcaa 65bc 3c62 ffbd 043b 603d a7d3 1d3d
00000230: bca0 0e3b fc29 043e 86fe 803d 601b 4a3c
00000240: 9ec6 b7bd f012 a63d 422f 2d3d 764c e8bd
00000250: 16a4 a73d 0991 933d 90cd 8e3d d0b1 c3bc
00000260: c8e7 e1bc 78c7 0fbc 5e8b a23c 0a42 5b3c
00000270: 5df9 953d 41bf 143e 80bd b7ba c319 b13c
00000280: 4490 dfbd 3188 b43c 008e 2d3d a149 813d
00000290: afe8 b63d b27a 243d f024 253d a74b c03d
000002a0: d666 bdbc 9aa2 5ebc 46d4 25bd 0041 293d
000002b0: 7db3 b8bc 4b9a f03d 1407 4ebc ff26 93bb
000002c0: 4361 65bc e12f d6bc 5aee f2bb 04b9 ffbc
000002d0: fa45 14be a964 3b3e 868b c43b 1339 c2bc
000002e0: baba 993c fa8a 1dbd 6b0d 553b 06a5 0a3c
000002f0: a3b3 44be 3f73 f03d 146d a33d 22a6 34bc
00000300: 308b 4c3a 8aef 933c fa22 513d 5350 c73d
00000310: 01c4 84bc c8c5 c9bd 0830 5b3d 885e 933d
00000320: 120c e93d 357e 753d ef18 353d ea54 333d
00000330: 6a7b 2a3d cfaa ac3b 58f2 833d 7856 8c3d
00000340: cf24 b63d ad24 7dbd a7ab 2b3d cac2 ae3d
00000350: 4c43 823d 3605 3b3e d383 12bd b222 9c3c
00000360: d410 e63b e6ec 36bd e342 81bd dbdf 59bb
00000370: 2b39 bbbb 5238 e73d c200 92bd 4ab9 693c
00000380: 5705 1dbd 30f3 88bd b2cf b23d 6e4d 0b3d
00000390: f020 01be 9098 a03d 4f33 2c3d 4aa4 14bd
000003a0: d174 213d f876 acbd 2045 72bd efa6 433d
000003b0: dc55 56be 1565 91bd 50da 1a3d 5352 b13c
000003c0: f710 13bd dead 173e e75d 1dba edfd 7b3d
000003d0: 0bb2 05bd 20b4 e83d 290a 30bd 7737 f03d
000003e0: 498d 60ba a42e e53d 9fb0 21bd 3c49 3cbc
000003f0: 61f3 1c3d 9459 683d 528f a5bd e3b3 233c
0.015150919 -0.07562789 0.0033160315 -0.05613017 -0.041544203 0.098354116 0.00786068 0.020878818
0.013339957 -0.011038739 -0.026012052 0.034174073 0.16083166 0.02008097 0.03604287 0.08737244
-0.01016106 -0.01218007 -0.032374065 0.13376291 0.1935529 -0.005144575 0.03302957 0.08859356
0.008963187 0.08084376 -0.090383574 -0.039041605 0.09512853 -0.030838892 -0.08186634 -0.13179807
-0.029140648 -0.0408992 -0.010927017 -0.034903802 0.0263872 0.034828212 -0.05834683 -0.024842704
-0.012313084 -0.085896306 -0.07078076 0.06749714 0.1367106 0.106638744 -0.025566906 0.029180503
-0.118148275 0.045930833 -0.0037991984 -0.004814227 -0.07952485 -0.01942436 -0.08656152 -0.058770977
-0.04778648 0.05995238 -0.04836086 -0.052520264 0.012417855 -0.08121005 -0.029176772 -0.032684464
-0.04551662 0.08118274 -0.083864674 0.061229195 0.08154661 -0.124834925 -0.03748537 0.13635208
0.02021417 -0.058496222 -0.026304172 -0.15253519 -0.08114631 0.12487768 -0.0024843002 -0.15949576
-0.02902125 -0.12548314 -0.052174054 -0.072299615 0.010289022 0.1286807 -0.013726209 -0.0004531843
0.0154756075 -0.05415357 -0.044244967 0.04571775 -0.007968122 0.1810667 0.052236766 0.07527404
-0.029352654 -0.20855051 0.046428956 0.01218086 0.018747967 0.11703402 -0.059314966 -0.060054444
-0.011439772 -0.20055899 -0.0051439395 -0.09442116 0.12005684 0.27104405 0.016839463 -0.02711092
0.10896445 -0.20312838 -0.015013758 -0.06303345 0.11436929 0.30212626 0.02362969 0.0052206176
-0.009308268 -0.0329232 -0.04073007 -0.069460884 0.046599697 0.18040822 0.037483547 -0.051231876
-0.038163234 -0.03983402 -0.04863687 -0.10497505 -0.034479775 0.1391727 0.018957065 -0.079002
-0.014017757 -0.124699086 0.05474378 0.038531926 0.0021763286 0.12906641 0.062985465 0.012335628
-0.0897343 0.08109081 0.042281397 -0.11342709 0.08185594 0.07205398 0.06972802 -0.023888499
-0.027576342 -0.008775584 0.019841846 0.013382444 0.07322953 0.14526083 -0.0014018267 0.02161873
-0.10916188 0.022037597 0.04237175 0.06312872 0.089310996 0.040156074 0.04031843 0.093894295
-0.023120325 -0.013588572 -0.040485643 0.041321754 -0.022546524 0.11748179 -0.01257493 -0.0044907327
-0.01400024 -0.026145877 -0.0074136676 -0.031216152 -0.14479819 0.18300118 0.005998078 -0.023708856
0.018765796 -0.038462617 0.0032509218 0.008462196 -0.19209151 0.117407314 0.079797894 -0.011025937
0.0007802723 0.018058557 0.051058747 0.097321175 -0.016206743 -0.09852177 0.053512603 0.07195765
0.11379255 0.059934814 0.04421323 0.043782152 0.041621603 0.0052693854 0.06442708 0.0685243
0.088937394 -0.061802555 0.041911747 0.08533247 0.06360492 0.18263707 -0.03577025 0.019059513
0.007021049 -0.044659518 -0.06311586 -0.0033245 -0.005713602 0.11290039 -0.07129051 0.014265368
-0.03833517 -0.06687009 0.08731021 0.03400939 -0.12610221 0.07841599 0.04204112 -0.03628949
0.039418045 -0.08421129 -0.059147954 0.047766622 -0.2093119 -0.07099358 0.037805855 0.0216457
-0.03590485 0.14812419 -0.0006003067 0.06152146 -0.032640498 0.11362481 -0.04297844 0.11729329
-0.0008565975 0.111905366 -0.03947508 -0.01149207 0.03831804 0.056726053 -0.08083977 0.009991619

fc1.bias f4 [256]
00000000: 8146 3fbd 818e df3d 06fb 4a3e 4801 eb3d
00000010: 3485 ebbd 4e54 0abe f4fa b9bd bae1 12bc
00000020: a1b1 5fbe 1cf5 26be 26f3 3e3d 8c5f 64bc
00000030: aadc f2bb 58db 60be bccc 163e 90b2 393e
00000040: c2fa 61bb 299c b63d 1556 60bd 8104 e2bd
00000050: 6e14 1d3e 36e1 5bbe 0d09 63bd 1593 13be
00000060: 3f52 873d a47d 5cbe d1c0 a33d e165 e6bc
00000070: 2c04 c2bd 21b7 293d 8790 9dbd 2b80 ecbd
00000080: db64 22be 36a9 1fbc 5913 a6bd 417a 813b
00000090: 010c 5dbe 6da3 843e 99cc 8fbd 871d 3d3d
000000a0: 1b88 5fbd 2fb6 1ebe 9ef1 d23d b5ba 68be
000000b0: 18bf d6bd b901 d23c 1d81 22bd a3dd 54be
000000c0: 099a aa3e 0160 2a3e cc68 8abd 7adb 803e
000000d0: 6199 3fbe d5ab d2bd 65c7 8c3d 3b63 963c
000000e0: 49e8 293e ed6f 37bd a7b5 36be 33c6 5f3e
000000f0: 1f48 a23d b2a3 843d ce4b a5bd 87db 04be
00000100: b5bf a43d cab6 90bd 2a02 3cbe d2d7 293e
00000110: babf 4ebe 4920 4fbd 50fe 87bd a2b5 7dbe
00000120: cc0c 0dbe e1fa 11be 34ca 8fbd c4bd 763e
00000130: 34c4 f93d a7bb 563e 5a9c cabc 164e cd3d
00000140: 1a58 01be 11bc e6bd 7573 53be 3d42 48be
00000150: 0e78 093e bc95 f1bc 0560 7cbd acac 933d
00000160: c152 a1bd 9e8d 693d 98ee a9bd cba9 cbbc
00000170: 027c a3bd 5e34 f73d bd66 0dbe 1a03 2cbe
00000180: 698f 4b3e 0eec d1bc b053 433e 65b1 cc3d
00000190: 9a7d debc 0b67 cfbd 7965 293d b938 a93d
000001a0: 0de6 96bd b769 2c3e f116 2b3c c8c8 c7bc
000001b0: 03ee 423d 4996 f83c 6a5e 5cbd fcef 08be
000001c0: a9ad e9bd b4b3 3fbe c799 afbb 6e57 d13d
000001d0: 2c9a 3f3e cec3 39be 9a47 43be 31d9 e83d
000001e0: f756 a8bd fd90 d13c 1450 4b3d 6cea 893e
000001f0: 8b85 1f3e 07e5 a03d b3d1 a9bc 6e99 e7bc
00000200: 0e6b 343e 96b7 80bd 0d18 41be 55b8 193e
00000210: 0740 5abe 4393 3c3d 765c 353e 597e b43d
00000220: c8bb 0e3d 9628 473d 2118 0e3d 0e17 333e
00000230: 71b9 613d c49c cdbd 05bb 053e f4e1 da3d
00000240: 5783 943d f749 0ebe f872 1cbd 22fc e4bd
00000250: 15e6 5d3d 060f 5b3e 99f9 793d 0157 543e
00000260: e321 c63d 757d d1bd e532 783e 9933 7c3d
00000270: af52 1f3e 34b4 213d d51b 8abd 7164 593e
00000280: 6be7 e8bd 0eeb 3ebd 9688 9fbc 3b80 3d3b
00000290: 0a78 23bd 5f07 273e 1787 9e3c bfb8 c13d
000002a0: 6229 fa3d 3f5f fc3d dc77 193e 48ff 79be
000002b0: 187b 02be 08e9 b0bd a17c 34be 881a 56be
000002c0: 85d9 773d adf2 0c3e 04e7 dcbd 0c49 ab3d
000002d0: ae74 1ebc 65ec 473e 2043 8a3e 5c48 183e
000002e0: 5a13 413e 7583 eebd 3691 c8bd 23a9 02be
000002f0: 4ae1 103d c7df 0a3e 41bf b43d 31a0 ee3d
00000300: e59b d63b b4f1 b9bd e9bd 453e cf52 96be
00000310: 2709 17be 80d6 e63d bcbb 8d3e 9726 643d
00000320: a5e2 7c3d b8ef 863d 22ef a33c 300e f43c
00000330: d8df 673e 9044 353e a293 e9bd ce8a a23c
00000340: 3b21 35bd d90b 19be 7d10 113e a039 62bd
00000350: e91f 213e cb75 8b3d ab98 9abd 56fc 3abe
00000360: 3d51 333e 7a6d 0e3e 1ffd d23d a7c7 6d3d
00000370: 440e a5bd e450 9e3d dfe9 3a3e 308e 093d
00000380: 146d 93bc aefa 5abe c6b2 f33d 7f9a 02bd
00000390: e84d 95bd 5588 97bb 2f03 893e 0910 313e
000003a0: fa4e c2bd 844c febc 4cad a73d e35a a33d
000003b0: d8a6 c3bc d642 233e 067d 9e3d 789a 713e
000003c0: 44c0 eabc 124e bb3c 619e 0d3e d82c 033d
000003d0: f6a6 dbbd 71ab 143e c3ba 17bd a719 f6bd
000003e0: 57fa c8bd c604 b4bd 952a cebc 06ea 91bd
000003f0: 86cd 723e 1a42 983e c11a 2cbe d3c8 143e
-0.046698097 0.10915852 0.1982232 0.11474854 -0.11500016 -0.13508722 -0.09081069 -0.00896495
-0.21845104 -0.1630444 0.046618603 -0.013938796 -0.007411559 -0.21958673 0.14726537 0.18134522
-0.0034481739 0.08916504 -0.054769594 -0.11036015 0.15339825 -0.2147263 -0.055428553 -0.14411576
0.06607484 -0.21532303 0.07995761 -0.028124752 -0.09473452 0.04143441 -0.07693582 -0.115478836
-0.15858786 -0.009744933 -0.08109159 0.0039513414 -0.2158661 0.25905934 -0.07021446 0.046170738
-0.05457316 -0.15499185 0.10299991 -0.22727473 -0.10485667 0.025635587 -0.039673913 -0.20787673
0.33320644 0.16638185 -0.0675827 0.25167447 -0.18710853 -0.102866806 0.06873969 0.018357864
0.16592516 -0.044784475 -0.17842732 0.21852951 0.07923912 0.06476535 -0.08071099 -0.12974368
0.08044378 -0.07066114 -0.183602 0.16586235 -0.20190325 -0.0505679 -0.06640303 -0.24776319
-0.13774413 -0.14255859 -0.07020989 0.24095827 0.12195626 0.20970021 -0.024732757 0.10024659
-0.12631264 -0.112663396 -0.20649512 -0.19556518 0.13424703 -0.029490344 -0.06161501 0.07210669
-0.07877112 0.057019822 -0.08297461 -0.024861237 -0.07982637 0.12070535 -0.13808723 -0.16798058
0.19878925 -0.025625255 0.19074893 0.09994773 -0.0271595 -0.10127076 0.041356537 0.08262772
-0.073680975 0.16837202 0.010442481 -0.024387732 0.047590267 0.030345099 -0.053800978 -0.13372797
-0.11410076 -0.18720895 -0.005358908 0.10221754 0.18711156 -0.181411 -0.19070283 0.11369551
-0.08219712 0.025581831 0.049636915 0.26936662 0.15578286 0.078561835 -0.020729875 -0.028271403
0.17618963 -0.06285016 -0.18856831 0.15011723 -0.21313487 0.046038877 0.17711052 0.088131614
0.03484705 0.04862269 0.03469098 0.17489263 0.05510849 -0.10039666 0.13059624 0.106876284
0.072516136 -0.13895403 -0.03819558 -0.11180903 0.0541745 0.2139245 0.06102905 0.20736314
0.09674432 -0.10229007 0.24238165 0.061572645 0.15558885 0.039478496 -0.0674359 0.21229722
-0.113722645 -0.046610884 -0.019474309 0.0028915543 -0.0399094 0.16311406 0.019351525 0.09459066
0.122149244 0.12322854 0.14987129 -0.24413788 -0.12742269 -0.08638197 -0.17625667 -0.20908558
0.060510177 0.13764448 -0.1078625 0.08363542 -0.009671373 0.19523771 0.27004337 0.14871353
0.18855038 -0.11646167 -0.09793322 -0.12759833 0.035371102 0.13561927 0.08825541 0.11651648
0.006549346 -0.09079304 0.19310726 -0.29360053 -0.14749585 0.112713814 0.27682292 0.055700865
0.061739583 0.065886915 0.020011488 0.029791921 0.22643983 0.17701936 -0.11405112 0.019841578
-0.044221144 -0.14945926 0.14166446 -0.055230737 0.15734829 0.068095766 -0.0754865 -0.18260321
0.17511459 0.1390895 0.10302185 0.05805173 -0.080593616 0.077302724 0.18253277 0.033582866
-0.017996348 -0.21384689 0.11899333 -0.03188562 -0.0729025 -0.0046244063 0.2676024 0.17291273
-0.0948772 -0.031042345 0.08187351 0.0797632 -0.023883268 0.15943465 0.0773869 0.23594081
-0.028656133 0.022864375 0.13829948 0.03202519 -0.10725205 0.14518525 -0.037043344 -0.120166115
-0.098133735 -0.08789973 -0.02516679 -0.071247146 0.23711213 0.2973793 -0.16807081 0.14529733

fc2.weight f4 [128, 256]
00000000: cb7d 97bd 6e0f 97bd c449 173d febe 503c
00000010: b10f d73d 55ae 39ba 4ace 62bb 9823 583d
00000020: 96a1 8c3c ad81 8b3b 78a3 8abd ede3 25bc
00000030: bbf5 d6bd d686 2abd 0868 cd3c 721d f43d
00000040: 0ec5 483d 2407 bfbd 6e24 313d 27fd b4bd
00000050: b154 0cbe cd9c f73d b73f 603d 5044 4bbd
00000060: 3a36 67bd 7181 0b3d cef3 193e 07bb 34bd
00000070: f3e7 283b 9243 2fbd 46d9 183e 47a3 15bc
00000080: b192 e23d 1cf8 aa3d 532f 583c 443d 00bc
00000090: 36f0 383d 69a6 f03b 5271 093d 686f 2f3e
000000a0: 8485 213b 46ab 03bc 8bd9 013d 9ada e8bd
000000b0: df5b 423e f253 b13d b84e 3c3e d49c 37bd
000000c0: 18ee b93d 3a27 1c3d 02e5 c3bd 0e25 9dbd
000000d0: 2ba8 aebc 3ca3 2e3c 33b5 adbc e8b3 23bc
000000e0: 23d5 ed3d 85ac 89bd 2fe4 81bd 2656 febc
000000f0: 56ba fabb 195a 0c3e ec64 273d 4784 99bc
00000100: bcae 84bb 0b51 1e3c 4fb1 15be 8a54 993d
00000110: b4ee cbbd c11c 6b3d 2b9e fa3c 3bef cebb
00000120: 1032 b6bd 6477 a43d e4f7 8d3c 6c6d 59bc
00000130: 89d3 bc3b 7f89 4abc a794 bd3d 30ad 9cbd
00000140: 4631 29bd b478 ecbd 41a7 8a3b cda3 4f3e
00000150: d589 f03d b616 93bd 7085 c6bd 95c5 0dbd
00000160: f7e5 e1bd 8f6d 2a3c ccb6 d63d b3f8 18bc
00000170: 8677 c9bc 8b02 8cbd a5fd 05bd e7cc 25bd
00000180: d32f a13d 791b e8bb 3531 af3d 987e a2bd
00000190: 98ef 8ebd 5ea5 943d 7c1c 513c 1411 a53d
000001a0: 321f c73d beb1 873d 0d26 a53d bad6 093e
000001b0: 83f1 7cbd 8c85 0e3e 1b9f f0bd 1cfc a7bd
000001c0: b5f6 3fbc c503 d4bc 8190 0bbd 7b2e 983c
000001d0: 598c b4b9 336c 063e 253f 19be 79b0 be3d
000001e0: 5401 913d dab3 d7bd 3ae3 cbbc 75c9 57bd
000001f0: 292a 493d 2296 623e 97f1 a93c 6d19 fa3b
00000200: c6c0 c03c 9423 013e 7580 383c 7588 f23d
00000210: bd0f b4bd d41f ea3d a65e b43d 2428 3bbd
00000220: 3c42 f23c 2649 4b3d 8f4c 01be 2a1a 283d
00000230: a2cb 78bd 491e d6bb 5522 823d 72a9 863c
00000240: e82e bd3d ae0e 313d 9bc1 403c ff26 383d
00000250: 5772 0cbd eb01 fb3d 31b6 f33c eb1f aabd
00000260: de97 e83b 02c3 1ebc 7e31 973d 9e65 823d
00000270: ae3d 33be b906 8f3d 4b55 773d fba6 093e
00000280: fe1c 0fbc 4f9d a0bd 39f4 143d 6418 873d
00000290: 44e7 013e 2ddd 4cbe d571 e2bd 5b3f 093e
000002a0: 0c01 343d 4793 a63d fab4 0bbd f928 2abe
000002b0: 2995 0abe b30f 983d b81d 15be 001b 61bd
000002c0: 0cfe 93bb f26d 93bd a00a 8f3c 5853 283e
000002d0: 84fb 893d f80e 84bd bff2 463d d300 97bd
000002e0: cb41 443d 4cfe 2c3d 2674 053d 0998 1e3c
000002f0: 5149 16bb 7429 d33d 9a91 06bd 70cf 323d
00000300: 239f a2bd 4342 10be b84f bebd 5ede 223c
00000310: 381b 31be 86d3 1abd a42a c5bc 969d fd3c
00000320: a928 ac3d 596a 8abc 60d8 f13c e29d 993d
00000330: 3cfb ab3c 2d30 a33c 2bd1 c3bd 10dd 4abc
00000340: a43a 093d d5b6 013e 0e70 853d 2101 bd3c
00000350: 50d6 b63d 2f04 473d c0ae 8f3c 77bd 0fbd
00000360: 89b5 353d 6ef0 5a3d d113 c6bb 7bf8 d5bd
00000370: 5f86 9b3c 6391 603e e0f8 2d3e bcec a23d
00000380: 1f82 2cbd 66b9 bebd b099 04be a7c3 b23d
00000390: 6f8a 21be 0457 3cbd cb57 6d3b 40d4 77bd
000003a0: 83a6 023b afa6 3f3d d195 bcbd 2c5e a5bc
000003b0: a829 023c 0c30 b53c b2ed 733c a18a 553b
000003c0: 0632 f63c c2fa c3bd 0c8c 8abc 9ee0 ffbd
000003d0: 0f02 d33c 6b3f 073e 52c8 f73d c5e9 a5bd
000003e0: 0277 793d c04f cc3d 8974 6dbc ce44 1bbb
000003f0: 73b0 27bd 2f1c 493a ab39 65bd c98d 39be
-0.0739704 -0.0737599 0.036935583 0.012740849 0.1050104 -0.00070831674 -0.003460782 0.05276832
0.017166894 0.004257402 -0.067694604 -0.0101251425 -0.10496088 -0.041632496 0.02507402 0.11919679
0.04901605 -0.09327534 0.043247633 -0.088373475 -0.13704182 0.12090454 0.054748263 -0.049625695
-0.0564482 0.03405899 0.1503441 -0.044123676 0.0025773018 -0.04278905 0.14926633 -0.009133167
0.110631354 0.08348104 0.013194877 -0.007827107 0.045150958 0.0073440564 0.033555336 0.17132342
0.0024646232 -0.00803644 0.031701606 -0.1136982 0.18980359 0.086585894 0.18389404 -0.044827297
0.09078616 0.038123347 -0.09565164 -0.07673083 -0.021320423 0.010659035 -0.021204567 -0.009991623
0.11612918 -0.067223586 -0.06342351 -0.031046938 -0.0076516075 0.13706245 0.04086773 -0.018739833
-0.0040491503 0.009662877 -0.14618419 0.07486828 -0.099576384 0.05740047 0.030592998 -0.0063151396
-0.088962674 0.080305845 0.017330118 -0.013270717 0.0057625216 -0.012361883 0.09256869 -0.076502204
-0.041306756 -0.1154646 0.004231364 0.20277329 0.117450394 -0.07182066 -0.0969342 -0.034612257
-0.110301904 0.010402097 0.104840845 -0.009336638 -0.024593126 -0.068364225 -0.032712597 -0.040478613
0.0787045 -0.007083353 0.08554307 -0.07934302 -0.06979293 0.07258104 0.012763139 0.08059898
0.09722747 0.066256985 0.08063898 0.13460818 -0.06175376 0.13918132 -0.11749097 -0.08202383
-0.011716534 -0.025880704 -0.034073357 0.018576851 -0.00034436843 0.13127212 -0.14965494 0.09311003
0.070803314 -0.10532351 -0.024888624 -0.05268236 0.049112473 0.22127584 0.020745082 0.0076324255
0.023529422 0.12611228 0.011261095 0.11842433 -0.08792064 0.11431852 0.08807115 -0.045692578
0.029572599 0.049630307 -0.12626861 0.041040577 -0.060741074 -0.006534372 0.063542046 0.01643822
0.09237462 0.04322689 0.011764909 0.044959065 -0.03428873 0.12256225 0.029749962 -0.08306869
0.007098182 -0.009690048 0.07382487 0.06367038 -0.17503998 0.06983704 0.060384076 0.13442604
-0.00873494 -0.07842504 0.03636572 0.06596449 0.12685877 -0.20006247 -0.11056868 0.13403074
0.04394631 0.0813356 -0.03410814 -0.16617192 -0.13533463 0.074248694 -0.14562118 -0.05495739
-0.0045163687 -0.07198705 0.017461121 0.16438043 0.06737426 -0.064481676 0.048571344 -0.07373204
0.047914308 0.042234704 0.03258147 0.009679803 -0.0022931884 0.10310641 -0.0328537 0.04365486
-0.07940509 -0.14087777 -0.09292549 0.009940712 -0.1729554 -0.03779938 -0.024068184 0.030958932
0.08406193 -0.016896414 0.029522121 0.07500817 0.020993821 0.019920433 -0.0956138 -0.012381807
0.03350319 0.12667401 0.06515513 0.023071827 0.089275956 0.048587974 0.017539382 -0.035092797
0.04436258 0.053451948 -0.006044843 -0.104477845 0.018984972 0.2193046 0.1698947 0.0795531
-0.04211628 -0.09312706 -0.12949252 0.08728724 -0.15775464 -0.045981422 0.0036215659 -0.06050515
0.0019935674 0.04678982 -0.09208263 -0.020186506 0.007944502 0.022117637 0.014888214 0.003258385
0.03005315 -0.09569313 -0.016912483 -0.12494014 0.025757818 0.13207786 0.12098755 -0.081012286
0.06090451 0.099761486 -0.014493116 -0.0023692134 -0.04093976 0.0007671741 -0.0559632 -0.18120493

fc2.bias f4 [128]
00000000: 5e0a c73d 8ebb 15bd 514d e3bb 0aff 493d
00000010: f4a2 173d 49b2 8e3d 1829 973d d8d4 2abd
00000020: 13a6 9bbc ef5b 373d c0c5 fcbb 4554 bb3d
00000030: dd75 15bd 5e44 11bd d844 8abd f175 e8bc
00000040: ddc2 aabd 2e9f f3bc 487d 1cbd 6276 933c
00000050: 2104 61bd 1347 f0bc eb57 713c 5ff6 9c3c
00000060: 2591 fd3d 9c41 2e3d d880 27bd 88b1 9b3c
00000070: eec2 edbc bfd1 b3bc 4cbf 183d bf80 6f3d
00000080: 513e f7bd d5b6 e2bc 63b6 fbbc 6a63 0c3d
00000090: 7e01 243d baab 95ba f62b 63bd ebbf bcbd
000000a0: 999e 723c 18c9 4d3d 779f 4cbd bc30 a53d
000000b0: 63bf 613d eb0a 00bc 7f20 873b 36ee b83d
000000c0: 7521 92bb 6e72 69bd 1655 a1bc bc9b db3c
000000d0: cd86 51bd d0ee 503d d122 d43c 496f b83d
000000e0: 0f73 273d 4c29 c83d cb2c 2e3d bfbd a03d
000000f0: fb1f 163d 02a0 4ebd 839e e63c fd7e d93c
00000100: 29c1 983c 09ee 953d 517a 47bd ae09 213b
00000110: b201 abbc 21ee ca3d ecca fe3c cfbf 9abc
00000120: aab6 833d f704 183d 66a3 7a3c 4b92 903c
00000130: c083 eaba 08d0 893d 0a15 88bd f30a 48bd
00000140: b458 be3c 17ef 533d 237d 4c3d 63a8 47bc
00000150: fae3 603c 9e5c 033d ad61 55bc ecb5 c8bd
00000160: 3451 883d 24f1 14ba ee73 ce3d d042 f93d
00000170: 8448 1dbc 9a3f ec3c 9752 a23c d8af e53b
00000180: ace3 1a3d f237 a13c 1d67 f53c f87c 143c
00000190: fd3a 4c3d 7470 c83c a157 35bd d64a 9a3b
000001a0: f71f 08be 1c77 27bc b184 bdbb 6e61 d13c
000001b0: 58bd a93c 0b6a 913d 9a12 55bc d7d8 09bd
000001c0: bf68 92bc 0849 043e ab08 523d ca0e 363d
000001d0: 3dac 383d 0f99 63bd d21c 3a3d 0f2e 48bc
000001e0: fdc9 933d 4d4d b23c e34f 933d 64cd cb3c
000001f0: b277 423d d035 79bd d6c3 6a3d 4bd4 42bd
0.09718774 -0.03655582 -0.006936707 0.04931549 0.03702064 0.06967599 0.07380885 -0.04170689
-0.019000089 0.04476541 -0.0077140033 0.091469325 -0.036489356 -0.03546559 -0.06751412 -0.028376551
-0.083379485 -0.029738989 -0.038205415 0.018000785 -0.05493558 -0.029330766 0.014730434 0.019160448
0.123812 0.04254304 -0.04089436 0.019005552 -0.029023614 -0.0219506 0.03729181 0.05847239
-0.12072433 -0.027675072 -0.030726617 0.034274496 0.040040486 -0.0011418976 -0.055461846 -0.09216293
0.01480832 0.050240606 -0.049956765 0.08065936 0.05511416 -0.007815103 0.004123747 0.0902981
-0.004459555 -0.056993894 -0.019693892 0.026807658 -0.051153947 0.051009 0.025895508 0.09005601
0.040881213 0.09773502 0.042523187 0.07848691 0.036651593 -0.050445564 0.028151756 0.02654981
0.018646793 0.07320792 -0.048700634 0.002457242 -0.020874832 0.09908701 0.03110262 -0.01889029
0.06431325 0.03711411 0.015297746 0.017647883 -0.0017892048 0.06729132 -0.06644638 -0.048838567
0.023235656 0.051741686 0.049924027 -0.012186143 0.013726229 0.03207075 -0.013023776 -0.09800324
0.06656113 -0.00056816847 0.100807056 0.121709466 -0.009599809 0.028838921 0.019814773 0.0070094876
0.03781478 0.019679997 0.029956395 0.009062998 0.049860943 0.024467684 -0.044273023 0.004708628
-0.13293444 -0.010221269 -0.0057836403 0.025559153 0.020720169 0.07100304 -0.013004923 -0.03365406
-0.017872212 0.12918484 0.051277798 0.044447698 0.045086134 -0.05556589 0.04543764 -0.0122180125
0.072162606 0.021765376 0.071929716 0.024878211 0.04747743 -0.060842335 0.05731567 -0.04756574

fc3.weight f4 [2, 128]
00000000: 2c5d f33d 885c 083e ef5c bfbd e5a6 063d
00000010: c389 93bd f365 51bd 92ff 483d a6fc c8bd
00000020: 1285 21bc 1c43 cf3d e612 8b3b 4e8b 773d
00000030: 65f0 d0bd ee6f 49be 660a 30be edbf d23c
00000040: aba6 77be 17e0 85bd 2c97 6bbd cc0e 6abc
00000050: f616 37be a033 e33d 5295 4bbe 465f 263d
00000060: 774e c83a f992 02bc c49c ffbd cf85 a9bd
00000070: d815 883d 8a1b adbd 270a 9ebd d22e fdbd
00000080: f2d2 4d3e 091a 333d 8e71 09be 57ff 92be
00000090: e2e0 b53d 0012 a53d 0a83 06bd 9cb4 d23b
000000a0: d06e 28be 100b 0cbe 0e30 2ebe 78e7 2d3d
000000b0: 2e47 69bd 0c35 fb3c 2ef3 4dbc dbbe b5bd
000000c0: 39d7 83bd fd8e 753e aaae be3d 5c83 b43d
000000d0: 7ccb 02be ceda 88bd 6e7f 8fbd cc7b 483d
000000e0: a97c 473d aa61 03bc 9329 03be e440 9fbd
000000f0: 80c4 883d e60c 353d c693 b93a 31db 523a
00000100: 6362 c3bb f971 cf3d 53ab 78be 8657 c0bd
00000110: 501a 24bd 3551 903d 8403 ae3d ccb2 033a
00000120: 2c34 133e 627a a8bc bdae 54bd 1c59 9ebd
00000130: a04b 08bd e031 a9bd 95c6 363d 1b08 fbbd
00000140: 12a3 623c bd20 82bc 0872 a4bd 3489 283e
00000150: 41c7 ef3d d748 7b3d 12d0 aa3d fb7a 02bd
00000160: 5e5b fbbd 2797 0f3c 7723 2839 26bc 473d
00000170: 68ae 013e 2113 18be 2860 223e 3436 a93d
00000180: e2cf 213e a859 cdbd d08a 023e 55aa 4b3e
00000190: 5123 8e3d 7501 b6bc e8ce 0cbe 454e 753d
000001a0: a50d 193e ce02 74bd 492e 27be c04e 74bd
000001b0: 74eb 923d d409 9c3c 9f58 2cbd fa97 e5bd
000001c0: f897 f4bd 7d6d 24bc 46c6 843b 1e68 28be
000001d0: b411 933b 4744 e9bd 238c 71bd 2ee4 03bd
000001e0: d7b3 0d3c c349 c83d c60e 3fbd 49ec e8bc
000001f0: 6e9c de3c acae 5c3c c38b 64be fad8 f33d
00000200: eb74 2bbe 5f10 1b3e 14ff 233c 216a c1bd
00000210: 846b 8dbd 5f8a 79bd 6c12 e6bd c8df 43bc
00000220: f5e1 223e 2d30 113e 1bad 573e be58 f2bd
00000230: 6e36 d13d cd69 123e a1f7 0dbe 4522 563e
00000240: 68f7 e53d 3434 303e 7ad6 293e d611 8abd
00000250: d727 113e 4fb5 723d 92de adbd ed70 1b3d
00000260: 8320 e3bd 3de1 54bd 19b2 bbbd 33a9 f7bd
00000270: ba98 213e d0d4 87bd 8869 d4bd 1ce2 24be
00000280: 3282 3d3e 8759 3b3c cf4d 04bd 3b05 fdbe
00000290: c071 ae3d 3776 343e b9f1 3d3e b77f 0b3e
000002a0: 17a0 c3b8 6de8 8c3e 710c 3e3e 0999 c5bd
000002b0: 6d70 6c3c 1e81 383e 13fb 8dbd 160b 0fbd
000002c0: 1a9d 593c d3e7 763d c911 86bd 1cd3 70bd
000002d0: 89bd 843e 2b7b ffbd 4747 8dbd 6479 93bd
000002e0: ca79 98bd e959 6abd 4b9a d7bd 33c4 813e
000002f0: 5c83 39be eb95 7b3b 267b 31be 4e81 a23e
00000300: faba 5b3e ee13 593d 0e9f d6bb 0fc8 a13d
00000310: d9cf 1d3e ba17 98bd ddf2 1fbc be01 b1bd
00000320: f468 20bc 1c6d 7cbd 7629 0b3e e350 5e3e
00000330: 02eb 63bd f7c1 0c3e c18e 4e3e ba83 f03d
00000340: 01a5 95bd 09c0 0cbe 25bf 96bd 6076 203e
00000350: b01a c8bc f363 4ebd ca38 973d 767b 883e
00000360: 89c5 a13d 75be c3bd bd80 d1bd f319 b1bd
00000370: 08fc e7bd 68c2 a13c 91a3 e73d 44ae 7f3e
00000380: 504e 253e 2489 38bd 3984 57bd 0745 0a3d
00000390: a578 a6bd 202e 583e 633d db3d 4ad7 493d
000003a0: 5a57 4f3e 5f6d b1bc e347 8a3c 3d75 8d3c
000003b0: 44e5 2b3e 66b3 a13e 2b20 23bd ebbb b63c
000003c0: 0274 863d c705 01be 0e53 993e 852e ffbb
000003d0: 77da cdbd f417 d03d 679b cf3d 97e6 233e
000003e0: c5a2 b6bd c1c1 233e 45bc 9cbd 65be 89bd
000003f0: 3b5e b2bd c594 053e 5aec 9d3c c719 f93d
0.118830055 0.13316548 -0.093438976 0.032874007 -0.0720401 -0.051122617 0.049071856 -0.09813814
-0.009858387 0.10120222 0.004244196 0.060435586 -0.102021016 -0.19671604 -0.17191467 0.025726283
-0.24184673 -0.06536882 -0.057517216 -0.014285754 -0.17879853 0.11093831 -0.1988118 0.040618204
0.0015282173 -0.007969611 -0.124810725 -0.08277475 0.06644791 -0.08452518 -0.0771678 -0.12362446
0.201 0.043726 -0.13422224 -0.28710434 0.088807836 0.08060074 -0.032839812 0.0064302217
-0.16448522 -0.13676095 -0.17010519 0.042457074 -0.056952648 0.030664943 -0.012570186 -0.088742934
-0.06437535 0.23980327 0.09310658 0.08814117 -0.12772936 -0.06682359 -0.07006727 0.048946187
0.04870287 -0.00801889 -0.12808828 -0.07776049 0.066781044 0.044201754 0.001415842 0.00080435263
-0.0059626563 0.101291604 -0.24284105 -0.09391694 -0.040064156 0.07046739 0.08496764 0.0005023896
0.1437537 -0.02056617 -0.051924456 -0.0773184 -0.033275247 -0.08261466 0.044622976 -0.12257405
0.013832824 -0.015884751 -0.08029562 0.16458589 0.117079265 0.061348762 0.083404675 -0.031855565
-0.12273286 0.008764065 0.0001603494 0.048763417 0.12664187 -0.14851047 0.15856993 0.082622916
0.15801957 -0.10026866 0.12748265 0.19889195 0.0694033 -0.022217492 -0.13750803 0.059889097
0.14946611 -0.059572987 -0.1632625 -0.059645414 0.07173815 0.019047655 -0.042076703 -0.11210628
-0.11943048 -0.01003587 0.0040519563 -0.16445968 0.0044881944 -0.11389976 -0.058971535 -0.03220003
0.008648834 0.09779694 -0.04664495 -0.028432982 0.0271742 0.013469379 -0.2231894 0.11906619
-0.1674382 0.15142964 0.010009546 -0.094440706 -0.069052726 -0.060922977 -0.112339824 -0.011955209
0.15906508 0.14178534 0.21062128 -0.118333325 0.1021546 0.14298172 -0.13863994 0.2091151
0.112288296 0.17207414 0.16585723 -0.06741683 0.14175354 0.05925494 -0.084897175 0.03794949
-0.110901855 -0.051972616 -0.09164829 -0.12092819 0.15780917 -0.06632388 -0.10371691 -0.16101879
0.18506697 0.011434919 -0.032300767 -0.49418053 0.0851779 0.1762322 0.18549241 0.13622938
-9.328144e-05 0.27521077 0.18559434 -0.0964833 0.014431101 0.18018004 -0.06932654 -0.03492268
0.013282085 0.06027968 -0.06546361 -0.05879508 0.25925854 -0.12474664 -0.06898361 -0.07200888
-0.074451044 -0.05721465 -0.10527476 0.25345 -0.18116516 0.0038388919 -0.17332134 0.31739277
0.21458045 0.052997522 -0.0065497225 0.07899486 0.15411319 -0.074264005 -0.009762493 -0.086429104
-0.009790648 -0.061627492 0.13590035 0.21710543 -0.055644043 0.13745867 0.20171644 0.11743875
-0.073068626 -0.1374513 -0.07360677 0.15670156 -0.024426788 -0.050388288 0.073838785 0.26656693
0.07899005 -0.09557811 -0.10229633 -0.086475275 -0.11327368 0.01974602 0.11310495 0.24968821
0.16143155 -0.045052662 -0.05261633 0.033757236 -0.0812848 0.21111345 0.10705068 0.04927758
0.20248166 -0.021658598 0.016879981 0.017267818 0.16786677 0.31582183 -0.0398256 0.022306403
0.065650955 -0.1259986 0.29946178 -0.007787528 -0.100514345 0.10160819 0.101370625 0.16005932
-0.089177646 0.1599188 -0.07653097 -0.06725768 -0.08709379 0.13045032 0.01927774 0.1216312

fc3.bias f4 [2]
00000000: 1847 3d3c bd62 3cbd
0.011552595 -0.0459926
