checkpoint_actor0.pth (torch_old, 159146 bytes, 6 tensors)

fc1.weight f4 [256, 24]
000000 0a 05 b5 3d 6d 2c 15 bd 1c 38 09 3c 54 d3 10 be
       0.08838852 -0.03641932 0.008375194 -0.14143115
000010 a6 2f 53 be 6d 39 6a bd 54 ae 53 3c 5e ef 83 bd
       -0.20623645 -0.05718367 0.012919981 -0.0644214
000020 3a 85 8d 3c 25 47 b8 bd bc dd 2d bc 2a 0d 28 3b
       0.017275441 -0.08997945 -0.010611948 0.0025642612
000030 f3 c8 cc bd ef e7 a8 39 ec b6 52 3d ee 65 64 3d
       -0.099992655 0.0003221626 0.05144398 0.05576127
000040 46 4e 6a bb 16 4c 10 be 5b 24 0c 3d e2 7e 70 3d
       -0.003575222 -0.14091524 0.03421436 0.058714755
000050 95 53 ce bd 63 84 2b 3d 88 04 cc 3d d3 f2 5d 3c
       -0.10074536 0.0418743 0.09961802 0.013546663
000060 b8 55 82 bb 38 ac cf 3c 0a 92 02 be 53 f0 8e 3d
       -0.0039775036 0.025350675 -0.12751022 0.06979432
000070 be 6c d8 bc 97 21 be 3d 6b b1 f3 bd a2 17 bc bc
       -0.02641904 0.092837505 -0.11899074 -0.022960488
000080 5b 20 52 3c 16 89 d7 3c 05 8d 8f 3d 49 c6 75 3d
       0.012825097 0.026310485 0.07009319 0.060003553
000090 99 2d 09 be b2 cc d7 3c 59 bd b9 3c df 7d 8f 3d
       -0.133963 0.026342724 0.022673296 0.0700643
0000a0 e7 71 bb 3c f5 f4 69 bc 95 b8 72 bd 75 6f 5d 3e
       0.022881461 -0.014279594 -0.059258062 0.21624549
0000b0 69 4a f9 3c cc 9b 9f 3d fb 17 66 bc 57 33 36 3e
       0.03043099 0.07793388 -0.014043803 0.17793022
0000c0 b7 75 09 be 4d d4 16 3d 5d 4c 8d 3c 89 a0 52 bd
       -0.13423811 0.03682356 0.017248327 -0.05142263
0000d0 d5 9f 25 3e a3 34 b9 3c 6d 2d 86 bd ad d1 d7 bd
       0.16174252 0.022608107 -0.06551633 -0.10538039
0000e0 5f 83 36 bd d9 ce 34 3d df 26 b7 bd aa 5b b7 bd
       -0.04455888 0.044142578 -0.08942961 -0.089530304
0000f0 5f cc 39 3e 19 1d ad bc bf dc 8f bd d4 bb 8e bd
       0.18144368 -0.021132039 -0.07024526 -0.06969419
000100 05 1a 1c bd 52 3a 9a 3d d6 df 38 bd 68 ef 50 bc
       -0.03811075 0.07530655 -0.04513534 -0.012752391
000110 76 1e 3a 3e d6 87 e6 3c 38 15 a3 3a 1b 79 7f 3d
       0.18175682 0.028140943 0.0012442237 0.062371355
000120 42 3e 83 3d cd ca ad 3d 98 1f da 3b da 15 8c 3c
       0.06408359 0.08485947 0.0066565983 0.017100263
000130 06 45 00 3e 65 bc 7b bc cb a8 f9 3c 58 21 26 3c
       0.1252633 -0.015364741 0.030475995 0.010139786
000140 40 97 b7 3c 17 2d cb 3d e0 d7 2d bd 6f d4 51 3c
       0.022410989 0.099207096 -0.042442203 0.012806996
000150 54 75 20 3e 42 7e e0 bd 47 da 82 bb 8f 5e ad 3d
       0.15669757 -0.10961582 -0.003993306 0.08465301
000160 4c 11 0e 3d 85 3b 87 3d 28 d1 b8 bd 32 92 37 bd
       0.034684464 0.06603149 -0.090242684 -0.044817157
000170 16 5c 25 3e 43 9c db bd cc 73 cc 3b 16 05 7a bc
       0.16148409 -0.10723164 0.00623939 -0.015260002
000180 18 52 21 bd 6e 30 ee bc 45 0c c0 3d 21 54 57 bd
       -0.03938493 -0.029075827 0.0937734 -0.052570466
000190 9f b6 47 3d 26 73 21 3d e4 26 44 bc fe 99 ff bd
       0.048758145 0.039416455 -0.011972163 -0.124805436
0001a0 49 86 3a bd ef 41 75 bb 31 d0 5f 3d b5 d8 ad bd
       -0.04553822 -0.0037423333 0.054641906 -0.08488599
0001b0 a9 95 9b 3d 42 f3 03 3e d4 ed 9c 3d 0f fb 8f bc
       0.07596905 0.12885764 0.076625496 -0.017575769
0001c0 6b c7 ba 3c 23 c3 50 bb f9 2f 32 bb a9 9e 83 bd
       0.022800168 -0.0031854592 -0.0027189238 -0.064267464
0001d0 f8 c3 2d bc 51 a4 d2 3d 66 25 13 3d 84 96 82 3b
       -0.010605805 0.10285247 0.035924338 0.003985228
0001e0 6f 20 c1 3a 15 cb ab 3d ee 26 e4 3b db 74 3b bd
       0.0014734397 0.08388344 0.0069626486 -0.04576574
0001f0 40 7f 30 3c 5f 10 f1 3c ef 70 ae 3d 45 96 e1 bc
       0.010772526 0.029426752 0.08517634 -0.027537474
000200 1e 49 18 bd 37 b1 c5 3d 50 7a 26 3d 32 49 f0 bd
       -0.037179105 0.09652942 0.04064399 -0.11732711
000210 0d 97 93 bd 0b 50 32 3d f3 ab dd 3d ee 16 bb bd
       -0.07206545 0.043533366 0.10823812 -0.09135233
000220 0d a1 3b 3d 01 7e bf 3c bd 59 8e 3d 34 1b 07 bd
       0.045807887 0.023375513 0.0695071 -0.032984927
000230 e0 1c 3f bd ff 24 ea 3d cf 3a 9f 3d d8 67 72 bd
       -0.046658397 0.11432838 0.07774889 -0.059181064
000240 39 89 07 be 49 d7 b3 3d 56 fd 92 3d fe 97 28 bd
       -0.1323594 0.08781297 0.07177226 -0.041160576
000250 db 0d 34 3d e9 b3 c6 bd 74 33 cb 3d a0 27 46 3d
       0.043958526 -0.09702284 0.09921923 0.048377633
000260 46 ff 12 bd ef 8f 2d 3d bf b6 52 3d 54 97 6f bd
       -0.03588798 0.042373594 0.05144381 -0.058493927
000270 0b 39 9a bd 5d d9 10 bc 0f 66 f7 3c 4c db 4d bd
       -0.07530411 -0.008840886 0.030200033 -0.050257966
000280 a9 8a 8a bd ad 78 79 3d 11 f9 a8 3b 64 6e d5 bc
       -0.067647286 0.0609061 0.005156644 -0.026053615
000290 48 90 e7 bd f3 d6 c1 bd 63 5f 4b 3b fd 66 9a 3b
       -0.11306816 -0.094648264 0.0031032197 0.004711984
0002a0 7e 65 41 bc 98 8f 2e 3c 7c d7 2c bd 4a 8d 8c bc
       -0.011803983 0.010654353 -0.04219769 -0.017157216
0002b0 1a fa a9 3d 63 71 09 3b 3d 13 6a bc 70 f6 80 bd
       0.08299656 0.0020972125 -0.014286813 -0.06297004
0002c0 91 6c aa bc ff 33 93 3d 0a 9e b9 bd f9 1b 23 bd
       -0.020803722 0.07187652 -0.09063347 -0.0398216
0002d0 1d 5a 4a bb 8b 50 83 3d e6 25 9e bd 2f 5c 04 bd
       -0.0030876466 0.06411847 -0.07722072 -0.032314476
0002e0 1f fb 3d 3d 56 87 83 3d 16 b1 a5 3c 55 e7 02 bd
       0.046382066 0.06422298 0.020226043 -0.031958897
0002f0 20 d6 e2 bb 87 f4 ac 3d e7 30 c6 3d 53 ba 52 bd
       -0.0069224983 0.084450774 0.09677296 -0.051447224
000300 13 fe b4 bc 2e 45 83 bd 54 a2 95 3d 43 46 3b 3e
       -0.022093808 -0.06409679 0.07306352 0.18288521
000310 94 b9 68 bd ed 8a 6c 3d 20 a9 9a 3d d0 4c 21 3e
       -0.056817606 0.057749677 0.07551789 0.15751958
000320 3b 96 81 3d d7 73 c3 3a c9 4e 0f 3c 53 6b e1 3c
       0.06327482 0.0014911842 0.008746811 0.027516996
000330 1a f8 25 bd f6 a9 bc 3d e7 3e ed 3c 4e 0d 56 3d
       -0.04051981 0.09212105 0.028960658 0.052258782
000340 7c 6b 20 3e 5f d2 76 3c b3 65 b7 3c 39 31 34 3d
       0.15666002 0.015064805 0.022387361 0.043992255
000350 ab 1e 84 bd 6e c2 bf 3d 5f 7b 62 bd c1 84 b6 bc
       -0.06451162 0.093632564 -0.055293437 -0.022280099
000360 ac 93 d2 bc 09 8d 72 3d 55 74 39 bc 1c 7b 05 bc
       -0.025705181 0.059216533 -0.01131924 -0.008147027
000370 85 2e c3 bd a7 fd f6 3d 75 b2 9f bc 3b b8 1a 3c
       -0.09530357 0.12060099 -0.019494275 0.009443338
000380 27 41 bf bd eb 6f 19 3d 00 74 18 3d 8d bb 97 bd
       -0.09338599 0.03746025 0.03722 -0.07408819
000390 e1 c6 f0 bd f9 c6 bc 3d 14 df 03 bc 3b da 13 be
       -0.11756683 0.092176385 -0.008048791 -0.14438717
0003a0 f8 4e 2c bc cd b9 a2 bc 56 d4 86 bd 0b 25 57 3d
       -0.0105168745 -0.019863987 -0.065834686 0.05252556
0003b0 f8 34 2d be 3c 47 50 bd b1 ea fe 3c 1c 4c d8 3c
       -0.16914737 -0.050849184 0.031117769 0.02640348
0003c0 9f c3 93 bd d5 13 e3 3c e1 56 50 bd 36 17 a3 bd
       -0.07215046 0.027719418 -0.050864104 -0.079634115
0003d0 aa cd 30 3c a3 1d a3 3d 13 f5 be bd 51 7d c3 bc
       0.010791222 0.07964637 -0.09324088 -0.023863466
0003e0 bc c8 8a bc c5 ab 0c 3d 29 a5 84 bd 21 c1 65 bd
       -0.01694142 0.0343435 -0.06476814 -0.056092385
0003f0 74 60 28 3e aa de 0d bd 95 5b d9 bd a9 c1 0d bd
       0.16443044 -0.034636177 -0.10613171 -0.034608517

fc1.bias f4 [256]
000000 53 69 2b bd e3 6e dc 3d 3e ec 17 3e a0 be ac 3d
       -0.041848492 0.107633375 0.14836213 0.08434796
000010 08 00 80 bd 3b 19 30 be 76 5e 1a be bc 8a 4a bd
       -0.06250006 -0.17197125 -0.15075096 -0.049448714
000020 4d 8e 62 be f3 37 2e be 1c a5 ee 3d b2 29 57 3d
       -0.22124596 -0.1701353 0.11652586 0.052529998
000030 ad a9 da bc cc e2 ca bd 84 83 ca 3d 6d 42 88 3e
       -0.026692236 -0.09906539 0.09888366 0.2661318
000040 6f 70 f0 bc b4 e6 91 3c e4 9e 15 be 02 34 05 be
       -0.029350488 0.017810203 -0.14611393 -0.1300812
000050 9d 2a 2c 3e ca 6e 48 be bd 3e 67 bd 5d b9 ab bd
       0.1681313 -0.19573513 -0.056456316 -0.083849646
000060 3c d8 f8 3c a0 f7 1a be 83 3c df 3d be ad 08 3c
       0.030376546 -0.15133524 0.109002136 0.008342205
000070 ce f8 ff bd 64 72 8d bd 5f 42 c8 bd 8a 70 7b bd
       -0.124986276 -0.06906584 -0.09778284 -0.061386622
000080 03 03 19 bd eb 7a e2 3b 7f e1 e3 bd 1c 8d fe 3d
       -0.037356388 0.0069116256 -0.11126994 0.12429258
000090 75 08 4b be 69 91 c2 3d e9 35 9c bd e6 f0 c4 3d
       -0.19827445 0.09500391 -0.0762747 0.0961626
0000a0 62 25 0f be a3 50 1f be bc 31 82 3c a5 ae cf bd
       -0.13979104 -0.15558104 0.015892856 -0.10140733
0000b0 1d ac 64 bc 2a 97 a8 bd 28 e6 33 3c ef d2 22 be
       -0.013957051 -0.08231957 0.0109801665 -0.15900777
0000c0 05 7d db 3d 24 62 ad 3d 06 49 94 bd 7e d9 42 3e
       0.10717205 0.084659845 -0.072404906 0.19028279
0000d0 5e 92 06 be 0e 05 14 be 81 1a b2 3d eb 37 b6 bd
       -0.13141772 -0.14455053 0.086964615 -0.08897384
0000e0 14 1e 42 3e 70 2e 89 bd 34 93 08 be 78 fd 60 3e
       0.18956786 -0.066983104 -0.13337404 0.2197169
0000f0 e8 84 f5 3d 00 d4 41 3d c9 2f 84 bc b1 49 02 be
       0.119882405 0.04732132 -0.016136067 -0.12723424
000100 a9 73 e8 3c 17 79 09 3d 40 0e 15 be 92 5c 61 3d
       0.028375464 0.033562746 -0.14556217 0.055019923
000110 fb 1e 29 be ce 08 a4 bd 07 f5 27 3b 95 4c 1b be
       -0.16515724 -0.08009492 0.0025628225 -0.15165932
000120 7d 03 e9 bd 82 70 9c bd a0 1a 30 bb 25 4d 39 3e
       -0.113776185 -0.07638647 -0.0026871338 0.18095835
000130 65 5a 33 3e 0e 27 1d 3e f1 9d 4d 3d f2 f8 3b 3d
       0.17514952 0.1534693 0.050199453 0.04589171
000140 c0 b6 00 be 8f d5 d3 bd 62 3e 31 be ef 54 34 be
       -0.12569714 -0.103434674 -0.17308953 -0.17610525
000150 7b 84 a9 3d 2b 78 e0 bd 91 f1 0d be b4 bc 9f 3d
       0.08277222 -0.1096042 -0.13861682 0.07799664
000160 6f 3c 61 bd ea 3b c7 3d db 56 e3 bd 61 77 97 bc
       -0.054989275 0.097282246 -0.11100551 -0.018489541
000170 9c 3c 8b bd fa 7f 38 3e 50 29 58 be 95 6f 30 be
       -0.0679867 0.18017569 -0.2110951 -0.17230065
000180 46 d2 57 3e c8 85 f2 bd 60 f7 74 3e 50 f4 2b 3e
       0.21076307 -0.11841923 0.23922491 0.16792417
000190 09 f8 b0 3b 67 2c 1c 3d 39 71 4e 3d 76 6d d8 3b
       0.005400662 0.038128283 0.050400946 0.0066048456
0001a0 69 43 09 be 6b dd 78 3e 98 09 1f 3e 25 7a 93 3d
       -0.13404621 0.24303214 0.15531003 0.072010316
0001b0 05 94 d9 3d 8a 3d 1c bb bb d1 a5 bd f4 36 3c be
       0.106239356 -0.002384039 -0.080966435 -0.18380338
0001c0 85 e3 cb bd e5 2f 06 be 89 02 9e bd d4 4b 7e 3d
       -0.09955505 -0.13104208 -0.07715327 0.062084034
0001d0 95 e4 51 3e 01 8c 18 be 28 4b 34 be ea e9 66 3e
       0.20497353 -0.14897157 -0.17606795 0.22550169
0001e0 63 0f 4c bd ca eb bd bb 95 85 9d 3d d0 3e 14 3e
       -0.04981936 -0.0057959305 0.076914944 0.14477086
0001f0 49 88 8f 3d 9d a4 40 3d 5b 60 f8 3c da 95 55 3b
       0.07008416 0.047031987 0.030319383 0.003259054
000200 45 4b 80 3d 93 f7 5b bc 86 37 51 be 71 44 e3 3d
       0.062643565 -0.0134257255 -0.20431337 0.110970385
000210 dd c9 4e be 2f bd b4 3d db 8a cc 3d b0 4e 4e 3e
       -0.20194192 0.088251464 0.09987422 0.20147204
000220 4f 56 e6 3d fd ba 02 3d 85 d5 fa 3d c0 c7 50 3e
       0.11246931 0.031916607 0.12247757 0.20388699
000230 01 7a 2b 3d e8 ad d1 bd e9 64 80 3d bd 4f 25 3e
       0.0418644 -0.10238248 0.06269247 0.16143699
000240 d6 4f 02 3e 24 50 e2 bd 06 af 70 bd ae ea e4 bd
       0.12725767 -0.11050442 -0.058760665 -0.11177574
000250 04 ce a7 3c e1 ec 63 3e 08 ca fe 3d cb 53 5a 3e
       0.020483978 0.22258331 0.12440878 0.21321027
000260 8a 60 08 3e b4 b0 8c bd 4c b2 62 3e ef 40 29 3d
       0.13318077 -0.06869641 0.22138327 0.04132169
000270 a0 d9 0d 3e 41 a9 35 3c d9 6b a8 bd 51 60 35 3e
       0.13852549 0.011087717 -0.08223695 0.17712523
000280 fd 5d 14 be 89 75 f7 3c 3f 15 04 bc 35 60 35 3c
       -0.14488979 0.030207412 -0.008061706 0.011070301
000290 08 57 86 bd 7c 05 32 3e 9d 98 1b bd 1d a7 03 3e
       -0.06559569 0.17384905 -0.03798734 0.12856717
0002a0 7e 02 0b 3d 48 1a 4b 3e b8 50 e6 3d b0 8e 12 be
       0.033937924 0.19834244 0.11245865 -0.14312243
0002b0 d2 16 8a be 23 e1 1f be 0c c4 53 be aa 61 05 be
       -0.26970536 -0.15613227 -0.20680255 -0.13025537
0002c0 b0 00 48 bd 49 58 a8 3e d9 64 20 be b9 b5 f1 3d
       -0.04882878 0.32879856 -0.1566347 0.11802239
0002d0 5a c7 ef bc 8f 82 0e 3e cf 34 1b 3e 11 23 fc 3d
       -0.029269863 0.13916992 0.15156864 0.12311376
0002e0 dd 15 55 3e ac 7c d1 bd 43 cd 3b be c4 f3 da bd
       0.20809121 -0.102288574 -0.1834002 -0.10691026
0002f0 15 7f 27 3a 3e 28 84 3e 15 34 42 3e 92 9a 24 3e
       0.0006389481 0.25811952 0.1896518 0.16074589
000300 9f 0f 84 bd 6d 8b b9 bd 6c f6 63 3e cd 9f 76 be
       -0.06448292 -0.090597965 0.22261971 -0.24084397
000310 f4 d0 92 bd bc 37 be 3d 65 64 31 3e 8d eb cd 3c
       -0.07168761 0.09287974 0.17323454 0.025136733
000320 82 95 69 bb 3e c6 be bc 50 f6 13 3d 1d 66 dc bd
       -0.0035642092 -0.023287889 0.036123574 -0.10761664
000330 fc b4 5c 3e 37 7a 5f 3e a5 36 8e bd ae 21 46 3e
       0.21553415 0.21823965 -0.06944016 0.19348785
000340 c9 40 95 bc 80 e9 2b be 07 c3 14 3d b1 2e 50 bd
       -0.018219369 -0.16788292 0.036318805 -0.05082578
000350 30 aa 12 3e 04 f3 51 ba e8 9f 92 bd de 89 1b be
       0.14322734 -0.00080089294 -0.07159406 -0.15189311
000360 b1 0a 8e 3d fa 86 f2 3d 54 85 25 3c aa 96 02 3e
       0.06935633 0.11842151 0.010102589 0.12752786
000370 4b a7 98 bd 3b e5 cc 3d 43 5d 18 3e a1 27 86 bd
       -0.074537836 0.1000466 0.14879327 -0.06550527
000380 b7 b0 4e ba 04 61 0d be 18 99 d1 3d 92 87 27 be
       -0.0007884609 -0.1380654 0.102342784 -0.1636031
000390 2d 04 79 bd 46 db 30 bd 9d eb 5c 3e 22 0b 46 3e
       -0.060794998 -0.043177865 0.21574254 0.19340184
0003a0 fb 40 4d be ea e2 7b 3c 93 f6 66 3d 4a d5 67 3d
       -0.2004432 0.015373925 0.056387495 0.056599893
0003b0 7a e3 b6 bd 22 18 4f 3d 22 fe a9 3d e2 0d 8d 3e
       -0.089301065 0.050560124 0.08300425 0.27549654
0003c0 e2 20 9b bc 84 91 30 be 83 ac b1 3d 83 d9 ac 3c
       -0.018936578 -0.1724301 0.08675482 0.021099811
0003d0 4e 70 91 bd 99 23 42 3e cb 47 3a bd 55 07 26 be
       -0.071014985 0.18958892 -0.045478623 -0.16213734
0003e0 34 0c c9 bc 7a 7a ce bd 23 66 9a bc 4c 07 26 be
       -0.024541952 -0.10081954 -0.01884753 -0.16213721
0003f0 bc 9a 0e 3e 9a eb 1f 3e 37 7a 42 be 95 10 25 3e
       0.13926214 0.15617219 -0.18991934 0.16119607

fc2.weight f4 [128, 256]
000000 3d 28 86 bd d1 31 b5 bd 77 d8 01 be d7 2e 0b 3d
       -0.065506436 -0.08847392 -0.12680231 0.033980217
000010 73 0c 33 3d 3c 89 89 bc 08 ab 1d 3b 26 23 8f 3d
       0.043713044 -0.016789071 0.0024058241 0.06989126
000020 ed d3 05 bd e2 5c 2e 3e 43 f1 45 be 7b 55 8b bd
       -0.03267281 0.1702762 -0.19330315 -0.068034135
000030 07 b7 44 bd 4a 59 91 bd 8b bc 29 3c 26 2f b8 3d
       -0.04802611 -0.07097109 0.010359894 0.08993368
000040 d5 36 62 3c 01 8c 4d bc f9 31 d7 bd ec e3 4a bd
       0.013807018 -0.012545587 -0.105075784 -0.04953377
000050 af ea 68 bd 4d ee df 3d a7 07 dd 3d 27 32 ab bd
       -0.056864437 0.10934124 0.10792475 -0.08359175
000060 3d 66 d7 bc 58 63 14 be 1f 09 14 be 36 e0 e6 b9
       -0.026293868 -0.14491022 -0.14456604 -0.0004403607
000070 4b 2b 21 3e ac c8 05 bd 12 7b 0f 3e ac 48 c0 bd
       0.15739171 -0.03266208 0.14011791 -0.09388861
000080 5c 43 ca bc 5e 52 62 3d ce 02 99 3d 11 7c 71 3b
       -0.024690323 0.055254333 0.07471238 0.003684763
000090 74 49 32 3e 40 0b 15 bd e2 08 12 3d 02 77 b9 3d
       0.17410833 -0.036387682 0.035653003 0.09055902
0000a0 f4 25 d3 3c 5c 3e 23 bc 5a 28 4f 3d 61 1f f4 bd
       0.025774933 -0.009963598 0.05057559 -0.119200476
0000b0 8b 44 fd bb 06 f7 a7 3d 7d 61 85 bc d4 64 c1 bd
       -0.007729118 0.08201413 -0.016281838 -0.094430596
0000c0 cd ec 58 3e e3 29 e9 3c b6 b0 09 bc d2 f5 b1 bd
       0.21184082 0.028462356 -0.008403948 -0.08689465
0000d0 f8 2c af 3d ae ca 0a be 57 ce a0 bc 66 d3 b5 3d
       0.08553499 -0.13553879 -0.01962964 0.08878212
0000e0 25 a2 b3 bb 33 0e 9f 3d 1a af 96 bd ac 2e 99 bd
       -0.0054819756 0.0776638 -0.07357617 -0.07479605
0000f0 55 3a 85 bc 15 35 4f 3b 2b 2e 8a bb cd 83 5e 3c
       -0.016263166 0.0031617333 -0.0042169294 0.013581228
000100 b5 84 d9 bd 10 40 13 3d ad 62 9e 3c 01 83 35 3d
       -0.10621015 0.035949767 0.019334162 0.04431439
000110 76 be f3 bd 6f 01 78 3c bd 18 81 3c 0e 98 a2 bd
       -0.11901562 0.015137061 0.015758866 -0.079391584
000120 c7 ee 15 bd 93 4e c7 3d c1 12 77 bc 22 61 d7 bc
       -0.03660467 0.09731784 -0.015080155 -0.026291434
000130 bf d4 9a bd cd 38 a2 3c bf 6d 96 3c 7e 50 84 bd
       -0.07560109 0.019802475 0.018362878 -0.06460665
000140 88 5b e1 3d 0e f8 b4 bc 5a 35 af bb 88 cd 0e 3e
       0.11003786 -0.022090938 -0.005346936 0.13945591
000150 9f 05 b0 3d d1 4f 26 bd 1e 96 38 3e 78 74 fb bc
       0.08594822 -0.040603463 0.18026015 -0.030695185
000160 f7 ec e1 bc 36 e2 b3 3c ba 62 7c 3e 05 39 7e bd
       -0.027578814 0.021958452 0.24647036 -0.062066097
000170 43 19 60 3c a8 2a 4b 3b 93 44 8a 3c 6d ce 4a 3d
       0.013677898 0.0031000767 0.016878402 0.04951327
000180 6c 2a 1e 3d 09 98 36 bd 01 14 c9 3d b8 4a 60 be
       0.038614675 -0.044578586 0.098182686 -0.21903503
000190 66 9e 82 3d c5 55 fc 3d ee e8 0f 3d 6e 21 d6 3d
       0.06377868 0.12321047 0.03513425 0.10455595
0001a0 57 1c 07 3d 45 12 f3 bb 78 3b 03 bc 66 71 86 3d
       0.03298601 -0.0074179494 -0.008009784 0.06564598
0001b0 a5 ca ed bc b7 e3 00 3e ef cc 62 bd 54 4e 11 3d
       -0.029027293 0.12586866 -0.05537122 0.03547509
0001c0 e3 51 89 3c 8a e2 0c 3d 99 92 98 bb ae 9f 35 3e
       0.01676268 0.034395732 -0.0046561477 0.17736694
0001d0 4a 6c e8 be 96 c6 c0 3d 1c 13 c8 bd a7 ce d6 3c
       -0.45395118 0.09412877 -0.0976927 0.026221586
0001e0 ee f2 7c 3d 81 44 3f be 6a 30 dd bd 5b eb d6 3c
       0.061755113 -0.18678476 -0.1080025 0.026235273
0001f0 ea 1b c7 bc 02 25 e4 3d 9c 5b 4d 3c e7 3f 07 bd
       -0.024305303 0.11139871 0.012534048 -0.033019926
000200 4d f2 86 3c 72 3b 3e 3e ed 30 b4 3d 8c cf a1 3d
       0.01647296 0.18577364 0.08798394 0.079009145
000210 d5 6c 28 3c 5b c2 a5 3d 20 33 c6 bc 82 64 3d bd
       0.010279854 0.08093711 -0.0241943 -0.04623843
000220 d8 1b c5 bd d8 48 8f 3d 03 53 f4 bd 6d f5 0b be
       -0.096244514 0.06996316 -0.11929896 -0.13667841
000230 72 13 e9 bc d1 e3 ab bc fc 0f 14 3e c5 57 c2 bc
       -0.028451655 -0.020982655 0.14459223 -0.023723492
000240 69 95 14 3d 69 11 a9 3d 1c c0 dc bb f4 59 9a 3c
       0.0362753 0.08255274 -0.0067367684 0.018841721
000250 83 1e 4b 39 81 d1 0c 3e 75 78 62 3d fa 0c 13 bd
       0.00019370955 0.13751794 0.055290658 -0.035901047
000260 3c 53 e5 bc 1d f2 76 bd 8a 83 46 3d 6e 81 84 3d
       -0.02799379 -0.06028949 0.04846529 0.06469999
000270 c7 38 78 3c 67 7e 4e 3d a2 89 f2 bc a5 d8 90 3d
       0.0151502555 0.050413515 -0.029606644 0.07072572
000280 1b 11 e5 3d f5 bb 44 bb fa 06 07 3d 23 b8 e2 3c
       0.11184903 -0.0030019258 0.032965638 0.027675694
000290 03 75 e8 3d b0 6c 8b bd 50 13 b9 bc 05 ac 0b bc
       0.11350443 -0.0680784 -0.022592217 -0.008524899
0002a0 c2 66 ca 3c bd 5d da bc 13 3e 3d bd 98 ff 7c bd
       0.024707202 -0.026656026 -0.046201777 -0.06176719
0002b0 3e a1 a9 bc 6e 99 e8 bc 4d 15 1f 3c 3c 1f 2e bd
       -0.02070677 -0.028393473 0.009709668 -0.042510256
0002c0 a7 6c 6b 3d d0 5c fc bc 71 6b 23 3e 70 ff 99 3d
       0.057476666 -0.030805975 0.15958954 0.07519424
0002d0 b7 6d f4 bd a8 01 16 bd e5 0a 6f 3d 1d f8 70 bd
       -0.11934989 -0.036622673 0.05836 -0.05883037
0002e0 4a 0f 1c 3c 5f 5a 1c bd 03 75 9f 3d 7e 99 e4 3c
       0.00952513 -0.038172122 0.0778599 0.027905222
0002f0 23 95 14 3d cf 2d f3 3d e5 a3 51 be a1 2b 0c bd
       0.03627504 0.11873972 -0.20472677 -0.034221295
000300 e5 07 be bd 12 a1 58 3c dc 70 93 bd d6 b5 b1 3d
       -0.092788495 0.013221996 -0.071992606 0.086772606
000310 68 ae cd bd 99 ec 72 bd b3 c2 ad 3d f1 d8 01 3e
       -0.10043031 -0.05930767 0.084844016 0.12680413
000320 60 57 ef 3d 44 1e 3c 3d 7b 83 c2 3c 05 4f 17 3d
       0.11686587 0.0459273 0.023744335 0.036940593
000330 bf 12 02 3e 93 d1 0f 3e a5 1c ac bd a4 f7 81 3d
       0.12702464 0.1404479 -0.08403901 0.06346062
000340 f2 33 9e 3c 01 66 d7 3d 38 bd 0a 3e 21 91 82 bd
       0.019311879 0.105175026 0.13548744 -0.063753374
000350 e4 ec f0 3c e9 25 5c 3c c0 7b 10 3e 1f f9 58 bd
       0.029409833 0.013436773 0.14109707 -0.052971955
000360 d3 27 48 3d cc 94 ac 3d 5f d2 95 bd aa 46 b1 bd
       0.048866104 0.08426818 -0.07315516 -0.08656056
000370 a4 d3 99 3c 96 55 88 3b 32 68 0f 3e 72 35 24 3e
       0.018777676 0.0041605933 0.14004591 0.16036013
000380 63 53 80 bc c9 c2 a0 bd 7f 6a ce bc 3a 83 59 3e
       -0.015664762 -0.07849652 -0.025197266 0.21241465
000390 13 eb 36 bd a0 fb e0 bd 94 e1 f3 3c 3c b4 9e bd
       -0.044657778 -0.10985494 0.02977065 -0.07749221
0003a0 c6 89 c7 3d d9 b6 1b bc 85 31 0e be 91 96 00 bc
       0.09743075 -0.0095040435 -0.13886078 -0.007848398
0003b0 d5 81 e7 bc 3d 1b c6 3d 1c 29 93 3d 31 f7 06 bc
       -0.02826015 0.09673164 0.07185575 -0.008237646
0003c0 8a 0c bf 3c a3 62 cb bc 28 25 99 3d 99 c5 c9 bc
       0.023321409 -0.024827307 0.0747779 -0.024630355
0003d0 2e da 3d 3d 33 58 d7 3d 76 a3 f6 3d ab 0c 5e bd
       0.04635065 0.105148695 0.120428964 -0.0542113
0003e0 f2 93 db bd c9 d7 99 bd 64 f4 6d bc 93 63 68 3b
       -0.10721578 -0.07511861 -0.014523599 0.0035459741
0003f0 8f c0 0d 3c 7e c9 0e 3d d9 1c a7 3b 18 f4 15 bd
       0.008651867 0.034860127 0.0050998745 -0.03660974

fc2.bias f4 [128]
000000 dc 47 98 3d 46 dd 97 bb d0 98 1a 3d 2c a5 91 3d
       0.07435581 -0.004634532 0.03774339 0.07111582
000010 c6 63 16 bd d8 40 c0 3d 4c ac 2f 3d 1e 77 cd bc
       -0.036716245 0.09387368 0.042888924 -0.025081214
000020 97 71 ed 3c 18 f3 8d 3d e8 4d 92 3d de bd 9c 3d
       0.028984828 0.06931132 0.07143766 0.07653402
000030 40 c4 b6 bc 60 1d 76 3d 01 7e f8 bb 81 16 df 3c
       -0.022310376 0.060086608 -0.00758338 0.02723241
000040 f8 aa 0c bd 4c d0 16 3c ac 9b 02 bd a9 7e 82 bc
       -0.034342736 0.009204935 -0.03188674 -0.015929537
000050 0b 31 a7 3b de f4 28 bc 43 c6 1b 3d 8b 9e e2 3b
       0.005102282 -0.010312287 0.038030874 0.0069158725
000060 a0 50 04 3e 88 2a ac 3d 46 d9 ac bd bc c4 c7 3c
       0.12921381 0.0840655 -0.08439879 0.024385802
000070 a5 16 01 3d 01 43 2c bc 6d 9f d9 3d 07 8e e2 3d
       0.031515736 -0.010514022 0.10626111 0.11062246
000080 f3 31 7c bd 61 c5 2a bd e8 68 60 bd 9a 51 f1 bb
       -0.061571073 -0.04169214 -0.054787546 -0.007364464
000090 bc 9b 93 3c 5a c6 3e 3c fe 3b df bc 12 ed 58 bd
       0.018018596 0.01164397 -0.027250286 -0.052960463
0000a0 eb e1 1e 3d 4e cf 46 3d 3c e1 c8 3c b8 e3 89 3d
       0.03878967 0.048537545 0.024521463 0.06732887
0000b0 8a 8a 78 3d 23 05 4a bd ae 06 64 3c 43 a2 98 3d
       0.060678996 -0.049321305 0.013917608 0.07452824
0000c0 d1 40 80 bc 69 b4 f2 3b f2 e0 65 bd 49 b6 7c bb
       -0.015655907 0.0074067605 -0.056122728 -0.00385608
0000d0 89 36 81 bb b8 4b ea 3b 37 2e 8d 3c 09 fe d9 3d
       -0.0039432687 0.0071501397 0.017233951 0.106441565
0000e0 59 bf 1d 3d 29 84 0d 3e 3a 76 06 bb 0f 53 2a 3d
       0.03851256 0.13819946 -0.0020517246 0.041583117
0000f0 44 94 fc bb 7f ee 8b bc 12 75 8e bd 4e 0a 91 3b
       -0.0077081043 -0.017081497 -0.06955923 0.0044262772
000100 31 83 3e bc 25 16 88 3d 8c 92 a4 3c de 25 e6 bc
       -0.011627958 0.06644849 0.02008941 -0.028094228
000110 fc 2b 4a bd cb 03 77 3d 2b 68 58 3d 56 7e 66 3c
       -0.049358353 0.06030635 0.052833717 0.014068207
000120 de c1 4d 3d 5e 3e b9 3c 03 40 09 3d 4b f5 f6 3c
       0.050233714 0.022612747 0.033508312 0.030146262
000130 0d e3 81 bd 86 b7 99 3d 47 44 28 bd 82 19 da bc
       -0.063421346 0.075057074 -0.04108074 -0.026623491
000140 a6 00 f1 bb eb 01 3a 3d 3f f5 a6 3d 91 ab 14 bd
       -0.0073548136 0.045411985 0.08152246 -0.03629643
000150 9a 60 27 ba de 3a 08 bd a6 16 4c 3b 0b c5 75 bd
       -0.0006384939 -0.033259265 0.003114143 -0.060002368
000160 1f e7 f4 3c ba 07 15 3d 81 ca cf 3d 19 99 cb 3d
       0.029895363 0.03638432 0.101460464 0.099413104
000170 72 b3 5e 3c d8 2d 3b 3a cd 17 22 3d 04 4e 14 3d
       0.013592588 0.0007140315 0.03957348 0.036207214
000180 8b 16 6f 3d 6d bb 77 3b 42 ef 47 3d 78 09 84 3d
       0.058371108 0.0037800923 0.04881216 0.064471185
000190 f7 2d 36 3d 1d f1 12 3d 11 11 94 bb 47 fa 8a 3c
       0.04447743 0.035874475 -0.004518636 0.016965045
0001a0 ce d5 07 bd 26 8f 1b 3d b9 ce 06 bd fc 5e eb 3c
       -0.033162884 0.037978314 -0.03291199 0.028731816
0001b0 60 50 4d bd b9 e4 8d 3d a7 e0 81 3c b0 bd 8b bd
       -0.05012548 0.06928391 0.015854193 -0.068232894
0001c0 ed ea 04 bd 74 0c 74 3d 4f a8 8d bc 1d b2 8f 3d
       -0.032450605 0.05958219 -0.01729217 0.07016394
0001d0 d2 0c 21 bd b0 30 28 bd b7 af 82 3d f9 5f b4 3c
       -0.039318867 -0.041062057 0.06381171 0.02201842
0001e0 a0 f2 54 3d 2e b2 91 3d 7d 34 cc 3d cd 01 46 3d
       0.051989198 0.07114063 0.09970949 0.04834156
0001f0 3e 36 b0 3c 28 76 8b 3d 0b 68 11 3e 0f 63 f0 bb
       0.02151024 0.06809646 0.14199845 -0.0073360275

fc3.weight f4 [2, 128]
000000 8d 7e 31 3d cf 16 9f bd ba c1 03 bd 81 e4 93 bd
       0.04333358 -0.07768022 -0.032167174 -0.07221318
000010 1d 27 3b be 44 6c 25 bd 89 50 79 be f5 22 b6 bd
       -0.1827664 -0.040386453 -0.24347128 -0.08893386
000020 8e 31 18 be 0c fe 9d 3d 11 d6 e0 bd b8 19 1f 3e
       -0.14862654 0.07714471 -0.1097833 0.15537155
000030 8d fa a4 bd 05 14 dd bc da 61 c7 bd 48 bd 86 3d
       -0.08055601 -0.026987085 -0.097354606 0.06579071
000040 76 ca 0e be c9 e2 b5 bd 9c 32 f3 bd 52 e5 f0 3d
       -0.1394442 -0.088811465 -0.11874887 0.117624894
000050 83 3c 10 be 73 63 e3 3d 00 16 23 be 1a 71 06 3e
       -0.14085583 0.11102953 -0.15926361 0.13129082
000060 f9 b4 6f bd bc e0 3c 3c 52 bf 08 3b 6a 22 42 be
       -0.0585222 0.01152819 0.002086599 -0.1895844
000070 4c c3 84 3e 38 43 10 be 60 b8 ee bb 56 0e 3c bc
       0.2593025 -0.14088142 -0.007285163 -0.011478027
000080 1a 32 1f 3e 76 9d b6 3c 5e 49 f7 bd af 14 2d be
       0.15546456 0.02229188 -0.120745406 -0.16902421
000090 db 50 0c be 63 b5 33 3e f9 1a 97 3d ed ff c5 bd
       -0.13702719 0.17549662 0.073781915 -0.096679546
0000a0 84 fd 9a bd b3 23 c1 bd d2 53 16 bd 7d d4 ec 3d
       -0.075678855 -0.09430637 -0.03670103 0.115639664
0000b0 15 f4 9e bd 53 eb 56 3e f8 49 7c bd e1 ec 3d be
       -0.07761399 0.20988207 -0.06159398 -0.18547393
0000c0 4c 3e e1 bd 2f 50 c4 3d f8 cc fa 3d 77 4e 95 3d
       -0.1099821 0.09585606 0.12246126 0.072903566
0000d0 ca 1d ec bd e3 c8 29 3e 5c ff 2a be 89 2f 14 3e
       -0.11529119 0.16580538 -0.16698974 0.14471258
0000e0 64 ec 72 3d 9c 31 4a bc 54 28 40 be 63 23 13 3e
       0.05930747 -0.012340929 -0.18765384 0.14368968
0000f0 8e 94 cf 3d 5e 62 c4 3d 5e 1b 7f 3e 9d d9 c6 bb
       0.101357564 0.095890746 0.24912784 -0.006068422
000100 c4 63 23 be 9c 84 d7 3d 56 43 3a bd 66 ef 9e b9
       -0.15956026 0.1052334 -0.045474373 -0.00030314474
000110 9f 8c 3d bd 86 42 a9 3d 0e 11 e0 3d 7b 21 df bc
       -0.046276685 0.082646415 0.10940753 -0.027237644
000120 22 c6 0e 3e a2 04 b3 bd f6 e1 18 be fd 26 95 bd
       0.13942769 -0.08741118 -0.14929947 -0.07282827
000130 28 f6 c7 bd 06 f3 49 be 85 35 20 3e 3d 4b 24 be
       -0.097637475 -0.19721612 0.15645416 -0.16044326
000140 65 ba 96 bc a6 28 21 bd a5 c0 c6 bc c4 8d 8c 3e
       -0.018399427 -0.039345406 -0.024261782 0.2745191
000150 03 49 f0 3d c4 a2 60 3e 48 1d 5b 3d c0 13 b1 3e
       0.11732676 0.2193709 0.05349472 0.3458538
000160 85 13 71 bd 25 5f a9 bc 06 17 35 3d 59 b8 b1 3d
       -0.058856506 -0.020675251 0.04421141 0.0867774
000170 b1 4c 3c bd 3b 77 ed bd 02 34 d9 3d b3 c5 e8 3d
       -0.045971576 -0.11595007 0.10605623 0.11365833
000180 b0 ca e3 3d 10 11 7d 3e 25 17 b0 3e ca ce f2 3d
       0.11122644 0.2471354 0.34392658 0.11855848
000190 ae d3 2b 3e fe 1f 99 3d 10 b2 23 be 61 36 38 3e
       0.16779968 0.07476805 -0.15985894 0.17989494
0001a0 e1 44 9e 3d d6 6f 00 bd c4 17 64 3d 8d 23 86 3d
       0.07727981 -0.031356655 0.055686727 0.065497495
0001b0 e6 5e 4d 3e 4a 9f f1 3b 2b e9 56 bd f7 ab 83 be
       0.20055732 0.007373725 -0.05246846 -0.25717136
0001c0 7f ed 95 be 95 ad c9 bd bb 2d f2 bd 4c ac 2d be
       -0.29282758 -0.09847561 -0.11825129 -0.16960257
0001d0 77 ff eb 3d 8c ad b0 3d 37 f4 19 be ec 0e 0e 3e
       0.115233354 0.086268514 -0.15034567 0.1387288
0001e0 c4 5a f7 bd 62 a6 aa 3e 29 df 48 bd 05 2e 06 bd
       -0.12077859 0.33330065 -0.049040947 -0.03275873
0001f0 25 ae 0a 3e fd 51 bc be f6 5e 97 bc e8 68 13 be
       0.13542993 -0.36781302 -0.018477898 -0.14395487
000200 75 35 1c 3e eb 54 b8 3e 18 3e 07 be 81 ca ca bd
       0.15254767 0.36002287 -0.1320728 -0.09901906
000210 6d ad 4a 3c 12 35 0b be 60 ad cb 3d 40 26 94 3d
       0.0123704495 -0.13594463 0.09945178 0.07233858
000220 03 f8 2d 3c 87 85 e5 bb db 17 b5 3d 89 c1 2f be
       0.010618213 -0.007004443 0.08842441 -0.17163672
000230 49 d1 8b 3d b4 e4 05 be b1 35 b1 bd bd 2a 8a bd
       0.06827027 -0.13075525 -0.08652819 -0.06746433
000240 f6 cd 5a 3d 56 07 15 3e 39 52 fd 3e 0e 2a cc bc
       0.053419076 0.1455358 0.49476793 -0.024922397
000250 68 b7 79 3d 2a d6 9f 3d e1 72 38 3d 37 d6 76 3e
       0.060965925 0.078045204 0.045031432 0.24105154
000260 d0 f3 09 be 79 2c b8 bd 42 6b 67 3e 6b a6 11 3e
       -0.13471913 -0.089928575 0.2259951 0.1422364
000270 b8 0a b6 3e 0c 8d cd 3d 92 00 f9 bd c0 a2 ec bd
       0.35555053 0.10036668 -0.12158312 -0.115544796
000280 85 e4 57 3e b6 c9 45 3e 37 d5 cb 3d 08 b9 1b bc
       0.21083267 0.19315228 0.09952777 -0.009504564
000290 c8 56 c7 3d 1c 96 a7 3e f7 21 d9 3e 18 98 42 3e
       0.09733349 0.32731712 0.42408726 0.19003332
0002a0 e7 21 3a 3e 0f 06 7a 3e 1a 80 0d 3e 9b d8 95 bd
       0.18176995 0.24416374 0.13818398 -0.07316705
0002b0 16 e7 6d 3e bb d8 c3 3e 88 da d2 bd e1 d7 ea 3d
       0.23232684 0.3825129 -0.10295588 0.11466957
0002c0 47 ca 8b 3d 60 0f d5 3d 40 5c be 3d 00 4d 9c 3c
       0.06825691 0.10403323 0.09294939 0.019079685
0002d0 ed 0c 73 3e a1 9a 9f 3e 24 e7 dc 3d 84 f3 86 3d
       0.237354 0.3117266 0.10786274 0.06589416
0002e0 fa 20 76 bd 7d 49 f1 bd ff c8 62 3e e0 74 81 3e
       -0.060090043 -0.11781595 0.22146986 0.2528448
0002f0 b7 a7 67 bd 6e 1c ea bb 2b 7e 24 3c e1 3c 1e 3e
       -0.05655643 -0.0071445024 0.010039846 0.15452911
000300 83 1c ca 3e 8c 7d d1 3d 51 ef b2 bd b5 e0 e5 3e
       0.39474878 0.10229024 -0.08737052 0.44898
000310 a6 59 8f 3e 51 2e 16 bc 93 0f 7d 3d 27 68 d3 bd
       0.27998084 -0.009166316 0.06178243 -0.103226
000320 ad a1 af 3d 37 79 66 bd e7 fb 48 3e 08 20 f5 3d
       0.08575759 -0.056267943 0.19627343 0.11969
000330 c8 59 4b bd 02 ef 2b 3c 01 cf 8d 3d fa 07 0b 3e
       -0.04964617 0.010493996 0.069242485 0.13577262
000340 fa a0 a7 3e ab 39 be bd ca e2 ec bd 5c 41 98 3e
       0.32740003 -0.09288343 -0.11566694 0.29737365
000350 2f 38 71 3d 66 85 3f 3d 66 de d9 3e f2 24 96 3c
       0.05889147 0.046758078 0.4255249 0.018328164
000360 a0 92 8b 3e 6c e5 01 be 37 cb d4 bd b6 99 e4 bd
       0.27260303 -0.12685174 -0.10390323 -0.111621305
000370 d3 5a 18 bd 36 b3 cf 3d ce e6 89 bd 98 86 c7 3d
       -0.03719599 0.10141604 -0.067334756 0.097424686
000380 83 c5 80 bc 91 cd 17 3f eb 5e 25 3e 0d 25 c8 bd
       -0.01571918 0.59298044 0.1614949 -0.09772692
000390 ab e0 45 3e cd 5e c1 3a 4f ee a9 3d 5b 18 15 3e
       0.19323985 0.0014752984 0.08297407 0.14560072
0003a0 fc a4 aa bc b7 7d ec bd 46 dc ed 3e c8 85 b6 bd
       -0.020830624 -0.11547416 0.46457118 -0.089122355
0003b0 04 e7 8f 3d d4 27 60 3e 50 5c e0 bd e0 ce c8 3d
       0.070264846 0.21890193 -0.10955107 0.09805083
0003c0 27 7d e0 3d 4f d4 7d be b4 cd 9e 3e f0 89 4f 3d
       0.10961371 -0.2478802 0.31016314 0.050668657
0003d0 99 32 2b 3e 8a e2 f9 3d e7 51 3a 3d d6 db eb 3e
       0.1671852 0.12201412 0.045488264 0.4606616
0003e0 2f 06 45 bd de 4f ba 3d 05 fc e4 bd 59 d1 e7 bd
       -0.0481016 0.09097265 -0.111808814 -0.11319227
0003f0 0c e0 c9 bc 06 8d a6 bc 8f 9d 05 be 80 1f 2e 3e
       -0.024642967 -0.020330917 -0.13048385 0.17004204

fc3.bias f4 [2]
000000 fd 10 7b bc fb 11 77 bd
       -0.015323875 -0.060319882
