checkpoint_actor0.pth (torch_old, 159146 bytes, 6 tensors)

fc1.weight f4 [256, 24]
0.07237625 -0.04425788 0.032643884 -0.007139345 -0.14808056 0.024887493 0.03718873 0.06987029
0.007824712 -0.010606319 0.015394702 -0.0028888492 0.00908691 0.016405484 0.07744981 0.050307613
-0.026207643 -0.08323859 0.00838418 0.060106162 -0.020052856 0.06879949 0.07378751 0.014938541
-0.02037072 0.07948476 -0.020960633 0.11891525 -0.0918437 0.09518317 -0.01244345 0.026160413
-0.05346437 -0.004388695 0.079225674 0.13129164 -0.0659566 0.14492917 0.031806502 0.14135288
-0.034416202 -0.10924498 -0.022223193 0.07682997 0.094217874 0.1854877 0.022990894 0.03851349
-0.06133641 0.18265812 0.091201186 -0.058600657 0.02059496 -0.11598838 0.008436398 -0.11255964
0.019731814 0.15569808 -0.09179304 -0.18056402 -0.013014079 -0.16101284 -0.07260876 -0.16072819
0.0009003603 0.03862686 -0.016389292 -0.23682423 -0.07364586 -0.13496192 0.029990243 -0.16170175
0.021536067 0.325124 0.035817932 0.054758016 -0.038629744 0.02444224 0.059637543 0.047797356
-0.044935346 0.232789 -0.05488875 -0.007407566 0.08404122 0.024891095 -0.016440617 0.064437635
-0.022216909 0.17653833 -0.1002582 -0.09090282 0.15792884 0.12524113 -0.0037769647 -0.061344504
-0.04791942 -0.056677353 0.04876658 -0.04216304 0.10604408 0.13695523 -0.056977052 -0.11439774
-0.036427 0.025912765 0.043060485 -0.10548942 0.17068565 0.17851551 0.06504371 -0.03817837
0.02909706 0.050343845 -0.040023047 -0.12034446 0.08970612 0.15949634 -0.0013796625 -0.05209059
0.04743877 0.010866271 0.004614515 0.08706822 0.108042724 -0.012808943 0.08282836 0.105296426
-0.003948297 -0.011962676 -0.012900926 -0.14646342 -0.031280026 0.04571413 0.054693162 -0.12049001
0.03443646 -0.11985083 0.08551329 -0.14353615 -0.083633885 0.102222644 0.09375515 -0.16973296
-0.1304496 -0.07118017 0.024838878 -0.016842509 0.018783608 -0.07831196 0.052285522 0.07269509
-0.01476038 -0.10966576 0.044786982 0.12526052 -0.08285382 -0.00044044593 0.023543365 0.13349707
-0.03610581 -0.027632747 0.037633862 0.1719701 -0.035733417 -0.14137217 0.0355806 0.20273691
-0.028013753 -0.17049593 0.007864749 0.025013465 0.02163848 0.06266293 0.03577627 -0.020799167
-0.0248776 -0.12508388 -0.008020332 0.012268886 -0.16842318 0.074086145 0.0053911493 0.019775916
0.005190089 -0.14048176 -0.01916894 0.03351722 -0.2579796 -0.0032935326 0.057378527 0.014028746
0.0077496003 0.16915902 0.07900644 0.0728552 0.1269424 -0.025876395 0.08146044 0.047491603
0.04396265 0.10714561 0.05210386 0.021515295 0.11238889 0.11126895 0.072317526 0.04625746
0.052237704 0.040822793 0.0011614393 0.04406455 0.08380193 0.19681557 -0.07652063 -0.022207776
0.011303036 0.1441153 -0.046185922 0.08553441 -0.035229113 0.15168378 -0.05436125 0.1031245
-0.060898706 0.08699316 0.09591199 0.021664826 -0.08048587 0.1428002 0.050642326 -0.048633
0.0039293687 -0.012484433 -0.07028627 -0.024259126 -0.055650678 0.037994266 0.02666649 -0.050380263
-0.04895027 0.039679423 0.040917914 0.005806641 -0.08232945 0.07311076 -0.0014599144 0.061577197
-0.026463198 -0.01375383 -0.0006434526 0.0239837 0.13681553 0.04461466 -0.042008147 0.045467064
00000000: 003a 943d c047 35bd 98b5 053d 2bf1 e9bb
00000010: 6ea2 17be dbe0 cb3c 3653 183d 2818 8f3d
00000020: 3933 003c 20c6 2dbc 0f3a 7c3c d952 3dbb
00000030: 43e1 143c cb64 863c 029e 9e3d 5b0f 4e3d
00000040: 69b1 d6bc fe78 aabd cd5d 093c e131 763d
00000050: e345 a4bc bfe6 8c3d e81d 973d c8c0 743c
00000060: 7fe0 a6bc e8c8 a23d a2b5 abbc d789 f33d
00000070: 8d18 bcbd 65ef c23d 9ddf 4bbc 5d4e d63c
00000080: 75fd 5abd 0bcf 8fbb 1241 a23d 5171 063e
00000090: 4114 87bd 5068 143e 8947 023d cfbe 103e
000000a0: 01f8 0cbd d5bb dfbd 6a0d b6bc 0859 9d3d
000000b0: 4df5 c03d 7df0 3d3e 6657 bc3c 52c0 1d3d
000000c0: e33b 7bbd bb0a 3b3e b0c7 ba3d 3e07 70bd
000000d0: c3b6 a83c 518b edbd d138 0a3c ab85 e6bd
000000e0: 9da4 a13c 516f 1f3e fdfd bbbd c6e5 38be
000000f0: 0139 55bc 8de0 24be e7b3 94bd ee95 24be
00000100: 2806 6c3a 3337 1e3d d642 86bc 0d82 72be
00000110: a4d3 96bd 7533 0abe 19ae f53c 2595 25be
00000120: 686c b03c a776 a63e d3b5 123d f149 603d
00000130: 393a 1ebd 183b c83c 7f46 743d 29c7 433d
00000140: 200e 38bd 3d60 6e3e 07d3 60bd 2bbb f2bb
00000150: ce1d ac3d 69e8 cb3c 79ae 86bc e1f7 833d
00000160: 3c00 b6bc 77c6 343e 2c54 cdbd 422b babd
00000170: 19b8 213e 363f 003e f486 77bb 6044 7bbd
00000180: 2747 44bd 8326 68bd 77bf 473d 27b3 2cbd
00000190: a32d d93d fe3d 0c3e c560 69bd 5d49 eabd
000001a0: 7a34 15bd 0247 d43c 3160 303d d60a d8bd
000001b0: 38c8 2e3e c5cc 363e a335 853d ec60 1cbd
000001c0: f55c ee3c 5935 4e3d 35ef 23bd 2877 f6bd
000001d0: d8b7 b73d 0253 233e cbd5 b4ba f15c 55bd
000001e0: 284f 423d 7208 323c 5c35 973b d350 b23d
000001f0: 8145 dd3d 9adc 51bc eaa1 a93d a7a5 d73d
00000200: b760 81bb 1aff 43bc 685e 53bc 82fa 15be
00000210: 7c1f 00bd bd3e 3b3d f005 603d 77c3 f6bd
00000220: 3f0d 0d3d 5a74 f5bd 9721 af3d 24fb 12be
00000230: 3e48 abbd 1b5a d13d b302 c03d 7ace 2dbe
00000240: 9494 05be e9c6 91bd e77a cb3c 4df9 89bc
00000250: 15e0 993c 0562 a0bd 5829 563d 2ae1 943d
00000260: 85d5 71bc 7198 e0bd 8e72 373d 4b44 003e
00000270: 43af a9bd a7eb e6b9 04de c03c 75b3 083e
00000280: b0e3 13bd 125e e2bc f725 1a3d ee18 303e
00000290: 345d 12bd dec3 10be f7bc 113d 449a 4f3e
000002a0: 197d e5bc 7c96 2ebe 26db 003c 0ae9 cc3c
000002b0: 2e43 b13c 6c55 803d 238a 123d 0463 aabc
000002c0: 1ccc cbbc fd15 00be b667 03bc 7003 493c
000002d0: 2077 2cbe 7aba 973d 3da8 b03b 1a01 a23c
000002e0: 9f11 aa3b 73da 0fbe 2e08 9dbc 5a49 093d
000002f0: e715 84be 4fd8 57bb bf05 6b3d d3d8 653c
00000300: 5cf0 fd3b 0638 2d3e 21ce a13d 1b35 953d
00000310: 30fd 013e bcfa d3bc bbd4 a63d 8e86 423d
00000320: 2e12 343d 286f db3d db6a 553d d840 b03c
00000330: 252c e63d fae0 e33d 361b 943d 7678 3d3d
00000340: 34f7 553d cd35 273d 703b 983a 087d 343d
00000350: 59a0 ab3d 058a 493e d9b6 9cbd 15ed b5bc
00000360: 5e30 393c f692 133e 732d 3dbd aa2c af3d
00000370: 674c 10bd fe52 1b3e e7a9 5ebd f032 d33d
00000380: ec70 79bd 7829 b23d 816d c43d 6f7a b13c
00000390: c7d5 a4bd 373a 123e 546e 4f3d 6633 47bd
000003a0: efc1 803b 828b 4cbc 3ff2 8fbd 13bb c6bc
000003b0: f7f1 63bd e09f 1b3d af73 da3c 895b 4ebd
000003c0: 1480 48bd e486 223d 8b99 273d a345 be3b
000003d0: 589c a8bd 18bb 953d 995a bfba 5f38 7c3d
000003e0: 59c9 d8bc bf57 61bc 5fad 28ba 7779 c43c
000003f0: 5f19 0c3e ddbd 363d bc10 2cbd ac3b 3a3d

fc1.bias f4 [256]
-0.019515852 0.17432258 0.19402051 0.14340213 0.0032246269 -0.20029718 -0.24138133 0.0072044083
-0.17772616 -0.14017273 0.24950369 0.09717223 0.028352575 -0.046770137 -0.007628608 0.16844289
0.12981312 0.004706803 -0.031494018 -0.14415173 0.14341477 -0.113748476 -0.032575257 -0.13923682
0.08766655 -0.13443138 0.060264837 0.042232946 -0.08072442 0.0031222603 0.07120494 -0.09467619
-0.029866481 0.12406889 -0.120878816 -0.023465535 -0.17387605 0.22285102 -0.21488218 0.12391497
-0.13471232 -0.19154638 -0.029860001 -0.17717932 -0.08678021 -0.16506834 0.01734357 -0.1411412
0.30728424 0.179278 -0.06597113 0.13916296 -0.124587394 -0.10262005 0.14143336 0.070526004
0.17856985 -0.06719553 -0.18152276 0.2137219 0.09135006 0.119666755 -0.056760903 -0.2247952
0.03475694 0.057647184 -0.095189236 0.11179812 -0.21624468 -0.12821332 0.048993498 -0.11503489
-0.14985795 -0.12609799 -0.08272253 0.1819716 0.06552182 0.27727994 0.07501663 0.09617545
0.008724727 0.035268422 -0.17571735 -0.22789812 0.04893035 -0.08941511 -0.13480404 0.05718377
-0.14389686 -0.029655881 -0.104079545 -0.001099978 -0.0014971071 0.09482093 -0.117241025 -0.2136101
0.09861648 -0.16992758 0.14204687 0.08763059 0.04095836 -0.1198756 0.03279475 0.07696199
-0.11023477 0.18963134 0.0636992 0.02154311 0.13531318 0.023266332 0.043201387 -0.10214179
-0.097437225 -0.1774076 -0.12430973 0.11179291 0.1333258 -0.18400353 -0.1557502 0.18132922
-0.107770555 0.041814104 0.17527354 0.24904665 0.09973844 0.121432826 0.023304971 -0.112904504
0.14103901 -0.04607846 -0.25749516 0.07954376 -0.26922682 0.087444514 0.14576161 0.115870245
0.054665677 0.057984505 0.056491274 0.1455055 0.023509631 -0.12667029 0.19395323 0.10884584
0.07495306 -0.1927408 -0.037408367 -0.15296435 0.06576972 0.30706745 0.053033743 0.2984594
0.19107935 -0.058951337 0.20910028 -0.013115876 0.17061545 0.070442386 0.01724697 0.21870922
-0.14691308 0.040168185 0.040771328 0.0655394 0.02168968 0.14072573 0.04564538 0.12080357
0.102614194 0.2234085 0.104020774 -0.24481684 -0.16472764 -0.07731753 -0.2052152 -0.056741666
0.029878901 0.16582434 -0.061140098 0.1840294 -0.021485612 0.22491995 0.043948404 0.15721694
0.25646916 -0.16709647 -0.21733387 -0.09587995 0.028497921 0.12156107 0.064448096 0.050726783
-0.04640184 -0.13524784 0.22721067 -0.08533699 -0.13614973 0.095153034 0.16186139 0.1342322
0.08153049 -0.014626384 0.050793566 -0.02126744 0.23560752 0.23040406 -0.075614735 0.1916443
-0.08355404 -0.048464354 0.082073465 0.010117126 0.23569334 0.009383575 -0.0026645577 -0.22458339
0.18930703 0.15046607 0.07294816 -0.031372156 -0.059640832 0.16872466 0.27111158 0.07132044
0.06289151 -0.22158276 0.04528435 -0.08308719 0.024616567 -0.07255026 0.21718785 0.13139266
-0.03185116 -0.005783117 0.15090913 0.06336688 -0.08182448 0.11208251 0.043290187 0.09252693
-0.048510484 -0.1443053 0.036817458 -0.06567388 0.020181298 0.1873818 -0.049009517 -0.17725256
0.015102295 -0.0014579988 -0.11063177 -0.14444828 0.13867192 0.2379813 -0.21804056 0.16210353
00000000: b5df 9fbc 9e81 323e 50ad 463e 02d8 123e
00000010: 4354 533b b41a 4dbe ab2c 77be f512 ec3b
00000020: d9fd 35be 7189 0fbe e57d 7f3e 3c02 c73d
00000030: a943 e83c 0b92 3fbd 67f9 f9bb 4b7c 2c3e
00000040: bbed 043e 863b 9a3b dfff 00bd 839c 13be
00000050: 52db 123e f6f4 e8bd a26d 05bd 1994 0ebe
00000060: 858a b33d 61a8 09be 43d8 763d 74fc 2c3d
00000070: d852 a5bd d69e 4c3b e5d3 913d 97e5 c1bd
00000080: 8daa f4bc d517 fe3d 508f f7bd cb3a c0bc
00000090: 900c 32be 0f33 643e 130a 5cbe 22c7 fd3d
000000a0: 07f2 09be bc24 44be f69c f4bc 7f6e 35be
000000b0: d3b9 b1bd ad07 29be 1a14 8e3c 5287 10be
000000c0: 5c54 9d3e a794 373e df1b 87bd bc80 0e3e
000000d0: ad27 ffbd 762a d2bd e8d3 103e f06f 903d
000000e0: 04db 363e cf9d 89bd 1ae1 39be ead9 5a3e
000000f0: be15 bb3d d813 f53d 1f7e 68bd b730 66be
00000100: 4b5d 0e3d 741f 6c3d 93f2 c2bd 6af6 e43d
00000110: 3f6f 5dbe 5a4a 03be 68ad 483d 6a97 ebbd
00000120: 5d74 19be d51f 01be 6e6a a9bd c356 3a3e
00000130: 4e30 863d a3f7 8d3e 52a2 993d a2f7 c43d
00000140: 28f2 0e3c 9f75 103d 40ef 33be 205e 69be
00000150: 316b 483d 451f b7bd 120a 0abe 8739 6a3d
00000160: b359 13be e4f0 f2bc a827 d5bd 232d 90ba
00000170: 943a c4ba 7a31 c23d 101c f0bd 9bbc 5abe
00000180: 70f7 c93d 7f01 2ebe bc74 113e ab77 b33d
00000190: f4c3 273d 5781 f5bd ca53 063d 3f9e 9d3d
000001a0: c4c2 e1bd b82e 423e ba74 823d 2d7b b03c
000001b0: 8a8f 0a3e 0999 be3c f0f3 303d b72f d1bd
000001c0: 2b8d c7bd 57aa 35be 1a96 febd aef3 e43d
000001d0: 8f86 083e 6c6b 3cbe fb7c 1fbe 5eae 393e
000001e0: cfb6 dcbd 4445 2b3d e87a 333e 1606 7f3e
000001f0: ab43 cc3d c6b1 f83d 11ea be3c 7a3a e7bd
00000200: 886c 103e c4bc 3cbd 68d6 83be d7e7 a23d
00000210: 19d8 89be 1c16 b33d 8842 153e 614d ed3d
00000220: 1ee9 5f3d 2981 6d3d 6563 673d 65ff 143e
00000230: 4597 c03c dbb5 01be ad9b 463e 91ea de3d
00000240: fd80 993d d85d 45be 8439 19bd b0a2 1cbe
00000250: 46b2 863d f237 9d3e e939 593d accf 983e
00000260: 4eaa 433e f576 71bd 621e 563e f9e3 56bc
00000270: d1b5 2e3e 1944 903d 8549 8d3c 4ff5 5f3e
00000280: 6270 16be 6587 243d d6ff 263d 8539 863d
00000290: 8eae b13c 681a 103e a6f6 3a3d dd67 f73d
000002a0: 6427 d23d 33c5 643e d808 d53d 44b1 7abe
000002b0: 5dae 28be a758 9ebd ef23 52be f369 68bd
000002c0: 99c4 f43c dbcd 293e 0a6e 7abd 3472 3c3e
000002d0: 9802 b0bc 6a51 663e 3e03 343d 7afd 203e
000002e0: ed4f 833e 561b 2bbe c58c 5ebe b55c c4bd
000002f0: 7974 e93c 03f5 f83d 5dfd 833d e3c6 4f3d
00000300: db0f 3ebd 697e 0abe eaa9 683e 29c5 aebd
00000310: d66a 0bbe 98df c23d febe 253e 2a74 093e
00000320: 75f9 a63d 80a3 6fbc ea0c 503d 0e39 aebc
00000330: 1943 713e 0bef 6b3e e6db 9abd 673e 443e
00000340: 611e abbd 8f82 46bd 2216 a83d 4dc2 253c
00000350: 9859 713e 91bd 193c dc9f 2ebb 30f9 65be
00000360: b4d9 413e c713 1a3e d865 953d 1780 00bd
00000370: f249 74bd 28c6 2c3e 23cf 8a3e 7310 923d
00000380: 44cd 803d 97e6 62be 157c 393d 9e29 aabd
00000390: afa8 c93c 3b95 94bd 7e66 5e3e cc8b 063e
000003a0: 5d76 02bd 4d80 bdbb ec87 1a3e 7fc6 813d
000003b0: 9893 a7bd 848b e53d 0d51 313d c27e bd3d
000003c0: eeb2 46bd c5c4 13be e7cd 163d 0780 86bd
000003d0: 4053 a53c 04e1 3f3e 34be 48bd b281 35be
000003e0: 9e6f 773c 521a bfba e992 e2bd 40ea 13be
000003f0: 0300 0e3e 5fb1 733e 0646 5fbe 78fe 253e

fc2.weight f4 [128, 256]
-0.031537045 -0.13240309 -0.11185146 -0.0090050185 0.049735777 -0.002949087 0.048562754 0.07309153
0.016803507 0.08008999 -0.08988834 -0.01730876 -0.117516644 -0.054844648 -0.029465739 0.048867047
0.0064998865 -0.07582624 -0.026777076 0.05506593 -0.10520907 0.112751245 0.07376566 0.0012229544
-0.021782111 -0.061967064 -0.0990499 -0.05319329 0.036371704 -0.010399331 0.09627519 -0.14566824
0.010459973 0.04824685 -0.012130203 -0.3150854 -0.05889707 -0.035169583 0.013073142 0.13824499
-0.082481086 0.043285713 0.060469545 -0.14753658 0.025463425 0.10425776 0.17814147 -0.013214109
0.017891085 0.01833149 -0.059936967 -0.05738598 -0.048645448 -0.014231489 0.00933652 -0.029204272
0.013460556 -0.07117965 -0.090742506 -0.0076042535 -0.04529815 0.13637447 0.12422792 -0.036385983
-0.13068934 0.032056253 0.027430223 0.042967845 -0.065741815 -0.006081576 -0.008584464 -0.028396899
-0.07508277 0.09352167 0.15020257 -0.103329755 -0.12152447 0.004996244 0.098822676 -0.01661868
-0.059360933 -0.054384876 -0.011562819 0.08606865 0.1261762 -0.113879256 -0.111463964 -0.02868241
-0.078167096 0.022553192 0.07861974 -0.098338045 -0.023350189 0.05221728 -0.033100575 -0.057980116
0.03002833 -0.061890017 0.11572402 0.0073026856 -0.012234096 0.01297138 0.059860606 0.10689271
0.032686554 -0.10754061 -0.08818225 0.042740583 -0.014529489 0.07626255 0.019515216 0.060199745
0.018824633 0.08671038 -0.06928903 0.053120982 -0.0043381006 0.08346471 -0.04626461 0.07803405
0.013592042 -0.114764534 -0.07579856 0.048465353 0.031473856 0.111659266 0.06412973 -0.16916913
0.08162812 0.15016791 -0.010566913 0.11580806 -0.099318296 0.110053524 0.1256527 -0.12043987
0.0569402 0.09788081 -0.24345373 0.028243383 -0.06737555 0.07162475 0.12007402 -0.013647508
-0.08438974 0.08141635 -0.01192634 -0.016380904 0.009214567 0.06959892 0.08738828 -0.018035104
-0.06524283 -0.0071632685 0.10184338 0.046221096 -0.05325928 0.038356453 -0.057318337 0.111491844
0.066070706 -0.0080430005 0.08353361 -0.014341935 0.10216735 -0.029008532 -0.041641034 -0.047158424
0.02385444 0.09229658 -0.042939264 -0.21184698 -0.22242561 -0.019984009 -0.014176745 0.03746519
0.05196909 0.0025239494 0.028085088 0.09057544 0.035326153 0.009280954 -0.07090524 -0.008716803
0.12923388 0.08246344 0.012512223 0.038223494 0.09411904 0.08369764 -0.16582835 -0.042606205
-0.08306134 -0.038757898 -0.14616135 0.05797091 -0.18551958 -0.05776514 0.06988343 -0.061896622
0.078125045 0.034231342 -0.030671613 0.050837968 0.09191989 -0.0074857865 -0.079288654 0.11429508
-0.012916331 0.09756193 0.06251422 -0.06440887 0.118050955 0.022675017 0.068406306 -0.13832065
0.066204794 0.08060066 -0.018209914 -0.1525494 0.036185116 0.14546108 -0.08485812 0.186748
-0.020793583 -0.07056912 -0.16681062 0.039550006 -0.017955165 -0.06939983 0.06710098 0.02639443
-0.19700369 0.0032954216 -0.0036135907 0.0822991 0.042564206 0.074125044 0.051626984 -0.061592042
-0.07143647 -0.13204692 0.035919134 -0.05820925 0.08194976 0.10369256 0.0800318 -0.04592378
0.07491452 -0.0035852895 -0.021624574 -0.12687434 -0.023826856 -0.095018536 0.016827382 0.01339952
00000000: fd2c 01bd ad94 07be 6112 e5bd c989 13bc
00000010: beb7 4b3d 7845 41bb bde9 463d 03b1 953d
00000020: 82a7 893c 3806 a43d 6117 b8bd 1acb 8dbc
00000030: 91ac f0bd c8a4 60bd 2262 f1bc d028 483d
00000040: 00fd d43b ca4a 9bbd 995b dbbc d08c 613d
00000050: da77 d7bd 20ea e63d 7312 973d 8a4b a03a
00000060: 6670 b2bc 2dd1 7dbd adda cabd 35e1 59bd
00000070: 7ffa 143d f561 2abc ed2b c53d 0e2a 15be
00000080: 4e60 2b3c 7d9e 453d c2bd 46bc e052 a1be
00000090: 0e3e 71bd fb0d 10bd bb30 563c 1890 0d3e
000000a0: d8eb a8bd 5c4c 313d eaae 773d d413 17be
000000b0: ac98 d03c 1885 d53d b86a 363e fe7f 58bc
000000c0: 5390 923c ec2b 963c 7780 75bd 900d 6bbd
000000d0: 7340 47bd 312b 69bc 34f8 183c cc3d efbc
000000e0: aa89 5c3c a3c6 91bd 35d7 b9bd 1a2d f9bb
000000f0: 8e8a 39bd c0a5 0b3e 356b fe3d 7809 15bd
00000100: 6dd3 05be 6b4d 033d 59b5 e03c 0dff 2f3d
00000110: a5a3 86bd f547 c7bb daa5 0cbc 9da0 e8bc
00000120: ffc4 99bd 4a88 bf3d b4ce 193e 8d9e d3bd
00000130: d2e1 f8bd 88b7 a33b 8b63 ca3d e623 88bc
00000140: 7324 73bd adc2 5ebd fa71 3dbc c344 b03d
00000150: 5534 013e 8739 e9bd 3847 e4bd 60f7 eabc
00000160: 1216 a0bd 79c1 b83c 6303 a13d 7565 c9bd
00000170: e548 bfbc c9e1 553d 7894 07bd 8f7c 6dbd
00000180: f9fd f53c 6380 7dbd b700 ed3d 5e4b ef3b
00000190: 8571 48bc e985 543c 6530 753d 91ea da3d
000001a0: 56e2 053d 403e dcbd e598 b4bd c010 2f3d
000001b0: 180d 6ebc 8a2f 9c3d 60de 9f3c 0294 763d
000001c0: 1e36 9a3c 3695 b13d 68e7 8dbd 6395 593d
000001d0: a026 8ebb 8cef aa3d f67f 3dbd 51d0 9f3d
000001e0: 28b1 5e3c ab09 ebbd 473c 9bbd 9b83 463d
000001f0: bbea 003d 9dad e43d 7356 833d ac3a 2dbe
00000200: a52c a73d 9ec5 193e d820 2dbc c72c ed3d
00000210: 6467 cbbd be63 e13d 1aab 003e 2ea9 f6bd
00000220: 213a 693d bc75 c83d ef4b 79be ab5e e73c
00000230: 31fc 89bd ffaf 923d 5ee9 f53d cc99 5fbc
00000240: 87d4 acbd 9ebd a63d b266 43bc 3f31 86bc
00000250: b2f8 163c e189 8e3d a0f8 b23d 5bbe 93bc
00000260: 089e 85bd dab9 eabb 4393 d03d 5552 3d3d
00000270: 6726 5abd a81b 1d3d a2c6 6abd d655 e43d
00000280: 1450 873d cac6 03bc ab13 ab3d 6ffa 6abc
00000290: 1e3d d13d 4da3 edbc ca8f 2abd 3129 41bd
000002a0: 636a c33c fd05 bd3d 15e1 2fbd 6aee 58be
000002b0: 8ac3 63be 81b5 a3bc 9445 68bc 1975 193d
000002c0: 8add 543d d868 253b b312 e63c 9e7f b93d
000002d0: 28b2 103d 240f 183c c436 91bd ecd0 0ebc
000002e0: e355 043e 98e2 a83d 1100 4d3c 3d90 1c3d
000002f0: 7cc1 c03d ab69 ab3d e8ce 29be d883 2ebd
00000300: 101c aabd 9ac0 1ebd 52ab 15be e872 6d3d
00000310: d8f8 3dbe 249b 6cbd 0b1f 8f3d 5087 7dbd
00000320: 0600 a03d 2a36 0c3d 0943 fbbc 793b 503d
00000330: 7f40 bc3d 544b f5bb 1762 a2bd 8a13 ea3d
00000340: 059f 53bc 8dce c73d 7507 803d cce8 83bd
00000350: b3c4 f13d f5c0 b93c 9b18 8c3d eea3 0dbe
00000360: 6196 873d f511 a53d f52c 95bc e935 1cbe
00000370: d836 143d c0f3 143e 18ca adbd de3a 3f3e
00000380: 4e57 aabc 8b86 90bd 67d0 2abe 30ff 213d
00000390: b616 93bc 8021 8ebd 3d6c 893d 2239 d83c
000003a0: 56bb 49be 00f8 573b fed1 6cbb 6e8c a83d
000003b0: ce57 2e3d dfce 973d d176 533d f047 7cbd
000003c0: 494d 92bd 4f37 07be f11f 133d d36c 6ebd
000003d0: 47d5 a73d c45c d43d b6e7 a33d 931a 3cbd
000003e0: c96c 993d 2df7 6abb 0526 b1bc 59eb 01be
000003f0: 8a30 c3bc 1499 c2bd 94d9 893c a989 5b3c

fc2.bias f4 [128]
0.098715894 0.064785786 -0.057254236 0.043673668 -0.0027124558 0.04786824 0.080701075 -0.056779273
0.04912764 0.048791386 -0.0055175764 0.0834941 -0.05831103 0.010533061 -0.06222014 -0.025818963
-0.11527026 -0.020024542 -0.010588186 -0.03383256 0.046969518 0.0747002 0.034157183 0.07179789
0.100083776 -0.017350871 -0.04735507 0.0044882684 0.075190194 -0.027201405 -0.01279997 0.022739029
-0.006302273 -0.061469927 -0.0845685 0.08255357 0.057902582 -0.030708475 0.04533208 -0.11650963
0.016773593 0.03210177 0.029718803 0.06345251 0.142904 0.044305597 -0.033908833 0.017015079
-0.02526359 0.03569317 0.04278357 -0.10473909 -0.058287203 0.005016504 -0.036413267 0.13116434
0.048161734 0.044827886 -0.010589274 -0.004598983 0.00021783776 0.030934922 -0.00895143 0.01414658
0.058696017 0.15050395 -0.031760007 0.019733926 -0.07362 0.1364054 -0.028330037 -0.066178724
0.02688808 -0.04563844 0.015157271 0.04251439 0.00054665067 0.05781168 0.02403938 -0.07705245
-0.04683658 -0.033383757 0.021055268 0.031201987 0.10180073 0.07046603 -0.036762554 -0.061841182
0.05692871 -0.01873759 0.02935761 0.075115055 -0.022668859 0.038128026 0.079170376 0.041938126
0.14686184 0.012235848 0.09739443 0.047182858 0.1219212 0.00502514 -0.07234343 0.021461686
-0.0049181646 -0.11241696 -0.04243539 -0.08042152 0.009423448 0.14055173 0.022114906 0.010812745
-0.023430597 0.07986633 0.009966119 0.0058682854 -0.00664132 -0.0063499417 0.017549366 0.013723358
-0.001758828 0.07256308 0.054085795 -0.01708034 -0.03461954 0.12354516 0.017222678 -0.03660415
00000000: 8f2b ca3d 69ae 843d 6b83 6abd 29e3 323d
00000010: 75c3 31bb 7d11 443d 9b46 a53d 6291 68bd
00000020: 103a 493d 7ad9 473d c9cc b4bb f4fe aa3d
00000030: 8cd7 6ebd dc92 2c3c 8cda 7ebd 4a82 d3bc
00000040: d012 ecbd 820a a4bc 127a 2dbc 0394 0abd
00000050: 1c63 403d 6bfc 983d 67e8 0b3d c60a 933d
00000060: b9f8 cc3d 6a23 8ebc 64f7 41bd 5312 933b
00000070: 51fd 993d 7bd5 debc f7b6 51bc 3347 ba3c
00000080: 4c83 cebb e4c7 7bbd 4032 adbd d911 a93d
00000090: 422b 6d3d 5790 fbbc 22ae 393d 9a9c eebd
000000a0: c668 893c 257d 033d d974 f33c 64f3 813d
000000b0: 6d55 123e c979 353d fde3 0abd 3563 8b3c
000000c0: 97f5 cebc 0033 123d d33d 2f3d 7381 d6bd
000000d0: 90be 6ebd 7c61 a43b 1426 15bd f24f 063e
000000e0: 3d45 453d 729d 373d a27e 2dbc 11b3 96bb
000000f0: 616b 6439 3c6b fd3c 05a9 12bc 0fc7 673c
00000100: 3c6b 703d b51d 1a3e c816 02bd 0ba9 a13c
00000110: 15c6 96bd dbad 0b3e 6514 e8bc b688 87bd
00000120: 6444 dc3c 5fef 3abd 3456 783c 9223 2e3d
00000130: 1b4d 0f3a f1cb 6c3d 3cee c43c adcd 9dbd
00000140: b7d7 3fbd 68bd 08bd 197c ac3c 4f9b ff3c
00000150: e77c d03d 7e50 903d 5594 16bd 2e4d 7dbd
00000160: 142e 693d 937f 99bc 5f7f f03c ecd5 993d
00000170: 0bb4 b9bc 222c 1c3d 1424 a23d 50c7 2b3d
00000180: f362 163e de78 483c bb76 c73d d042 413d
00000190: d2b1 f93d eea9 a43b cb28 94bd 6bd0 af3c
000001a0: 8e28 a1bb dd3a e6bd bbd0 2dbd 0ab4 a4bd
000001b0: ce64 1a3c cbec 0f3e 522a b53c f127 313c
000001c0: 86f1 bfbc f590 a33d ef48 233c bf4a c03b
000001d0: 6e9f d9bb 2c13 d0bb b0c3 8f3c efd7 603c
000001e0: 7988 e6ba f49b 943d 1189 5d3d 12ec 8bbc
000001f0: 38cd 0dbd 3f05 fd3d 9316 8d3c 3cee 15bd

fc3.weight f4 [2, 128]
0.082734786 0.16878754 -0.1084751 0.12733598 -0.1382116 -0.05842226 -0.11695262 -0.16836676
-0.09236078 -0.1152865 -0.16756573 0.2594096 -0.052283548 -0.13720082 -0.095188305 -0.09544778
-0.059262916 -0.101690866 0.12603597 -0.05032919 -0.14931291 0.06409321 -0.19210303 0.047996935
0.056739192 -0.1678071 -0.16176075 -0.043502346 0.12642567 -0.1599438 -0.050531946 -0.11012072
0.034538116 -0.024126401 -0.2123299 0.07617081 0.11743601 -0.04807958 -0.09946566 -0.116313964
-0.117976926 -0.04443059 -0.07740289 0.0783439 0.05199894 -0.014160207 -0.10712868 -0.23473346
-0.18745816 0.06409499 0.06738551 -0.15808587 -0.11803494 -0.077965856 -0.089571215 0.0646909
0.14778726 -0.07044081 -0.0058310614 -0.15952244 0.08164309 0.05982474 0.06912732 -0.14724141
-0.17072488 0.0681125 -0.16059776 -0.06685552 -0.08394231 0.071759626 -0.07258313 -0.15722625
-0.15493008 -0.12169693 -0.28946468 -0.38382062 -0.26927736 -0.28626055 0.03544265 -0.07776333
-0.10323436 -0.057290163 -0.07111244 0.055042647 0.06076407 0.057004895 -0.032858748 -0.18279816
-0.039583545 -0.09239615 0.027070565 0.15382823 -0.15816098 0.043887693 -0.06119151 -0.092353374
0.07726994 0.06853302 0.06804088 0.105974585 0.06723884 -0.12935692 -0.2816933 -0.11339293
0.093041934 -0.22243685 -0.06705039 -0.23865625 -0.20143639 0.045023926 -0.13757268 -0.03428488
-0.11222829 0.028089665 -0.10186961 -0.20146583 0.025580116 -0.09403956 -0.1086274 0.023685865
-0.100378014 -0.28196418 -0.15239239 0.17865418 -0.11399798 0.047869064 -0.14090624 -0.1483408
-0.07729546 -0.10460246 -0.12097773 -0.010383812 0.02339351 -0.28686056 -0.19963922 0.12642647
-0.030648045 -0.07398611 0.14572716 0.18574692 -0.040088154 -0.26654375 -0.006430317 0.1272651
0.14718388 0.1615001 -0.3521012 -0.12330375 -0.24701943 0.050735157 -0.15076405 -0.004793085
-0.21593224 0.049908813 0.028820518 -0.24847259 -0.106676824 0.0012990463 -0.2674064 -0.040642194
0.065063536 0.085559934 0.020278275 0.028098155 0.2797385 0.04434087 -0.2263294 0.15784675
-0.018198287 0.10188531 -0.067015074 -0.089627676 -0.2087105 -0.24826172 -0.33942038 0.12251546
-0.21662213 0.008573818 0.019815024 0.08431618 0.024663724 -0.17702755 -0.1817178 -0.016047439
0.013770162 -0.07082491 -0.19521496 0.11899366 -0.14132485 -0.012581847 -0.13986629 -0.21694824
-0.07627657 0.04301168 -0.067322455 -0.4357426 0.07919444 0.014401226 -0.1201826 -0.075247675
-0.34042084 -0.14813948 -0.22468843 -0.19539355 -0.059268527 -0.17136748 0.042863 0.081897974
-0.03015883 -0.17059748 -0.25350547 0.061684094 0.06107212 -0.014886738 0.08596968 0.011323495
-0.18235001 -0.16580746 -0.2921989 -0.029820696 0.18636276 -0.19185111 -0.24289322 -0.0239877
0.03241913 -0.23785296 -0.014123127 -0.20790142 0.048247248 -0.07183312 0.04517687 -0.10728655
-0.15423875 0.0033237392 -0.17390582 -0.046732042 0.023063805 0.10649229 -0.30421898 -0.18801379
0.057527255 0.07862727 0.14523946 0.03475473 -0.31833923 -0.06596873 0.049180344 0.06491882
-0.11066128 -0.123387575 0.062111143 -0.22360836 -0.2044994 -0.2843833 -0.014491043 -0.18695381
00000000: db70 a93d a4d6 2c3e 3128 debd 5d64 023e
00000010: 5787 0dbe 2e4c 6fbd db84 efbd 5668 2cbe
00000020: a627 bdbd 541b ecbd 5a96 2bbe 56d1 843e
00000030: 4627 56bd 5f7e 0cbe 16f2 c2bd 207a c3bd
00000040: acbd 72bd 4d43 d0bd 930f 013e fb25 4ebd
00000050: 7ce5 18be 4d43 833d a8b6 44be 6f98 443d
00000060: 5b67 683d a0d5 2bbe 9ca4 25be 842f 32bd
00000070: bb75 013e 4fc8 23be 96fa 4ebd f986 e1bd
00000080: d777 0d3d bba4 c5bc 026d 59be 71ff 9b3d
00000090: 4a82 f03d 18ef 44bd a7b4 cbbd 0436 eebd
000000a0: e39d f1bd dafc 35bd 6885 9ebd c472 a03d
000000b0: d7fc 543d 3600 68bc 4866 dbbd f85d 70be
000000c0: 08f5 3fbe 3c44 833d 6a01 8a3d 43e1 21be
000000d0: 4dbc f1bd 90ac 9fbd 1d71 b7bd aa7c 843d
000000e0: 8b55 173e 4543 90bd 7d12 bfbb da59 23be
000000f0: 7e34 a73d c90a 753d a092 8d3d 74c6 16be
00000100: 81d2 2ebe 917e 8b3d bd73 24be 8ceb 88bd
00000110: f2e9 abbd b6f6 923d 77a6 94bd ebff 20be
00000120: fea5 1ebe 3d3c f9bd b734 94be 2384 c4be
00000130: b9de 89be be90 92be 502c 113d 6142 9fbd
00000140: 896c d3bd 17a9 6abd 66a3 91bd 6674 613d
00000150: bfe3 783d f77d 693d e596 06bd 712f 3bbe
00000160: 5b22 22bd 313a bdbd 17c3 dd3c 2685 1d3e
00000170: f4f4 21be 95c3 333d f3a3 7abd c423 bdbd
00000180: b43f 9e3d 0a5b 8c3d 0459 8b3d 3409 d93d
00000190: 84b4 893d 2476 04be 1b3a 90be 8d3a e8bd
000001a0: c58c be3d 7cc6 63be b751 89bd 4e62 74be
000001b0: 5745 4ebe 026b 383d dadf 0cbe 4d6e 0cbd
000001c0: f2d7 e5bd 4c1c e63c 04a1 d0bd 0f4d 4ebe
000001d0: 648d d13c d097 c0bd 0b78 debd dc08 c23c
000001e0: fd92 cdbd 9c5d 90be c00c 1cbe 1ff1 363e
000001f0: c677 e9bd 5a12 443d ba49 10be a7e6 17be
00000200: 154d 9ebd d139 d6bd 2cc3 f7bd dd20 2abc
00000210: bfa3 bf3c 63df 92be 396e 4cbe f175 013e
00000220: 9c11 fbbc 0886 97bd 8039 153e 7134 3e3e
00000230: 7a33 24bd 6c78 88be 69b5 d2bb c851 023e
00000240: 5fb7 163e 4860 253e 9c46 b4be ad86 fcbd
00000250: a9f2 7cbe abcf 4f3d e461 1abe 500f 9dbb
00000260: 571d 5dbe 2f6d 4c3d 0219 ec3c 996f 7ebe
00000270: 6179 dabd c344 aa3a 7ee9 88be 6e78 26bd
00000280: 0840 853d 0c3a af3d a01e a63c 1a2e e63c
00000290: e239 8f3e c69e 353d e5c2 67be 94a2 213e
000002a0: 9314 95bc 3fa9 d03d 333f 89bd b78e b7bd
000002b0: 35b8 55be 5238 7ebe 82c8 adbe 63e9 fa3d
000002c0: 31d2 5dbe 3379 0c3c 1e53 a23c f6ad ac3d
000002d0: 940b ca3c b646 35be 3b14 3abe eb75 83bc
000002e0: 3f9c 613c a70c 91bd 6ee6 47be f3b2 f33d
000002f0: 76b7 10be 1724 4ebc 1c39 0fbe ae27 5ebe
00000300: e436 9cbd 042d 303d 5be0 89bd a719 dfbe
00000310: b230 a23d 1ff3 6b3c 4c22 f6bd 741b 9abd
00000320: a44b aebe e0b1 17be b914 66be 3f15 48be
00000330: 8ec3 72bd f57a 2fbe 1d91 2f3d 20ba a73d
00000340: a70f f7bc 1bb1 2ebe 78cb 81be 76a8 7c3d
00000350: c226 7a3d 81e7 73bc df10 b03d 2e86 393c
00000360: f6b9 3abe 6ec9 29be 189b 95be 884a f4bc
00000370: e1d5 3e3e 9e74 44be 00b9 78be da81 c4bc
00000380: ecc9 043d ba8f 73be b064 67bc 1ce4 54be
00000390: e89e 453d 3e1d 93bd 620b 393d 0db9 dbbd
000003a0: c3f0 1dbe 17d3 593b 5e14 32be 196a 3fbd
000003b0: 4ef0 bc3c a118 da3d 97c2 9bbe b086 40be
000003c0: b3a1 6b3d 5607 a13d a7b9 143e fa5a 0e3d
000003d0: 5cfd a2be 9d1a 87bd 5471 493d 29f4 843d
000003e0: 62a2 e2bd a0b2 fcbd 4168 7e3d 97f9 64be
000003f0: 4a68 51be b09a 91be d76b 6dbc d270 3fbe

fc3.bias f4 [2]
0.04992328 -0.009186879
00000000: 5a7c 4c3d 9084 16bc
