checkpoint_critic0.pth (torch_old, 159653 bytes, 5 tensors)

fc1.weight f4 [256, 24]
0	0x3c91710f	0.017754106
1	0xbd0ae91d	-0.03391372
2	0x3cffcd35	0.03122578
3	0x3bffe9f6	0.0078098727
4	0xbd98488f	-0.074357145
5	0xbddce16e	-0.10785185
6	0xbc8783d6	-0.016542356
7	0x3d9a6db7	0.07540458
8	0xbc929f6e	-0.017898288
9	0xbce9eda4	-0.028555699
10	0xbd56db0d	-0.052454997
11	0x3cfdc762	0.030978862
12	0x3d4ee758	0.050513595
13	0xbd49f421	-0.049305085
14	0x3d4216cd	0.047385026
15	0x3d20a525	0.039219994
16	0x3b111562	0.002213799
17	0xbdff383c	-0.12461898
18	0x3d438f38	0.047744006
19	0x3cf3af44	0.02974666
20	0x3ca1ea9a	0.019765187
21	0x3c39cb5e	0.01133999
22	0xbd42efda	-0.04759202
23	0x3d6a4383	0.05719329
24	0x3d8a4228	0.067508996
25	0x3d97266a	0.07380374
26	0xbb28f4ad	-0.0025780604
27	0x3d4c3c49	0.04986218
28	0xbc45f691	-0.012082712
29	0xbd993f50	-0.07482779
30	0x3d2c7150	0.04210025
31	0x3cea7129	0.028618412
32	0x3caaf854	0.020870365
33	0x3d920b5b	0.07131072
34	0x3d03c26c	0.032167837
35	0x3e2d78b0	0.1694057
36	0xbc34b869	-0.011030295
37	0xbcea458e	-0.02859762
38	0xbb7e1033	-0.003876698
39	0x3e2b5e84	0.16735274
40	0x3d9e09dd	0.07716725
41	0x3d8412b4	0.0644888
42	0xbc9313a9	-0.01795371
43	0xbe4936be	-0.19649789
44	0x3d81693a	0.063188985
45	0x3c1f59d4	0.009726007
46	0x3cc866bb	0.024463048
47	0xbe2ca148	-0.16858399
48	0x3cd5f8bc	0.026119582
49	0x3cbce107	0.02305652
50	0xbc4cf786	-0.012510186
51	0xbd78f256	-0.060777985
52	0xbd2d6978	-0.04233691
53	0xbdce9071	-0.10086144
54	0x3c101ae9	0.008795478
55	0xbd420316	-0.047366224
56	0x3bc95514	0.0061441753
57	0x3cd2dfed	0.025741542
58	0x3c4d1bba	0.012518818
59	0xbd846318	-0.06464213
60	0x3d192886	0.03739216
61	0xbd9184ab	-0.071053825
62	0x3cdc155c	0.026865654
63	0x3c430db6	0.011905124
64	0x3be3f5c7	0.006956789
65	0xbdb43c5e	-0.088005766
66	0x3d350211	0.044191424
67	0x3d16104f	0.036636647
68	0x3d304269	0.043032084
69	0x3d3120a6	0.043244027
70	0xbc76cd9a	-0.015063668
71	0x3d201d9f	0.03909075
72	0x3d0cdbc4	0.034389272
73	0x3d2d99c7	0.04238298
74	0x3b700543	0.003662423
75	0x3c27cbd7	0.01024147
76	0xbd6f4ef2	-0.058424897
77	0x3bd2dd3a	0.0064350637
78	0x3c71925e	0.014744369
79	0x3cf97d2b	0.030455193
80	0xbc0d5ab5	-0.008627583
81	0x3dbaef75	0.09127704
82	0xbb9c91e0	-0.004778132
83	0x3c4610d1	0.01208897
84	0xbc8aa459	-0.01692407
85	0xbd99b5fa	-0.075054124
86	0x3d726c1a	0.059185125
87	0xbd8654ed	-0.06559167
88	0xbd86f7a4	-0.065902025
89	0x3d39c626	0.045354985
90	0x3c820627	0.015872074
91	0xba4233ee	-0.0007408251
92	0x3d5aeb6b	0.05344717
93	0xbe509f0c	-0.20373172
94	0x3cfd2865	0.03090305
95	0xbc1212d9	-0.008915626
96	0x3d390abf	0.045176264
97	0x3bad2ae3	0.0052846535
98	0xbcb5005c	-0.022094898
99	0x3c83287f	0.016010521
100	0x3b31a423	0.002710589
101	0xbaa98229	-0.0012932468
102	0x3d1e1ad8	0.03859982
103	0xbcefaef0	-0.029258221
104	0xbd624a70	-0.05524677
105	0x3d590f9f	0.052993413
106	0x3ad8f0e8	0.0016551288
107	0xbd930253	-0.07178178
108	0x3d74b5af	0.05974358
109	0xbc829071	-0.015938016
110	0xbca525ba	-0.020159591
111	0x3cce3547	0.025171889
112	0x3d000330	0.03125304
113	0x3ca346cf	0.019931225
114	0x3a94c928	0.0011351453
115	0x3d4b0683	0.049566757
116	0x3c939cdb	0.01801913
117	0xbdf48468	-0.11939317
118	0x3d2e11d6	0.04249748
119	0x3beb8e4f	0.0071885954
120	0x3d66c209	0.05633739
121	0x3d2ebbc5	0.04265954
122	0x3cb2a873	0.021808838
123	0xbb9f57c9	-0.0048627597
124	0x3d324377	0.04352137
125	0x3dd0d8a9	0.10197575
126	0xbc9be691	-0.019030841
127	0xbd3d582a	-0.046226658
128	0x3d4da464	0.050205603
129	0xbd0bf347	-0.034167554
130	0x3c7e8f16	0.015537044
131	0xbd371a63	-0.0447029
132	0xbcb68f77	-0.022285206
133	0x3da98939	0.08278126
134	0xbc16b13f	-0.009197532
135	0xbd8bdb05	-0.06828884
136	0xbb2c1d78	-0.0026262682
137	0x3d072c05	0.033000965
138	0xbbcc14a8	-0.0062280484
139	0x3d493865	0.049126048
140	0xbdeab37e	-0.11460017
141	0x3d7209d0	0.05909139
142	0x3c19cdbc	0.00938743
143	0xbcc3c400	-0.023897171
144	0x3d511eca	0.051054753
145	0x3d8eceb8	0.06973022
146	0xbd513ee9	-0.051085386
147	0xbcae1608	-0.02125074
148	0xbc0c220b	-0.008553038
149	0x3ccaf981	0.024777176
150	0xbc2b4dc3	-0.010455552
151	0x3d04205d	0.032257427
152	0x3d0750c4	0.03303601
153	0x3cfa88e9	0.030582862
154	0x3d33d7f2	0.043907113
155	0x3cee7a49	0.029111044
156	0xbc1b42bc	-0.00947636
157	0xbd7bd03b	-0.06147788
158	0xbd1a1fb0	-0.037627876
159	0xbc9116e1	-0.017711105
160	0x3d3d67f1	0.046241704
161	0x3d274617	0.040838327
162	0xbc16b6f7	-0.009198896
163	0xbd0cae46	-0.034345888
164	0x3d23bdbe	0.039975874
165	0xbdde7609	-0.10862357
166	0xbc41a41f	-0.011818915
167	0x3be435e3	0.0069644316
168	0xbc916a73	-0.017750954
169	0x3d6f662b	0.058447044
170	0xbc814865	-0.01578159
171	0x3cfec6f6	0.031100731
172	0x3cd8616c	0.026413642
173	0xbd5d47bf	-0.0540235
174	0x3c9426a4	0.018084832
175	0x3d5c149b	0.05373059
176	0xbb71721d	-0.0036841698
177	0x3d39f761	0.045401935
178	0xbd42939a	-0.047504045
179	0xbd8c6b5c	-0.06856415
180	0xb9600f5d	-0.00021368028
181	0xbddf8e41	-0.10915805
182	0x3cc51d97	0.024061961
183	0x3aa17499	0.0012318074
184	0xbd49fe9b	-0.049315076
185	0xbcdd00f1	-0.026977988
186	0x3a0b0eaf	0.0005304617
187	0x3c4d6a7d	0.012537596
188	0xbd6405e4	-0.05566968
189	0x3daeef1d	0.08541701
190	0x3cb56d81	0.022146942
191	0xbcbc8403	-0.023012167
192	0x3ce42a4a	0.027852196
193	0x3db8ff69	0.090330906
194	0xbc62e01d	-0.013847378
195	0x3d071b88	0.03298524
196	0x3d74524e	0.059648804
197	0xbd9f1ac1	-0.07768775
198	0x3bee3043	0.007268937
199	0x3c0f2a01	0.008738042
200	0xbd49f28f	-0.049303588
201	0x3dbdaa37	0.092609815
202	0x3cb4b619	0.022059487
203	0x3d6d8d02	0.057995804
204	0x3c3bb79a	0.011457348
205	0xbd00a71d	-0.03140937
206	0xbd7c8f43	-0.061660063
207	0xbca9ef78	-0.02074407
208	0xbc09b40d	-0.008404744
209	0xbc527a07	-0.012846476
210	0xbccb9b56	-0.024854343
211	0xbcf6d7dd	-0.030132229
212	0xbcecc624	-0.028903075
213	0x3e13a565	0.14418562
214	0xbcbc03ce	-0.022951033
215	0xbd5fb287	-0.054613616
216	0xbd004c3c	-0.031322703
217	0x3d19a349	0.037509236
218	0xbce467fd	-0.027881617
219	0x3d0f09fc	0.03492163
220	0xbd5a0fa3	-0.05323757
221	0xbdb64598	-0.08899993
222	0x3d24309f	0.04008543
223	0x3cdcc8cb	0.026951214
224	0x3dadf6b0	0.084943175
225	0x3b988abf	0.0046552117
226	0x3d3b4626	0.045721196
227	0xbcbdaebc	-0.023154609
228	0xbdcfc845	-0.1014562
229	0xbd8f88d2	-0.07008518
230	0xbcb86688	-0.022509828
231	0xbd09d1f2	-0.033647485
232	0xbaf47b02	-0.0018652382
233	0x3d9c7457	0.076393776
234	0xbd5a5555	-0.053304035
235	0x3ce95d49	0.028486865
236	0xbe146a78	-0.1449374
237	0xbc4c7b70	-0.012480602
238	0x3ce0d887	0.027446998
239	0xbbf742d1	-0.007545807
240	0xbd5081ac	-0.050904915
241	0x3e036aa9	0.12833656
242	0x3d0a8709	0.033820186
243	0xbc2c8153	-0.01052888
244	0xbd4c2464	-0.049839392
245	0x3dc7f4a6	0.0976346
246	0x3ca97cce	0.020689394
247	0x3d1e37c9	0.03862742
248	0xbd1832ad	-0.037157703
249	0x3dd23c7a	0.10265441
250	0x3d15d615	0.036581118
251	0xbb0feef7	-0.0021962503
252	0x3c4fa60b	0.012673865
253	0xbc811001	-0.015754702
254	0xbd440dab	-0.047864597
255	0x3c3133d6	0.010815581

fc1.bias f4 [256]
0	0xbda24f4c	-0.07925281
1	0x3dd7e40b	0.105415426
2	0x3da7f4e6	0.082010075
3	0x3dd471dd	0.1037328
4	0xbd802deb	-0.06258758
5	0xbe43e9e4	-0.19132191
6	0xbe4bcaae	-0.19901535
7	0xbc917d00	-0.0177598
8	0xbe53ca6c	-0.20682687
9	0xbe4ba160	-0.19885778
10	0x3e0a2352	0.13490036
11	0xbc235e03	-0.009971145
12	0x3ddfa57c	0.109202355
13	0xbe40d453	-0.18830995
14	0x3b65b81c	0.0035052365
15	0x3e342798	0.17593229
16	0x3ce2859b	0.027651599
17	0xbc247186	-0.010036832
18	0xbe0a596d	-0.13510676
19	0xbe1a0562	-0.15041116
20	0x3d970e9a	0.07375832
21	0xbe308e5a	-0.17241803
22	0xbd27e38f	-0.0409885
23	0xbe0302e4	-0.12794071
24	0xbcd46f53	-0.02593199
25	0xbe720627	-0.2363516
26	0x3d877317	0.066137485
27	0xbc82f7d3	-0.015987312
28	0xbe1fd436	-0.15608296
29	0xbdb92d5c	-0.09041855
30	0xbdac3947	-0.08409362
31	0xbdb82900	-0.08992195
32	0xbd2e931e	-0.04262077
33	0x3c91d46e	0.01780149
34	0xbdc3d671	-0.09562386
35	0x3d657c92	0.056027003
36	0xbe26df5c	-0.16296142
37	0x3e20aa9b	0.15690081
38	0xbe1caed2	-0.15301064
39	0x3da94922	0.08265902
40	0xbdf48794	-0.11939922
41	0xbe2c84a8	-0.1684748
42	0x3c910a8d	0.017705226
43	0xbe0a557e	-0.13509175
44	0xbda6123c	-0.08108947
45	0xbe050a6b	-0.12992255
46	0xbd91784a	-0.071030214
47	0xbe3b278d	-0.18276806
48	0x3e4ddf84	0.20104796
49	0x3de08aa0	0.109639406
50	0xbd814fde	-0.063140616
51	0x3e09a9af	0.13443635
52	0xbc9f971a	-0.01948123
53	0xbe1ef910	-0.15524697
54	0x3d1f59a8	0.038903862
55	0xbd95d2d3	-0.07315602
56	0x3de4f645	0.11179785
57	0xbd9f9ec5	-0.07793955
58	0xbe367ef0	-0.1782186
59	0x3e41e580	0.18935204
60	0x3d0a1950	0.033715546
61	0x3d40dee8	0.04708758
62	0xbc94ce12	-0.018164668
63	0xbe385abe	-0.18003365
64	0x3d70a291	0.058748785
65	0xbcb12db5	-0.02162824
66	0xbe12a013	-0.14318876
67	0x3e02451b	0.12721674
68	0xbe519e3f	-0.20470522
69	0xbdee0238	-0.11621517
70	0xbd51e5f2	-0.051244684
71	0xbe49942d	-0.19685431
72	0xbe42eab6	-0.19034848
73	0xbd87ce6e	-0.0663117
74	0xbd9ac9da	-0.075580314
75	0x3e274b88	0.16337407
76	0x3db6300e	0.088958845
77	0x3e2ae29e	0.1668801
78	0x3d53c8e4	0.051705256
79	0x39fc155c	0.000480811
80	0xbd8d3f48	-0.068968356
81	0xbe289257	-0.16462074
82	0xbe4c0a60	-0.19925833
83	0xbe38a29c	-0.1803078
84	0x3e015c48	0.12632859
85	0xbdc6d56e	-0.09708677
86	0xbdaf48ab	-0.08558782
87	0x3d86c8c3	0.06581261
88	0xbdfe91d1	-0.12430156
89	0x3d8e11c1	0.0693698
90	0xbd043dde	-0.032285564
91	0x3d88ce84	0.06680015
92	0xbdd0c043	-0.10192921
93	0x3e1d27a7	0.15347157
94	0xbe30161b	-0.17195933
95	0xbe1b91f1	-0.15192391
96	0x3e3b0385	0.18263061
97	0xbe0ee183	-0.13953213
98	0x3e553784	0.20821959
99	0x3dd8bc74	0.105828196
100	0x3df794e3	0.12088945
101	0xbc721714	-0.01477601
102	0x3d436818	0.047706693
103	0x3ae7d8c3	0.0017688501
104	0xbdaf49e9	-0.08559019
105	0x3e092c92	0.13395908
106	0x3dc5f09f	0.096650355
107	0xbc9db2f1	-0.019250365
108	0x3cb1edb6	0.021719795
109	0xbd6821cb	-0.056672852
110	0xbda33486	-0.079690024
111	0xbe299a0d	-0.16562672
112	0xbdcad8b2	-0.099046126
113	0xbe5ee423	-0.21766715
114	0xbd7ec95b	-0.062203746
115	0x3de7e43b	0.113228284
116	0x3e451506	0.19246301
117	0xbe39d69e	-0.18148276
118	0xbe40868d	-0.18801327
119	0x3e2fa7db	0.17153876
120	0xbdb9ba0c	-0.09068689
121	0xbd1266ab	-0.035742443
122	0x3dd03a69	0.10167391
123	0x3e27f5d5	0.16402371
124	0x3de23fd3	0.1104733
125	0x3d8db419	0.069191165
126	0xbcbf1562	-0.023325626
127	0xbc28e27b	-0.010307903
128	0x3d5736fd	0.052542675
129	0xbe5b3d09	-0.21410002
130	0xbe3d918b	-0.18512551
131	0x3dff3fa7	0.124633126
132	0xbe3f027b	-0.1865329
133	0x3dc8b529	0.098001786
134	0x3e0aa7ec	0.1354062
135	0x3e056a48	0.13028824
136	0x3c19a2bc	0.009377178
137	0x3c83a29f	0.016068755
138	0x3d912012	0.07086195
139	0x3d6fe847	0.058571126
140	0xbc123ae4	-0.008925173
141	0xbe1cbe9f	-0.15307091
142	0x3dfeacc3	0.124352954
143	0xbca068bd	-0.019581193
144	0x3de18810	0.1101228
145	0xbe23a157	-0.15979515
146	0xbda61d81	-0.08111096
147	0xbe0d1a00	-0.1377945
148	0xbd18a9d6	-0.037271343
149	0x3e356563	0.17714457
150	0x3c90cc07	0.017675413
151	0x3e3b9b22	0.18320897
152	0x3e0773b9	0.13227738
153	0xbe009b59	-0.1255926
154	0x3e22c950	0.15897107
155	0xbc1ea4f2	-0.009682881
156	0x3e2cb4f8	0.16865909
157	0x3d034c82	0.032055385
158	0xbd3f8a74	-0.0467629
159	0x3e27a0dc	0.16369957
160	0xbe18efe0	-0.14935255
161	0xbce2756d	-0.027643884
162	0xbc5b4b24	-0.013384614
163	0xbcd34bd6	-0.025792997
164	0xbd2bca21	-0.041940812
165	0x3e1aa0e1	0.15100433
166	0x3bf01b46	0.00732747
167	0x3da7a169	0.081850834
168	0x3d7395fe	0.059469216
169	0x3e06d5a1	0.1316743
170	0x3d99d44f	0.07511198
171	0xbe559c26	-0.20860347
172	0xbe3cb02e	-0.18426582
173	0xbe4ed35c	-0.20197815
174	0xbe67304b	-0.22577016
175	0xbe1f7cda	-0.15574971
176	0xbc967f5f	-0.018371282
177	0x3e3f1a92	0.1866248
178	0xbe1d3437	-0.1535195
179	0x3d9aaaca	0.07552107
180	0xbe01f2ec	-0.12690324
181	0x3e1df471	0.15425278
182	0x3dfb1e7d	0.122616746
183	0x3d8bc6ef	0.06825053
184	0x3e3e7add	0.18601556
185	0xbe15b21f	-0.14618729
186	0xbe4cb94c	-0.1999256
187	0xbcc93e64	-0.024565883
188	0x3ce33097	0.02773313
189	0x3e14e6d4	0.14541179
190	0x3ddefdf0	0.108882785
191	0x3decd487	0.11563974
192	0xbd4b972d	-0.04970472
193	0xbdd485e4	-0.103771
194	0x3e58ff5e	0.21191165
195	0xbe44c45f	-0.19215535
196	0xbe21af1c	-0.15789455
197	0x3ddb097d	0.10695169
198	0x3e250324	0.1611448
199	0x3d466def	0.048444685
200	0xbc01ddb6	-0.007926395
201	0xbd203949	-0.03911713
202	0x3ca2de86	0.019881498
203	0xbddfe257	-0.10931843
204	0x3e35a77f	0.17739676
205	0x3e455d32	0.19273832
206	0xbd94c83f	-0.072647564
207	0x3e397e47	0.18114577
208	0xbdb2fbf4	-0.087394625
209	0xbe0d4916	-0.13797411
210	0x3d40d24c	0.047075555
211	0xbdc69505	-0.09696392
212	0x3e481c71	0.195421
213	0xbb1eca6e	-0.0024229544
214	0xbd9effde	-0.077636465
215	0xbe528ec4	-0.20562273
216	0x3e0eb077	0.13934503
217	0x3e086326	0.13319072
218	0x3c5f6dec	0.013637047
219	0xbd3959d3	-0.04525168
220	0xbd9572fa	-0.07297321
221	0x3d787968	0.060662657
222	0x3e311fed	0.17297335
223	0xbd29a088	-0.04141286
224	0x3d0cdebe	0.03439211
225	0xbe53eccd	-0.20695801
226	0x3d3962de	0.045260303
227	0xbdc654fa	-0.09684177
228	0xbc1e3ae2	-0.009657593
229	0xbdedee72	-0.116177455
230	0x3e2636d4	0.16231853
231	0x3df49cec	0.11943993
232	0xbdc09314	-0.09403053
233	0xbda19892	-0.078904286
234	0x3ce9816e	0.0285041
235	0x3d9ae913	0.07563987
236	0xbde725b6	-0.1128649
237	0x3d968f24	0.07351521
238	0x3d66f3fd	0.05638503
239	0x3db6a1d7	0.08917587
240	0xbe0dbeac	-0.13842267
241	0xbdc4bac1	-0.09605933
242	0x3da43417	0.08017748
243	0x3c75534c	0.014973473
244	0xbdf9f9f6	-0.122058794
245	0x3e3d32d2	0.18476418
246	0xbd0f31ca	-0.034959592
247	0xbe1f28ff	-0.15542983
248	0xbd3eada3	-0.04655231
249	0xbdee60bb	-0.116395436
250	0xbdb17602	-0.08665086
251	0xbe5c325d	-0.21503587
252	0x3e2940a4	0.16528565
253	0x3e61ce76	0.22051415
254	0xbe449224	-0.19196373
255	0x3dd48f60	0.10378909

fc2.weight f4 [128, 258]
0	0x3b6a06a3	0.0035709522
1	0xbe3b5b30	-0.18296504
2	0x3dcb499d	0.0992615
3	0x3c08191a	0.008306766
4	0x3d40849e	0.047001474
5	0xbc602f34	-0.013683129
6	0x3dc11f5d	0.0942981
7	0x3ddce9cf	0.10786783
8	0xbd95576c	-0.07292065
9	0x3cefae87	0.029258026
10	0x3cfad201	0.030617716
11	0xbd2b315d	-0.041795123
12	0xbd510775	-0.051032502
13	0xbd4ae89b	-0.049538236
14	0xbc5104ae	-0.012757463
15	0x3e075493	0.13215856
16	0xbd852309	-0.06500823
17	0x3cdcd359	0.026956247
18	0x3c85b1e5	0.016320178
19	0xbd95b0cd	-0.07309113
20	0xbbec5fda	-0.007213575
21	0xbd88c8e2	-0.0667894
22	0x3d2c5e85	0.04208233
23	0x3d59b1f4	0.053148225
24	0xbdb34f7d	-0.087553956
25	0xbcc014b6	-0.023447376
26	0xbd3c1303	-0.04591657
27	0x3dad83d6	0.08472411
28	0x3d83cd77	0.06435674
29	0x3bdd9ad0	0.00676284
30	0x3cd43c29	0.025907593
31	0x3c1eb352	0.009686308
32	0x3d8cfae1	0.06883789
33	0x3cb252a0	0.021767914
34	0xbd81d143	-0.06338742
35	0x3d5158d1	0.051110093
36	0xbd3fcb27	-0.0468246
37	0x3d4590ff	0.048233982
38	0xbdbc84bb	-0.09205004
39	0xbd40d609	-0.04707912
40	0x3c91ff2f	0.017821876
41	0xbc4b8b35	-0.012423326
42	0x3bf17764	0.007368969
43	0xbda6d3fc	-0.081459016
44	0xbd365462	-0.044514067
45	0xbdc61ee3	-0.0967386
46	0xbcc11b2e	-0.02357253
47	0xbcc1b771	-0.023647042
48	0xbd5c2f5e	-0.05375611
49	0x3c8e035a	0.017335583
50	0xbd05bbe3	-0.032649886
51	0x3c9e0525	0.019289562
52	0x3d449c9a	0.04800091
53	0x3d0615e0	0.032735705
54	0xbd65bebc	-0.0560901
55	0x3c72942b	0.014805834
56	0xbcd597b3	-0.026073312
57	0x3d920fce	0.07131921
58	0x3ba0e8b4	0.004910553
59	0x3d9c7124	0.07638767
60	0xbba5e58b	-0.005062764
61	0x3c7f94c2	0.0155994315
62	0x3d3eabd8	0.0465506
63	0xbd9f6295	-0.07782475
64	0xbcb9afec	-0.022666894
65	0xbe0ee71a	-0.13955346
66	0xbd01ab30	-0.031657398
67	0xbd203f7f	-0.039123055
68	0x3b658d47	0.0035026835
69	0xbd9bd029	-0.07608063
70	0xbc399261	-0.011326403
71	0x3cb498a3	0.02204544
72	0xbcecc2b9	-0.028901445
73	0x3d188ccd	0.037243653
74	0xbbee80b0	-0.0072785243
75	0x3c0a355d	0.008435574
76	0x3cba2a99	0.02272539
77	0x3d6a1b09	0.05715469
78	0x3d9de448	0.07709557
79	0xbdbf97cc	-0.09355125
80	0x3d9b9b09	0.0759793
81	0x3c43fc67	0.011962033
82	0x3cda5cec	0.026655637
83	0xbb0f992b	-0.0021911364
84	0x3c610b32	0.013735579
85	0x3d8ea599	0.06965179
86	0x3d13dfea	0.036102213
87	0x3d7a03bb	0.061038714
88	0xbd61f2bc	-0.05516313
89	0x3d058a26	0.03260245
90	0x3da32560	0.07966113
91	0xbe1185de	-0.14211223
92	0xbdcca58d	-0.09992514
93	0xbcb814d4	-0.02247087
94	0x3d45677d	0.048194397
95	0x3cfb2522	0.030657355
96	0x3dabeb0a	0.083944395
97	0xbb83f9ac	-0.004027566
98	0xbc96f30f	-0.018426446
99	0xbd789c5e	-0.060696
100	0x3dfc692e	0.12324749
101	0xbda2cbdf	-0.079490416
102	0xbd819a89	-0.06328303
103	0x3cfc7219	0.030816125
104	0xbb07479f	-0.0020642055
105	0xbd781de1	-0.06057537
106	0xbd04e060	-0.032440543
107	0xbda4aa57	-0.08040302
108	0x3d212ca0	0.0393492
109	0x3d067731	0.032828514
110	0xbc443eff	-0.01197791
111	0x3c9d9134	0.019234277
112	0xbd2909be	-0.041269056
113	0xbcaa5208	-0.020791069
114	0xbd646043	-0.055755865
115	0x3d91a1d2	0.07110943
116	0xbd8e6961	-0.06953693
117	0xbc4e68b4	-0.012598205
118	0x3d8f0fb1	0.06985415
119	0x3dae04ac	0.08496985
120	0xbd8f97f8	-0.070114076
121	0x3d0f35b5	0.03496333
122	0xbd194ab2	-0.03742475
123	0x3d0d28df	0.034462806
124	0xbc5b81b3	-0.013397622
125	0xbd972ba1	-0.073813684
126	0xbca95ca4	-0.020674057
127	0xbc1d0212	-0.009583013
128	0xbd86cf09	-0.065824576
129	0xbd087ba7	-0.03332105
130	0xbcabeeb5	-0.020987848
131	0x3bd539bd	0.006507127
132	0xbcca4927	-0.024693085
133	0x3cbf75eb	0.023371657
134	0x3d80f5f1	0.062969096
135	0x3bdd0311	0.0067447503
136	0x3e028d0a	0.12749115
137	0xbd41dace	-0.04732781
138	0x3d3cc21a	0.046083547
139	0x3d9fa996	0.07796018
140	0xbc72188c	-0.01477636
141	0xbcbc1b54	-0.02296225
142	0x3d6d8411	0.057987276
143	0x3d17fc1c	0.037105665
144	0x3c0a41d1	0.008438543
145	0xbc4c5f6d	-0.012473923
146	0x3afeccc4	0.0019439687
147	0xbd477e04	-0.048704162
148	0x3da3dcb9	0.08001084
149	0x3d42b55d	0.047536243
150	0xbd8e8ef0	-0.06960857
151	0x3cdaa87d	0.02669167
152	0x3d22ffe0	0.039794803
153	0x3dae5961	0.085131414
154	0xbd458dd6	-0.04823097
155	0xbd8d0933	-0.0688652
156	0x3d364aac	0.044504806
157	0x3d86e213	0.06586089
158	0x3cb9a3a4	0.022661038
159	0x3db94282	0.090458885
160	0xbd1f7fd0	-0.03894025
161	0x3d2ec234	0.042665675
162	0x3d54f979	0.05199573
163	0xbd3de215	-0.046358187
164	0xbd666419	-0.056247804
165	0x3c104d43	0.008807483
166	0xbd8ae514	-0.067819744
167	0xbd1657b9	-0.036704753
168	0x3d409192	0.047013827
169	0x3bc1797b	0.005904374
170	0xbd16daf9	-0.036829922
171	0xbd499735	-0.049216468
172	0x3d91ea68	0.071247876
173	0x39a35b01	0.00031157586
174	0xbd81bfdf	-0.06335425
175	0x3d4e375d	0.050345767
176	0x3d9cf9c5	0.07664827
177	0xbc768521	-0.015046389
178	0x3d8115d9	0.06302995
179	0xbd14d7ea	-0.036338724
180	0x3c7e56e2	0.015523644
181	0xbdf66eaa	-0.12032826
182	0x3bdacd06	0.0066772727
183	0xbdcf5b76	-0.10124867
184	0xbd52e5ff	-0.051488873
185	0x3bbb9f75	0.005725796
186	0x3db55412	0.08853926
187	0x3d7e23f6	0.062046014
188	0xbd886361	-0.0665958
189	0x3cedfb35	0.029050449
190	0x3ca972c5	0.02068461
191	0xbca1c4f9	-0.019747244
192	0xbc6b0056	-0.014343342
193	0xbbb12d44	-0.0054070074
194	0xbb7c9ea2	-0.00385467
195	0x3d6fe864	0.058571234
196	0x3d424a42	0.0474341
197	0x3d3e5fa6	0.046477936
198	0x3dad48d8	0.084611595
199	0xbe02d191	-0.12775256
200	0x3dccbbc3	0.0999675
201	0xbca3f8d7	-0.020016117
202	0x3cb9cd0d	0.022680784
203	0xbcf2c7a8	-0.02963622
204	0x3c676bfa	0.014124865
205	0xbd19a7dc	-0.0375136
206	0x3d89b000	0.067230225
207	0xbd1388fc	-0.03601931
208	0xbc9d50dc	-0.019203596
209	0xbc77c602	-0.015122892
210	0x3bd59007	0.0065174135
211	0xbd195867	-0.037437823
212	0x3c7d2ad5	0.0154521065
213	0x3b3b69fa	0.0028597103
214	0x3b801a32	0.0039093727
215	0x3d885f25	0.066587724
216	0x3cb33966	0.021877956
217	0xbd8c22f7	-0.068426065
218	0x3d74a32c	0.059725925
219	0x3db61997	0.088915996
220	0xbd3f7438	-0.046741694
221	0xb9c3fc54	-0.00037381297
222	0x3d5c3b4e	0.053767495
223	0xbde42eb3	-0.1114172
224	0xbc2a96c2	-0.01041192
225	0xbdd13f95	-0.102172054
226	0xbce9fc42	-0.028562669
227	0x3c75a4f3	0.01499294
228	0x3dca7873	0.09886255
229	0xbda83efa	-0.08215137
230	0xbd6288c1	-0.0553062
231	0xbc1c6616	-0.009545824
232	0x3ce7d74d	0.028300906
233	0xbbc85019	-0.006113064
234	0x3db040b2	0.0860609
235	0x3da96308	0.08270842
236	0xbccdcf1a	-0.025123168
237	0xba5fdd27	-0.0008539729
238	0x3cb5fbe2	0.022214834
239	0x3d83b379	0.06430716
240	0xbc11b4d4	-0.00889321
241	0x39ac2309	0.000328325
242	0x3c8cbe19	0.01718049
243	0xbd0b0474	-0.033939794
244	0x3da81c50	0.08208525
245	0xbd4ec8db	-0.05048452
246	0xbd8f849b	-0.07007714
247	0x3cd3c287	0.025849594
248	0xbd333b61	-0.0437578
249	0xbccf3e9d	-0.025298411
250	0x3d537786	0.05162766
251	0xbd8b1827	-0.06791716
252	0xbd574124	-0.052552357
253	0x3deaac07	0.11458593
254	0x3d46befe	0.048521988
255	0x3d6edf27	0.058318283

fc2.bias f4 [128]
0	0x3d76e204	0.06027414
1	0x3cb40a8b	0.021977684
2	0xbd6008d3	-0.054695915
3	0xbc95417e	-0.018219706
4	0xbd107471	-0.035267297
5	0xbd008bbc	-0.03138326
6	0x3cc17f2f	0.023620216
7	0x3d29a43a	0.041416384
8	0x3ca25d1b	0.019819787
9	0xbd7d6bcc	-0.06187038
10	0x3d3ff743	0.046866667
11	0xbda83689	-0.08213527
12	0x3d86af24	0.06576374
13	0xbd5cfb06	-0.053950332
14	0xbd4305d4	-0.04761298
15	0xbc6cb08f	-0.014446392
16	0xbd0934b5	-0.03349753
17	0x3d3c6908	0.045998603
18	0x3c4ba63e	0.012429772
19	0x3c1cd354	0.009571869
20	0xbd50c23e	-0.050966494
21	0x3d54b4b1	0.051930133
22	0x3c0c97f2	0.008581148
23	0xbd93c660	-0.072155714
24	0x3c8bc627	0.01706226
25	0xbd064a74	-0.032785848
26	0x3c4b31d3	0.012402016
27	0x3d3d1dce	0.046171002
28	0xbc0704c4	-0.008240882
29	0x3ce23c8c	0.027616762
30	0x3ce4096b	0.027836522
31	0x3d7ab9d1	0.061212365
32	0x3b930e48	0.0044877864
33	0x3cbaa213	0.022782361
34	0xbcfaa3a3	-0.030595606
35	0x3d53e6c1	0.051733736
36	0x3d0590f0	0.032608926
37	0x3af95435	0.0019022288
38	0x3d60cf30	0.05488509
39	0xbc868978	-0.016422972
40	0xbd451e2f	-0.04812449
41	0xbd8a5e26	-0.06756239
42	0xbb27c3ee	-0.002559896
43	0x3d4c767f	0.049917694
44	0x3cd45168	0.025917724
45	0xbd10b36d	-0.035327364
46	0xbd8f2f12	-0.069914
47	0xbd3f18c7	-0.04665449
48	0xbbb91db2	-0.005649292
49	0x3cc2ee39	0.023795234
50	0xbde6bf8e	-0.11267005
51	0x3c9b7319	0.018975781
52	0xbc11a11c	-0.008888509
53	0xbcf2d983	-0.029644733
54	0x3d8d261d	0.06892035
55	0xbd8ddd6e	-0.06927
56	0x3d33bef1	0.043883268
57	0xbd6483c9	-0.055789743
58	0x3d5a4a35	0.053293426
59	0xbd2eca8c	-0.042673633
60	0xbc98d3ae	-0.018655624
61	0xbc64fbc3	-0.01397604
62	0xbd353cfc	-0.044247612
63	0x3d43e52c	0.047825977
64	0xbd098e58	-0.033583015
65	0xbd4e4d7e	-0.05036687
66	0x3d05ca7d	0.03266381
67	0x3d0aa1e0	0.033845782
68	0xbd42e1f8	-0.04757878
69	0xbd32e8ab	-0.04367892
70	0xbd35871f	-0.044318315
71	0x3c875903	0.016521936
72	0xbcd6f9a1	-0.02624208
73	0x3bc8cf27	0.00612821
74	0xbc53411a	-0.012893939
75	0xbd0aafab	-0.033858936
76	0xbcc152a1	-0.02359897
77	0x3d14ba64	0.03631057
78	0x3d229940	0.03969693
79	0x3c95b665	0.018275449
80	0xbd263109	-0.040574107
81	0xbc6dccb8	-0.014514141
82	0x3ca91edb	0.020644596
83	0xbd32ba4f	-0.04363471
84	0xbc97648e	-0.018480565
85	0x37b3401b	2.1368314e-05
86	0xbd49e9ca	-0.049295224
87	0xbd3262da	-0.043551303
88	0x3d4e3699	0.050345037
89	0x3c287269	0.010281184
90	0xbc9da9e0	-0.019246042
91	0x399350c9	0.00028098215
92	0xbd968d1c	-0.07351133
93	0x3ce6a8e1	0.0281567
94	0x3ce46056	0.027877968
95	0xbce5388a	-0.027981061
96	0xbc9629db	-0.018330505
97	0xbd00bc77	-0.031429734
98	0x3cde3363	0.027124112
99	0x3c9650be	0.018349048
100	0x3cf5e249	0.030015128
101	0x3d185020	0.03718579
102	0x3c3f557a	0.011678094
103	0x3d8b4fc4	0.068023235
104	0x3c8cf8a2	0.017208401
105	0xbd373237	-0.044725623
106	0xbced1c35	-0.028944114
107	0x3d530976	0.051522695
108	0x3d8493a2	0.06473471
109	0x3c7e8360	0.015534252
110	0x3d4945d8	0.049138874
111	0xbb3f7df8	-0.002921937
112	0x3d2f3467	0.042774584
113	0x3c6014a6	0.013676798
114	0x3d0986ac	0.0335757
115	0x3cfe3029	0.031028824
116	0x3c6f34d1	0.014599995
117	0xbd99e58b	-0.07514485
118	0x3d3fd76d	0.046836305
119	0xbb88b7fa	-0.0041723223
120	0x3cbbce7b	0.022925606
121	0x3c859132	0.016304586
122	0xbc635404	-0.013875011
123	0xbcd1a1b0	-0.025589794
124	0xbd024c18	-0.03181085
125	0x3ccd6b12	0.02507547
126	0xbcd99108	-0.026558414
127	0x3d3fb1b5	0.046800334

fc3.weight f4 [1, 128]
0	0x3c661a54	0.014044363
1	0x3c4e2ad2	0.012583451
2	0xbd56249a	-0.052281
3	0x3c9496b8	0.018138275
4	0xbce17901	-0.02752352
5	0xbceca278	-0.028886065
6	0x3ce372e6	0.027764749
7	0xbcdd1c82	-0.026991133
8	0x3d3008ee	0.042977266
9	0xbc87241b	-0.016496709
10	0xbc7ac072	-0.015304672
11	0xbdb9c6af	-0.09071099
12	0x3c682f47	0.014171428
13	0xbcd6aec4	-0.026206382
14	0xbcffc119	-0.031220006
15	0xbc947b2e	-0.018125143
16	0x3cf7ecd7	0.030264301
17	0xbc359935	-0.011083891
18	0x3d74946c	0.05971186
19	0x3b893d04	0.004188182
20	0x3d17cb48	0.0370591
21	0xbd022c31	-0.031780425
22	0x3d350bb4	0.044200614
23	0x3cf05423	0.029336995
24	0xbd3ea854	-0.04654725
25	0x3ce576ad	0.02801069
26	0xbdbcee40	-0.0922513
27	0xbc427893	-0.011869567
28	0xbd03fc9d	-0.032223333
29	0x3c7cc650	0.015428141
30	0x3c28bc96	0.010298869
31	0xbc9a1950	-0.018810898
32	0xbcd65188	-0.026161924
33	0x3c832f97	0.016013904
34	0x3d88c499	0.06678123
35	0x3b648f1b	0.0034875337
36	0xbc5e7507	-0.013577706
37	0xbb366155	-0.002782901
38	0xbc46acd4	-0.012126166
39	0xbbe4d521	-0.0069834148
40	0x3c64a7b0	0.013955995
41	0xbceae0f3	-0.028671717
42	0xbc5775e5	-0.013150667
43	0xbcc01973	-0.023449635
44	0x3cb64fa0	0.022254765
45	0x3d0e3609	0.0347195
46	0x3cc736ea	0.024318177
47	0xbce14460	-0.027498424
48	0x3d03d9b2	0.032190032
49	0xbce0b0e6	-0.027428102
50	0xbd92d275	-0.07169048
51	0xbcbba4f1	-0.022905799
52	0xbd3c300c	-0.04594426
53	0x3c61bdcd	0.013778162
54	0xbdd7f4aa	-0.10544713
55	0x3bd70370	0.006561689
56	0xbdfd950b	-0.12381943
57	0x3cb43631	0.021998497
58	0xbc302dfb	-0.01075315
59	0xbc72249f	-0.014779239
60	0xbd032727	-0.03201976
61	0x3cda05e6	0.02661414
62	0xbc2cef85	-0.010555153
63	0xbc8c697c	-0.017140143
64	0x3c9199a8	0.017773464
65	0x3d43ec00	0.04783249
66	0xbc87cfed	-0.016578639
67	0xbc76d4dd	-0.015065399
68	0x3d295abd	0.0413463
69	0xbc56537f	-0.01308143
70	0xbdbd4212	-0.092411175
71	0xbe108918	-0.14114797
72	0x3d2b4beb	0.041820448
73	0xbd100ce7	-0.035168555
74	0x3c05c3f9	0.008164399
75	0x3c8af70d	0.016963506
76	0xbdab504e	-0.08364926
77	0xbd6f2857	-0.05838808
78	0x3d01ddb4	0.031705573
79	0xbd732374	-0.059359983
80	0xbd3ba5ae	-0.0458123
81	0xbe164cba	-0.14677706
82	0xbc761e9b	-0.015021945
83	0xbc85c0d4	-0.0163273
84	0x3da0dc2b	0.07854494
85	0x3cdf8f7e	0.027290102
86	0xbc44d687	-0.012014038
87	0x3d048e25	0.032362122
88	0x3d822151	0.06354011
89	0xbd4af1c7	-0.049546983
90	0xbd0bd8aa	-0.034142174
91	0xb930d5ca	-0.0001686431
92	0x3d137d57	0.036008205
93	0x3ca2f9bb	0.019894471
94	0xbd1af169	-0.037827883
95	0x3c973229	0.018456535
96	0xbc4d9280	-0.012547135
97	0x3c1d345f	0.009595006
98	0xbd3927bc	-0.04520391
99	0xbcc82e18	-0.024436042
100	0x3c19851c	0.009370115
101	0x3e077338	0.13227546
102	0xbce545d1	-0.027987393
103	0xbb4e9de3	-0.0031527213
104	0x3c3c4058	0.01148995
105	0xbc17e705	-0.009271388
106	0x3cb27f74	0.02178929
107	0xbd3252f7	-0.043536153
108	0xbdc848d4	-0.09779516
109	0x3d4a624c	0.04941015
110	0xbc8b5cef	-0.017012088
111	0x3c782422	0.0151453335
112	0xbd253f4f	-0.04034358
113	0x3d210663	0.03931273
114	0x3d4894d3	0.048970055
115	0xbbae0cf6	-0.0053116037
116	0xbd34219d	-0.04397737
117	0xbbf06077	-0.0073357183
118	0xbde3efad	-0.11129699
119	0x3d0953c0	0.033527136
120	0xbd22c0ce	-0.039734654
121	0x37c5129c	2.3492896e-05
122	0x3ca524c8	0.02015914
123	0x3d572898	0.052528948
124	0x3cc444f4	0.02395866
125	0x3c2aa512	0.010415332
126	0x3da6ed1e	0.08150695
127	0xbd125979	-0.03572986
