checkpoint_actor1.pth (torch_old, 159146 bytes, 6 tensors)

fc1.weight f4 [256, 24]
00000000: fa23 2c3d f83d b73d cf7a 803c f748 1c3d
00000010: 327a 43be f29a cf3c 15b5 a53c 5fdb eb3d
00000020: 3c83 bf3c 90cb 2e3e 0782 ebbb 1dda 4e3d
00000030: 1e92 81bd 24fd 5f3b d5bc 603d d25f d43d
00000040: 5cb3 883c 435d 1d3e 2fd9 7dbb dee4 8d3d
00000050: 3dee 8abd f5b7 1f3b 6b07 7c3d f78e c53c
00000060: 501b d03c f1d8 073d 5ce8 fa3c 29dc b7bd
00000070: 12eb 933d 5c74 ac3d 5657 203d dde9 3abe
00000080: ba35 c8bb ecc7 dabd ae4d 523d 5016 06bd
00000090: 4381 833d e235 cf3d 798b 803b dac0 b9bc
000000a0: 1ef8 99bb 8c2c 56be 221b 8ebd d7bb 2fbd
000000b0: de0e 3f3e a40f 313e 9c08 c6bc 0056 a6bd
000000c0: 2980 02be 1b1b 783b cdd1 f83c 97ca 62bd
000000d0: 1570 213e 3e9d f93d fa97 56bd 6fe7 dfbd
000000e0: 5697 cfbc a7d9 163d f73a 22bd 33a7 30be
000000f0: ed3b 203e a16c 8cbd b84d a7bc 5f57 1cbe
00000100: e653 56bd 9470 583b 0520 51bd 0508 cebd
00000110: 3d3d 223e 1568 0cbe 083e 99bb 32b8 d0bc
00000120: 9024 cb3c d702 15be fd91 2d3c 8dc5 a1bd
00000130: c277 8e3b 24ac 333d 43f5 0c3d bf06 b0bd
00000140: 45f7 dcbc 3509 30be 2665 bfbc 76db 133c
00000150: b307 783c 1f61 1a3c 9125 773c b69f a53d
00000160: 14f6 923c b8b7 f8bd b979 29bd 1757 d13d
00000170: ec09 bebc c551 343d 11b8 613d f6ef 063e
00000180: d871 5dbd 094a 1bbe 150a e83c 0fce 6fbc
00000190: 58ea 5e3d 2230 7439 2d8e 9ebd e3e9 b1bd
000001a0: 7a39 0cbd 0553 eebd 7ee0 8e3d 1813 4abd
000001b0: fc3f bc3d b23e d43d 20e6 bb3d d842 933c
000001c0: ae2c e73c eb4d 9bbd 6dd8 a5bd 2075 d13b
000001d0: ddcc 1e3c 04a3 1a3e af67 2dbd 32e0 983d
000001e0: 11ea 3cbd dc84 93bc e952 9ebc ba6a cabd
000001f0: cfaf 553d 7fe6 07bc 6333 713d b615 a5bd
00000200: 7bc6 04bd ec1f 9b3c 9f25 223d 2234 5abe
00000210: 975d a3bc f16d acbd 3582 db3d e89a 3fbe
00000220: e5bd 3d3d edda 7bbd e3b5 ac3d 1227 8fbb
00000230: 38fe 083d 5d22 9abc ef96 bd3d 7562 fabc
00000240: 4b1e dabd 0b95 f83d 2efb 533d db48 75bd
00000250: 11dd 8e3d c87b 28be 6b33 a23d 71eb f23c
00000260: 1507 8739 b97a 2e3d 0a06 8c3d 0c0d a8bd
00000270: 629a c33a ea86 67bd ad08 413d e02e 97bd
00000280: 650b 21bd e692 8c3c 0f6a 003d c233 e8bc
00000290: d258 ad3d 530e 04be dc01 f03c dba1 1e3b
000002a0: 90f4 85bc b1ba a8bd ddc3 9cbd 8169 9e3b
000002b0: dc47 e23c e425 dc3c 0734 47bd 3dd8 27bd
000002c0: ed13 41bc 5728 06bd b408 4bbd 8383 71bd
000002d0: 6c24 8ebd 7c8c 763d 9819 14bd d9c3 52bd
000002e0: 69bc 8f3c c270 93bd 0414 273d d034 ec3c
000002f0: 12d2 b2bd 52d7 c63d f44e f03d 101e 193c
00000300: 0a0a b4bd 6c5a 193c e922 563d c2b1 3c3e
00000310: 519b df3d 9ee5 1d3e 1b30 603d dcb8 223e
00000320: 2afd 3cbc a705 e53b 023e ad3a 0e29 39bc
00000330: 8db9 183e 7891 323e 256b b03c 2736 5c3c
00000340: d634 dc3c 6729 8abd c979 06bd 13ab d2bc
00000350: 3aec f23d c3b6 443e 8454 e2bd a864 bcbd
00000360: d40e a13d d11d 7f3d 0ee2 94bd 9c80 b03d
00000370: f0ac 283d 5a9b 503c e09f a5bd c686 d43d
00000380: fb66 6abc f94c 633d 05a0 9d3b ce12 ee3d
00000390: 644b 103d 811b 9a3d 60b7 25bd 1636 3c3d
000003a0: 751d 583c 5109 92bb c508 96bd bf4e 2a3e
000003b0: f9e0 1dbc 872f e73d 431a c23c 6d8e 0f3e
000003c0: c507 593d 2aa0 93bd 845d 383d c0af 1ebd
000003d0: 577f e3bc 3ce4 043d 3785 2c3b c27f 8b3c
000003e0: 286e af3d 0ed0 afbb 4c2a acbd 78e8 f53d
000003f0: 35ce ae3d fef2 5bbd 4c70 00be 47f4 103e
0.042026497 0.089473665 0.01568356 0.038155522 -0.19089583 0.025342438 0.020227948 0.11516451
0.023378007 0.1706984 -0.0071871313 0.050500978 -0.06326698 0.0034177983 0.054867584 0.10369839
0.016687088 0.15367608 -0.0038734188 0.069284186 -0.067837216 0.0024371122 0.06153051 0.024116023
0.025403649 0.033165876 0.030628376 -0.08977539 0.072225705 0.08420631 0.03914579 -0.18253274
-0.0061099203 -0.10682663 0.051343612 -0.032736123 0.06421139 0.10117699 0.0039228764 -0.022674967
-0.0046987673 -0.20915431 -0.06938769 -0.042903747 0.18658015 0.17291123 -0.024174027 -0.08121872
-0.12744202 0.0037857953 0.030373478 -0.055368986 0.15765412 0.12188195 -0.05239103 -0.10932814
-0.025340717 0.036828663 -0.039607015 -0.17251281 0.1564786 -0.06856657 -0.020422801 -0.15267704
-0.052326106 0.0033026086 -0.051055927 -0.10060123 0.15843673 -0.13711579 -0.004676584 -0.025478456
0.024797708 -0.14551865 0.010593888 -0.07899008 0.0043477723 0.043865338 0.034413587 -0.08595037
-0.026973376 -0.17191012 -0.023363661 0.0090244915 0.015138554 0.00942257 0.01508464 0.08087103
0.017939605 -0.121444166 -0.04137585 0.10221689 -0.02319809 0.044023294 0.05510718 0.13177475
-0.054063648 -0.15164961 0.02832512 -0.014636531 0.054422706 0.00023287584 -0.07741962 -0.086871885
-0.0342345 -0.116369285 0.06976412 -0.049334615 0.091918916 0.10363521 0.09174752 0.01797621
0.028219547 -0.07583221 -0.080979206 0.006392136 0.009692398 0.15101248 -0.04233521 0.07464637
-0.04612166 -0.018007688 -0.019326644 -0.09883638 0.052169617 -0.008294701 0.058886897 -0.08060782
-0.03241585 0.01893612 0.03958666 -0.2130895 -0.019942088 -0.08419407 0.107181944 -0.18711436
0.046323676 -0.06148808 0.0843313 -0.004368671 0.033445567 -0.018815214 0.09257304 -0.030564526
-0.10650309 0.12137803 0.051753215 -0.059883934 0.06975759 -0.16453469 0.079199634 0.029653283
0.00025754483 0.042597506 0.06837089 -0.082056135 0.0014923329 -0.05652515 0.047127414 -0.073819876
-0.039317507 0.01715989 0.031351145 -0.028344993 0.08464207 -0.1289609 0.029297762 0.002420536
-0.016351968 -0.082387336 -0.076545455 0.0048343544 0.027622156 0.026873536 -0.0486336 -0.040977705
-0.011784536 -0.032753315 -0.049568847 -0.05896331 -0.06940541 0.06019257 -0.03615722 -0.051456306
0.017545896 -0.07199241 0.040790573 0.028833777 -0.08731474 0.09709038 0.11733809 0.009345546
-0.08790977 0.009359937 0.052279387 0.18427184 0.10918296 0.15419623 0.054733377 0.15890831
-0.011534968 0.006989199 0.0013217332 -0.011301292 0.14914532 0.17438304 0.021535465 0.013440645
0.026880663 -0.06746178 -0.032830987 -0.02571634 0.11861463 0.19210343 -0.11051276 -0.09198886
0.07864156 0.062284295 -0.07269679 0.0861828 0.04118055 0.012732351 -0.08087134 0.103772685
-0.014306779 0.05549333 0.0048103356 0.116246805 0.035228148 0.07524777 -0.040458083 0.045950018
0.013190617 -0.004456677 -0.073258914 0.16631602 -0.009636157 0.11288362 0.023694163 0.14019175
0.052985925 -0.07208283 0.04501106 -0.038741827 -0.027770681 0.032444224 0.002632452 0.017028693
0.085659325 -0.005365378 -0.08406505 0.120072305 0.085354246 -0.053698532 -0.12542838 0.14155684

fc1.bias f4 [256]
00000000: 3c68 44bd fdf9 0a3e bcc4 423e 8e66 b83d
00000010: b93b 9ebd 9a53 68be fa2f 59be ad0d 0abc
00000020: 7c6e 00be ca82 42be 25df 763d bbea 44bd
00000030: be14 f53d c850 27be 1cb8 893d 54d9 8e3e
00000040: f8f6 603d c420 ff3b d2c3 b4bd 4266 1abe
00000050: a5f7 a93d 6640 f6bd 20e6 1abd a7a8 4abe
00000060: 09a2 2d3d c992 d3bd 3072 803d 39be 593c
00000070: a147 09be 1093 40bd 2b8f 77bc ccc1 e4bd
00000080: 94d2 253c cf5a cb3d 52a3 2dbe e271 033e
00000090: 4eb7 24be 3e68 823e b860 9ebd 1511 4f3d
000000a0: 8a87 87bd d44b 09be 23c3 c53d ed6a 12be
000000b0: d0bc 1d3c ed07 96bd 3a40 2cbd 2688 20be
000000c0: 9b0c 303e 5619 fc3d 5e2c f3bd fde9 303e
000000d0: 4528 29bd 3ca2 0dbe bb56 023e e893 8fbd
000000e0: 348d 193e a2b3 32bd 9ef1 71be 261a 523e
000000f0: 8315 723d f978 3b3d 77eb e6bc 8d82 aabd
00000100: 9e1e 493d e684 813d 3bdd 3dbe 480a e33d
00000110: c98c 6abe b8dd e9bd 281c be3a fee9 52be
00000120: 3cb4 59be 2c21 f1bd b94b 043d d7c9 2a3e
00000130: 15f9 763d b1e8 5b3e 6393 9b3d 320c 9a3d
00000140: 8510 bdbd b561 18be f1df e1bd c3b2 14be
00000150: 6ccb 6c3d 3f95 11be 0611 09bd fcab a73d
00000160: 3c08 7dbd 92ae c73d 4324 30bd 1c84 f93c
00000170: 816d 14bd 6852 3e3e eb29 5dbe afad 4fbe
00000180: a175 833e 041b edbd b3ef 673e 6dbb 263e
00000190: c23e 003d bb70 b1bd d88d 30b8 8809 403b
000001a0: 3db6 b3bd 91b9 6a3e 51a0 f03d 3d44 e23d
000001b0: e2fa 2c3d 6f16 e13c 26a6 203a cced 4dbe
000001c0: ee70 b8bd b391 05be 611c 29bd 32f8 893d
000001d0: 0c68 673e 24cb 1dbe 1fb2 0dbe fae6 4e3e
000001e0: a6cc 94bd f57b 05bd b1fa a43d 7970 043e
000001f0: e635 9f3d 3e08 dd3d 56aa 103c 4309 aa3d
00000200: cf2f 8a3d 5e55 c9bd 2c84 0abe f5ba 213e
00000210: f0a3 40be 9f10 ed3d 0580 213e 9187 703e
00000220: 21f1 e13d 53a5 5d3d df50 203e 280a da3d
00000230: 6534 023d f0f2 37be f8b9 353e c683 ad3d
00000240: f51d b53d cc72 63be 40d4 c0bd c26a 07be
00000250: 6bab d0bc 76b4 713e ca37 8a3d 1a3e 253e
00000260: 3994 453e 57e1 c7bd ca73 8a3e 8520 9b3d
00000270: 7557 fd3d f8c0 cc3d 60de 9fbd 4e22 403e
00000280: 8701 33be ec0f a2bc 30e2 9cba cc06 2f3d
00000290: 02a5 1ebd c1c2 0c3e 70a6 4ebd fb44 073e
000002a0: 5a84 b13d 01d9 7e3e 5377 8f3d c6d1 3abe
000002b0: 0a3b 53be da7f 03be 9f27 6bbe 88c7 50be
000002c0: 91da 5cbd c0e9 803e 87bc 10be e882 8e3d
000002d0: e079 233c c093 b83d 33da 2a3e 3b6e 293e
000002e0: db05 743e 8704 99bd 6b59 3bbe 4d51 b4bd
000002f0: 9f38 5b3d 2ecf 063e f08f 673e ae11 0b3d
00000300: b0a0 8fbd af14 efbd 310b 523e 0b98 05be
00000310: 30b0 2bbe 3b7b 163e 66d8 253e 9b16 ab3d
00000320: f83a 65ba 657d 91bb fc28 253d e70d 35be
00000330: 872d 3d3e 6646 353e 93f9 4fbd f714 133e
00000340: 0e06 00bb 57d4 1ebe c058 3bbd db31 12bd
00000350: 1125 053e 4b67 2c3d a412 dbbd 2826 27be
00000360: 7c6b e33d 14f3 ec3d 4d26 f53d c566 b53c
00000370: 1348 84bd 6b23 993d 6787 8f3e 77af f1bc
00000380: dde4 183c bd3d 09be c085 863d 7e00 eebd
00000390: dfb6 04bd a89d 8cbd 409f 7f3e ed84 473e
000003a0: 9bc4 a3bb 1a67 ddbc de65 233d 0b8c d53d
000003b0: 7e38 4abd 2f22 933d 630f a93c 5e4b 4e3e
000003c0: 53f0 c6bb 5560 1cbd 01f0 983d 9ec2 51bd
000003d0: db5a eabb 0bde d53d e15f ccbc 2eb6 32be
000003e0: e221 58bd bc25 ecbd b4a3 1bbe 660b 22be
000003f0: f8ee 2c3e b94b 323e a3ab 57be 414b c23d
-0.04795097 0.13571925 0.1902036 0.09003936 -0.07726235 -0.22688141 -0.21209708 -0.008426112
-0.12542146 -0.18995205 0.0602714 -0.04807542 0.11966847 -0.1633941 0.06724569 0.27900183
0.054923028 0.0077858884 -0.08826412 -0.15078071 0.082991876 -0.12024002 -0.03781712 -0.19790898
0.042390857 -0.103307314 0.062717795 0.0132899815 -0.1340623 -0.04701525 -0.0151098175 -0.11169776
0.0101210065 0.0992943 -0.16956833 0.12836412 -0.1608555 0.25470155 -0.077332914 0.0505534
-0.06617649 -0.13407832 0.0965636 -0.14298601 0.009627536 -0.073257305 -0.04205344 -0.15676937
0.17192309 0.1230952 -0.11873697 0.1727676 -0.04129817 -0.13831419 0.12728398 -0.07010633
0.14995271 -0.043628342 -0.23627326 0.20517787 0.059102546 0.045769665 -0.02818845 -0.08325682
0.049101464 0.063241765 -0.18541424 0.11085945 -0.22905268 -0.114192426 0.0014504241 -0.20597073
-0.2126016 -0.11773905 0.032298777 0.16678558 0.060296137 0.21475483 0.07596471 0.07521857
-0.092316665 -0.14881022 -0.110290416 -0.14521317 0.057811186 -0.14217089 -0.0334635 0.081871
-0.06177543 0.097500935 -0.043003332 0.030458502 -0.036237244 0.18586123 -0.21598022 -0.20281099
0.2567568 -0.115774184 0.22650032 0.16282435 0.03130985 -0.0866408 -4.2093772e-05 0.0029302556
-0.087749936 0.2292235 0.11749328 0.11048172 0.042231448 0.027476517 0.00061282737 -0.20110244
-0.09005915 -0.13043861 -0.04128683 0.067367926 0.22598284 -0.15409523 -0.13837479 0.20205298
-0.07265596 -0.032588918 0.08055628 0.1293353 0.07773952 0.10792588 0.008829674 0.08302548
0.067474 -0.098307356 -0.13526982 0.15793975 -0.18812537 0.11575436 0.15771492 0.23489214
0.1103232 0.054112744 0.1565585 0.106464684 0.03178825 -0.17963767 0.17746723 0.084723994
0.088436045 -0.2221176 -0.094154835 -0.13224319 -0.025472363 0.23603997 0.06748922 0.16136971
0.19294824 -0.09759777 0.27041465 0.07574562 0.12370197 0.09997743 -0.078060865 0.18763086
-0.17481051 -0.019782983 -0.0011969265 0.04273109 -0.038731582 0.13746168 -0.050451696 0.13209908
0.08667822 0.24887468 0.07005181 -0.18244085 -0.2062799 -0.1284174 -0.22964333 -0.20388615
-0.05391938 0.25178337 -0.14134417 0.06958562 0.009977788 0.09012556 0.16684799 0.16545956
0.23830359 -0.07471567 -0.18295829 -0.088045694 0.053520795 0.1316497 0.22613502 0.033952408
-0.070130706 -0.11673867 0.20512082 -0.13046281 -0.16766429 0.14695446 0.1619583 0.08353921
-0.0008744444 -0.004439997 0.04032229 -0.17681085 0.18474399 0.17702636 -0.050775122 0.14363466
-0.001953486 -0.15510689 -0.045738935 -0.035692077 0.13002421 0.042090695 -0.10696915 -0.16323149
0.111044854 0.11569801 0.11970196 0.02214373 -0.064590596 0.074774586 0.2803299 -0.029502613
0.009331909 -0.13402458 0.065684795 -0.116211876 -0.032400962 -0.06866008 0.24963093 0.19484301
-0.0049978024 -0.027026702 0.03989207 0.10427102 -0.04937028 0.071842544 0.02063722 0.20145938
-0.0060711293 -0.038177807 0.07467652 -0.051210992 -0.007151944 0.10442742 -0.024948062 -0.17452309
-0.05276669 -0.11530635 -0.15199167 -0.1582466 0.16888034 0.17411698 -0.21061568 0.0948701

fc2.weight f4 [128, 256]
00000000: 853d 9abc c4a8 b6bd f635 93bd b962 64bc
00000010: 1340 143d 6e9b 3cbb 1d33 793d 313d be3d
00000020: 44bd 8aba b4fc 103e 7031 cdbd fa10 e53c
00000030: 96e4 a4bd ffbe 603d 57b8 3bbd f557 e93d
00000040: f9e9 a73d 5575 abbd 6ee6 083d bc6e 50bc
00000050: 4139 33be 8a12 b33d e941 0f3e c020 dfbd
00000060: 1501 f5bd d946 4abc ff58 adbd 2bea 32bd
00000070: bdbc 8a3d edfe a8bd 9f01 bf3d d962 0fbb
00000080: bb2a 87bc d35d a93c 4093 febb 0d3c 563d
00000090: b7b6 e2bc 4aae 93bd 3a62 8a3d 03ec 093e
000000a0: f70d 19bd afe6 443d baf1 983d 6065 e5bc
000000b0: 9f22 6a3d b603 a23d 7f03 8d3d 7251 9ebd
000000c0: a2be 5f3d 7d5c 443c 1df6 80bd d677 f7bd
000000d0: 177f abbc 6ad5 1ebd 568f ebbc 30aa d3bd
000000e0: b6f1 543d 903f 6a3d 09ca 843b ba98 aebc
000000f0: 956f 84bb f10f 133e 68fa a33c 605e eabd
00000100: 0e0d cdbd 83a9 7a3c df0b e0bc d3e9 42bb
00000110: 1455 9dbb 3e8b c13c 6e9f 513c 9659 a43c
00000120: 9061 1bbd 3031 113e 0f41 d83b 7367 b2bd
00000130: 35eb 18be 4933 21bd d629 c63c 0865 65bd
00000140: 4a27 88bd 296b 96be 8079 f3bc 5898 aa3d
00000150: 68b0 963d 70c2 acbc 99ea cebd db94 09bd
00000160: 95bc b3bc 941f 61bd e74f cb3d 2e64 70bc
00000170: b124 1dbd bee4 ae3d 5e3a 923d 51d3 7f3d
00000180: 8065 d93d 7d45 65bc 5f6b ff3d 6f4c a7bd
00000190: d002 113d a0bf 91bc 503b c23d 1c35 e53d
000001a0: ca1f 59bb 6980 b4bd 11a2 bc3c c45d 923b
000001b0: 6e1b c3bc 3521 083e 9b67 35bd e3b7 45bc
000001c0: 1752 babb 7501 283d 18c7 57b9 5029 9c3d
000001d0: 7736 ff3d 2c04 eb3d e1a2 bfbd eba2 21bd
000001e0: 3416 913c 54e0 e8bd 7ce6 bfbb 3f29 803d
000001f0: 607c c7bc fe28 353d a9fb 2e3d 4748 f1bc
00000200: cc73 273d 0dcb 1f3e 73f3 693c ac68 b33d
00000210: 469d 95bd d3bb 053e 0a4b ee3d 6f46 aabd
00000220: ff79 3d3d e662 b53d fa3e e2bd f03f a7bd
00000230: 5f51 dbbc f73f 6b3b 6135 d83d 74c9 efbc
00000240: 1ba7 8d3c 25a1 d83e df43 90be 5f38 92bc
00000250: 6fbb 8ebd 2503 2a3d 65bf 7f3d 78ab 09be
00000260: d14f 8bbd 72a7 89bd 880a 173d 70f2 a33d
00000270: eb6d ed3c e18e a03d 50a5 483d 58c1 103e
00000280: 1ac6 913d 3b88 19bc c760 df3d 474a b7bd
00000290: 41d6 673d f7d6 60bd f2f6 11be 84aa d1bd
000002a0: 6f22 363d 3c70 333d 3ecb af3c b1c1 0bbd
000002b0: 522d 04be 731d e8bc 6791 9c3d c691 d7bd
000002c0: a677 803d dd98 2bbd c68f 583d 9705 fd3d
000002d0: d278 eebb 76b9 473d 10de 52bd 04ef e4bc
000002e0: 5647 d63d 1c8b 8a3c 4e02 563d ec0d 023d
000002f0: 6422 253d 4c23 633c f06b 1cbe 0c4c 89bd
00000300: 40f4 99bd 0a9b 3a3d d009 47bd d563 213d
00000310: fe2e 94bc b77a b5bd a38e 363c 9475 94bc
00000320: 2bf4 f0bd 87fd a33b 9d46 34bd e769 183e
00000330: 0962 f03d d5d2 cd3d 56a9 c7bd 4799 183e
00000340: f297 463a 0b87 013e 0714 16bd 6a4d 103d
00000350: c1ee 42bc f12b 9ebd a76f 913d be33 89bd
00000360: e676 283d e035 b43d 1dc9 3abe 6e45 92bd
00000370: 6722 9abd 75f8 863d 7ce5 943b de80 a83d
00000380: a4ac c83c 932b 5ebd 5448 64be 05cb 4a3d
00000390: bbdd 93bc 7c4c c9bd 4a09 663d aea1 50be
000003a0: 539b 73bc b332 8b3c 80ac 2ebd 86bf 9f3d
000003b0: 9012 deba af22 2c3d 73c5 afbc 5bc7 91bd
000003c0: 1ab5 4bbd 0433 b83c 718e 873d f894 71bd
000003d0: 12c5 74bd aed7 ba3d 655c e93d 2293 5abd
000003e0: 974a bebc acd9 0f3d 3bce 91bd 5431 16bd
000003f0: 78fe 8bbc 7abc 9cbc 61d3 a83c 6c26 36bd
-0.018828163 -0.08918908 -0.071880266 -0.013939553 0.03619392 -0.0028779167 0.06083976 0.09289015
-0.001058497 0.14158899 -0.10019195 0.027962197 -0.08051412 0.054869648 -0.045830097 0.113937296
0.081989236 -0.08371989 0.03342288 -0.012721714 -0.1750231 0.087437704 0.13989986 -0.108949184
-0.11963097 -0.012345993 -0.0846424 -0.04368035 0.0677428 -0.08251748 0.09326481 -0.0021878986
-0.016499868 0.020674622 -0.0077690184 0.052303363 -0.027675016 -0.072109774 0.067570165 0.13468938
-0.037366834 0.04807156 0.07467981 -0.02800244 0.057161923 0.07910864 0.068854325 -0.07730378
0.05462516 0.011984942 -0.062969424 -0.12083404 -0.020934625 -0.038777746 -0.028754871 -0.10335195
0.051988326 0.057189524 0.004052405 -0.02131306 -0.004041622 0.1436155 0.020016864 -0.11443782
-0.100122556 0.015299204 -0.02734941 -0.002974142 -0.004801402 0.023625966 0.012794359 0.02006225
-0.03793484 0.1417892 0.0065995525 -0.087111376 -0.14933474 -0.03935555 0.02418987 -0.056004554
-0.06648119 -0.29378632 -0.029721022 0.083298385 0.073578656 -0.021088809 -0.1010334 -0.033589225
-0.021940509 -0.054961756 0.099273495 -0.014672322 -0.03836507 0.08539723 0.07140039 0.062457386
0.10615063 -0.013993618 0.12471651 -0.081688754 0.035403073 -0.01779157 0.09483969 0.111917704
-0.003313052 -0.08813555 0.023026498 0.004466744 -0.02381679 0.13293917 -0.04428826 -0.012067768
-0.0056860554 0.041017015 -0.00020578166 0.07625067 0.1246156 0.11475405 -0.093572386 -0.03946201
0.017710783 -0.11370912 -0.0058563333 0.06257867 -0.024351299 0.044228546 0.04272047 -0.02945341
0.040881917 0.15604801 0.014279234 0.08760199 -0.07305388 0.1305993 0.11635406 -0.083142154
0.046258923 0.08856754 -0.11047168 -0.08166492 -0.0267722 0.003589628 0.10557056 -0.029270865
0.017291596 0.42310444 -0.28176782 -0.017849145 -0.06969344 0.041506905 0.062438387 -0.13444316
-0.06802333 -0.06721391 0.036875278 0.08005226 0.028983077 0.07839752 0.04898578 0.14136255
0.07117863 -0.009370859 0.10907131 -0.08949714 0.056600813 -0.054892506 -0.14254358 -0.102376014
0.044466432 0.043808207 0.021459218 -0.034120265 -0.12907913 -0.028334355 0.07644921 -0.10525851
0.06272821 -0.04189383 0.052871488 0.12354582 -0.0072775865 0.048760854 -0.051481307 -0.027946003
0.10462825 0.016912036 0.05224829 0.03175156 0.040316 0.013863396 -0.1527555 -0.06703958
-0.0751729 0.045558013 -0.048593342 0.039401848 -0.018088814 -0.088612966 0.011142406 -0.018122472
-0.11765321 0.005004588 -0.044012655 0.14884149 0.11737449 0.10049979 -0.09749095 0.1490222
0.0007575742 0.12649171 -0.036640193 0.035230078 -0.011897744 -0.07723225 0.07101374 -0.06699322
0.041129015 0.08799338 -0.18240781 -0.07142149 -0.07526093 0.06590358 0.004543958 0.082277045
0.024496384 -0.054240774 -0.22293216 0.04951002 -0.018050065 -0.09829041 0.056161202 -0.20374176
-0.014868575 0.016991949 -0.042644978 0.07800202 -0.0016942788 0.042025264 -0.021456456 -0.07118102
-0.04973326 0.022485264 0.066189654 -0.05897996 -0.059758253 0.09123169 0.11394576 -0.053362973
-0.023228927 0.035119697 -0.071194135 -0.036668137 -0.017089114 -0.019132841 0.020608606 -0.044470236

fc2.bias f4 [128]
00000000: b4fc a53d 3fc4 713c d1fe 0c3d b23e b73d
00000010: 156b f33c d584 d63d ca37 ba3c 05db 77bd
00000020: 0f1f 5b3a 7220 103d f448 3e3d 0056 b53d
00000030: 5bcd 2bbd 52ff 603b 5ff8 003d 2e17 5d3c
00000040: 948b 0cbd 924e 8e3c 5f4a 04bc 617e 12bd
00000050: 1f2e 6dbd ca30 a53c a048 663d a43e fa39
00000060: 71ab 073e 2a69 7b3d 4b6b 7fbd 1f7d 9a3c
00000070: 4955 2f3c 61fe e1bc 3fab b63d f1ee c43d
00000080: c833 8bbd cb68 99bc 95d7 8bbd a411 71bd
00000090: 2271 2c3d 02a6 b13c 7702 0c3c d34f 5dbd
000000a0: 607c cc3c cd64 3c3d f17e 19bb 82bd 813d
000000b0: c562 233d 6aa2 4dbc 5b21 053d df60 063c
000000c0: 3f6b 96bc 8adc 14ba 9784 cebc 04f4 99bc
000000d0: a575 20bd f514 2b3d 1caf c4bc cabf 343d
000000e0: 39ba d43b 13b1 023e a33b b0bc 5dde 523d
000000f0: de23 903c dceb 0bbd 81cf a7bc 4356 f23c
00000100: b0cd cdbc 2cf7 203d 28bd 8b3c 7070 25bd
00000110: 62f2 36bd ae8b 8c3d 35d0 b43c 4470 913c
00000120: f61a 543d 5f71 513d 60e1 1f3a d456 163d
00000130: 6181 96bd 2c60 673d 9808 e5bc b7fe 2dbd
00000140: 4c79 89bb ac49 573d 29d2 883d 98ad 91bd
00000150: d00b 08bd e1e1 f63c 7478 36bc f1e8 32bd
00000160: d8c8 ea3c 84d7 103d d415 ea3d b130 b03d
00000170: 80a8 b63b 8add 06bb 651c 023d e577 cb3c
00000180: 387b ac3d c381 40bc daf6 243d effc 113d
00000190: 016a 403d 3d17 533c e835 4abd b6a5 8c3c
000001a0: f0b2 a6bd 48fd 2b3d bc51 09bd 56a7 2b3d
000001b0: e76b 85bc 58fa 6e3d 0447 0cbb e73c 83bd
000001c0: 9970 67bc a763 ef3d 7acd e33c e5ba 963c
000001d0: 6abe 22bd 5e14 4ebd 6b04 233d 421f 1fbb
000001e0: 5c0e c03d 9f8c c33c c126 ed3d 0bf9 553d
000001f0: 6f85 923c a524 623d d2d7 073e 3a0b 06bd
0.0810484 0.014756261 0.0344227 0.08947505 0.029714147 0.104745544 0.02273168 -0.060511608
0.0008358815 0.035187192 0.046456292 0.08854294 -0.04194389 0.003433187 0.031486865 0.013494296
-0.0343128 0.01737145 -0.008074372 -0.035765056 -0.057905313 0.020164866 0.056221604 0.00047730387
0.13248993 0.06137959 -0.062358182 0.01885849 0.010701486 -0.027587118 0.08919381 0.09615887
-0.06796986 -0.018726727 -0.068282284 -0.058854714 0.04210008 0.021685604 0.00854551 -0.054031204
0.02496165 0.04599457 -0.002342161 0.06334974 0.039889116 -0.01255093 0.032502513 0.008201807
-0.018361686 -0.0005678615 -0.025209708 -0.018793114 -0.039174695 0.041768033 -0.02400928 0.044128217
0.006491926 0.12762861 -0.021512812 0.051481593 0.017595228 -0.03416048 -0.020484688 0.029582148
-0.025122494 0.03929822 0.01705797 -0.040390432 -0.044664748 0.06862579 0.022071937 0.017753728
0.051783524 0.05113351 0.0006098952 0.0367039 -0.07348896 0.0564882 -0.0279582 -0.042479243
-0.004195368 0.052560493 0.0668071 -0.071131885 -0.03321439 0.030137004 -0.011137117 -0.04367918
0.028660223 0.03536178 0.11429945 0.08603037 0.005574286 -0.0020578825 0.03176536 0.024837444
0.084219396 -0.011749688 0.04027448 0.035641607 0.046976093 0.012883958 -0.049367815 0.01716886
-0.08139598 0.041989595 -0.033525214 0.04190763 -0.016286803 0.058344215 -0.0021404633 -0.064081006
-0.0141259665 0.11688929 0.02780794 0.018399665 -0.039732374 -0.050312392 0.039799135 -0.0024280106
0.09377739 0.023870764 0.11579657 0.05223946 0.017885892 0.05521073 0.13265923 -0.03272555

fc3.weight f4 [2, 128]
00000000: 02e1 c23d c5f3 d53b 4588 cdbd e091 52bd
00000010: 008f 99be 7eca 46bd 3346 30bc 0df8 4cbd
00000020: afd4 9cbd 6dd3 8abb 4a78 75be c945 3d3e
00000030: 4e14 c53a 0616 29be ab61 28bd fe90 0d3e
00000040: 896c 69b9 fcd2 1fbd 6655 13be 1c87 39be
00000050: 5b4c 08be 6c29 b53d 8294 36be ccf8 053d
00000060: f15c 45bd e610 643c c022 303d 4a6c 3fbb
00000070: c1f5 6f3d e2fe b5bd 3b90 1cbd 1bbb 06bd
00000080: 3502 cc3d a101 8d3d e0d9 12be c018 56be
00000090: e857 8ebc bab8 c8bd 2dab afbd b1b2 2dbd
000000a0: 4b85 033d 00e7 773d 9c62 14be 4d79 d83d
000000b0: b034 11be 6aa9 33bd c670 00bd ea06 b0bb
000000c0: 5d75 49bd 98ab 8c3d 102c a33d ee98 6b3e
000000d0: 80fb 333d 7775 873d 9f16 a9bd 8975 483e
000000e0: 9cfc 183e f239 40bd 1f3e 5dbd 3007 2d3c
000000f0: 5d13 b33d d628 8e3d 0241 b63d 6c92 e63c
00000100: 29cd af3e 3bd1 073e b866 a0bd 548b 63be
00000110: 9164 e0bd 7328 6b3e 5059 903d bd40 1fbd
00000120: 1417 ee3d 81b6 9ebd 3e19 75be 04f7 debd
00000130: 5fe6 88be c5c6 ffbd 1ee4 b93d 8ba0 d6be
00000140: c09c 02be 24bf 26bd 9866 15bd c65a 0f3e
00000150: 25e0 dcba c559 bc3d 8116 e33d 12fa 4cbd
00000160: d5c8 7cbd 6c9a 19bd d766 d73c ce5c 903d
00000170: a4f1 a73a 1cc2 62be 0ade cf3d a8fc 8a3d
00000180: 4906 953d a7ba 33be 502b 873d 5b53 1d3e
00000190: 17e8 a13d 8de3 943d aa00 97bd c2f9 a03d
000001a0: a4a7 bc3d 7486 35bd 1a74 42bd 264e b83d
000001b0: 0e80 ce3d 2702 1d3e 3869 c6bd 680c 77be
000001c0: 22ac 72be f77f 3fbd 7804 c9bc 0d8d bdbd
000001d0: 4f40 5b3e 5a98 e73d ae59 09bd d3b3 c83d
000001e0: 53ff 11bd 69a0 0f3e 02eb 53bd 1b9a cdbc
000001f0: a710 a53d 647e 5d3c e309 22bd bc6d 31be
00000200: 1803 8d3d 6e3b 243e a8a0 afbd 4106 d4bd
00000210: fd90 f03c c8ff debd 54ce 513e cbd2 173e
00000220: 180a c63d a6b0 3b3e 72bc 173e 65ff 32be
00000230: 0e03 043e f6e1 fa3c 8a34 88bd 2301 55bd
00000240: eea3 4a3e e02f 393e 4050 5c3e a718 9e3d
00000250: cdc6 0a3e 7bef 0bbd 20bf 453d 71f9 203e
00000260: a168 f8bd c96c 95bd e146 0f3e 5fec b33e
00000270: f356 773e a234 f83d bf1b a1bd cce2 90bd
00000280: b10b 823d 133a 4dbc 82ae 623c faff eabe
00000290: 0c9e 4d3e c3c3 d63d c473 a43d 8d2a 453e
000002a0: eee8 633e 1d47 133e 9b00 06bd 5b90 22bc
000002b0: dedf 443e 638c 543e 3b0f c1bd ab26 8d3e
000002c0: 227a 943d 1929 03bd 0138 9fbc 105a 163e
000002d0: bfd6 a23e b857 c6bc b6dd 6e3d 3061 e6bd
000002e0: b9c2 edbd 7294 a9bd b164 223e 30cd 563e
000002f0: 3b53 e9bc 0d92 353d a134 fe3c 42bd 4f3e
00000300: 242c da3d c843 693d c93e b9bd 0ed7 3d3e
00000310: 3678 363e ed4a 88bc 7e64 e0bb fe71 91bd
00000320: af35 6ebc 1461 9fbd aa95 413e c845 5f3d
00000330: c3ae e53c 11c1 a63d 43b8 ba3e a9f4 c63d
00000340: f470 7a3e eba1 e9bd 4bc3 a3bd b268 c13d
00000350: d8c5 b03e a4e7 c7bc 7539 623d ec32 e53e
00000360: 74c6 283e f470 b6bd e4b7 bfbd e93c a7bd
00000370: 904e de3a 03e9 763e 8f98 5c3c 8b52 23bc
00000380: 3962 16bd fbf0 9c3d bea9 733b 5463 35bd
00000390: 9201 8a3c 8fcd 4d3d f716 623e 8200 613d
000003a0: 59a7 1d3d 964a bebd 69af 833e 64d2 27be
000003b0: 33cd 1a3e e009 2b3e 10f4 17bd 3f5d 0e3e
000003c0: 7ce4 a7bc 1c39 dbbd 765d bd3e c705 073e
000003d0: 1d6b ec3d da9a bc3e 96a3 4a3e 74fb 613e
000003e0: 1383 0ebe 375d 203e c47b c9bd 6a5f a9bd
000003f0: 3e3e a33b 1f09 fb3d e74b c9bd 81f1 ae3d
0.09515573 0.0065293037 -0.10035757 -0.05140865 -0.29991913 -0.048532955 -0.010758924 -0.050041247
-0.07657754 -0.0042366297 -0.23971668 0.18483652 0.0015035958 -0.16512308 -0.04110877 0.13824841
-0.00022261044 -0.03901957 -0.14388046 -0.18117946 -0.13310377 0.08845791 -0.17830089 0.032707974
-0.04818434 0.0139200445 0.04300189 -0.0029208832 0.05858398 -0.08886506 -0.038223486 -0.03289328
0.099613585 0.06885076 -0.14340925 -0.20907879 -0.017375901 -0.09800859 -0.08577571 -0.04240674
0.03210954 0.060523033 -0.14490741 0.10570011 -0.14180255 -0.043862738 -0.03135755 -0.005371918
-0.049184192 0.068686664 0.07967389 0.23007557 0.04394102 0.066142015 -0.08256268 0.19576086
0.14940113 -0.04693026 -0.05401432 0.010560796 0.08743928 0.069413826 0.08899118 0.028145991
0.34336212 0.13263409 -0.07832092 -0.22221118 -0.109566815 0.22964649 0.07048285 -0.0388801
0.116254956 -0.077496536 -0.2393541 -0.10886958 -0.2673826 -0.12489084 0.09076713 -0.4191936
-0.12755108 -0.04070963 -0.036474794 0.13999471 -0.0016851468 0.0919681 0.11088277 -0.050043173
-0.061714966 -0.037500784 0.026294155 0.07048951 0.0012813103 -0.2214436 0.101497725 0.067864716
0.072765894 -0.17551671 0.06600058 0.15363829 0.07905596 0.07269964 -0.073731735 0.078601375
0.092116624 -0.044317678 -0.047474004 0.08999281 0.10083018 0.15332852 -0.09688038 -0.24125826
-0.23698476 -0.046752896 -0.024538264 -0.09255419 0.2141125 0.11308356 -0.03353279 0.09799924
-0.035643887 0.14026035 -0.051737793 -0.025097897 0.08059817 0.013518903 -0.03956021 -0.17327017
0.06885356 0.16038296 -0.085755646 -0.10352755 0.02936601 -0.1088863 0.20488864 0.14826505
0.09669894 0.18329105 0.1481798 -0.17480238 0.1289179 0.030625325 -0.06650646 -0.052003037
0.19789097 0.18084669 0.21514988 0.07719546 0.13552399 -0.034163933 0.048277974 0.15720154
-0.121293314 -0.0729614 0.13991882 0.35141274 0.24154262 0.12119414 -0.0786662 -0.07074508
0.06349886 -0.012526053 0.013835551 -0.4589842 0.20079821 0.10486557 0.08029893 0.19254513
0.22256824 0.14382596 -0.03271542 -0.009922112 0.19226024 0.20756678 -0.09426733 0.27568564
0.072498575 -0.032021616 -0.019435884 0.14682794 0.31804463 -0.02421175 0.05831691 -0.11249006
-0.11609406 -0.08280267 0.15858723 0.2097671 -0.02848207 0.044328738 0.031030955 0.2028704
0.106529504 0.056949407 -0.090451784 0.18539068 0.17819294 -0.01663729 -0.006847917 -0.071018204
-0.014539166 -0.07782188 0.18904749 0.054509908 0.028037434 0.08142293 0.36468706 0.09714634
0.2445715 -0.114078365 -0.079962336 0.09443797 0.34525943 -0.024402447 0.055230577 0.44765413
0.16481954 -0.08908263 -0.09361246 -0.081659146 0.0016960669 0.24112324 0.013464107 -0.00996841
-0.036714766 0.07663151 0.0037180032 -0.04428418 0.016846452 0.050244864 0.22079073 0.054932125
0.038489673 -0.0929157 0.25719765 -0.16388851 0.1511734 0.16702986 -0.03709799 0.13902758
-0.020494692 -0.10704252 0.36985368 0.13185798 0.11543868 0.36836892 0.19788966 0.22068578
-0.13917188 0.15660559 -0.098380595 -0.08270152 0.004981785 0.12257599 -0.0982893 0.08542157

fc3.bias f4 [2]
00000000: 46a6 ca3b 32d3 b1bc
0.006184372 -0.021707151
