checkpoint_actor1.pth (torch_old, 159146 bytes, 6 tensors)

fc1.weight f4 [256, 24]
0	0x3d75cb9e	0.060008638
1	0xb910ae00	-0.0001379773
2	0x3c856ca4	0.016287155
3	0xbd57d3ce	-0.052692227
4	0xbd31f468	-0.043445975
5	0xbb44c600	-0.0030025244
6	0x3caaa748	0.020831719
7	0x3cc734b4	0.024317123
8	0x3cd5c16c	0.026093207
9	0x3d273032	0.040817447
10	0xbc985e48	-0.018599644
11	0xbd0bf2e2	-0.034167178
12	0x3ccdd8d0	0.025127798
13	0xbd01d5b8	-0.03169796
14	0x3d31fe98	0.04345569
15	0x3c9be538	0.019030198
16	0xbc235048	-0.009967871
17	0xbc98e2dc	-0.018662862
18	0xbcf65190	-0.030068189
19	0x3d3a6e50	0.04551536
20	0x39bd2900	0.00036079437
21	0xbcaa208c	-0.020767473
22	0x3d10bc5a	0.035335876
23	0x39b60a00	0.00034721196
24	0xbb769c40	-0.0037629753
25	0x3d281c10	0.041042387
26	0xbd4dc234	-0.050234035
27	0x3d580908	0.052742988
28	0xbaec0340	-0.001800634
29	0xbd166464	-0.036716834
30	0xbd2adf30	-0.041716754
31	0xbd23e4d0	-0.040013134
32	0xbca91264	-0.020638652
33	0xbcc7b4e0	-0.02437824
34	0x3d4c82aa	0.0499293
35	0xbac5dbc0	-0.0015095398
36	0xbd09c72c	-0.03363721
37	0xbb1e6f20	-0.0024175122
38	0x3b247120	0.0025091842
39	0x3c0c1b40	0.008551419
40	0x3c56fea8	0.013122238
41	0xbd7f28fe	-0.062294953
42	0xbd611cc2	-0.054959066
43	0x3cd4a664	0.025958247
44	0x3d70e670	0.058813512
45	0x3d6d6d52	0.057965584
46	0xbc1faa50	-0.0097451955
47	0xbc4a7920	-0.01235798
48	0xbd70a2f6	-0.05874916
49	0x3d3681c2	0.04455734
50	0x3d220d0e	0.03956323
51	0xbb6db200	-0.0036269426
52	0xbb720aa0	-0.0036932603
53	0x3cb72fb0	0.022361606
54	0xbd30f3ae	-0.04320114
55	0xbd6bde68	-0.05758515
56	0x3cecec08	0.028921142
57	0x3d23a72c	0.03995435
58	0xbd06c73c	-0.03290485
59	0xbd62511c	-0.055253133
60	0x3c86aa18	0.016438529
61	0xbc1c6030	-0.009544417
62	0xbc60cd40	-0.01372081
63	0xbd1111a8	-0.03541723
64	0x3d285428	0.041095883
65	0x3cf18968	0.029484466
66	0xbd2e779a	-0.04259453
67	0xbc81b214	-0.015831985
68	0x3ba26f10	0.0049570873
69	0xbc999628	-0.018748358
70	0x3b781560	0.0037854537
71	0x3d72db86	0.059291385
72	0xbafc3c40	-0.001924403
73	0x3cbee4b4	0.023302414
74	0x3cd5fb88	0.026120916
75	0xbd1cca48	-0.038278848
76	0xbbf614c0	-0.007509798
77	0x3cb49988	0.022045866
78	0x3d4c8eb2	0.049940772
79	0xbd394d00	-0.04523945
80	0xbd18b39a	-0.037280656
81	0x3b023f60	0.00198742
82	0xbd01090c	-0.03150277
83	0xbc714bd0	-0.014727548
84	0x3d20335c	0.03911148
85	0xbbf604e0	-0.0075079054
86	0x3be39720	0.0069455057
87	0x3d69f530	0.057118595
88	0x3d022304	0.031771675
89	0x3d2f7152	0.04283268
90	0xbd0e0574	-0.03467317
91	0x3ccd64d8	0.0250725
92	0x3cc8197c	0.024426214
93	0x3d1f953a	0.038960673
94	0x3d7d2b3e	0.061808817
95	0x3d5fc3d0	0.0546301
96	0xbd56cb64	-0.052440062
97	0xbd7b62a8	-0.061373383
98	0x3d677d6e	0.056516103
99	0x3cc1a718	0.023639247
100	0x3c8b81dc	0.017029695
101	0xbc7c53b0	-0.015400812
102	0xbd49a2f8	-0.049227685
103	0xbd470c86	-0.048595928
104	0xbd29bca2	-0.04143966
105	0xbcc276fc	-0.023738377
106	0x3d11764e	0.035513215
107	0xbd5d6fcc	-0.054061696
108	0x3d7ead06	0.062176727
109	0x3d5889ca	0.05286578
110	0x3d6b8174	0.057496503
111	0x3c591300	0.013249159
112	0x3d199f22	0.037505277
113	0x3c942ddc	0.018088274
114	0xbbd8fa60	-0.006621644
115	0xbc66c7b0	-0.014085695
116	0xbd218cce	-0.039440922
117	0x3d37fc3e	0.04491829
118	0x3d032952	0.032021828
119	0x3d5ddf80	0.054168224
120	0x3bfab250	0.007650651
121	0x3d260dec	0.04054062
122	0xbd1a3a36	-0.03765317
123	0xbd2365c0	-0.03989196
124	0x3c66ac60	0.014079183
125	0x3c8a61b0	0.016892284
126	0x3d2622d8	0.040560573
127	0xbcb17760	-0.021663368
128	0xbcc34f80	-0.02384162
129	0x3d53146e	0.051533155
130	0xbc212a98	-0.009836815
131	0xbd7b0616	-0.0612851
132	0xbd6f91d0	-0.058488667
133	0x3b76bd20	0.0037649348
134	0x3d6c9344	0.05775763
135	0xbd10a1b2	-0.035310455
136	0x3c839e78	0.016066775
137	0xbd6ec994	-0.05829771
138	0x3d533a66	0.051569365
139	0x3ccbcabc	0.024876945
140	0x3c119768	0.008886196
141	0x3d2a2846	0.041542314
142	0x3d74fc82	0.059811123
143	0xbaace500	-0.0013190806
144	0xbd78ad0a	-0.060711898
145	0x3d65b504	0.056080833
146	0x3c1e2fd0	0.009654954
147	0xbd1d985a	-0.038475372
148	0x3d34e5b2	0.044164367
149	0xbd20ca0e	-0.039255194
150	0x3d17f812	0.037101813
151	0x3d512710	0.051062644
152	0x3cfafef0	0.030639142
153	0x3c574f10	0.013141409
154	0x3ca3d9f4	0.02000139
155	0xbc73c688	-0.0148788765
156	0xbcf44628	-0.02981861
157	0x3d6cd402	0.057819374
158	0xbaa2df00	-0.0012426078
159	0xbbd9abb0	-0.006642781
160	0xbc9c4da0	-0.019079983
161	0x3bc47a50	0.005996026
162	0x3d1af70a	0.03783325
163	0x3b238660	0.002495192
164	0x3ce54d1c	0.02799087
165	0xbcf62858	-0.030048534
166	0x3d128df0	0.035779893
167	0x3d083c38	0.033260554
168	0xbd03b316	-0.03215321
169	0xbcf336f4	-0.02968929
170	0xbd6d8a04	-0.05799295
171	0x3d336b1a	0.043803312
172	0xbb3aab60	-0.0028483495
173	0x3c508600	0.012727261
174	0xbcf66dd4	-0.030081667
175	0xbb03b160	-0.0020094737
176	0xbd042d58	-0.032269806
177	0x3c9904f0	0.018679112
178	0xbd5c6b8a	-0.053813495
179	0xbd03153e	-0.03200268
180	0xbd57b6c6	-0.05266454
181	0x3d23c6ac	0.03998439
182	0xbd257c4c	-0.04040174
183	0xbcc8aae4	-0.02449555
184	0x3ade7840	0.0016973093
185	0x3b970a60	0.004609391
186	0xbc9c4670	-0.019076556
187	0x3cb77044	0.0223924
188	0xbd0621ee	-0.0327472
189	0x3c9b49b4	0.018956043
190	0x3d6b6632	0.057470508
191	0x3b3e54a0	0.002904214
192	0xbd703108	-0.05864051
193	0x3d6030a2	0.05473388
194	0x3d726c36	0.05918523
195	0x3d4973b4	0.04918261
196	0xbc5cbd30	-0.01347284
197	0xbb942320	-0.004520789
198	0x3d7c796c	0.061639234
199	0x3cc31f78	0.023818716
200	0x3c5bd138	0.013416581
201	0x3d017566	0.0316061
202	0x3cc5c3c4	0.0241412
203	0xbd1b2934	-0.03788109
204	0x3c5a3f38	0.013320737
205	0x3d2ed9f8	0.04268834
206	0x3d35ad8a	0.044354953
207	0xbc574440	-0.013138831
208	0x3d5cb552	0.053883858
209	0xbad920c0	-0.0016565546
210	0x3c80640c	0.015672706
211	0x3bd8e3c0	0.006618947
212	0xbcf1bec8	-0.029509917
213	0x3d7f3634	0.06230755
214	0xbd7dfd54	-0.06200917
215	0xbd745710	-0.05965334
216	0x3ca68fd4	0.020332254
217	0x3d12b564	0.03581752
218	0xbc9c3ab4	-0.01907096
219	0x3d0bc85c	0.034126624
220	0xbc9210d8	-0.017830297
221	0x3d5045da	0.050847866
222	0xbcdf32a8	-0.027245834
223	0x3d53d4e4	0.0517167
224	0xbd6ecd68	-0.05830136
225	0xbac6ab40	-0.0015157238
226	0x3d345e3a	0.044035174
227	0x3c6acb08	0.014330633
228	0xbc71d040	-0.014759123
229	0x3d7265e0	0.059179187
230	0xbaa1af40	-0.0012335554
231	0xbd653e4c	-0.055967614
232	0x3ca8cf70	0.020606726
233	0xbcdb8744	-0.026797898
234	0xbd529a3a	-0.051416613
235	0x3d7d3746	0.06182029
236	0xbbfeb4d0	-0.0077730194
237	0xbd471e6e	-0.048613004
238	0x3d3a84b8	0.045536727
239	0x3d1238aa	0.03569857
240	0xbcf1d920	-0.029522479
241	0x3ca1b038	0.019737348
242	0x3b0b29e0	0.0021234676
243	0x3bc64f80	0.0060519576
244	0xbd102ec4	-0.03520085
245	0x3d7a43e6	0.06109991
246	0xbd24e206	-0.040254615
247	0x3d7d3962	0.061822303
248	0x3c2fe440	0.010735571
249	0x3d0a23e0	0.03372562
250	0xbc592628	-0.013253726
251	0x3cf07250	0.029351383
252	0x3d6e4db4	0.058179572
253	0xbbe91cb0	-0.0071140155
254	0xbd5fb70a	-0.05461792
255	0x3d50381c	0.05083476

fc1.bias f4 [256]
0	0xbda066a2	-0.07832076
1	0x3dea8ad4	0.114522606
2	0x3dc65cf0	0.09685695
3	0x3de661d0	0.11249125
4	0xbd46f838	-0.048576564
5	0xbe370c46	-0.17875776
6	0xbe4ca809	-0.19985975
7	0x3c890458	0.016725704
8	0xbe4a371e	-0.19747588
9	0xbe09c95e	-0.13455722
10	0x3e089888	0.13339436
11	0xbd00b728	-0.03142467
12	0x3d91e824	0.071243554
13	0xbe2470ec	-0.16058701
14	0x3d0487e4	0.032356158
15	0x3e3c58f0	0.18393302
16	0x3d1800c0	0.03711009
17	0x3d1379b4	0.036004737
18	0xbe00fd65	-0.12596662
19	0xbe17225e	-0.14759204
20	0x3df3b4d8	0.118997276
21	0xbe3b225a	-0.18274823
22	0xbc4cdec0	-0.01250428
23	0xbe277cb3	-0.16356163
24	0x3c6b0cf0	0.014346346
25	0xbe4cd1c1	-0.2000189
26	0x3d8a6500	0.067575455
27	0x39b61a00	0.00034733117
28	0xbe09725a	-0.13422528
29	0xbd9ba8bc	-0.07600543
30	0xbda70f23	-0.08157184
31	0xbdbba815	-0.091629185
32	0xbd507e54	-0.050901726
33	0x3d1a0b70	0.037608564
34	0xbdf087f0	-0.11744678
35	0x3d530248	0.051515847
36	0xbe2c3d36	-0.16820225
37	0x3e44d880	0.19223213
38	0xbdfa8f87	-0.12234407
39	0x3db1c344	0.08679822
40	0xbe0f132f	-0.13972162
41	0xbe0eab8a	-0.13932624
42	0xbcf57400	-0.02996254
43	0xbdee25d3	-0.11628308
44	0xbd69ece0	-0.057110667
45	0xbdb5d720	-0.088789225
46	0xbd69d46c	-0.057087347
47	0xbe21959a	-0.15779725
48	0x3e4bdbd8	0.19908082
49	0x3debc7b4	0.115127
50	0xbd95574e	-0.07292043
51	0x3e17c984	0.14822966
52	0xbdba40b9	-0.09094376
53	0xbe2ac05f	-0.16674946
54	0x3d85e6a0	0.06538129
55	0xbd8fdada	-0.070241645
56	0x3e1d33b8	0.1535176
57	0xbd60fcd8	-0.05492863
58	0xbe2a2fc4	-0.16619784
59	0x3e3040f2	0.17212275
60	0x3d3bac58	0.045818657
61	0x3d7dc008	0.061950713
62	0xbca1b800	-0.019741058
63	0xbe263433	-0.1623085
64	0x3d869498	0.06571311
65	0x3a108500	0.00055129826
66	0xbe0a645c	-0.13514847
67	0x3dee3a94	0.11632267
68	0xbe43bb86	-0.19114503
69	0xbe01b9ca	-0.12668529
70	0xbd42f248	-0.04759434
71	0xbe43ebbc	-0.19132894
72	0xbe3c2c74	-0.18376333
73	0xbd7b3134	-0.06132622
74	0xbd1d9c18	-0.03847894
75	0x3e195460	0.14973593
76	0x3dc314c4	0.09525445
77	0x3e425810	0.18978906
78	0x3d81da08	0.06340414
79	0x3cdfa430	0.02729997
80	0xbd212070	-0.039337575
81	0xbdb05b9e	-0.086112246
82	0xbe3b4112	-0.18286541
83	0xbe3eeb61	-0.18644477
84	0x3db1e094	0.08685413
85	0xbe044e9d	-0.12920614
86	0xbdab7e38	-0.08373684
87	0x3dc35dc4	0.09539369
88	0xbe013639	-0.1261834
89	0x3d9a901c	0.07547018
90	0xbc3910d0	-0.011295512
91	0x3d2c86f0	0.042120874
92	0xbdbe6dbf	-0.09298276
93	0x3e186958	0.14883935
94	0xbe2af741	-0.16695882
95	0xbe4323ab	-0.19056575
96	0x3e231564	0.15926129
97	0xbe0d3736	-0.13790593
98	0x3e48a6b0	0.19594836
99	0x3db9aed8	0.09066552
100	0x3da15830	0.078781486
101	0xbccf1390	-0.025277883
102	0x3d1d43b8	0.03839466
103	0x3d566930	0.05234641
104	0xbdc494cb	-0.095986925
105	0x3e19da9c	0.15024799
106	0x3e00782e	0.12545845
107	0x3c44a2e0	0.012001723
108	0x3d6fb9f0	0.058526933
109	0xbccaf4f0	-0.024774998
110	0xbd970052	-0.07373108
111	0xbe211ec8	-0.15734398
112	0xbda09898	-0.07841605
113	0xbe482bf1	-0.19548012
114	0xbd83775e	-0.06419252
115	0x3ddab7e0	0.106796026
116	0x3e4acdce	0.19805071
117	0xbe3f452b	-0.18678729
118	0xbe2dc26a	-0.16968694
119	0x3e2c8546	0.16847715
120	0xbd938fd4	-0.072051674
121	0x3990ca00	0.00027616322
122	0x3e03280a	0.12808242
123	0x3e392504	0.18080527
124	0x3d9e515c	0.07730362
125	0x3d4f1a40	0.050562143
126	0xbba147a0	-0.0049218684
127	0x3ba88f80	0.0051440597
128	0x3da8ae64	0.08236387
129	0xbe449eb5	-0.19201167
130	0xbe4a586a	-0.1976029
131	0x3e0cf0f2	0.13763788
132	0xbe4c9b9a	-0.19981232
133	0x3ddbafc8	0.10726887
134	0x3e174c46	0.1477519
135	0x3e0a9caa	0.13536325
136	0x3d7f05c8	0.062261373
137	0x3cb9c908	0.022678867
138	0x3dc11038	0.094269216
139	0x3df91c44	0.12163594
140	0x3bd29dc0	0.0064274967
141	0xbe166690	-0.14687562
142	0x3e020b6e	0.12699673
143	0x3cba48a8	0.022739723
144	0x3dfbd3dc	0.12296268
145	0xbe0c1339	-0.13679208
146	0xbd51001c	-0.051025495
147	0xbe0646b4	-0.13112909
148	0x3c3f8cc0	0.011691272
149	0x3e31a06e	0.17346355
150	0x3d1eea94	0.03879793
151	0x3e31ad6c	0.17351311
152	0x3e1993c0	0.14997768
153	0xbe0fc540	-0.14040089
154	0x3e48a598	0.19594419
155	0x3c39c190	0.011337653
156	0x3e2f0304	0.17090994
157	0x3d21e6c0	0.0395267
158	0xbd0ec0c0	-0.03485179
159	0x3e3171fe	0.17328641
160	0xbe1aa9c4	-0.15103823
161	0x3b960860	0.004578635
162	0xbcea3ca0	-0.028593361
163	0x3c171d20	0.009223253
164	0xbd6fe04c	-0.058563516
165	0x3e25f482	0.16206554
166	0xbc2ece50	-0.010669306
167	0x3dacbcbc	0.08434436
168	0x3db405fc	0.08790204
169	0x3e3e72ee	0.1859853
170	0x3d9651bc	0.07339808
171	0xbe505e22	-0.20348409
172	0xbe2d4908	-0.1692239
173	0xbe457a74	-0.19284993
174	0xbe4cebc1	-0.20011808
175	0xbe2de8b2	-0.16983297
176	0xbb42fc00	-0.0029752254
177	0x3e45d46a	0.19319311
178	0xbe0747ec	-0.1321103
179	0x3dafdfb0	0.08587587
180	0xbdbebe39	-0.09313626
181	0x3e21ed58	0.15813196
182	0x3e07f1ac	0.13275784
183	0x3dc23dc0	0.09484434
184	0x3e38248a	0.17982689
185	0xbe1da6fd	-0.15395732
186	0xbe317d3a	-0.17332926
187	0xbdd593d7	-0.10428589
188	0x3d29751c	0.04137145
189	0x3e38c980	0.18045616
190	0x3e0a015e	0.13477084
191	0x3d82abf0	0.06380451
192	0xbd146e34	-0.03623791
193	0xbded5c40	-0.11589861
194	0x3e4fe020	0.2030034
195	0xbe36f55d	-0.17867036
196	0xbe102fa3	-0.14080672
197	0x3df60640	0.12012911
198	0x3e230f88	0.15923893
199	0x3d5bbee0	0.05364883
200	0xbb69b4c0	-0.0035660714
201	0xbcc6ac80	-0.024252176
202	0x3cd9cbe8	0.026586488
203	0xbdd25739	-0.10270543
204	0x3e4ea6b6	0.20180783
205	0x3e50c1c6	0.20386419
206	0xbda1c91c	-0.07899687
207	0x3e112028	0.14172423
208	0xbd46ba9c	-0.04851781
209	0xbe17a098	-0.14807355
210	0x3d0f8b2c	0.035044834
211	0xbd1fcb74	-0.039012387
212	0x3e2dd26a	0.16974798
213	0x3c67c3e0	0.014145821
214	0xbd376360	-0.044772506
215	0xbe260a13	-0.1621478
216	0x3e08bdc2	0.13353637
217	0x3e0b8262	0.13623956
218	0x3ceb3170	0.028710097
219	0xbc927e98	-0.01788263
220	0xbd8c0de2	-0.068385854
221	0x3d41cbf0	0.04731363
222	0x3e4896fa	0.19588843
223	0xbd09c084	-0.033630863
224	0x3c9891b8	0.018624172
225	0xbe472502	-0.19447711
226	0x3d557278	0.05211112
227	0xbdb31cb7	-0.08745711
228	0xbd463bdc	-0.04839693
229	0xbdddb399	-0.10825271
230	0x3e4191ea	0.18903318
231	0x3e0e55a4	0.13899857
232	0xbdb40765	-0.08790473
233	0xbd4d0f80	-0.05006361
234	0x3d7ea9e8	0.062173754
235	0x3d9d5060	0.07681346
236	0xbdc4cfd0	-0.096099496
237	0x3da9c6c8	0.08289868
238	0x3d04eff0	0.032455385
239	0x3df03a54	0.11729875
240	0xbde1e84a	-0.11030634
241	0xbe06f680	-0.1317997
242	0x3dc25f04	0.09490779
243	0xbc027ea0	-0.00796476
244	0xbdb62b12	-0.08894934
245	0x3e240dc8	0.16020882
246	0xbcba0368	-0.022706702
247	0xbe0b9819	-0.1363224
248	0xbceeab60	-0.029134452
249	0xbdc1aece	-0.094571695
250	0xbd9060d0	-0.070497155
251	0xbe2c12a0	-0.1680398
252	0x3e26d9fe	0.16294095
253	0x3e37eb10	0.17960763
254	0xbe3054c8	-0.17219841
255	0x3e02c1c8	0.12769234

fc2.weight f4 [128, 256]
0	0xbd5593d1	-0.05214292
1	0xbda76205	-0.081729926
2	0x3ade0480	0.0016938597
3	0xbc0cb0f8	-0.0085871145
4	0x3cb96fc0	0.022636294
5	0xbb25c440	-0.0025293976
6	0x3c10e4e0	0.008843631
7	0x3d88ea3d	0.066853024
8	0xbc96f510	-0.018427402
9	0x3d828793	0.06373515
10	0xbd99b585	-0.07505325
11	0xbd8b4a8c	-0.06801328
12	0xbd7f78b7	-0.062370982
13	0xbd7efbb3	-0.062251758
14	0x3c4aca18	0.0123772845
15	0x3d76fbc2	0.06029869
16	0x3c54b4b0	0.012982532
17	0xbd32af88	-0.04362443
18	0xbc92d928	-0.017925814
19	0xbda72961	-0.08162189
20	0xbd5b1240	-0.0534842
21	0x3da33faf	0.07971131
22	0x3d15eb62	0.03660143
23	0x3c8f833c	0.017518632
24	0xbd058834	-0.032600597
25	0xbd6e53ea	-0.058185495
26	0xbd489237	-0.048967566
27	0xbd93bcca	-0.07213743
28	0xbcd44b08	-0.025914684
29	0xbd9e642e	-0.077339515
30	0x3dae4757	0.08509701
31	0xbd83c664	-0.064343244
32	0x3d634c56	0.05549272
33	0x3b3c70c0	0.0028753728
34	0x3d96eb57	0.07369106
35	0x3c311cd8	0.0108101
36	0x3d0bf76c	0.034171507
37	0xbd74f2b1	-0.05980176
38	0x3cdf1798	0.02723293
39	0x3d9e611d	0.07733367
40	0x3b3cc620	0.0028804615
41	0xbaa09880	-0.001225248
42	0xbbfff190	-0.007810779
43	0xbdb24d57	-0.08706158
44	0x3d8815f9	0.06644816
45	0x3db1bd3d	0.086786725
46	0x3d6e3dda	0.058164455
47	0xbd29b268	-0.041429907
48	0x3bd62d20	0.006536141
49	0xbc3146e8	-0.010820128
50	0xbd5852fa	-0.052813508
51	0xbd73bedc	-0.05950819
52	0xbc417b60	-0.0118092
53	0xbd5c1bcd	-0.05373745
54	0xbbcad540	-0.006189972
55	0xbcd2b050	-0.025718838
56	0x3ceefb08	0.029172435
57	0xbc7c97d0	-0.015417054
58	0xbdafc364	-0.0858219
59	0xbd5c4378	-0.05377528
60	0xbd94a24a	-0.07257517
61	0x3d866b6d	0.065634586
62	0x3d251d4e	0.04031115
63	0x3aa0cfc0	0.0012268946
64	0xbd878a1f	-0.066181414
65	0x3b8b1170	0.004244022
66	0x3bf01b30	0.0073274598
67	0xbbf0b900	-0.0073462725
68	0xbd8893e4	-0.06668833
69	0x3a10bf00	0.0005521625
70	0xbc556698	-0.013024949
71	0xbd90e34d	-0.07074604
72	0xbd7ba428	-0.06143585
73	0x3d857049	0.06515557
74	0xba8d9100	-0.001080066
75	0xbb9bf9d0	-0.0047600046
76	0xbd627bba	-0.055293776
77	0xbd7b3482	-0.061329372
78	0xbbd6ea20	-0.0065586716
79	0xbd991dd7	-0.074763946
80	0xbccc5768	-0.024944022
81	0xbda5914d	-0.080843545
82	0xbcfb085c	-0.030643634
83	0x3d7bbc7e	0.061459057
84	0x3d85e329	0.06537468
85	0xbdb2de40	-0.08733797
86	0xbd8c9890	-0.068650365
87	0xbd0006e8	-0.031256586
88	0xbd8a0f60	-0.06741214
89	0x3b987930	0.0046531186
90	0x3d850c83	0.06496527
91	0xbd295bee	-0.041347437
92	0xbda27d1c	-0.07934019
93	0x3d11b37a	0.035571553
94	0xbd1005c0	-0.035161734
95	0x3c741388	0.014897235
96	0x3d511c52	0.0510524
97	0xbd990f5b	-0.07473632
98	0x3d84453b	0.06458517
99	0xbd8b086f	-0.06788718
100	0xbcd7e2bc	-0.026353233
101	0x3d9f02dd	0.07764218
102	0x3ccf0898	0.025272653
103	0x3d81caef	0.06337535
104	0x3d76b9b2	0.060235687
105	0xbcfab354	-0.030603088
106	0xbc88bff4	-0.016693093
107	0x3d970915	0.07374779
108	0xbd2fb055	-0.042892773
109	0x3d79e512	0.061009474
110	0xbd76539b	-0.060138326
111	0xbd2d4dbf	-0.042310473
112	0xbcf29bf8	-0.029615387
113	0x3d1b26ee	0.037878923
114	0xbd42de65	-0.047575373
115	0x3c8bed4c	0.017080925
116	0x3cb36de0	0.021902978
117	0x3d81f211	0.06344999
118	0xbd8ee7f1	-0.06977833
119	0x3d1bca1e	0.03803455
120	0x3d0e8420	0.034793973
121	0xbdb131c6	-0.08652072
122	0xbda27bf6	-0.079338
123	0xbba49450	-0.005022563
124	0xbcc442a8	-0.023957565
125	0x3d9d19af	0.076709144
126	0x3c8ba98c	0.01704862
127	0xbd1c42f4	-0.03814979
128	0xbca6eef8	-0.020377621
129	0x3da568d5	0.08076636
130	0xba0d5c80	-0.0005392507
131	0x3d62331a	0.055224515
132	0xbcb072f8	-0.021539196
133	0x3dadb88b	0.084824644
134	0x3db1ce55	0.08681933
135	0xbdabeae4	-0.08394411
136	0x3c019fb8	0.007911615
137	0x3cdd0c28	0.026983336
138	0xbd8990b4	-0.06717053
139	0xbce14b1e	-0.027501639
140	0xbd3472ca	-0.044054784
141	0x3c7be3f0	0.015374169
142	0x3dab25fd	0.08356855
143	0xbd94450d	-0.07239733
144	0x3beefa40	0.0072930157
145	0x3d5191b6	0.05116435
146	0xbcb066a4	-0.021533318
147	0x3badcf50	0.0053042546
148	0xbd5d689e	-0.05405485
149	0x3cf43e30	0.02981481
150	0x3d3c633e	0.045993082
151	0xbdb3519c	-0.087558
152	0xbd253614	-0.040334776
153	0xbd45b9a4	-0.048272744
154	0x3d184616	0.037176214
155	0x3d0f0af4	0.034922555
156	0xba3d2680	-0.0007215515
157	0x3cbb6824	0.022876807
158	0x3bb28f20	0.0054491907
159	0x3d8940c9	0.0670181
160	0x3d421c42	0.04739023
161	0xbd6d5fb8	-0.057952613
162	0x3d87aec3	0.0662513
163	0xbc959d8c	-0.0182636
164	0x3d86d5fd	0.06583784
165	0xbda07d66	-0.07836418
166	0xbd88d954	-0.06682077
167	0x3c3ae060	0.011406034
168	0x3c6bf000	0.014400482
169	0x3c2dac50	0.0106001645
170	0xbd87e3ea	-0.06635268
171	0xbd4cd4af	-0.05000752
172	0xbdae407c	-0.08508393
173	0xbcc1e5b0	-0.023669094
174	0xbce12e16	-0.027487796
175	0xbd5c7d4c	-0.05383043
176	0x3cabc008	0.020965591
177	0xbc9f16dc	-0.01942008
178	0x3c892a7c	0.016743891
179	0x3d689ba2	0.056789048
180	0x3d337cde	0.043820255
181	0xbd243cd0	-0.040097058
182	0x3d85c12f	0.065309875
183	0xbd119350	-0.03554088
184	0x3d46e7ea	0.048561014
185	0x3bc0dd50	0.0058857575
186	0x3d2de83e	0.04245781
187	0xbc932d70	-0.017966002
188	0x3c937684	0.018000849
189	0x3da09d9d	0.07842562
190	0xbd9c72d0	-0.07639086
191	0xbd12bfcf	-0.035827454
192	0xbdacea60	-0.08443141
193	0xbd5ba3df	-0.053623077
194	0xbd88ea8e	-0.06685363
195	0x3c941378	0.01807569
196	0xbd96674e	-0.073439226
197	0xbc408b50	-0.011751965
198	0x3ce17c2c	0.02752503
199	0xbc99c194	-0.018769063
200	0x3ce7e1d4	0.028305925
201	0xbd11111d	-0.03541671
202	0x3c011a68	0.007879831
203	0x3cc2abd4	0.023763575
204	0x3d20a026	0.03921523
205	0x3d3c2906	0.04593756
206	0xbdb2777c	-0.08714196
207	0x3da5e3cf	0.08100092
208	0xbc929a84	-0.017895944
209	0x3d669bee	0.05630105
210	0x3a87bd40	0.0010356084
211	0x3ceae480	0.02867341
212	0x3d495946	0.049157403
213	0x3d65203e	0.05593895
214	0x3d79effe	0.06101989
215	0xbd84ff9b	-0.064940654
216	0x3c58f8c0	0.0132429
217	0x3d5f69d2	0.054544277
218	0xbd9cc24e	-0.07654248
219	0xbdb21322	-0.086950555
220	0xbcd87e9c	-0.02642756
221	0x3d26242e	0.040561847
222	0x3bf93e20	0.007606283
223	0x3daa589b	0.083176814
224	0xbd00c050	-0.031433403
225	0xbd02023c	-0.031740412
226	0xbd8135c6	-0.063090846
227	0x3dae86ed	0.08521829
228	0xbd4739a5	-0.04863896
229	0xbd71c5d7	-0.059026565
230	0x3c5bd118	0.013416551
231	0xbb248120	-0.0025101379
232	0xbd774c57	-0.060375538
233	0xbcfb24e8	-0.030657247
234	0xbd82f97f	-0.06395244
235	0x3d0cb31c	0.0343505
236	0x3d06c760	0.032904983
237	0x3ca2b670	0.019862384
238	0x3cc55ae4	0.024091192
239	0xbd2a18ac	-0.041527435
240	0xbc5f9f80	-0.013648868
241	0xbd83af74	-0.064299494
242	0x3d73da92	0.059534617
243	0xbd9ccded	-0.07656465
244	0xbc5bc270	-0.013413057
245	0x3d924c71	0.07143486
246	0x3daba749	0.083815165
247	0xbda10e3b	-0.07864042
248	0x3d38573a	0.04500506
249	0xbd2b0bbb	-0.041759234
250	0x3c80a930	0.015705675
251	0xbd7de1da	-0.061982967
252	0xbd1c899e	-0.03821718
253	0xbcd94a58	-0.026524708
254	0xbc57d048	-0.013172217
255	0xbd8acb24	-0.06777027

fc2.bias f4 [128]
0	0x3d7ad0a4	0.06123413
1	0x3c93a4f4	0.018022992
2	0xbd239b98	-0.039943308
3	0x3b8a2760	0.0042161196
4	0x3c5e2ad0	0.013560012
5	0x3c4e91a8	0.012607969
6	0x3c685c50	0.014182165
7	0xbd7103ec	-0.05884163
8	0x3c683da0	0.014174849
9	0x3d547a76	0.0518746
10	0x3d1be0de	0.038056247
11	0x3d247658	0.040151924
12	0xbd1f41a0	-0.038880944
13	0xbce2dab4	-0.027692176
14	0xbd13b20c	-0.03605847
15	0xbafe9580	-0.0019423217
16	0xbd663be0	-0.056209445
17	0x3c614738	0.01374989
18	0xbd1edd06	-0.038785003
19	0xbc998748	-0.018741265
20	0xbd0853b8	-0.033282965
21	0xbb88a120	-0.004169598
22	0x3c728e60	0.014804453
23	0x3c82436c	0.01590129
24	0x3d562ec6	0.0522907
25	0xbabcfc00	-0.0014418364
26	0xbd736cf2	-0.05943007
27	0x3cc2d224	0.023781843
28	0x3c7d1750	0.015447453
29	0xbd20398e	-0.03911739
30	0x3c7ef628	0.015561618
31	0x3ca8e418	0.020616576
32	0xbd653bba	-0.055965163
33	0xbd095b20	-0.03353417
34	0xbd73aae0	-0.05948913
35	0xbc97b6e4	-0.018519826
36	0x3d338ebc	0.043837294
37	0x3c9a39b4	0.018826343
38	0x3c27ca00	0.010241032
39	0xbd5ec392	-0.05438573
40	0x3cc6d71c	0.024272494
41	0x3d6c8606	0.057745002
42	0x3c50c178	0.012741439
43	0x3d18a706	0.03726866
44	0x3d0ab130	0.033860385
45	0xbc9a87fc	-0.01886367
46	0xbd3296f6	-0.043601
47	0x3d380548	0.04492691
48	0xbcfd15a8	-0.030894116
49	0xbd240e4e	-0.040052705
50	0xbd466af6	-0.04844185
51	0xbca3332c	-0.019921862
52	0xbcfab1c8	-0.03060235
53	0x3ca511fc	0.020150177
54	0xbcb35cc4	-0.02189482
55	0x3d7e914a	0.062150277
56	0xb79ce000	-1.8700957e-05
57	0x3d34aa84	0.04410793
58	0xbc382118	-0.011238359
59	0x3d4dc666	0.050238036
60	0xbc097a30	-0.008390948
61	0xbce1daf8	-0.027570233
62	0xbd1d4772	-0.038398214
63	0x3cf53dfc	0.029936783
64	0x3cebb91c	0.02877479
65	0x3d663f20	0.056212544
66	0xbd12b7d8	-0.03581986
67	0xbcd34064	-0.02578754
68	0xbd33735c	-0.043811187
69	0x3d33a55a	0.043858863
70	0x3cb995a4	0.022654362
71	0xbd639014	-0.055557325
72	0x3cd4b968	0.025967315
73	0xbc6894d0	-0.014195636
74	0x3c5b28d0	0.01337643
75	0x3cb2b338	0.021813974
76	0xbd621d4c	-0.05520372
77	0x3d4c99f8	0.049951524
78	0xbd07ac38	-0.033123225
79	0xbd66f1fe	-0.056383125
80	0xbbcadb40	-0.0061906874
81	0xbca17bd8	-0.019712374
82	0xbb8c96f0	-0.004290454
83	0xbd25afe6	-0.040450953
84	0x3bceb8f0	0.0063086674
85	0x3b0d9620	0.0021604374
86	0xbca744c8	-0.02041854
87	0xbd4a29ba	-0.0493562
88	0x3d438104	0.04773046
89	0xbd34fc58	-0.044185966
90	0x3d110e1a	0.03541384
91	0x3d70d5ce	0.05879765
92	0x3bb6a880	0.005574286
93	0xbbf63f10	-0.007514842
94	0x3c4bf0a0	0.012447506
95	0x3c3d7ff8	0.011566155
96	0x3d6e7128	0.058213383
97	0x3b88b920	0.0041724592
98	0x3cc5081c	0.024051718
99	0x3caaaf78	0.020835623
100	0x3d1a04b6	0.03760215
101	0x3d05e9f0	0.032693803
102	0xbd10f66a	-0.03539125
103	0x3d1d5404	0.0384102
104	0xbd365300	-0.04451275
105	0xbd0c35a2	-0.034230836
106	0xbc582200	-0.0131917
107	0x3ad3d740	0.0016162172
108	0x3a5c9500	0.0008414537
109	0x3d65cfec	0.056106493
110	0xbd08201c	-0.033233747
111	0xbd5c2c3a	-0.053753115
112	0xbc52cab0	-0.012865707
113	0x3d4abc38	0.049495906
114	0x3c4e5fd0	0.012596086
115	0x3ca08148	0.019592896
116	0xbc66ead8	-0.014094077
117	0xbcc05fdc	-0.02348321
118	0x3cd5c624	0.026095457
119	0xbc31cb00	-0.010851622
120	0x3cfe43b4	0.031038143
121	0x3d639f3e	0.055571787
122	0x3d05706e	0.032577924
123	0xbc8f2c20	-0.017477095
124	0x3b97bc60	0.0046306103
125	0x3d1ef09e	0.03880369
126	0x3d3847aa	0.04499022
127	0xbcbe9c6c	-0.023267947

fc3.weight f4 [2, 128]
0	0x3a215468	0.000615424
1	0xbac4ed96	-0.0015024419
2	0xbac7fc0b	-0.001525761
3	0xbad94c11	-0.0016578456
4	0xbb273f37	-0.0025519857
5	0xbaa7650b	-0.0012771202
6	0x3b05ecf0	0.0020435415
7	0xbaf81931	-0.0018928406
8	0x38159280	3.5660807e-05
9	0x3b19db10	0.0023476519
10	0x38f399a0	0.00011615758
11	0x3b38a7a2	0.0028176089
12	0xbb37b7fc	-0.0028033247
13	0xb8543900	-5.0597824e-05
14	0x3a7a2118	0.00095416745
15	0x3b346ece	0.0027531865
16	0xb9a03288	-0.00030555227
17	0xbb18ce58	-0.002331635
18	0xb9b1e0d8	-0.00033927592
19	0xb91f5ef0	-0.00015198789
20	0xbaeb7ae7	-0.0017965705
21	0x3923e0e0	0.00015628664
22	0xba9a350c	-0.0011765077
23	0xbb227e72	-0.0024794606
24	0xbab7c8bd	-0.0014021617
25	0xba2a5480	-0.0006497577
26	0xbadc0b09	-0.0016787957
27	0x3acd4218	0.0015659956
28	0xbae0d5fd	-0.0017153617
29	0x3a7c7d08	0.0009631668
30	0xbb168aba	-0.002297087
31	0x394ce8b0	0.00019541639
32	0xbb3a0c02	-0.0028388505
33	0x3a810998	0.0009844778
34	0xbaad21a7	-0.0013208882
35	0xbaa0d599	-0.0012270688
36	0xb8ae01e0	-8.297316e-05
37	0xbb14d051	-0.0022707174
38	0x3ab9b05c	0.0014166939
39	0x3a1e00d0	0.0006027343
40	0x3923c8f0	0.00015619746
41	0x3a6a34d8	0.0008934266
42	0x3a21aba4	0.0006167239
43	0xba9aeb6d	-0.001181943
44	0xbaaaba79	-0.0013025544
45	0xbaa7967f	-0.001278594
46	0x3a2184e0	0.00061614625
47	0xbb089df1	-0.0020846094
48	0xb8012f40	-3.08e-05
49	0x3b008d32	0.001961541
50	0xb89b2200	-7.397309e-05
51	0x3b22f414	0.002486472
52	0x3ade7d0c	0.0016974523
53	0xbb336c3c	-0.0027377745
54	0xbb200ae0	-0.0024420545
55	0x3b39b5c2	0.0028337096
56	0x3ab40e80	0.0013737231
57	0xbb3af2f1	-0.0028526152
58	0x3a067598	0.0005129217
59	0x3aac961c	0.0013167295
60	0x3a988afc	0.00116381
61	0x3a626500	0.0008636266
62	0x3a302adc	0.0006720254
63	0xbb005c5e	-0.0019586305
64	0x3aaa54c4	0.0012995233
65	0x3a2275a4	0.00061973394
66	0xbb284f5a	-0.0025682063
67	0xbada73a3	-0.0016666543
68	0x3b04ded4	0.0020274417
69	0xb8d5c720	-0.000101937214
70	0x3b3b21fa	0.0028554187
71	0x3ad16e74	0.0015978352
72	0xbad3c8ac	-0.0016157827
73	0x3961e1e0	0.00021541817
74	0xbb306354	-0.0026914673
75	0xbae37ef4	-0.001735656
76	0xbb3cb64d	-0.0028795183
77	0xbb1db9fa	-0.002406715
78	0xb8c69220	-9.4685936e-05
79	0xbb03cb4e	-0.0020110193
80	0xbb31a604	-0.002710701
81	0xbb173d8a	-0.0023077452
82	0xbb2647cc	-0.0025372384
83	0x3a7aacb0	0.00095624756
84	0xba99d519	-0.0011736482
85	0x3a54ffd0	0.0008125277
86	0xba805a48	-0.0009792531
87	0xba9b4ef7	-0.0011849095
88	0xb95cc300	-0.00021053478
89	0xba08d2c0	-0.00052193925
90	0x3ae6ca7c	0.0017607952
91	0xbad7c992	-0.0016463271
92	0x3aa7f1a4	0.0012813103
93	0xbb0bf40f	-0.0021355187
94	0xba5df6f4	-0.000846728
95	0xbab04319	-0.0013447731
96	0x39cdc2b8	0.00039245724
97	0x3aba5ebc	0.0014218907
98	0x3aa5cc60	0.001264941
99	0xb9e3d2c0	-0.00043453835
100	0x3af89140	0.0018964186
101	0xba06f90c	-0.0005148805
102	0xbadfa54f	-0.0017062816
103	0x3b0da2ca	0.0021611922
104	0x3ac46ab8	0.0014985418
105	0x39d7f040	0.00041186996
106	0x3a019f98	0.0004944741
107	0x3b08cca8	0.0020873938
108	0xb97d16e0	-0.00024136482
109	0x3a643a14	0.0008706164
110	0x39236dc0	0.00015585776
111	0xbb289950	-0.0025726147
112	0xbb0c442a	-0.0021402934
113	0xbb425ac9	-0.0029656163
114	0xb9ca56b0	-0.0003859303
115	0xbb200ad0	-0.0024420507
116	0xbb2e9642	-0.0026639854
117	0xbb0ad397	-0.0021183246
118	0xbb276920	-0.0025544837
119	0x3a318df4	0.0006773167
120	0xba0ce8a0	-0.000537524
121	0x3a898aac	0.0010493598
122	0x3a915bf4	0.0011090026
123	0x38823480	6.208662e-05
124	0xbab1e53d	-0.0013572347
125	0xbace9ba8	-0.0015762942
126	0x3b2c6a86	0.002630861
127	0xbb3e81f3	-0.0029069155
128	0xbaa4ccc3	-0.0012573231
129	0x3b23aecc	0.0024976013
130	0x3a15ae1c	0.0005709843
131	0x3b28a260	0.0025731549
132	0xbb332275	-0.002733377
133	0xbab52b7f	-0.0013822167
134	0x3a609f28	0.0008568638
135	0xbb40430e	-0.0029336843
136	0x3b43da6c	0.0029884828
137	0x39a234e8	0.00030938466
138	0x386e4740	5.680998e-05
139	0xba5ca084	-0.00084162527
140	0x3ae2ada8	0.0017294185
141	0x396c82f0	0.00022555492
142	0xbb15c7e5	-0.0022854742
143	0x3abaab80	0.0014241785
144	0x3b359302	0.0027706032
145	0x3b2c1c10	0.0026261844
146	0x3aaba864	0.0013096449
147	0xbb2eb76d	-0.0026659623
148	0x3ac57f90	0.0015067924
149	0x3a6b3608	0.000897259
150	0xbb3ddf3e	-0.0028972174
151	0xba8b7511	-0.0010639747
152	0xbb389faa	-0.002817134
153	0xbab026f2	-0.0013439341
154	0xba8433ea	-0.0010086272
155	0xbb016b82	-0.0019747918
156	0x3a8eaff8	0.0010886183
157	0xba85598e	-0.0010173784
158	0xbb21f93c	-0.0024715206
159	0xbb1e864f	-0.002418894
160	0xba8e8bb3	-0.0010875374
161	0x3a7dad60	0.0009677019
162	0xba0655e4	-0.0005124493
163	0x39536640	0.00020160619
164	0x3ac3e9ac	0.0014946959
165	0x3b2c92c2	0.0026332592
166	0xbade0a89	-0.0016940396
167	0x3b4323b8	0.0029775929
168	0x3b3460a4	0.0027523423
169	0x3b05f9d0	0.002044309
170	0x3afbdd14	0.0019215667
171	0x3abc6d24	0.0014375788
172	0xbb3339ca	-0.0027347677
173	0x3aff4a18	0.0019477038
174	0x379b6980	1.8526567e-05
175	0x3a3ec844	0.00072777667
176	0xbacfdbdd	-0.0015858371
177	0xbb1e33fa	-0.0024139867
178	0xbb12fda6	-0.0022429018
179	0xba3f0604	-0.0007286968
180	0x3b22a4a8	0.002481738
181	0xbacf5c79	-0.0015820406
182	0xba059964	-0.00050964043
183	0x3985abb0	0.00025495654
184	0xbb02b3ba	-0.001994355
185	0xbaf8f960	-0.0018995218
186	0x3a547114	0.0008104008
187	0x3b16743c	0.0022957465
188	0xbb3d51ab	-0.002888779
189	0xba3bcff8	-0.00071644736
190	0xba41c364	-0.0007391481
191	0xb9f69448	-0.00047031255
192	0x3b2a80de	0.0026016752
193	0x39b09dc0	0.0003368687
194	0xba97377f	-0.0011536925
195	0xb98f8b10	-0.00027378695
196	0xb9a57420	-0.00031557772
197	0xbb3c411f	-0.0028725339
198	0xb9a0e8c8	-0.00030691014
199	0x3a212d8c	0.00061484496
200	0x399fe778	0.000304993
201	0x3a02b0cc	0.0004985451
202	0xbb167d35	-0.0022962813
203	0xba16df84	-0.00057553523
204	0x38e636a0	0.00010977429
205	0xbabe8eeb	-0.0014538442
206	0xba9b419c	-0.0011845115
207	0x3ab5ddf4	0.0013875351
208	0x3b05c1a0	0.00204096
209	0xbb02ca9a	-0.0019957186
210	0xb99da308	-0.0003006684
211	0xbabd337b	-0.0014434898
212	0xbb439d10	-0.0029848255
213	0xbb0ef33b	-0.0021812457
214	0x3abf7a3c	0.0014608572
215	0xbad58f17	-0.0016293254
216	0x3ad0a370	0.0015917849
217	0xbac9e923	-0.0015404563
218	0xbad1d439	-0.0016008682
219	0x378d3600	1.6833656e-05
220	0x3ade4e90	0.0016960669
221	0x3b151f86	0.0022754385
222	0x3b2c4d6a	0.002629126
223	0xba51e8fc	-0.00080074347
224	0x3ad5c06c	0.0016307957
225	0xbb406e82	-0.0029362743
226	0xb8b0e240	-8.434476e-05
227	0x397500c0	0.000233653
228	0x396f8db0	0.00022845599
229	0x3a6655f4	0.0008786612
230	0x3ad6f970	0.0016401242
231	0x3b07f2dc	0.002074412
232	0xb8bb82e0	-8.941232e-05
233	0xbada5cd6	-0.0016659747
234	0xbae44ef3	-0.0017418548
235	0xb9ff52c0	-0.00048699044
236	0x3aea8340	0.0017891899
237	0x3a9577cc	0.00114035
238	0xbb1806b6	-0.002319736
239	0x3acff778	0.0015866598
240	0x3ac35508	0.0014902661
241	0xbb297d7b	-0.0025862146
242	0x39bdf130	0.00036228588
243	0xbb0214f8	-0.0019848924
244	0xbb24ea2c	-0.0025163991
245	0x3a073f38	0.00051592616
246	0xba935f57	-0.0011243623
247	0x3b259b36	0.0025269515
248	0xbac56348	-0.0015059495
249	0x3a384558	0.0007029376
250	0xba2f7340	-0.0006692894
251	0xbafd1329	-0.0019308078
252	0xba62e51c	-0.0008655356
253	0x3a7b4980	0.00095858425
254	0x3a80a6cc	0.0009815334
255	0xba03db04	-0.0005029889

fc3.bias f4 [2]
0	0x3be36870	0.00693994
1	0x3ca1f854	0.019771732
