checkpoint_actor1.pth (torch_old, 159260 bytes, 6 tensors)

fc1.weight f4 [256, 24]
0.061269082 -0.16994663 0.032575157 5.8319863e-05 -0.119997285 0.018067585 0.03711971 0.077068515
0.044818852 -0.045688912 -0.032884102 0.10812116 0.07594479 -0.07549687 0.029171614 0.1613191
-0.023975644 -0.10474381 -0.029588742 0.24256095 0.15356886 -0.084257424 0.035814863 0.19739382
-0.026311733 0.023154095 -0.07333125 0.05755655 0.05083339 -0.15888657 -0.06481411 -0.035198368
-0.013845525 -0.04404943 0.06834333 0.024927776 0.030047514 -0.11451979 0.02092301 0.034988914
-0.014272705 -0.1500528 -0.021163799 0.12988119 0.124532044 0.09418544 0.02405035 0.09156489
-0.03474042 0.036758948 0.04431127 -0.07729018 0.10875044 -0.017246893 -0.03845305 -0.13124943
0.024347933 -0.0366406 -0.036071632 -0.18452676 0.05428799 -0.025941648 -0.016887384 -0.16469064
0.036730193 -0.08551613 -0.12154201 -0.091889724 -0.03916337 -0.052445948 -0.07516162 -0.016766554
-0.031159183 -0.06482651 -0.017286967 -0.18668172 0.040763475 0.08988876 0.0065320143 -0.19364218
-0.083745874 -0.13094327 -0.04848685 -0.061314482 0.1566027 0.09619578 -0.010038921 0.010531664
-0.035317514 -0.117981926 -0.075463854 0.040000863 0.20255059 0.10753917 0.021018373 0.06955845
-0.11965139 0.02465369 0.08149604 -0.104204014 0.027785886 -0.086535655 -0.02424778 -0.17643769
-0.11042039 0.06765964 0.035745997 -0.15034065 0.06659085 -0.042128097 0.057729244 -0.08303035
0.0011630845 0.08307483 0.045480683 -0.07910099 -0.01376088 -0.15054375 0.08412471 -0.010847768
-0.084167756 0.057441883 0.003641746 0.0074199713 -0.08701337 0.06405063 0.081855394 0.02564858
-0.11129344 0.09911574 -0.00783199 0.015960708 -0.12232515 0.019526083 0.059763554 0.04193529
-0.10262714 -0.05867748 0.040489707 0.034207255 -0.0012813755 0.044760685 0.048731033 0.008010292
-0.055396937 0.15381517 0.0031539372 -7.4096795e-05 0.08990851 -0.07355404 0.030600838 0.089464776
0.021875504 0.0915977 0.008310764 -0.10831554 0.037360575 0.03842824 -0.012933313 -0.10007937
-0.05331152 0.056581397 0.02348632 -0.045079693 0.13090348 0.094832495 0.02143298 -0.014314232
-0.036980473 -0.12280291 -0.079392865 0.027059449 0.08979541 0.0755892 -0.051482346 -0.018753573
-0.03650634 -0.060541917 -0.065376475 0.013217085 0.028165823 0.14460678 -0.051964555 0.020724557
0.0055274023 -0.111639984 0.05046433 -0.01947076 0.07291706 0.13321388 0.12701203 -0.038958937
-0.03378517 0.037425403 0.055269063 0.05490574 -0.16505496 0.07329094 0.057722792 0.02954188
0.047183387 0.057641435 0.061970346 0.003951867 -0.053379416 0.1361143 0.082184196 0.02869413
0.09257175 0.03941141 0.012319957 -0.012437212 0.01645402 0.12005866 -0.06536287 -0.07870892
-0.019867778 0.030219808 -0.01182666 -0.021922065 -0.12624404 0.05041406 -0.020001546 -0.0043325718
-0.12141224 -0.0075789355 0.037980113 -0.012025861 -0.09771879 0.015010826 -0.007288329 -0.08232383
-0.047126733 -0.03053072 -0.04809719 0.0019475928 -0.034786273 -0.20022239 0.04885618 -0.024174081
0.016207274 0.14391328 -0.02273407 -0.07172338 0.14049898 0.049869634 -0.0651122 -0.015953336
0.042217426 0.14364478 -0.039152034 0.104670934 0.21411058 0.006807761 -0.08051662 0.12615468
00000000: 4af5 7a3d 7d06 2ebe 876d 053d 7a9c 7438
00000010: 23c1 f5bd 7902 943c d60a 183d 19d6 9d3d
00000020: f993 373d 4c24 3bbd 7bb1 06bd a06e dd3d
00000030: f188 9b3d 1a9e 9abd 4ff9 ee3c d630 253e
00000040: 9268 c4bc ec83 d6bd 1764 f2bc e661 783e
00000050: 2841 1d3e 288f acbd 9bb2 123d 9b21 4a3e
00000060: b48b d7bc a8ad bd3c b22e 96bd 6bc0 6b3d
00000070: ac36 503d 29b3 22be 43bd 84bd 2a2c 10bd
00000080: 57d8 62bc 2d6d 34bd 96f7 8b3d 5635 cc3c
00000090: 3426 f63c 5a89 eabd bb66 ab3c 8950 0f3d
000000a0: 10d8 69bc 71a7 19be b45f adbc 93ff 043e
000000b0: a80a ff3d 4ce4 c03d 3d05 c53c 6086 bb3d
000000c0: f84b 0ebd 8d90 163d bc7f 353d 504a 9ebd
000000d0: 8db8 de3d 5b49 8dbc f280 1dbd 4066 06be
000000e0: 5175 c73c 7414 16bd d9bf 13bd 95f4 3cbe
000000f0: 155d 5e3d 9483 d4bc 6957 8abc aaa4 28be
00000100: 6672 163d 1523 afbd 04eb f8bd ae30 bcbd
00000110: c569 20bd 90d1 56bd 56ee 99bd 035a 89bc
00000120: 8b41 ffbc c3c3 84bd 669d 8dbc 7e29 3fbe
00000130: 9af7 263d 9917 b83d 820a d63b 234a 46be
00000140: f582 abbd fe15 06be 269a 46bd e524 7bbd
00000150: 755c 203e 4b02 c53d 497a 24bc 008d 2c3c
00000160: 19a9 10bd 82a0 f1bd cb8c 9abd f2d7 233d
00000170: 6c69 4f3e 7f3d dc3d b92e ac3c a974 8e3d
00000180: ca0b f5bd 89f6 c93c 65e7 a63d ea68 d5bd
00000190: 3a9f e33c 9b39 b1bd 48a3 c6bc 15ac 34be
000001a0: 1624 e2bd 2391 8a3d 656a 123d e6f2 19be
000001b0: c960 883d 838e 2cbd 8075 6c3d d10b aabd
000001c0: a472 983a 2323 aa3d f449 3a3d b3ff a1bd
000001d0: 5075 61bc 2428 1abe 9349 ac3d d6ba 31bc
000001e0: 2560 acbd 2e48 6b3d 5caa 6e3b 3b23 f33b
000001f0: 1134 b2bd fa2c 833d cda3 a73d f91c d23c
00000200: d1ed e3bd 31fd ca3d bf51 00bc 08c0 823c
00000210: 9c85 fabd 2af5 9f3c a1ca 743d 57c4 2b3d
00000220: 2e2e d2bd cc57 70bd 89d8 253d e81c 0c3d
00000230: d4f3 a7ba fb56 373d 319a 473d 9a3d 033c
00000240: e6e7 62bd b981 1d3e 49b2 4e3b 6a64 9bb8
00000250: f421 b83d 80a3 96bd 9cae fa3c 4f39 b73d
00000260: 4234 b33c 9397 bb3d df29 083c 8ad4 ddbd
00000270: 6707 193d ee66 1d3d 3fe6 53bc 6af6 ccbd
00000280: 2e5d 5abd e5c1 673d 6266 c03c 7ca5 38bd
00000290: 900b 063e 8a37 c23d 3894 af3c 3e86 6abc
000002a0: d678 17bd 1880 fbbd ba98 a2bd c7ab dd3c
000002b0: a8e6 b73d 83ce 9a3d 27df 52bd 18a1 99bc
000002c0: ac87 15bd cdfa 77bd 1ae4 85bd 798c 583c
000002d0: 03bc e63c cd13 143e c9d8 54bd 8cc6 a93c
000002e0: 361f b53b 81a3 e4bd afb3 4e3d 2581 9fbc
000002f0: 8a55 953d 3869 083e 710f 023e 6893 1fbd
00000300: 5262 0abd 614b 193d d061 623d d7e4 603d
00000310: 2b04 29be 8f19 963d bc6e 6c3d d001 f23c
00000320: 5e43 413d 6d19 6c3d 9ed4 7d3d aa7e 813b
00000330: 60a4 5abd 8c61 0b3e 3050 a83d f40f eb3c
00000340: 4296 bd3d dc6d 213d a5d9 493c 73c5 4bbc
00000350: 95ca 863c 51e1 f53d f8dc 85bd 2432 a1bd
00000360: c0c1 a2bc 888f f73c 9bc4 41bc e795 b3bc
00000370: 1e46 01be f97e 4e3d 48da a3bc 3ff8 8dbb
00000380: fba6 f8bd b858 f8bb 0991 1b3d 1e08 45bc
00000390: ca20 c8bd f8ef 753c efd2 eebb 6599 a8bd
000003a0: f607 41bd 8f1b fabc 8f01 45bd 5f46 ff3a
000003b0: 0d7c 0ebd 1907 4dbe 6b1d 483d b908 c6bc
000003c0: 1ec5 843c 015e 133e cd3c babc b5e3 92bd
000003d0: f7de 0f3e 1a44 4c3d 8c59 85bd 92b0 82bc
000003e0: 2eec 2c3d 9e17 133e e25d 20bd b75d d63d
000003f0: ce3f 5b3e a313 df3b e6e5 a4bd b12e 013e

fc1.bias f4 [256]
-0.117359415 0.1503579 0.11752023 0.20147158 0.0024693753 -0.062060952 -0.19365476 0.02643609
-0.19508426 -0.12547766 0.12715806 0.038245622 0.07343656 -0.14374842 0.005831769 0.24210931
0.050208587 0.08681351 -0.13856043 -0.13425717 0.10452748 -0.1656135 0.023599813 -0.1285202
0.046944346 -0.18759522 0.1160862 -0.046363935 -0.11952981 -0.12066778 -0.07802586 -0.065225296
-0.035439517 0.031395547 -0.116946764 0.08394096 -0.21079043 0.20107552 -0.018904459 0.1300824
-0.09601374 -0.08835709 0.04678377 -0.15407157 -0.102630794 -0.03225332 0.00973154 -0.15562128
0.13567469 0.1312663 -0.11768804 0.18354963 -0.15497813 -0.14779463 0.12807387 -0.023914259
0.11665759 -0.060301505 -0.11190544 0.25642917 0.040829804 0.10197391 -0.024101213 -0.11057793
0.078520134 0.07595476 -0.1196231 0.111281306 -0.21853074 -0.11872181 0.015751434 -0.23828502
-0.114212625 -0.035191868 0.017105162 0.16379772 0.104507945 0.20923576 0.05990929 0.040319506
-0.005861608 -0.040753964 -0.24328893 -0.26157457 0.20308957 -0.1317315 -0.074433215 0.08495676
-0.09050966 0.12024445 -0.028703831 0.026552398 -0.06525446 0.177873 -0.16347161 -0.112676285
0.18793637 -0.15967366 0.24319027 0.17773303 0.11698125 0.07052635 0.063259475 0.014280731
-0.053623892 0.26952425 0.15546462 -0.052601174 0.079451695 0.018623399 -0.03642079 -0.13932852
-0.080767006 -0.19213519 -0.06132048 0.023730334 0.22613513 -0.09715789 -0.12094067 0.1886762
0.016102256 0.052489135 0.1252362 0.23400465 0.096105315 0.15169804 0.0027416267 0.020326903
0.07552989 -0.15714204 -0.18536045 0.13282026 -0.09974613 0.14788704 0.10573787 0.14182177
0.1073565 0.058059964 0.090679966 0.15677291 -0.008675727 -0.12507737 0.12137853 0.02632202
0.19925997 -0.14157774 -0.07546241 -0.14599884 -0.026274277 0.15649737 0.12153606 0.18490684
0.18092228 -0.05447226 0.23242417 0.006120551 0.2323737 0.03649644 0.0019728243 0.106944755
-0.08904167 -0.019213324 0.0077287327 -0.046557583 -0.021717751 0.12297357 -0.00094023667 0.112709545
0.11246676 0.19213647 0.029129278 -0.22256285 -0.16410896 -0.21291836 -0.25638443 -0.1378967
0.013886362 0.18741831 -0.110372745 0.15109311 -0.011728513 0.11098423 0.17214037 0.1306236
0.17782691 -0.1058084 -0.16147542 -0.11823036 0.11884982 0.20769721 0.1880334 0.050321974
-0.099081255 -0.08400994 0.19125873 -0.21031688 -0.13544866 0.13397975 0.18512656 0.07167747
0.011587763 0.0056364844 0.024860376 -0.0816963 0.23542365 0.19002818 -0.034209143 0.14307913
-0.06909345 -0.122913904 0.06235072 -0.09967766 0.19826265 -0.0213518 -0.019391656 -0.17953828
0.098990664 0.113201536 0.012479808 0.06680428 -0.06344806 0.028411351 0.2169396 -0.031215608
-0.032201633 -0.223286 0.11276738 -0.0060637384 -0.011671176 -0.08006593 0.18342635 0.22546591
-0.05911312 0.02452317 0.044559903 0.16204798 -0.08890015 0.10141168 0.0485205 0.18374428
-0.09205743 -0.08513345 0.17546749 -0.05756952 -0.041186795 0.14352512 0.02062165 -0.10647409
-0.06380723 -0.18847343 -0.03499245 -0.1680218 0.12434568 0.19171317 -0.14758886 0.14789276
00000000: 225a f0bd 6cf7 193e 72ae f03d 914e 4e3e
00000010: 3ed5 213b a033 7ebd 6f4d 46be 8090 d83c
00000020: 2bc4 47be 377d 00be b935 023e 71a7 1c3d
00000030: e865 963d c932 13be 6d18 bf3b 81eb 773e
00000040: 85a7 4d3d 48cb b13d c9e2 0dbe b67a 09be
00000050: 8112 d63d 9696 29be 6554 c13c cd9a 03be
00000060: b748 403d f618 40be 9abe ed3d 1ce8 3dbd
00000070: 0ccc f4bd ab20 f7bd 06cc 9fbd d794 85bd
00000080: 0729 11bd 9e98 003d c981 efbd 3de9 ab3d
00000090: 72d9 57be bee6 4d3e 86dd 9abc 5234 053e
000000a0: daa2 c4bd 90f4 b4bd 57a0 3f3d f0c4 1dbe
000000b0: 1830 d2bd 0f1c 04bd 0a71 1f3c 2f5b 1fbe
000000c0: 4eee 0a3e ac6a 063e 6d06 f1bd 6ff4 3b3e
000000d0: 96b2 1ebe 7a57 17be cc25 033e d6e7 c3bc
000000e0: 2dea ee3d b6fe 76bd ae2e e5bd af4a 833e
000000f0: 273d 273d b3d7 d03d e86f c5bc af76 e2bd
00000100: 2acf a03d 2b8e 9b3d f5fc f4bd 74e7 e33d
00000110: 86c6 5fbe 6c24 f3bd 2709 813c fd00 74be
00000120: 4fe8 e9bd 5925 10bd 2020 8c3c 97ba 273e
00000130: 4308 d63d e641 563e 7263 753d 1126 253d
00000140: bb12 c0bb a1ed 26bd bc20 79be 1aed 85be
00000150: b6f6 4f3e 9fe4 06be 7170 98bd cffd ad3d
00000160: 215d b9bd b942 f63d 4c24 ebbc 6a84 d93c
00000170: 21a4 85bd 5724 363e 1a65 27be d3c2 e6bd
00000180: 6472 403e 7e81 23be df06 793e a6ff 353e
00000190: de93 ef3d 1e70 903d 2f8e 813d baf9 693c
000001a0: baa4 5bbd 15ff 893e 1e32 1f3e 5474 57bd
000001b0: 92b7 a23d 1990 983c f72d 15bd 23ac 0ebe
000001c0: 2c69 a5bd 16bf 44be 2f2b 7bbd 1e66 c23c
000001d0: f88f 673e b7fa c6bd beaf f7bd 5534 413e
000001e0: e1e8 833c d9fe 563d eb3d 003e ea9e 6f3e
000001f0: ddd2 c43d bb56 1b3e ddac 333b 9b84 a63c
00000200: 6aaf 9a3d d8e9 20be 21cf 3dbe 0902 083e
00000210: b347 ccbd b36f 173e 198d d83d ba39 113e
00000220: badd db3d 49d0 6d3d 6bb6 b93d 1489 203e
00000230: a324 0ebc 4814 00be 4f95 f83d 47a1 d73c
00000240: ce0a 4c3e c1f9 10be 098c 9abd b880 15be
00000250: 273d d7bc d940 203e e6e7 f83d 3858 3d3e
00000260: b143 393e 4e1e 5fbd 9a00 6e3e e78e c83b
00000270: 5ff3 6d3e 4b7d 153d 804a 013b da05 db3d
00000280: 7b5b b6bd 4365 9dbc 4f41 fd3b 2ab3 3ebd
00000290: 6de9 b1bc 91d9 fb3d 377a 76ba 43d4 e63d
000002a0: f954 e63d 6cbf 443e 86a0 ee3c 84e7 63be
000002b0: 2e0c 28be 4507 5abe d244 83be cb34 0dbe
000002c0: a083 633c 96ea 3f3e 1b0b e2bd 27b8 1a3e
000002d0: f328 40bc b34b e33d 9145 303e 31c2 053e
000002e0: 4218 363e 13b2 d8bd d059 25be c222 f2bd
000002f0: 8967 f33d 94ae 543e d48b 403e 6a1e 4e3d
00000300: 1deb cabd 670d acbd 54d9 433e 4f5d 57be
00000310: 0eb3 0abe fd31 093e d191 3d3e a3cb 923d
00000320: 9ada 3d3c 42b2 b83b fda7 cb3c 6450 a7bd
00000330: e612 713e bf96 423e e31e 0cbd 5683 123e
00000340: de80 8dbd 49ba fbbd 7863 7f3d cd23 ccbd
00000350: 5d05 4b3e f8e9 aebc 40db 9ebc e2d8 37be
00000360: 9ebb ca3d 35d6 e73d 1c78 4c3c afd0 883d
00000370: 0ef1 81bd ecbe e83c 6a25 5e3e e0b7 ffbc
00000380: dce5 03bd 16a5 64be 96f2 e63d 53b2 c6bb
00000390: 7638 3fbc 9bf9 a3bd 1ed4 3b3e 89e0 663e
000003a0: 9920 72bd d1e4 c83c 7284 363d e8ef 253e
000003b0: 4811 b6bd edb0 cf3d 6fbd 463d 7627 3c3e
000003c0: 9b88 bcbd 725a aebd c0ad 333e 04ce 6bbd
000003d0: 7cb3 28bd 40f8 123e bcee a83c 160f dabd
000003e0: 5dad 82bd 2eff 40be 3e54 0fbd e80d 2cbe
000003f0: f3a8 fe3d 7550 443e 8921 17be 3371 173e

fc2.weight f4 [128, 256]
-0.0056097438 -0.14202392 -0.025619166 0.062541194 0.06673536 0.053931106 0.046652235 0.1534583
-0.0077037197 0.05144077 -0.101134 -0.039168745 -0.068951756 0.0036840255 -0.0596813 0.0052403416
0.05597397 -0.1268846 -0.04923651 -0.093099125 0.07224644 0.095585965 -0.009501607 0.05338203
-0.0048045064 0.03795964 -0.12961487 0.062276773 -0.14396206 -0.043809652 0.14743452 -0.04456308
0.19003558 0.11191465 0.14741777 -0.003330359 -0.0456397 -0.051294018 0.048306093 0.17868073
0.005845765 0.06518104 0.052054904 -0.007167255 0.028555825 0.12987545 0.14358875 -0.17192115
0.0009767736 0.0068512154 -0.005247398 -0.10809527 -0.13381848 0.019272314 0.035871897 -0.0051688347
-0.02916017 -0.2618859 -0.054888282 -0.051580727 -0.035389163 0.011056225 0.056087833 0.022841653
0.015332296 0.008217325 -0.044933487 -0.048150927 -0.09667465 -0.00065784017 -0.01953705 -0.11789996
-0.19696534 0.15856077 0.0044204732 -0.009505887 -0.013069408 -0.14330709 -0.040178206 0.002037931
-0.018504733 -0.1670081 0.0019562666 -0.05712544 0.2145562 -0.0971324 -0.19920217 0.061059657
-0.06501361 -0.16007583 0.14919655 -0.13241386 -0.04872964 0.073566556 -0.06905517 0.06268988
0.08809181 -0.08448689 0.051726356 0.062064193 -0.047542784 0.1847564 0.04477063 0.054668948
0.0324573 0.014011511 -0.1556472 0.10672225 -0.030250153 0.12415274 0.10139893 -0.12880312
0.048361897 0.07194906 -0.047358245 0.017143449 0.027896883 0.13677782 -0.08048669 0.07951508
0.108563185 -0.061376844 -0.06023011 -0.035502456 0.05248522 0.11570443 0.02584648 -0.00504444
-0.007019872 0.10343702 0.0025145703 0.059728514 -0.009357443 0.1436719 0.16431297 -0.08221557
-0.020789329 0.04364372 -0.03407278 0.061210994 -0.13043664 0.0064634597 0.04644499 -0.03984485
0.15621784 0.04339548 -0.0368057 0.02814975 0.061111037 0.10083145 0.37747824 -0.090975866
-0.038608678 -0.0018264739 -0.2509506 0.03587813 -0.10695839 -0.0005488908 -0.120735206 0.05175647
0.04486164 -0.050400026 0.09891688 0.015417306 0.08694016 -0.016784439 -0.07528671 -0.13727604
0.07727289 0.04999488 -0.07119145 0.00934886 -0.26300046 0.029391166 -0.085420944 -0.054669045
0.0031627729 0.033228677 0.07873616 0.08885891 0.022234524 -0.015265886 0.115086935 0.015286257
0.054981716 -0.055107567 0.051804412 -0.049850337 0.10216824 -0.17369315 -0.17006104 -0.111681186
-0.079756565 0.046053447 -0.03244653 0.023545323 -0.21857803 -0.13195829 -0.07005835 0.0044944375
-0.037553884 -0.051886115 -0.050434075 0.020838965 0.0836524 0.109953165 -0.036286235 0.11377739
0.017156059 0.0627489 -0.03726399 0.08191571 0.11682854 -0.074105754 0.09183856 -0.08111162
0.060478065 0.12078225 -0.087951556 -0.083577126 -0.15716004 0.23130505 0.11024961 0.056783456
0.10654475 -0.036528166 -0.054234643 0.22121836 -0.04941683 -0.075669795 0.05062163 -0.034336574
-0.08607421 -0.06049222 -0.054722566 0.0055753826 -0.06367586 0.03842082 0.06891558 -0.017550016
0.00010307283 -0.021960279 0.044526055 -0.080946565 -0.07325619 0.13358994 0.17973825 0.01241491
0.005190137 0.0968002 -0.00595405 -0.11467808 -0.022681521 0.04671816 0.023935528 -0.040583383
00000000: f1d1 b7bb b86e 11be 49df d1bc 9915 803d
00000010: 8cac 883d dde6 5c3d 6a16 3f3d 2c24 1d3e
00000020: 7c6f fcbb 8fb3 523d 581f cfbd 686f 20bd
00000030: 9436 8dbd b16f 713b 6174 74bd 2cb7 ab3b
00000040: f644 653d 09ee 01be 39ac 49bd c1aa bebd
00000050: f1f5 933d 93c2 c33d a1ac 1bbc 1ea7 5a3d
00000060: 1f6f 9dbb 917b 1b3d c3b9 04be ee15 7f3d
00000070: ca6a 13be c071 33bd 13f9 163e c787 36bd
00000080: b098 423e 8233 e53d aff4 163e 2742 5abb
00000090: b2f0 3abd ad19 52bd 9cdc 453d 15f8 363e
000000a0: d58d bf3b a37d 853d 8637 553d 4bdb eabb
000000b0: e8ed e93c 12fe 043e ee08 133e 190c 30be
000000c0: 1507 803a 2980 e03b 5df2 abbb 0e61 ddbd
000000d0: b607 09be f9e0 9d3c 69ee 123d 545f a9bb
000000e0: 4fe1 eebc e915 86be 89d2 60bd 5046 53bd
000000f0: 3af4 10bd 2b25 353c 5bbc 653d 6b1e bb3c
00000100: 4f34 7b3c f6a1 063c 2d0c 38bd e839 45bd
00000110: 5cfd c5bd e872 2cba 2a0c a0bc 8975 f1bd
00000120: 48b1 49be c15d 223e 9ed9 903b 94be 1bbc
00000130: 1221 56bc 18bf 12be e791 24bd cf8e 053b
00000140: 3d97 97bc 2c04 2bbe b534 003b 5efc 69bd
00000150: 9fb4 5b3e 5aed c6bd a7fb 4bbe b119 7a3d
00000160: db25 85bd ebea 23be fbc6 183e 8097 07be
00000170: bb98 47bd 10aa 963d cc6c 8dbd 8d63 803d
00000180: 7b69 b43d 7607 adbd 04df 533d 0637 7e3d
00000190: 39bc 42bd c830 3d3e 6861 373d 8cec 5f3d
000001a0: f2f1 043d 8990 653c fb61 1fbe 3291 da3d
000001b0: 2bcf f7bc cb43 fe3d 3eaa cf3d f7e4 03be
000001c0: 2017 463d 075a 933d b8fa 41bd 6b70 8c3c
000001d0: 0188 e43c 7c0f 0c3e 35d6 a4bd cdd8 a23d
000001e0: 6056 de3d 4966 7bbd d9b3 76bd 066b 11bd
000001f0: befa 563d 72f6 ec3d ffbb d33c d44b a5bb
00000200: f406 e6bb cad6 d33d 7dcb 243b e3a5 743d
00000210: f64f 19bc ba1e 133e a941 283e a360 a8bd
00000220: 624e aabc c2c3 323d e68f 0bbd 61b8 7a3d
00000230: 2f91 05be 6ecb d33b 1a3d 3e3d 5a34 23bd
00000240: 92f7 1f3e 75bf 313d 93c1 16bd 4e9a e63c
00000250: 914f 7a3d b880 ce3d d444 c13e 8e51 babd
00000260: 2224 1ebd 4b66 efba 997c 80be f2f4 123d
00000270: 000d dbbd 70e3 0fba 0544 f7bd 98fe 533d
00000280: d7c0 373d 4270 4ebd ef94 ca3d de98 7c3c
00000290: af0d b23d 857f 89bc eb2f 9abd 1792 0cbe
000002a0: 4041 9e3d 6ec7 4c3d d3cc 91bd f62b 193c
000002b0: ffa7 86be bec5 f03c 2df1 aebd a6ec 5fbd
000002c0: 8646 4f3b cb1a 083d 6d40 a13d a9fb b53d
000002d0: 2d25 b63c c41d 7abc b3b2 eb3d 3573 7a3c
000002e0: 8234 613d 79b8 61bd dd30 543d de2f 4cbd
000002f0: 953d d13d 9edc 31be 7b24 2ebe 1bb9 e4bd
00000300: 6957 a3bd 8aa2 3c3d a7e6 04bd 1fe2 c03c
00000310: ebd2 5fbe 1320 07be c17a 8fbd 1346 933b
00000320: 1ad2 19bd 8986 54bd f693 4ebd 7ab6 aa3c
00000330: f351 ab3d 202f e13d e0a0 14bd 1f04 e93d
00000340: dd8a 8c3c 7f82 803d 20a2 18bd 6cc3 a73d
00000350: cd43 ef3d c2c4 97bd db15 bc3d d91d a6bd
00000360: d9b7 773d af5c f73d f21f b4bd 7c2a abbd
00000370: 90ee 20be 3bdb 6c3e 8cca e13d c595 683d
00000380: 2234 da3d 8f9e 15bd 2525 5ebd 1187 623e
00000390: 4d69 4abd c4f8 9abd a058 4f3d 82a4 0cbd
000003a0: ad47 b0bd b1c6 77bd c524 60bd b3b1 b63b
000003b0: 7d68 82bd 265f 1d3d 9d23 8d3d 0dc5 8fbc
000003c0: ce28 d838 0be6 b3bc f460 363d 50c7 a5bd
000003d0: 5707 96bd cdcb 083e 4e0d 383e e867 4b3c
000003e0: 0612 aa3b 2f3f c63d 311a c3bb 57dc eabd
000003f0: 99ce b9bc 8b5b 3f3d 7114 c43c c33a 26bd

fc2.bias f4 [128]
0.123047315 0.0070269466 -0.028989455 0.028434131 0.06666075 0.10208877 0.0788865 -0.053126357
0.026835265 0.056091964 0.016820092 0.043936092 -0.057978358 0.08323278 0.030135166 -0.0021400303
-0.0587754 -0.024280656 -0.08286652 -0.00823322 -0.015146171 0.0055282214 0.046778355 0.023771795
0.14831065 0.013229145 -0.068841524 0.030430619 0.026065506 -0.036942933 0.08453091 0.061531335
-0.054116026 -0.027136741 -0.08303653 0.057165265 0.021702558 0.01363409 -0.022806203 -0.066025496
0.010867359 0.07142626 -0.010021092 0.090403795 0.02009686 -0.03115891 -0.027106406 0.06667587
-0.06007988 -0.029065283 -0.027553886 -0.0122291045 -0.03373509 0.040622618 -0.040067457 0.09047651
0.015138808 0.10431245 -0.02683029 0.05526997 -0.003230435 -0.03223563 -0.034893 0.031356473
0.021001317 0.06664293 0.003138979 -0.030246181 -0.023394965 0.046127256 0.007434996 -0.048139304
0.048393454 0.044135492 0.015511367 0.017360326 -0.0605193 0.13976772 -0.05153011 -0.06479113
0.02849601 -0.034709588 0.023652231 -0.041303545 0.040399507 0.010293529 -0.010750971 -0.041928012
0.03396437 -0.034798726 0.1254442 0.10333216 0.0055738785 0.0025946486 0.011400328 0.0144954715
0.031392574 -0.018275363 0.068461284 0.071898475 0.057463005 0.03091863 -0.048296962 0.023168823
-0.031625286 -0.021387564 -0.036116082 0.027610842 0.00687938 0.07932643 -0.029262003 -0.07232803
-0.027832542 0.07299215 0.03733758 -5.0582505e-05 -0.018983634 -0.051287547 0.017626457 -0.00733928
0.030808387 0.06281268 0.079737775 -0.051139075 0.017896967 0.00965784 0.08551963 0.04113478
00000000: 3b00 fc3d 4d42 e63b 4b7b edbc b2ee e83c
00000010: 6e85 883d eb13 d13d 3f8f a13d 069b 59bd
00000020: a1d5 db3c b0c0 653d 4aca 893c 55f6 333d
00000030: b77a 6dbd f375 aa3d 06de f63c c03f 0cbb
00000040: 79be 70bd 3ae8 c6bc ecb5 a9bd a1e4 06bc
00000050: a527 78bc 1526 b53b a99a 3f3d 11bd c23c
00000060: bfde 173e 0ebf 583c c9fc 8cbd a249 f93c
00000070: 5487 d53c 7951 17bd 8b1e ad3d 4808 7c3d
00000080: c4a8 5dbd df4d debc 0e0f aabd 2026 6a3d
00000090: 90c9 b13c 8561 5f3c 13d4 babc 6038 87bd
000000a0: 020d 323c ee47 923d 822f 24bc a025 b93d
000000b0: 2ca2 a43c f840 ffbc 410e debc 5c8d 883d
000000c0: 5216 76bd 511a eebc b0b8 e1bc 955c 48bc
000000d0: ce2d 0abd e763 263d c61d 24bd c04b b93d
000000e0: c308 783c c4a1 d53d 32cb dbbc c462 623d
000000f0: b5b5 53bb 8209 04bd f6eb 0ebd a56f 003d
00000100: f40a ac3c 177c 883d 54b7 4d3b d7c6 f7bc
00000110: cca6 bfbc efef 3c3d 44a1 f33b b82d 45bd
00000120: 3738 463d 6bc7 343d 6323 7e3c 3e37 8e3c
00000130: 16e3 77bd 451f 0f3e 3d11 53bd 36b1 84bd
00000140: 7770 e93c a42b 0ebd 53c2 c13c e82d 29bd
00000150: f479 253d 31a6 283c d724 30bc b5bc 2bbd
00000160: 391e 0b3d 1c89 0ebd 7274 003e d09f d33d
00000170: 15a5 b63b fb0a 2a3b 71c8 3a3c 6a7e 6d3c
00000180: 8095 003d 37b6 95bc 6e35 8c3d 823f 933d
00000190: 545e 6b3d 1149 fd3c 09d3 45bd 8bcc bd3c
000001a0: 8489 01bd f934 afbc 75ee 13bd 2230 e23c
000001b0: 6c6c e13b e575 a23d deb6 efbc b820 94bd
000001c0: 1201 e4bc e97c 953d 4aef 183d 8d28 54b8
000001d0: 9183 9bbc e412 52bd 5c65 903c 587e f0bb
000001e0: df61 fc3c efa3 803d 8f4d a33d 3577 51bd
000001f0: a99c 923c eb3b 1e3c ea24 af3d f17c 283d

fc3.weight f4 [2, 128]
0.09618807 -0.09442576 -0.003045212 0.09059315 0.0056107077 -0.10453557 -0.10708288 -0.18038942
0.06415206 0.15644684 -0.10953754 0.1574971 -0.07011076 -0.13059245 0.021104816 0.17514324
-0.11690806 0.015395942 -0.0830518 0.09111705 -0.048997756 0.19662328 -0.092565335 0.024078565
0.052798636 0.07587867 0.012787902 0.0880089 0.22992486 -0.03537238 0.04296766 0.050546136
0.22700906 0.12603529 -0.16766258 -0.064389855 -0.07671925 -0.2470024 -0.24728553 -0.027190572
-0.24625863 -0.15976898 -0.17165919 0.13217208 -0.034539964 -0.042158287 0.08613167 0.15484475
-0.078088894 0.15556522 0.16156161 0.12045552 -0.13560449 0.120719984 -0.042618886 0.16390288
0.11401327 0.05199567 -0.05126661 0.12070853 0.038675595 0.03140686 0.33961 0.08835262
0.13523479 0.22454837 -0.122465104 -0.085373946 -0.11386479 0.12543885 0.16057329 -0.13931319
0.19089001 -0.09902477 -0.060855493 0.009465287 -0.066890895 -0.09521063 0.05182485 0.08014812
0.020056298 -0.102897026 -0.0681016 0.18225189 -0.15037628 0.103095725 0.11865173 -0.015464229
-0.03801891 0.08810097 -0.068452835 0.0933004 0.0012588089 -0.12215979 0.23160487 0.093755424
0.32919857 -0.18084456 0.051982317 0.104873165 0.043807253 0.15370618 -0.09040811 0.037256148
0.1024521 -0.08880059 -0.08624836 0.13692741 0.13225992 0.028128607 0.07782529 -0.031566665
-0.11417875 0.039346766 0.08683327 -0.09074507 0.13124636 0.14999977 -0.01544516 0.12715058
-0.094714 0.06451843 -0.08268332 -0.04910708 0.072332166 -0.07262963 -0.06307271 -0.10184056
-0.11423653 0.24981141 0.11924039 -0.044079863 -0.1140557 -0.16711344 -0.094326735 0.026238007
0.17592822 0.025722753 0.17468235 -0.039497823 0.15183553 -0.10236108 -0.13369048 0.026192082
0.33656925 0.21748137 0.3842958 0.054675423 0.20297849 0.04677512 -0.047774952 0.096439555
-0.13809608 -0.044441767 0.17982838 0.19279908 0.017965667 0.59124595 -0.09891406 -0.08884525
-0.01767089 -0.06328142 0.08869777 -0.18626934 0.13680646 0.17773752 0.20467216 0.22127609
0.30891576 0.16527648 0.15704098 -0.058977764 0.13598263 0.18420736 0.00043766288 0.1623477
0.07577468 0.12701577 -0.16841279 -0.013527922 0.29534674 0.0015114185 0.17193131 -0.047275774
0.039980967 -0.09753841 0.2763734 0.19640772 -0.055813886 0.07831126 -0.068678424 0.1456612
-0.0023210635 -0.069852635 -0.07795728 0.10769891 -0.026588412 -0.024888266 0.10130569 0.053177685
0.2724706 -0.06360108 0.020319555 0.19520915 0.04235301 -0.12693046 0.1824041 0.10687194
0.22503343 0.20036528 -0.018306987 -0.053533997 0.20342378 -0.030241497 0.15569143 0.15146571
0.11655187 -0.03713109 -0.15638062 0.12581763 0.0016960669 0.23499322 0.031106282 0.026839448
0.12022059 0.06357536 0.16198124 0.33716914 0.2401075 -0.0032035694 0.2305175 0.09822695
-0.00043377292 -0.007521424 0.035047915 -0.2663121 0.044100676 0.14538327 0.13546532 0.3188294
0.14124963 0.23396146 0.20962365 0.035863273 0.015683219 0.008883933 0.19933851 -0.04780486
0.20807685 0.10732419 -0.055334605 0.2054618 -0.060920157 0.10767243 -0.06544471 -0.07863649
00000000: 40fe c43d 4b62 c1bd 2e92 47bb e788 b93d
00000010: 07da b73b bf16 d6bd 454e dbbd 01b8 38be
00000020: 2862 833d 9a33 203e 3855 e0bd eb46 213e
00000030: 3b96 8fbd 07ba 05be 02e4 ac3c c058 333e
00000040: 7e6d efbd 433f 7c3c 1017 aabd 939b ba3d
00000050: dfb1 48bd 9d57 493e e592 bdbd 6940 c53c
00000060: 6243 583d 4766 9b3d 5984 513c 033e b43d
00000070: 6c71 6b3e a1e2 10bd dbfe 2f3d 7709 4f3d
00000080: 1075 683e 650f 013e bdaf 2bbe d4de 83bd
00000090: fb1e 9dbd 32ee 7cbe 6b38 7dbe c3be debc
000000a0: 392b 7cbe 7b9a 23be 6dc7 2fbe 1e58 073e
000000b0: c779 0dbd 2bae 2cbd cd65 b03d 9f8f 1e3e
000000c0: 12ed 9fbd 7d4c 1f3e 6870 253e 62b1 f63d
000000d0: e7db 0abe 0a3c f73d 2491 2ebd 28d6 273e
000000e0: ca7f e93d 69f9 543d f0fc 51bd 0936 f73d
000000f0: 4d6a 1e3d 7ba4 003d 5de1 ad3e 38f2 b43d
00000100: fd7a 0a3e 02f0 653e fcce fabd 89d8 aebd
00000110: f131 e9bd 0b73 003e 536d 243e 1ea8 0ebe
00000120: ac78 433e 80cd cabd 9c43 79bd 4b14 1b3c
00000130: 18fe 88bd cafd c2bd 4b46 543d b324 a43d
00000140: 1b4d a43c adbb d2bd da78 8bbd 3da0 3a3e
00000150: 3dfc 19be da23 d33d aeff f23d ad5d 7dbc
00000160: b7b9 1bbd 486e b43d 0031 8cbd 4814 bf3d
00000170: 9efe a43a e92e fabd d429 6d3e d802 c03d
00000180: b78c a83e 512f 39be 69eb 543d bec7 d63d
00000190: 3c6f 333d 2765 1d3e e327 b9bd e799 183d
000001a0: 68d2 d13d 15dd b5bd fba2 b0bd b336 0c3e
000001b0: 256f 073e f76d e63c de62 9f3d 0c4c 01bd
000001c0: 8cd6 e9bd 132a 213d a4d5 b13d 8dd8 b9bd
000001d0: 7265 063e 8a99 193e b20d 7dbc c333 023e
000001e0: 6af9 c1bd 3d22 843d df55 a9bd 8124 49bd
000001f0: e322 943d d8be 94bd 442c 81bd c991 d0bd
00000200: d8f4 e9bd 90ce 7f3e 4e34 f43d 168d 34bd
00000210: 0996 e9bd c91f 2bbe 602e c1bd 17f1 d63c
00000220: 8726 343e 86b8 d23c eedf 323e 78c8 21bd
00000230: c67a 1b3e b0a2 d1bd 28e6 08be c790 d63c
00000240: ce52 ac3e 70b3 5e3e 6bc2 c43e 56f3 5f3d
00000250: 98d9 4f3e 4597 3f3d abaf 43bd 1a82 c53d
00000260: 0f69 0dbe 9208 36bd ee24 383e 1f6d 453e
00000270: bc2c 933c e55b 173f 7493 cabd 80f4 b5bd
00000280: 8bc2 90bc b099 81bd 2da7 b53d 64bd 3ebe
00000290: fe16 0c3e d300 363e 9495 513e 3396 623e
000002a0: 352a 9e3e 3d3e 293e 5acf 203e ab92 71bd
000002b0: 083f 0b3e dba0 3c3e 1e76 e539 7a3e 263e
000002c0: c12f 9b3d 6c10 023e 6774 2cbe 38a4 5dbc
000002d0: b037 973e ca1a c63a c30e 303e 3ea4 41bd
000002e0: 15c3 233d 38c2 c7bd d080 8d3e 1b1f 493e
000002f0: 1a9d 64bd a761 a03d 46a7 8cbd 3628 153e
00000300: fc1c 18bb e60e 8fbd 11a8 9fbd 3f91 dc3d
00000310: f1cf d9bc 7ae2 cbbc 5c79 cf3d d8d0 593d
00000320: 4481 8b3e 4841 82bd 3275 a63c e8e4 473e
00000330: 5a7a 2d3d 0ffa 01be 24c8 3a3e addf da3d
00000340: 2a6f 663e 8e2c 4d3e 89f8 95bc 7746 5bbd
00000350: 534e 503e 04bd f7bc 936d 1f3e d419 1b3e
00000360: bfb2 ee3d c516 18bd 3e22 20be 56d6 003e
00000370: 904e de3a 10a2 703e 9ad2 fe3c 67de db3c
00000380: 3636 f63d cc33 823d 69de 253e 6fa1 ac3e
00000390: bede 753e faf2 51bb c80c 6c3e 362b c93d
000003a0: 046c e3b9 4776 f6bb 678e 0f3d 0f5a 88be
000003b0: e9a2 343d 5adf 143e 6cb7 0a3e 9b3d a33e
000003c0: bea3 103e 9893 6f3e 95a7 563e 5ee5 123d
000003d0: 187a 803c ea8d 113c 651f 4c3e 07cf 43bd
000003e0: 1912 553e c9cc db3d 8aa6 62bd 9464 523e
000003f0: 6a87 79bd 5d83 dc3d e007 86bd 2b0c a1bd

fc3.bias f4 [2]
0.0029219054 -0.041394953
00000000: 707d 3f3b c18d 29bd
