checkpoint_critic1.pth (torch_old, 159795 bytes, 5 tensors)

fc1.weight f4 [256, 24]
0.02589436 -0.0034525516 0.03787059 -0.0025153742 -0.13558088 -0.06917652 -0.009897232 0.06507895
0.002822764 0.03932558 -0.054863155 0.0112706665 0.0015673861 -0.008578217 0.044976868 0.019512318
0.03433987 -0.028614232 0.036593895 0.030097844 0.016069265 -0.022294136 -0.058742132 0.05754456
0.03149556 0.07777677 -0.0052768015 -0.0024696698 -0.028549893 -0.0036243724 0.039401438 -0.023713928
-0.002050363 0.06531119 0.0055843303 0.039904032 -0.036458552 0.03780806 -0.030460171 0.03785061
0.04770612 0.0709064 -0.028118452 -0.09053768 0.05304775 -0.0527641 0.014298261 -0.062626176
0.018728508 -0.077656366 0.004248705 -0.06557912 -0.047594316 -0.04633996 0.025553878 -0.052167337
-0.0034245055 -0.040048163 -0.010770507 -0.0685685 0.022825694 -0.04587624 0.0035761476 0.007979808
0.027829932 -0.10270797 0.045904744 0.08529206 0.075969405 -0.019681579 -0.013349594 0.08774615
0.027679482 0.00877586 0.015918957 0.017666409 -0.102533236 0.05228422 0.027001422 0.037880544
-0.0104782665 0.061324462 -0.009295859 0.034015894 -0.035368558 -0.006581073 0.05466867 -0.043666046
-0.072982244 0.033537794 0.01845501 -0.047902394 0.068764836 -0.08024164 0.033486295 -0.056077365
0.07236923 -0.013978985 -0.018963655 0.03961779 0.05611201 -0.023594279 0.041731667 -0.005651006
-0.03193234 0.04631785 -0.010237103 -0.061336577 0.08015341 -0.0016713832 -0.03205269 0.03561698
0.06724796 -0.018716581 -0.0037868842 -0.034306757 0.016798578 0.0015034208 0.037575673 -0.076685295
0.066848636 0.08572592 0.02881458 -0.011232595 0.09620257 0.032689005 -0.012024835 -0.052597683
0.04860074 -0.021490954 0.027319478 -0.010710702 -0.03148657 0.049263492 0.002584965 -0.03429642
-0.013432294 0.03366371 0.0017814585 0.03815962 -0.18229581 0.054463867 0.017396871 -0.034864265
0.06440996 0.0993525 -0.049399428 0.035304375 -0.055043105 0.047767773 -0.008770432 0.08881151
0.044808757 0.085292034 0.039995473 0.050273433 -0.038827296 -0.047675535 -0.041539583 0.0034514011
0.050548054 0.10236971 -0.02324117 -0.05444937 0.03979829 -0.10488831 -0.025861224 -0.013139479
0.0074841687 0.048226256 -0.008594858 0.016703865 -0.08999179 0.049907073 0.025271343 0.039333645
0.0065527037 0.029517952 -0.0494721 -0.049325943 -0.042769138 -0.04463898 0.022094565 0.020469544
-0.050651327 -0.015986403 -0.006932652 -0.0011648765 -0.0054837116 0.04385749 0.014683729 -0.036714196
0.016464828 0.0065606246 -0.03118641 0.008398908 0.10500665 0.013284265 -0.010070086 -0.015848223
-0.04382224 0.051693607 0.032526057 0.04418576 0.03190321 -0.0015023815 -0.05119253 -0.03455382
0.00611312 -0.023983365 -0.016159153 0.022354316 -0.04943701 0.033617575 -0.01425584 -0.002127113
-0.036920615 0.01772462 -0.033917107 0.0058845356 -0.22141121 -0.04023143 0.034049276 -0.0020859314
0.060914382 -0.021711206 0.03241075 -0.013285939 -0.16489261 -0.023783263 -0.035820723 -0.023778506
-0.02303943 0.030033182 -0.039193917 0.03303961 -0.08717614 0.045466382 0.04155782 -0.0029932715
-0.048365623 0.07687599 0.0402831 -0.035003476 -0.058024865 0.049570646 0.027151207 0.014152876
-0.03820092 0.040437132 0.040226202 -0.0050671366 0.030661527 -0.09075397 -0.044219445 0.00794485
00000000: 6920 d43c 3444 62bb 311e 1b3d fad8 24bb
00000010: b7d5 0abe 6bac 8dbd 0028 22bc 1d48 853d
00000020: 1ffe 383b dc13 213d 30b8 60bd 9aa8 383c
00000030: c070 cd3a a68b 0cbc aa39 383d 4cd8 9f3c
00000040: f7a7 0c3d 6568 eabc 7be3 153d c18f f63c
00000050: b1a3 833c 31a2 b6bc 979b 70bd d8b3 6b3d
00000060: 7d01 013d 6d49 9f3d 05e9 acbb 2fda 21bb
00000070: 77e1 e9bc e186 6dbb 6763 213d b643 c2bc
00000080: 625f 06bb e0c1 853d c2fc b63b 6972 233d
00000090: 9055 15bd a0dc 1a3d 9c87 f9bc 3e09 1b3d
000000a0: 7e67 433d 6037 913d ab58 e6bc d26b b9bd
000000b0: 9948 593d 2b1f 58bd 4143 6a3c 2742 80bd
000000c0: 876c 993c 4d0a 9fbd b938 8b3b 584e 86bd
000000d0: 42f2 42bd f8ce 3dbd 5e56 d13c 6bad 55bd
000000e0: ab6d 60bb 8b09 24bd c876 30bc a46d 8cbd
000000f0: f3fc ba3c b9e8 3bbd cd5d 6a3b bebd 023c
00000100: 99fb e33c 8e58 d2bd 9d06 3c3d 9bad ae3d
00000110: d995 9b3d 433b a1bc 41b8 5abc 41b4 b33d
00000120: 15c0 e23c a0c8 0f3c 7968 823c 25b9 903c
00000130: f2fc d1bd fa27 563d 1632 dd3c a128 1b3d
00000140: 09ad 2bbc 5c2f 7b3d a94d 18bc 4054 0b3d
00000150: 9fde 10bd 0ba6 d7bb 41ec 5f3d 2bdb 32bd
00000160: b777 95bd ed5e 093d f62e 973c 4d35 44bd
00000170: 94d4 8c3d bb55 a4bd ed28 093d 61b1 65bd
00000180: 5236 943d 1d08 65bc ab59 9bbc 4446 223d
00000190: b5d5 653d ca48 c1bc d3ee 2a3d 132c b9bb
000001a0: 7ccb 02bd c9b7 3d3d 86b9 27bc 103c 7bbd
000001b0: 7927 a43d 5012 dbba ae49 03bd 1ce3 113d
000001c0: 4cb9 893d 8453 99bc 602d 78bb 3e85 0cbd
000001d0: 2c9d 893c 6e0e c53a f3e8 193d 2e0d 9dbd
000001e0: f0e7 883d 1291 af3d 8e0c ec3c eb08 38bc
000001f0: da05 c53d e8e4 053d d003 45bc ab70 57bd
00000200: 9211 473d cc0d b0bc 19cd df3c f17b 2fbc
00000210: 10f8 00bd 84c8 493d 8468 293b 677a 0cbd
00000220: 2013 5cbc f5e2 093d d47f e93a 434d 1c3d
00000230: c1ab 3abe 8115 5f3d e283 8e3c d5cd 0ebd
00000240: 5ee9 833d 5379 cb3d 0e57 4abd 529b 103d
00000250: e174 61bd 24a8 433d dcb1 0fbc cfe2 b53d
00000260: 6389 373d 97ad ae3d 4bd2 233d 84eb 4d3d
00000270: 5f09 1fbd 6c47 43bd 6925 2abd e730 623b
00000280: 7a0b 4f3d 36a7 d13d 4464 bebc 4d06 5fbd
00000290: 8803 233d afcf d6bd ebda d3bc f846 57bc
000002a0: c23d f53b e588 453d 73d1 0cbc 8bd6 883c
000002b0: 9e4d b8bd 5c6b 4c3d d905 cf3c 511c 213d
000002c0: 10b8 d63b a2cf f13c 42a3 4abd 000a 4abd
000002d0: b12e 2fbd 5dd7 36bd a9ff b43c bfaf a73c
000002e0: c477 4fbd ebf5 82bc 4d2b e3bb c5ae 98ba
000002f0: b5b0 b3bb e9a3 333d 0694 703c a061 16bd
00000300: 3fe1 863c 82fa d63b a47a ffbc 939b 093c
00000310: ba0d d73d 3fa6 593c 01fd 24bc 22d4 81bc
00000320: f37e 33bd adbc 533d 0b3a 053d 21fc 343d
00000330: f1ac 023d 8feb c4ba 42af 51bd 4e88 0dbd
00000340: 9150 c83b c378 c4bc 3360 84bc 6620 b73c
00000350: 767e 4abd 95b2 093d 5491 69bc 0967 0bbb
00000360: 123a 17bd 3933 913c aaec 0abd 10d3 c03b
00000370: 9fb9 62be b6c9 24bd 4177 0b3d 1fb4 08bb
00000380: 5c81 793d b3db b1bc 22c1 043d 44ad 59bc
00000390: 9cd9 28be 1ed5 c2bc c0b8 12bd 24cb c2bc
000003a0: 30bd bcbc 2608 f63c cd89 20bd 8b54 073d
000003b0: 6789 b2bd f53a 3a3d 8838 2a3d c32a 44bb
000003c0: 081b 46bd 2971 9d3d e4ff 243d ce5f 0fbd
000003d0: 7bab 6dbd 970a 4b3d 356c de3c 77e1 673c
000003e0: 9178 1cbd 68a1 253d 3bc4 243d 390a a6bb
000003f0: e22d fb3c 38dd b9bd 731f 35bd 1e2b 023c

fc1.bias f4 [256]
-0.091484964 0.121264815 0.08253272 0.1178484 -0.06937555 -0.17123453 -0.19912095 0.016752832
-0.21944745 -0.15050197 0.1485881 -0.07272519 0.045626782 -0.16483288 0.00654913 0.09067473
0.019577574 0.020325985 -0.12905172 -0.16507179 0.06102983 -0.22576629 -0.00054025685 -0.14851104
0.0024849079 -0.20560712 0.063705206 0.013720652 -0.18527497 -0.04951673 -0.064062014 -0.11787813
-0.08295553 0.004360917 -0.12796366 0.054145273 -0.14583163 0.21293 -0.11616351 0.0779464
-0.15456252 -0.16700064 -0.04268484 -0.15951273 -0.09490927 -0.13206464 -0.10192111 -0.14852634
0.20064604 0.09804538 -0.06285067 0.13629326 -0.016821893 -0.17919172 0.031273454 -0.054043256
0.1561324 -0.06814732 -0.17751215 0.16433276 0.04107482 0.04813563 -0.023082083 -0.19421683
0.07648374 -0.027066575 -0.14794382 0.14177042 -0.19228508 -0.102808796 -0.010735228 -0.16924033
-0.19562662 -0.07832198 -0.039582543 0.16242763 0.1008254 0.20344716 0.046023093 -0.014241877
-0.038431764 -0.08109191 -0.19653288 -0.20393272 0.036924317 -0.12762265 -0.09498057 0.062580384
-0.14045165 0.07736569 -0.008539762 0.090398714 -0.09159176 0.13377118 -0.14730574 -0.21087593
0.16428216 -0.17461073 0.19836926 0.121252224 0.16345222 -0.00275044 -0.0018057151 0.040771138
-0.07393813 0.14126283 0.12704156 -0.017077055 -0.0027570212 -0.035944924 -0.10154912 -0.17020246
-0.084085286 -0.20373683 -0.07439055 0.109112024 0.13772833 -0.17357835 -0.17405847 0.10409884
-0.031355124 -0.015209283 0.10410953 0.14227849 0.06888555 0.030791756 -0.049074125 -0.00030763925
0.0775384 -0.20417035 -0.2094893 0.11367 -0.20406123 0.07200557 0.17887568 0.08207468
0.06799672 0.047392976 0.04740441 0.12477235 0.023561532 -0.14385463 0.10719577 0.0104511045
0.11906636 -0.13709089 -0.044512246 -0.14689812 -0.06035499 0.17385478 -0.02327774 0.14149569
0.13518752 -0.106805734 0.1539256 0.0048933197 0.15930621 0.03746702 -0.038482483 0.15431298
-0.14349648 -0.0116376 -0.055916633 -0.031585548 -0.08305657 0.1286276 -0.03082001 0.07598018
0.07180825 0.13326946 0.06616872 -0.19082823 -0.1853776 -0.19067487 -0.18797211 -0.20996653
-0.013798109 0.16198155 -0.14389993 0.08292092 -0.096228346 0.15754071 0.1381381 0.08342774
0.205718 -0.1716208 -0.15536135 -0.07918802 0.071071066 0.17330137 0.088562116 0.07795581
-0.056831308 -0.10127771 0.14652987 -0.17232604 -0.1581725 0.08981926 0.15109532 0.011884079
-0.014716264 -0.017011387 0.051018257 -0.1288347 0.17649423 0.21844819 -0.06626479 0.14441706
-0.054500926 -0.16507672 0.008376761 -0.056015257 0.15249988 -0.003651134 -0.052371264 -0.12999602
0.15888153 0.1492676 0.107240684 -0.052780308 -0.04244089 0.017306164 0.19912796 -0.035813246
0.026092052 -0.22119504 0.030312829 -0.10011909 -0.065214306 -0.14903013 0.16055925 0.07374607
-0.08702846 -0.097766995 0.056142468 0.06976065 -0.089391746 0.04925294 0.033693913 0.08670449
-0.13071994 -0.14989118 0.07463671 0.0024852164 -0.11403941 0.20206408 -0.01290774 -0.13402328
-0.06635688 -0.10422052 -0.06562487 -0.20903999 0.15495177 0.14414945 -0.18194814 0.123672694
00000000: 785c bbbd b059 f83d ea06 a93d 805a f13d
00000010: c514 8ebd 1b58 2fbe 5de6 4bbe 3c3d 893c
00000020: d5b6 60be 301d 1abe 7b27 183e f2f0 94bd
00000030: 26e3 3a3d f3c9 28be 169a d63b acb3 b93d
00000040: 2661 a03c ae82 a63c 2226 04be 9408 29be
00000050: 6afa 793d 472f 67be 06a0 0dba 4713 18be
00000060: d6d9 223b ac8a 52be e077 823d 96cc 603c
00000070: b9b8 3dbe 0ed2 4abd f232 83bd 176a f1bd
00000080: 97e4 a9bd 06e6 8e3b e808 03be 6fc7 5d3d
00000090: e354 15be 520a 5a3e 22e7 edbd 5da2 9f3d
000000a0: a345 1ebe 3702 2bbe 4cd6 2ebd 4e57 23be
000000b0: cb5f c2bd f43b 07be 04bc d0bd 4a17 18be
000000c0: 2876 4d3e 04cc c83d dab7 80bd 7690 0b3e
000000d0: 11ce 89bc 097e 37be 9818 003d 765c 5dbd
000000e0: 2ce1 1f3e d290 8bbd bfc5 35be d946 283e
000000f0: 123e 283d de29 453d a316 bdbc c7e0 46be
00000100: 82a3 9c3d b9ba ddbc 967e 17be 442c 113e
00000110: 61e6 44be 6b8d d2bd cfe2 2fbc 564d 2dbe
00000120: 5852 48be 4667 a0bd 4e21 22bd 6e53 263e
00000130: 8c7d ce3d 7454 503e b682 3c3d c356 69bc
00000140: a06a 1dbd 8413 a6bd ea3f 49be bdd3 50be
00000150: f43d 173d 83af 02be 2c85 c2bd 252a 803d
00000160: 8fd2 0fbe e771 9e3d 5cea 0bbc f622 b93d
00000170: 7694 bbbd 50fb 083e 51d7 16be dcef 57be
00000180: 9539 283e 28cd 32be 5021 4b3e 1653 f83d
00000190: 0560 273e ba40 34bb bfad ecba a3ff 263d
000001a0: e06c 97bd 34a7 103e 2f17 023e 2ee5 8bbc
000001b0: 24af 34bb fc3a 13bd fcf8 cfbd 8e49 2ebe
000001c0: e834 acbd 63a0 50be 135a 98bd 2076 df3d
000001d0: a808 0d3e 86be 31be 623c 32be c631 d53d
000001e0: 3b6e 00bd 5b30 79bc 6137 d53d 74b1 113e
000001f0: de13 8d3d fe3e fc3c f301 49bd a44a a1b9
00000200: 74cc 9e3d 0812 51be 5d84 56be d1cb e83d
00000210: 6df5 50be a877 933d 302b 373e c516 a83d
00000220: dd41 8b3d 231f 423d 202b 423d a588 ff3d
00000230: 1d04 c13c a14e 13be 7589 db3d 1c3b 2b3c
00000240: 10d9 f33d 8e61 0cbe 7952 36bd 766c 16be
00000250: cb36 77bd fd06 323e f6b0 bebc 3fe4 103e
00000260: 996e 0a3e f7bc dabd ac9e 1d3e 2458 a03b
00000270: 2b21 233e 0577 193d cf9f 1dbd 3904 1e3e
00000280: bef0 12be a2ab 3ebc d708 65bd d95f 01bd
00000290: 9019 aabd f4b6 033e 3f7a fcbc 7f9b 9b3d
000002a0: 3410 933d ca77 083e 7783 873d 7a68 43be
000002b0: a0d3 3dbe 4640 43be c37b 40be 7701 57be
000002c0: 7711 62bc 7ede 253e 815a 13be 71d2 a93d
000002d0: 5e13 c5bd 5a52 213e 1374 0d3e 2adc aa3d
000002e0: bda7 523e 5dbd 2fbe 0c17 1fbe 542d a2bd
000002f0: b58d 913d ea75 313e 0e60 b53d 4ca7 9f3d
00000300: f2c7 68bd b06a cfbd ed0b 163e 3d76 30be
00000310: f9f7 21be 29f3 b73d bbb8 1a3e 71b5 423c
00000320: 7c1c 71bc 775b 8bbc 85f8 503d 3eed 03be
00000330: e7ba 343e e2b0 5f3e d6b5 87bd 11e2 133e
00000340: 5d3c 5fbd df09 29be af3e 093c 4170 65bd
00000350: ee28 1c3e dd47 6fbb 4083 56bd ad1d 05be
00000360: d7b1 223e 9bd9 183e 01a1 db3d 2a30 58bd
00000370: 80d6 2dbd a8c5 8d3c 33e8 4b3e e9b0 12bd
00000380: 00bf d53c f480 62be 9c52 f83c 3d0b cdbd
00000390: 148f 85bd 5b9b 18be a569 243e 2e08 973d
000003a0: fa3b b2bd 103a c8bd a5f5 653d acde 8e3d
000003b0: 0513 b7bd 73bd 493d a102 0a3d 2092 b13d
000003c0: 73db 05be 137d 19be 22db 983d 03df 223b
000003d0: 7f8d e9bd e3e9 4e3e fc7a 53bc 663d 09be
000003e0: 1ee6 87bd 9171 d5bd 5566 86bd 940e 56be
000003f0: adab 1e3e ea9b 133e 9d50 3abe 1c48 fd3d

fc2.weight f4 [128, 258]
-0.044208296 0.002296662 0.10978365 0.014356208 0.031184722 -0.04831683 0.07709659 0.07611548
-0.09512591 0.020606475 0.020175925 -0.12619655 -0.051767092 -0.020103775 -0.012749292 0.10214439
-0.07521043 0.036551278 0.045160186 -0.024621319 -0.03489529 -0.060305957 0.035052855 0.055283625
-0.08887321 -0.038729936 -0.069311745 0.0644377 0.020141326 0.014207451 0.053340398 -0.062080808
0.071663015 0.011502467 -0.051120237 0.049508795 -0.05499149 0.05640243 -0.06715275 -0.042321477
0.018878723 0.014515167 0.010866525 -0.05922297 -0.047200777 -0.076970056 -0.013531423 -0.021815304
-0.009650164 0.0066132573 0.001822356 0.0034070206 0.07297437 0.047732715 -0.07719138 0.059015967
-0.034575257 0.03626511 0.0068916273 0.054850105 -0.004244914 0.0060111554 0.07296675 -0.08846599
-0.0072420714 -0.1283753 -0.020497907 -0.055256084 0.019877205 -0.063493505 -0.010145728 0.04012114
-0.019454401 0.028171912 -0.0116035715 0.028903482 0.021551235 0.050345276 0.07690111 -0.097864345
0.06439583 -0.010542265 0.07868438 0.013325857 0.023075273 0.021172788 0.001056187 0.069677815
-0.055973884 0.051880296 0.05401544 -0.07630218 -0.11271811 -0.023454063 0.048590668 -0.119231716
0.075445816 -0.044645626 -0.0151419295 -0.049712475 0.06423612 -0.0025846905 -0.046353497 0.012930462
0.0037567464 -0.07041501 -0.020486077 -0.11621134 0.03133602 0.053879976 0.0030085642 -0.034733698
-0.061289437 -0.035953064 -0.049902886 0.08445934 -0.07893288 0.002331275 0.07701816 0.08877321
-0.078974284 0.04455535 -0.03219154 0.019478012 -0.09834483 -0.066875495 -0.027155098 0.019609727
-0.06743511 -0.035693675 -0.116134904 0.009329633 0.015408323 0.01601797 0.05547764 -0.022131363
0.10933943 -0.023183107 0.0384316 0.06583049 -0.02056501 0.06383198 0.029133376 0.014924154
-0.009166194 -0.027533662 0.0005013237 -0.039218437 0.07659627 -0.006663154 -0.051420756 0.027117359
0.053854417 0.048116796 -0.026591493 -0.030101536 0.051967643 0.08251057 0.0091757085 0.092687696
0.005969236 0.026382787 0.056758307 -0.041017897 -0.054568686 -0.0030537124 -0.045841172 -0.038747538
0.038357407 0.011681303 -0.056693744 -0.08711147 0.07226045 0.020235196 -0.060286727 0.03936675
0.101146646 0.004758946 0.030217381 -0.0487258 -0.06387201 -0.040132366 -0.009044299 -0.11420502
-0.05197868 -0.0008033685 0.03655283 -0.06737973 -0.18952543 0.026836561 0.019329129 -0.05309568
-0.056986615 0.006731237 -0.009032117 0.019467944 0.04838477 0.05343602 0.05479819 -0.12103739
0.08042776 -0.042688787 0.04388712 -0.02838492 0.027781256 -0.046257075 0.06856297 -0.06518005
-0.019285498 -0.017204247 0.022922387 -0.04160777 -0.012823323 -0.001550322 -0.0020222242 0.0438924
0.009326052 -0.08516078 0.08665982 0.075715326 0.033708278 -0.06595714 0.056047067 0.040696222
-0.01654415 -0.09310792 -0.04173686 -0.013803806 -0.12564558 -0.07183085 -0.056693334 -0.028750908
0.07975124 0.0059623607 0.060556997 0.076448835 -0.15643594 0.022570396 0.04527457 0.064560235
-0.0072977366 -0.055514935 0.0411337 -0.008163998 0.061388604 -0.05381892 -0.04851431 0.057286084
-0.012805267 -0.023511555 0.033834558 -0.09417965 -0.05611739 0.08904909 0.03847157 0.075489044
00000000: c213 35bd 9883 163b 40d6 e03d 4d36 6b3c
00000010: 1a77 ff3c dee7 45bd d1e4 9d3d 6fe2 9b3d
00000020: 60d1 c2bd e9ce a83c fb47 a53c ab39 01be
00000030: bb09 54bd acb0 a4bc 68e2 50bc 1431 d13d
00000040: ed07 9abd cbb6 153d e3f9 383d a6b2 c9bc
00000050: 5dee 0ebd 6103 77bd 9593 0f3d 1571 623d
00000060: 2803 b6bd 48a3 1ebd 51f3 8dbd eaf7 833d
00000070: 6cff a43c 5ec6 683c 767b 5a3d 7248 7ebd
00000080: 0fc4 923d d874 3c3c 7463 51bd bcc9 4a3d
00000090: c23e 61bd 3c06 673d 6287 89bd 4959 2dbd
000000a0: 8da7 9a3c 06d1 6d3c 8209 323c c993 72bd
000000b0: 9a55 41bd 7aa2 9dbd e7b2 5dbc 02b6 b2bc
000000c0: b91b 1ebc 06b4 d83b 1fdc ee3a 5248 5f3b
000000d0: 9673 953d 6183 433d 8416 9ebd baba 713d
000000e0: c99e 0dbd b98a 143d 29d3 e13b 81aa 603d
000000f0: eb18 8bbb 3af9 c43b 976f 953d a82d b5bd
00000100: e64e edbb d174 03be 3aeb a7bc 3454 62bd
00000110: 85d5 a23c e208 82bd 443a 26bc 1156 243d
00000120: d65e 9fbc c8c8 e63c e81c 3ebc ffc6 ec3c
00000130: 378c b03c d936 4e3d 547e 9d3d 1a6d c8bd
00000140: f6e1 833d 77b9 2cbc 4725 a13d b254 5a3c
00000150: 5b08 bd3c 8e72 ad3c c16f 8a3a 3eb3 8e3d
00000160: df44 65bd 6f80 543d 4b3f 5d3d 5144 9cbd
00000170: c1d8 e6bd bc22 c0bc 0207 473d c22f f4bd
00000180: 5683 9a3d 55de 36bd db15 78bc 4f9f 4bbd
00000190: 3a8e 833d e963 29bb 2add 3dbd 4ada 533c
000001a0: bf33 763b bf35 90bd 6bd2 a7bc 3600 eebd
000001b0: 335a 003d 40b1 5c3d 552b 453b ec44 0ebd
000001c0: a20a 7bbd 8543 13bd f866 4cbd 05f9 ac3d
000001d0: 90a7 a1bd 4ec8 183b b2bb 9d3d bbce b53d
000001e0: 45bd a1bd ac7f 363d 47db 03bd 5a90 9f3c
000001f0: 0469 c9bd 05f6 88bd 5e74 debc 94a4 a03c
00000200: 6b1b 8abd 8833 12bd 23d8 edbd 51db 183c
00000210: 3173 7c3c 1e38 833c 863c 633d d54c b5bc
00000220: 5aed df3d 80ea bdbc 746a 1d3d 23d2 863d
00000230: f477 a8bc 57ba 823d 1ea9 ee3c 7084 743c
00000240: ce2d 16bc 468e e1bc 446b 033a 83a3 20bd
00000250: 81de 9c3d 9656 dabb 929e 52bd 3925 de3c
00000260: 7396 5c3d 1e16 453d 67d6 d9bc 7f97 f6bc
00000270: 06dc 543d 4dfb a83d b655 163c 0cd3 bd3d
00000280: 9599 c33b b720 d83c 667b 683d 6202 28bd
00000290: 6a83 5fbd cb20 48bb f4c3 3bbd bdb5 1ebd
000002a0: a81c 1d3d f062 3f3c b337 68bd 8067 b2bd
000002b0: 49fd 933d 48c4 a53c 37ef 76bd 073f 213d
000002c0: f925 cf3d eff0 9b3b 718a f73c b494 47bd
000002d0: 54cf 82bd d661 24bd 8a2e 14bc 52e4 e9bd
000002e0: 99e7 54bd 2699 52ba 6cb8 153d 62fe 89bd
000002f0: f412 42be 59d8 db3c 1f58 9e3c db7a 59bd
00000300: cc6a 69bd b591 dc3b 72fb 13bc 3d7b 9f3c
00000310: 1c2f 463d badf 5a3d 1174 603d 73e2 f7bd
00000320: 4fb7 a43d 70da 2ebd fbc2 333d 7e87 e8bc
00000330: 8495 e33c 0f78 3dbd be6a 8c3d 1e7d 85bd
00000340: 9ffc 9dbc ecef 8cbc bbc7 bb3c e96c 2abd
00000350: ea18 52bc 2d34 cbba 4b87 04bb 84c8 333d
00000360: 4ccc 183c c668 aebd b47a b13d a310 9b3d
00000370: b111 0a3d 8914 87bd 9c91 653d 15b1 263d
00000380: 9987 87bc 5daf bebd 45f4 2abd 5c29 62bc
00000390: 3ca9 00be 0d1c 93bd 4537 68bd 0687 ebbc
000003a0: 9e54 a33d e85f c33b 9d0a 783d 3591 9c3d
000003b0: be30 20be 8de5 b83c d471 393d 2838 843d
000003c0: da21 efbb a163 63bd d07b 283d 4ac2 05bc
000003d0: 9e72 7b3d 3a71 5cbd f1b6 46bd d0a4 6a3d
000003e0: 2fcd 51bc 4e9b c0bc 1b96 0a3d 43e1 c0bd
000003f0: 59db 65bd 5f5f b63d 5d94 1d3d 009a 9a3d

fc2.bias f4 [128]
0.07834669 0.026232312 -0.03334418 -0.0022280405 -0.041537993 -0.011024546 0.016407188 0.055616334
0.0057029272 -0.03469025 0.08177773 -0.10730031 0.08417289 -0.07354113 0.028317338 -0.025775248
-0.005999549 0.033892494 0.065525115 0.02553755 -0.034487635 0.013136818 0.00494149 -0.04423997
-0.018149022 -0.07270735 0.01486512 0.031313017 -0.012165694 0.062740125 0.021853447 0.06231724
-0.0075386795 0.022717973 -0.019688848 0.052685536 0.0047671166 -0.004641385 0.05435084 -0.025925603
-0.043439526 -0.099438764 -0.021636661 0.028484799 0.015802415 -0.024696916 -0.049786013 -0.068864495
-0.016108572 0.045842603 -0.04708365 0.019519225 -0.027758028 -0.0749326 0.057165958 -0.04093012
0.04125709 -0.0556598 0.022666853 -0.024553971 -0.018736392 -0.019834617 -0.00859792 0.02355823
-0.023552442 -0.03132953 0.017811682 0.037502144 -0.022417052 -0.06685029 -0.0077969762 0.02417572
-0.023435755 -0.02940236 -0.008827943 -0.022314737 -0.059451066 0.035794742 0.04107983 0.031447385
-0.063335165 -0.018706799 -0.02093333 -0.02712487 0.013734593 0.009989978 -0.06676006 -0.020271935
0.06903201 0.049808223 -0.0012614295 -0.0024265405 -0.070617236 0.054959867 0.008353487 -0.044267103
-0.024855928 -0.014000375 -0.015032296 0.036497813 -0.0073202914 0.029622063 -0.007615084 0.0398488
0.034309447 -0.065692365 -0.0037253713 0.009912057 0.065742716 0.038531333 0.05387058 0.009147938
0.04411908 0.06268887 0.017362224 0.045156024 0.007964594 -0.06767542 0.033279385 -0.017734539
0.043005474 -0.010925254 -0.0050932863 -0.03196964 -0.032581653 0.048069265 -0.017314121 0.0024397243
00000000: 3b74 a03d 25e5 d63c e893 08bd 5104 12bb
00000010: be23 2abd 4ca0 34bc 5e68 863c f4cd 633d
00000020: 9fdf ba3b 5d17 0ebd 157b a73d 44c0 dbbd
00000030: d662 ac3d bb9c 96bd c3f9 e73c 9d26 d3bc
00000040: dd97 c4bb dbd2 0a3d 0832 863d 2034 d13c
00000050: e842 0dbd cf3b 573c 39ec a13b f934 35bd
00000060: 42ad 94bc 97e7 94bd d58c 733c 1442 003d
00000070: 9e52 47bc e57d 803d 0006 b33c 5d40 7f3d
00000080: 0707 f7bb 0b1b ba3c 824a a1bc cacc 573d
00000090: 7935 9c3b c216 98bb fd9e 5e3d ee61 d4bc
000000a0: a5ed 31bd 8da6 cbbd 5e3f b1bc f458 e93c
000000b0: 1174 813c 3051 cabc 6bec 4bbd d408 8dbd
000000c0: 20f6 83bc 74c5 3b3d c9da 40bd c8e6 9f3c
000000d0: ce64 e3bc 4376 99bd da26 6a3d 57a6 27bd
000000e0: 32fd 283d 88fb 63bd d6af b93c 6925 c9bc
000000f0: 107d 99bc 357c a2bc 4ade 0cbc 30fd c03c
00000100: 0df1 c0bc 6553 00bd cee9 913c d99b 193d
00000110: f7a3 b7bc cee8 88bd c77d ffbb 290c c63c
00000120: 57fc bfbc 38dd f0bc 14a3 10bc 65cd b6bc
00000130: f682 73bd 829d 123d 5343 283d f9ce 003d
00000140: deb5 81bd 003f 99bc 607c abbc fa34 debc
00000150: 0f07 613c 01ad 233c 80b9 88bd 5411 a6bc
00000160: a860 8d3d b503 4c3d 8d56 a5ba 9806 1fbb
00000170: c59f 90bd 991d 613d 10dd 083c 6c51 35bd
00000180: a99e cbbc d461 65bc 054a 76bc bb7e 153d
00000190: 0edf efbb f8a9 f23c f487 f9bb 7f38 233d
000001a0: 1088 0c3d b889 86bd 5c25 74bb 2e66 223c
000001b0: 1ea4 863d 08d3 1d3d 66a7 5c3d 3ce1 153c
000001c0: 35b6 343d 0663 803d 393b 8e3c 86f5 383d
000001d0: ee7d 023c 6999 8abd f74f 083d 0648 91bc
000001e0: 8226 303d d6ff 32bc 95e5 a6bb 99f2 02bd
000001f0: 5774 05bd 47e4 443d 58d6 8dbc c8e3 1f3b

fc3.weight f4 [1, 128]
0.007656189 0.01174376 -0.048898727 0.019932095 -0.09270427 0.08170135 0.024430025 0.009463874
-0.016488187 0.01450944 0.06605895 -0.05905897 0.007181012 -0.008890936 -0.122242145 -0.008507831
0.0127742505 -0.005891201 0.009587396 0.016997144 0.030049497 -0.040956374 0.0149631 -0.022044994
0.06379975 -0.010671991 0.013565287 -0.014428684 -0.04093643 0.012680601 0.007940692 -0.04839696
0.028944423 0.014659949 0.015979495 -0.013711905 -0.0129045695 -0.014431062 -0.011584023 -0.0017241306
0.0071313893 -0.026398676 -0.010493247 -0.026393088 0.034251016 0.009293266 0.013631385 -0.026162
-0.004308249 -0.055030055 -0.07543024 -0.02622693 -0.06272726 -0.0054242853 -0.038465865 0.008541113
-0.009596989 -0.008369902 -0.016301766 0.017672816 -0.071999334 0.017445961 0.009772304 -0.0023319826
0.0058071944 0.013262197 -0.0105771925 -0.017872922 -0.04938706 -0.011545199 -0.04520788 -0.013125799
0.002124306 -0.014235343 0.015046074 0.007390553 -0.007565537 -0.10327262 0.013291004 0.015464699
-0.007362814 0.032826636 -0.015915189 -0.010474431 0.00488204 0.010030207 -0.0071163364 0.020453725
0.041740723 0.0135440305 -0.01982284 -0.008170863 0.045886677 0.024308745 -0.020362297 -0.010092515
-0.046259385 0.009396978 -0.034389745 0.0059733805 -0.020764435 -0.009964177 -0.008011145 -0.0057442356
0.006771322 -0.0032822315 0.0124021 -0.08249827 -0.07663927 -0.065134585 -0.01043026 0.011845143
-0.15087113 0.016957313 0.0527193 0.003645728 -0.0083393045 0.018076612 -0.012449965 -0.019520907
-0.014071644 0.058443964 0.0077796453 -0.0066898214 0.052233078 0.034922574 0.039806817 -0.045687426
00000000: c5e0 fa3b e668 403c 084a 48bd a248 a33c
00000010: bcdb bdbd 0a53 a73d 7a21 c83c 5d0e 1b3c
00000020: 3c12 87bc 01b9 6d3c ea49 873d d2e7 71bd
00000030: b24e eb3b 4aab 11bc 175a fabd 6e64 0bbc
00000040: 174b 513c fa0a c1bb 7414 1d3c 983d 8b3c
00000050: 5d2a f63c dfc1 27bd ca27 753c b497 b4bc
00000060: 71a9 823d 93d9 2ebc f040 5e3c 4966 6cbc
00000070: f5ac 27bd 4cc2 4f3c ad19 023c e43b 46bd
00000080: db1c ed3c 4830 703c 6ee7 823c e6a7 60bc
00000090: b06d 53bc 4370 6cbc eaca 3dbc 39fc e1ba
000000a0: 6eae e93b 0942 d8bc deeb 2bbc 5136 d8bc
000000b0: cb4a 0c3d c842 183c 2c56 5f3c b151 d6bc
000000c0: 362c 8dbb 3267 61bd 2b7b 9abd dcd9 d6bc
000000d0: 2677 80bd 34be b1bb 628e 1dbd 06f0 0b3c
000000e0: b03c 1dbc ea21 09bc 488b 85bc 95c6 903c
000000f0: 6374 93bd d5ea 8e3c 041c 203c 2dd4 18bb
00000100: 474a be3b b049 593c f64b 2dbc 3c6a 92bc
00000110: 164a 4abd 1328 3dbc e62b 39bd 970d 57bc
00000120: f137 0b3b 5b3b 69bc cf83 763c 742c f23b
00000130: 53e8 f7bb 9880 d3bd 83c2 593c a65f 7d3c
00000140: c343 f1bb 3975 063d 9260 82bc f39c 2bbc
00000150: 85f9 9f3b bd55 243c 2830 e9bb 928e a73c
00000160: 52f8 2a3d c8e7 5d3c 8263 a2bc 15df 05bc
00000170: abf3 3b3d 2223 c73c d5ce a6bc 135b 25bc
00000180: 7b7a 3dbd c8f5 193c 43dc 0cbd 59bc c33b
00000190: 2d1a aabc ca40 23bc 2d41 03bc 243a bcbb
000001a0: f7e1 dd3b b51a 57bb 2d32 4b3c daf4 a8bd
000001b0: 0df5 9cbd 4865 85bd aee3 2abc 2112 423c
000001c0: f67d 1abe 10ea 8a3c 31f0 573d 2bed 6e3b
000001d0: 94a1 08bc 6715 943c f0fa 4bbc 4fea 9fbc
000001e0: c18c 66bc f062 6f3d 65ec fe3b 4a36 dbbb
000001f0: 5af2 553d f90a 0f3d 790c 233d bd22 3bbd
