checkpoint_critic0.pth (torch_old, 159653 bytes, 5 tensors)

fc1.weight f4 [256, 24]
000000 79 cd 16 bc f8 26 29 bd 10 08 e1 3c d3 4f bd bc
       -0.009204262 -0.04129693 0.027469665 -0.023109352
000010 6d 58 a6 bd 84 5f d3 bd 72 48 a6 bc eb 35 36 3d
       -0.08122335 -0.103209525 -0.020298216 0.044485014
000020 87 4d 92 bc 28 86 dd bc 3a d2 6f bd 08 e3 2d 3d
       -0.017859234 -0.02704151 -0.058550097 0.042452842
000030 a0 60 3c 3d 57 a1 05 bd a0 1f 29 3d 02 a5 4f 3d
       0.045990586 -0.03262457 0.041289926 0.050694473
000040 3c 62 67 3c e0 aa 66 bd 64 1f 4d 3d 93 45 2f 3c
       0.014122542 -0.056315303 0.050078765 0.01069774
000050 56 e6 be bb ae dc 98 3d ae 5f 39 bd 9d 3d 1c 3d
       -0.005825798 0.07463966 -0.045257263 0.038144697
000060 87 b3 9f 3d 3a 58 67 3c c0 f0 38 ba ff a5 76 3d
       0.07797914 0.014120156 -0.00070549175 0.0602169
000070 5b ab fd bc 1a 60 62 bd a9 1c 34 3d 91 a2 1f 3d
       -0.030965498 -0.05526743 0.043972645 0.038973395
000080 b8 75 77 3c 32 e5 18 bd 53 10 e1 3b 92 d8 5d 3d
       0.01510375 -0.037327953 0.006868401 0.054161616
000090 d7 cf b1 3c a0 78 2e 3c 94 02 ef bc 60 6f 55 3d
       0.021705551 0.010648876 -0.029176034 0.05210817
0000a0 02 cc 60 3d bf fe 59 bd 56 6f b9 bc 91 0e ca bd
       0.054882057 -0.05322146 -0.022636097 -0.098660596
0000b0 ba 34 00 3e 16 da e3 bb 44 0a a2 3c 6f e5 90 bd
       0.12520114 -0.006953488 0.019780286 -0.07075011
0000c0 02 f8 0d 3d a5 16 71 bd 73 65 09 bc 50 bc 91 bd
       0.034660347 -0.058859486 -0.008386004 -0.07115996
0000d0 ae bc 33 bd a6 b0 73 bc 7a ab 53 3c 12 89 6c bd
       -0.04388111 -0.014873659 0.012919301 -0.057747908
0000e0 6b 2e 93 3c 20 17 7e bd 67 f5 39 3b 8b a0 bc bb
       0.01796647 -0.062033772 0.002837503 -0.005756443
0000f0 bb cc ec 3c d5 9f 72 bc f9 c5 8c 3c 9d fa 90 3d
       0.028906217 -0.014808615 0.017184244 0.07079051
000100 81 4c 54 3d 0d c9 9b bd 7c 5a 81 3d 52 9c 59 3d
       0.051830772 -0.07606707 0.06316087 0.053127594
000110 2b 32 79 3d ea 35 c6 bc 94 01 80 3b 76 a9 63 3d
       0.06083886 -0.02419563 0.003906438 0.055581532
000120 da 2a 8d 3c 2b a3 8c 3c a6 6c 4e 3c e9 c9 52 bc
       0.017232347 0.017167648 0.012599146 -0.012865522
000130 5d 29 fd bc 15 c6 87 3c d1 ff c1 3c 9f c8 f0 3b
       -0.030903513 0.016573945 0.023681553 0.0073481346
000140 cd 42 d6 bb 14 fe 18 3d a9 c0 51 bc 48 1c e0 3c
       -0.006538725 0.037351683 -0.012802281 0.027357236
000150 9e db f1 3c 4a ac f2 bd 57 8e 51 3d 38 21 4e bd
       0.029523667 -0.11849268 0.051161136 -0.05032465
000160 0d dc 85 bd 06 f6 c5 bc 78 57 80 3c d2 4c 84 bb
       -0.06536112 -0.024165165 0.015666708 -0.004037478
000170 fb 78 f5 3c 2d 8c c8 bd 0a 79 fb 3c 92 15 48 bc
       0.029964915 -0.097923614 0.030697364 -0.012212174
000180 bf c0 1e 3d 4b 7c 35 3d 72 78 85 bc 7f 0c 9a 3c
       0.038758036 0.044307988 -0.016292784 0.018804787
000190 66 ed 00 3d f6 d6 97 bc bd de 35 3d 4f ca d8 bc
       0.0314764 -0.018535119 0.044401873 -0.026463656
0001a0 da 36 38 bd 5e a6 ed 3d 4d d5 0a bc b3 08 1a bd
       -0.044974186 0.11603998 -0.008473706 -0.037605952
0001b0 b3 fe f8 3d 56 a6 d8 bd 88 20 f8 bc d7 16 73 3d
       0.12157955 -0.10578601 -0.03028895 0.059347954
0001c0 37 78 f9 3c c2 9b b6 3d 16 50 08 bb e9 eb 05 3d
       0.03045283 0.08916427 -0.0020799688 0.032695685
0001d0 ba b7 4d 3d 6f 47 a6 bd c0 e6 20 3d d0 a1 1e bc
       0.050224043 -0.081190936 0.03928256 -0.009682134
0001e0 f8 bb 55 3d 17 ff 48 bd ad 86 80 3c 39 e8 2c bc
       0.052181214 -0.049071398 0.015689218 -0.010553413
0001f0 d2 22 32 3d 29 42 9f 3d 5c 08 ce bc 02 a8 54 bd
       0.04349024 0.07776291 -0.02515047 -0.051918037
000200 df c2 7c 3d 4a 64 8e bd 00 ee 78 3c 34 22 9f 3c
       0.06170928 -0.06952722 0.015193462 0.019425489
000210 01 22 16 bd 16 32 a0 3d 10 51 1c bc a3 54 88 bb
       -0.036653522 0.07822053 -0.009540811 -0.00416048
000220 07 40 e6 3c c8 6a 12 3c c8 03 c9 bb 76 65 d5 3b
       0.028106702 0.008936591 -0.006134484 0.006512339
000230 95 a2 11 be fe ad 0f 3e 9e 56 1b 3c d0 37 88 bd
       -0.14222176 0.14031217 0.0094811 -0.066512704
000240 92 42 56 3d d4 97 fc 3d 84 0b 52 bd e1 f5 81 3b
       0.05230958 0.123336464 -0.051280513 0.0039660786
000250 59 a5 b4 bd 9e d7 27 3d 1b 81 2e bc a8 69 6b 3d
       -0.088206 0.040977113 -0.010650898 0.05747381
000260 43 90 f9 3c 75 81 08 3e 73 1e 20 3d 9f a6 34 3d
       0.030464297 0.13330634 0.03909154 0.044104215
000270 fe 34 28 bd 96 f1 fb bc 39 d9 2d bd 37 17 32 bb
       -0.041066162 -0.030754846 -0.042443488 -0.0027174482
000280 8a 2e f5 3c 47 55 25 3e 41 6f 70 bc f5 d2 b0 bc
       0.029929418 0.16145812 -0.0146749625 -0.021584967
000290 ef 38 b5 3d b3 cb af bd 6e ae 8d bc 7f 97 a1 3c
       0.0884875 -0.085837744 -0.017295089 0.01972556
0002a0 a1 c1 27 3d 75 52 38 bd d5 ee 21 3b 5d c8 ca bb
       0.040956143 -0.045000512 0.0024709005 -0.006188436
0002b0 7e 2b 02 bd 3d 52 d6 3c bd d6 14 3d b9 b0 86 3c
       -0.03177976 0.026162261 0.036337603 0.01644169
0002c0 48 87 0b 3d 8e 28 db bc 81 d0 3a bd 75 af 8b bd
       0.03406456 -0.026752736 -0.045609 -0.06820575
0002d0 1d c0 4a bd 69 5a e8 bc 12 a4 d4 3c 62 6b d0 3a
       -0.04949962 -0.028363423 0.025957141 0.0015901143
0002e0 6a 54 ea bc 51 3d c5 bd 3b ee 07 bc 77 61 88 3d
       -0.028604705 -0.09630836 -0.008296545 0.06659215
0002f0 a7 a8 08 bd 01 fb 9b 3d e0 3b 5a 3c f3 4b fe 3c
       -0.033363964 0.076162346 0.013319939 0.031042075
000300 a5 d2 82 3c 29 15 aa bc 47 3e cd bc 60 c7 12 3d
       0.015969584 -0.020762043 -0.02505411 0.03583467
000310 05 1f 5c 3b d3 a5 64 3d 15 04 81 bb 06 d9 3d 3c
       0.0033587825 0.055822205 -0.003937254 0.011587387
000320 1b 62 af bc a6 03 28 3d ac 4b 1f 3d 64 cd c9 3d
       -0.021409085 0.041019104 0.038890526 0.09853628
000330 db 17 a9 bc 5c a8 a0 3d 6c 9d 37 bd bf 29 a2 3c
       -0.020641258 0.07844612 -0.044827864 0.019795297
000340 ff f4 ff 3c 32 6a b3 bc fe 73 03 bc c9 25 fb bc
       0.031244753 -0.021901224 -0.00802326 -0.030657666
000350 08 da db 3b 17 7d 98 3d 60 89 c8 bb c8 d9 61 bd
       0.006709341 0.07445734 -0.006119892 -0.055139333
000360 b0 0c 6d bd 6c 9a a9 3c 98 36 02 bc be 50 a8 bc
       -0.057873428 0.020703517 -0.0079475865 -0.020546313
000370 84 4a 8c bc c6 c2 6f bd 3b d6 75 3d d2 9b e9 bc
       -0.017125376 -0.05853536 0.06001876 -0.028516684
000380 43 ef 4d 3d cd e6 31 bd b0 e9 4a 3d b8 5a 10 bd
       0.050277006 -0.043433 0.049539268 -0.035242766
000390 56 bf fa bc 23 1d 15 bd 28 20 99 bc 22 55 3b bd
       -0.030608814 -0.03640474 -0.018692091 -0.045735486
0003a0 a1 d6 0c bd f6 de 28 3d d2 fb 49 bd 1f df 1b 3d
       -0.034384374 0.041228257 -0.04931242 0.03805458
0003b0 73 db 62 bd 65 3b 3b 3c a0 c6 00 3d 9e 78 04 3b
       -0.055385064 0.011427735 0.031439424 0.0020213495
0003c0 a5 d2 42 bd ed 29 70 3d 09 8e 24 3d 26 bd ec bc
       -0.047564168 0.058633734 0.040174518 -0.028898787
0003d0 6a 7c 56 bc 8c 0b 4d 3d 2a 89 dd 3c d4 f2 a5 3c
       -0.013091186 0.05005984 0.027042944 0.020257391
0003e0 19 ca 83 bc 1f 66 cc 3c 84 5f 03 3d 40 05 af bc
       -0.016087579 0.024951039 0.032073513 -0.021364808
0003f0 fb 27 1f 3d 04 b8 00 bd 92 84 56 bd c3 d9 08 bc
       0.038856488 -0.03142549 -0.052372523 -0.0083527

fc1.bias f4 [256]
000000 41 b8 ac bd 43 71 cb 3d 2c 82 a3 3d fb dc e3 3d
       -0.08433581 0.09933712 0.07983813 0.11126133
000010 df 26 92 bd 34 6f 65 be 94 de 47 be 50 0f a3 bb
       -0.0713632 -0.22405702 -0.195185 -0.0049761906
000020 30 bb 80 be 28 09 28 be 35 e7 eb 3d 57 df 95 bd
       -0.25142813 -0.16409743 0.115187086 -0.07317989
000030 e1 7f 9e 3d 4d 09 51 be f2 35 ba bc 44 d7 54 3e
       0.07739235 -0.20413704 -0.022730801 0.20785242
000040 34 7f 28 3c 05 d6 95 bd 1a e7 42 be ee 22 2a be
       0.010284234 -0.073162116 -0.19033471 -0.16614887
000050 1c e5 82 3d 5d 21 5c be 14 99 cd bc 9b 1f 26 be
       0.063913554 -0.21497102 -0.025097407 -0.16222994
000060 bb ac 04 3c b6 27 5e be 16 93 30 3c eb 10 09 3c
       0.008097823 -0.21694836 0.0107772555 0.00836585
000070 62 ac 35 be b3 23 4a bd e2 3b 9d bd 3e 63 bf bd
       -0.1774154 -0.04935045 -0.07677437 -0.09345101
000080 60 3f 6f bd ad 9c d3 3c f7 20 c6 bd c2 97 3f 3d
       -0.05841005 0.025831545 -0.09674256 0.046775587
000090 0e 45 31 be 3c 54 80 3e c3 66 04 be 4b 99 af 3d
       -0.17311499 0.25064266 -0.12929825 0.0857416
0000a0 42 75 d4 bd d7 c8 fa bd 8f 35 67 bd ec 19 17 be
       -0.10373928 -0.122453384 -0.05644756 -0.14755982
0000b0 48 f3 de bd ac ae fa bd 4b 38 8c bd 02 14 47 be
       -0.10886246 -0.12240347 -0.068466745 -0.19441226
0000c0 ca e3 1e 3e a5 d6 d7 3d 75 96 87 bd 66 b5 19 3e
       0.15516582 0.10538987 -0.06620494 0.15010604
0000d0 fa 78 6b bd 8c f9 2c be 5b c1 f1 3c c7 05 94 bd
       -0.05748842 -0.1689207 0.029511144 -0.072276644
0000e0 a3 cd 0f 3e 43 47 97 bd 6e 25 25 be cb e3 5c 3e
       0.14043288 -0.07386639 -0.1612756 0.21571271
0000f0 05 0e 90 3d 04 58 96 3d 5b 89 d2 bc ab 59 4d be
       0.07033924 0.073410064 -0.025700262 -0.20053737
000100 0b b9 f3 3c 43 66 b5 bc 12 f6 2d be 47 7b ce 3d
       0.029751321 -0.022143489 -0.169884 0.10082107
000110 0a fb 39 be 3e 62 04 be 59 59 a2 bd 1c b3 48 be
       -0.1816217 -0.12928101 -0.07927198 -0.19599575
000120 57 23 45 be 3d 13 49 bd 33 43 35 bb 9a 81 2e 3e
       -0.19251762 -0.049090613 -0.0027658462 0.17041627
000130 09 82 70 3d 64 a0 4a 3e 2d 16 57 3d b9 b5 3a bd
       0.05871776 0.19787747 0.052511383 -0.04558346
000140 0a f6 bc bc 5d 16 7c bd ad 13 56 be 2a 83 4d be
       -0.02306654 -0.061544765 -0.20905943 -0.20069566
000150 7b 23 c9 3d 64 71 fb bd f2 ab 64 bd d9 40 9e 3d
       0.098212205 -0.12277487 -0.055828042 0.077272125
000160 1d f6 e7 bd e4 8d 21 3d a5 b4 5b bd 3c 9a 13 3d
       -0.11326239 0.039441958 -0.053639073 0.03603576
000170 74 9c fd bd b1 7d 39 3e 43 ce 3b be 69 60 53 be
       -0.12383357 0.18114354 -0.18340401 -0.20642246
000180 46 81 0b 3e bf 58 0d be 42 42 40 3e c1 d3 b5 3d
       0.13623533 -0.13803385 0.18775275 0.088782795
000190 dc c4 fd 3d 22 99 ef 3c 65 a8 d4 bc ac 99 e2 3d
       0.123910636 0.029247824 -0.025959203 0.11064467
0001a0 5d c7 3b bd a1 7d 23 3e c6 20 1c 3e e9 5f b1 bd
       -0.045844425 0.15965892 0.15246877 -0.086608715
0001b0 b5 56 46 3d 0f e0 9b bc 3c 3f c5 bd 1a 67 08 be
       0.048422534 -0.019027738 -0.096312016 -0.1332058
0001c0 4d b5 8c bd 98 c0 50 be 91 67 78 bd 57 15 c1 3d
       -0.06870518 -0.20385969 -0.060645644 0.094278984
0001d0 d1 91 4a 3e c3 08 46 be 5e be 3c be d3 3d 3d 3e
       0.19782187 -0.1933928 -0.18431994 0.18480615
0001e0 af 08 7b bd 38 f7 c4 3c 9b 15 57 3d aa 40 2d 3e
       -0.06128758 0.024043664 0.05251084 0.16919199
0001f0 2d af a7 3d 51 7e a8 3d 42 36 9d bd ae bd 2c 3c
       0.08187709 0.08227218 -0.076763645 0.01054327
000200 98 33 7c 3d 80 cf 60 be ef 49 43 be 3a eb 5e 3d
       0.06157264 -0.21954155 -0.19071172 0.05442355
000210 06 dc 60 be 72 94 02 3e 34 2a 07 3e a8 9d 0e 3e
       -0.21958932 0.1275194 0.13199693 0.13927329
000220 8e 8b d1 3c 48 71 40 bb 49 f2 14 3d d3 0a 1e 3e
       0.02557924 -0.0029364396 0.036363874 0.15433817
000230 68 d1 06 bc 4f bb ef bd 63 ca f2 3d 9a b9 6d 3b
       -0.008228637 -0.11705648 0.118550085 0.0036273957
000240 f3 53 1c 3e f9 f7 30 be 40 6b b7 bd 14 d0 04 be
       0.15266399 -0.17282094 -0.08956003 -0.1297
000250 e0 ef ff 3c 3c 8b 11 3e 78 a0 00 3c 74 33 34 3e
       0.031242311 0.1421327 0.007850759 0.17597753
000260 db 13 ea 3d ef 4e ef bd 31 69 3d 3e c1 fa 57 3d
       0.114295684 -0.11684977 0.18497159 0.052729372
000270 2e 97 2a 3e 4c ad 39 3d c8 47 86 bd 17 16 5a 3e
       0.16659233 0.045331284 -0.0655666 0.21297489
000280 b2 53 57 be 30 5b c7 bd db 27 f2 bc 7a 52 1d bd
       -0.21028021 -0.097341895 -0.02956002 -0.038408734
000290 54 6f 83 bd 2a 79 26 3e 5d 24 f1 3b 36 6a 98 3d
       -0.064177185 0.16257158 0.007359071 0.07442133
0002a0 20 73 95 3d 60 0e 40 3e a1 e4 ae 3d 52 95 42 be
       0.07297349 0.18755484 0.08539701 -0.19002274
0002b0 77 ee 37 be 02 9e 49 be b0 f5 51 be 7f b1 50 be
       -0.17962061 -0.19689181 -0.20503879 -0.2038021
0002c0 df 51 97 3b 2b 59 18 3e d7 49 2b be 3d 60 8b 3d
       0.004617914 0.14877765 -0.16727386 0.06805465
0002d0 7a 86 04 be 7a e0 29 3e 56 c5 04 3e 2b 03 99 3d
       -0.12941924 0.16589537 0.12965903 0.07471307
0002e0 9c 99 4b 3e 83 ae 2e be 25 84 4d be 47 dc d3 bc
       0.19882816 -0.17058758 -0.2006994 -0.025861872
0002f0 71 9b 24 3d b3 15 1a 3e 45 30 c5 3d 14 fc c1 3d
       0.040187303 0.1504734 0.09628347 0.09471908
000300 85 c4 41 bc ae c0 f8 bd de 3a 43 3e fa 93 82 be
       -0.011826639 -0.12146126 0.19065425 -0.25503522
000310 75 a0 3d be 81 9c 31 3e 7e 83 17 3e 8a 96 9a 3d
       -0.18518241 0.17344858 0.14796254 0.07548244
000320 45 60 40 bc bb 3a 8f bc f9 3a cf 3c f2 9e b7 bd
       -0.011741702 -0.01748406 0.025296675 -0.08965863
000330 6f 1b 4d 3e 0c 30 39 3e bb 8b 62 bd 59 ee 0c 3e
       0.20029996 0.18084735 -0.05530904 0.13762797
000340 d5 0c 6f bd 6e c1 04 be f1 48 e5 3c 79 17 b1 bd
       -0.058361847 -0.12964413 0.027988883 -0.08647055
000350 9f bf 04 3e e9 13 d4 bc 00 c2 df bd c9 98 0f be
       0.12963723 -0.0258884 -0.109256744 -0.14023127
000360 51 2f 37 3e bc a8 d1 3d a8 d0 84 3d dc e2 eb bc
       0.17889144 0.10237262 0.064851105 -0.028794698
000370 5b ab 02 bd 4e 30 42 3d 03 a6 58 3e 8e 65 8a bd
       -0.0319017 0.04740935 0.21157078 -0.06757651
000380 1d f5 fd 3c 27 55 64 be 56 79 85 3d 73 3a 09 bd
       0.031000668 -0.22298108 0.065172836 -0.033503007
000390 b4 d9 2d 3d ac db cb bd 68 f7 50 3e 8e 9b e2 3d
       0.042443946 -0.099540085 0.20406878 0.11064826
0003a0 f1 e2 da bd 79 cc 6b bd 13 0e a5 3d 97 7a 6d 3d
       -0.10687817 -0.057568047 0.08059325 0.05797824
0003b0 69 60 b7 bd 18 05 ab 3d a0 e7 5a 3d ba 60 b3 3d
       -0.08953936 0.08350581 0.05344355 0.087586835
0003c0 ec ef e7 bd 6f 1b cb bd 10 c6 d6 3d f6 1a 1d 3d
       -0.11325058 -0.09917342 0.10486996 0.03835579
0003d0 12 bc d0 bd d6 0b 0a 3e 93 7a 14 bd 71 18 08 be
       -0.101921216 0.13481078 -0.03624971 -0.13290574
0003e0 cc 5d cb 3c b0 03 be bd 8b 10 20 bd e5 80 35 be
       0.024825 -0.09278047 -0.039078277 -0.1772495
0003f0 45 72 ee 3d b3 4f 84 3e 1f 0d 28 be ab 51 1d 3e
       0.11642889 0.25842056 -0.16411255 0.15363185

fc2.weight f4 [128, 258]
000000 d6 65 69 bc 7d e4 c7 bc db 95 9f 3d 4e bc 85 3b
       -0.014245471 -0.024400944 0.077922545 0.0040812856
000010 e1 cf 85 3d 86 ea 6c bd 64 8d b8 3d 23 22 26 3d
       0.065337904 -0.057840846 0.09011343 0.0405599
000020 ee f2 b8 bd 5e 78 42 3c cf f2 38 3c 3e 35 10 be
       -0.0903071 0.011869518 0.011288359 -0.1408281
000030 bd 94 a7 bc 03 ce a4 bd 1d e5 2e 3c 04 55 a6 3d
       -0.020456666 -0.08047106 0.010674742 0.08121684
000040 7f 79 49 bd 1c fe 1d 3d 7d fd 44 3d 62 aa 5e bd
       -0.049188133 0.038572416 0.048093308 -0.05436171
000050 b0 3a 87 3c 08 9f 67 bd b7 56 38 3d 7a 06 44 3d
       0.016507477 -0.05654815 0.045004573 0.04785774
000060 3f c5 d0 bd 20 9c 61 bd 68 24 39 bd 1e d8 54 3d
       -0.10193872 -0.055080533 -0.045200735 0.051963918
000070 77 c9 fe 3a 93 45 a1 3c c7 ea 33 3d 36 a3 f7 3c
       0.0019438703 0.019686496 0.043925073 0.030229192
000080 07 83 52 3d 30 48 14 3d 6a f7 52 bd 7b 34 d4 3d
       0.05139449 0.036201656 -0.051505484 0.10361572
000090 f8 0e 12 bd b4 fd e4 3d 0c 92 9d bd ca bd 76 bd
       -0.035658807 0.111812025 -0.07693872 -0.06023959
0000a0 f0 35 16 3d 81 f8 0f 3b 4c 0f dc 3c 5d 75 9c bd
       0.036672533 0.0021968188 0.026862763 -0.07639573
0000b0 27 f8 c2 bd 53 72 85 bd 6a 4d 96 bc 7b 9f 02 bc
       -0.095199876 -0.06515946 -0.01834746 -0.007972593
0000c0 aa 62 85 bd e6 ef e3 3c 63 be 2f bc 94 30 e5 3c
       -0.06512959 0.027824353 -0.010726544 0.027977265
0000d0 a2 63 95 3d 38 ad 2c 3d 0d b6 a9 bd 9a 64 70 3d
       0.07294394 0.04215738 -0.082866766 0.05868969
0000e0 c8 f7 18 bd c3 21 52 3d 37 2f 68 3c 48 95 5e 3d
       -0.037345678 0.05130173 0.014171413 0.054341584
0000f0 b1 6b 12 bd 83 df e0 3c 63 53 7d 3d 9f 2a 88 bd
       -0.035747234 0.027450329 0.061847102 -0.06648754
000100 23 d6 9e bc 60 6b 8e bd e3 af 48 bd 0b 0b b3 bc
       -0.019389218 -0.06954074 -0.048995864 -0.021855852
000110 4a 55 e3 39 45 b1 59 bd 0a 34 1c bc 51 12 29 3d
       0.0004336036 -0.053147573 -0.009533891 0.041277234
000120 32 ff d0 ba 95 d9 e9 3c 0f ca 52 bd 77 47 01 3d
       -0.0015945195 0.028546134 -0.05146223 0.031562295
000130 b4 f8 12 3d b1 99 ed 3c a9 2d 86 3d f0 27 c7 bd
       0.035881713 0.02900395 0.06551678 -0.09724414
000140 cf 0d e0 3b ff 48 4f 3c 67 68 5d 3d 54 ee 7a bd
       0.0068375836 0.012651681 0.054054644 -0.061262444
000150 3c 88 ca 3c 24 04 cc 3c 81 5c 72 bb 59 75 1e 3d
       0.024723165 0.024904318 -0.0036981406 0.03868613
000160 75 86 00 bd a9 a3 3b bc 07 aa 74 3d 2f d2 f6 bd
       -0.03137823 -0.011452594 0.059732463 -0.12051808
000170 07 39 ce bd c7 18 6a bc 2f f3 25 3d 91 7d 95 b9
       -0.10069471 -0.014288134 0.04051512 -0.0002851305
000180 17 9c 95 3d 7c e0 ad bc 21 87 51 bd ff 3b 69 bd
       0.073051624 -0.021225207 -0.05115426 -0.056941982
000190 19 55 dc 3d e0 c2 de 3a e8 ef 53 bd db 84 0f 3d
       0.107584186 0.0016995333 -0.051742464 0.03503881
0001a0 0e a2 2f bd bc 67 55 bd bb 60 d8 bb f3 da d5 bd
       -0.042879157 -0.052100882 -0.006603328 -0.10442152
0001b0 a4 c1 ec 3c 15 aa de 3c 71 8a 55 3c de da 86 3d
       0.028900929 0.02718071 0.013033495 0.06584714
0001c0 93 83 6b bd 41 60 01 bd 17 8a 27 bd c7 ef 84 3d
       -0.057498526 -0.031585936 -0.040903177 0.064910464
0001d0 56 94 bf bd 4e 48 f2 bc d3 01 94 3d 6a 54 95 3d
       -0.09354465 -0.029575493 0.072269104 0.07291491
0001e0 31 53 8a bd e0 5f 16 3d 69 1c 1c bd 02 65 94 3b
       -0.06754149 0.036712527 -0.03811303 0.0045286426
0001f0 66 1a d7 bd e1 1b 5a bd 67 fc 10 bd 4b 12 49 bc
       -0.10503082 -0.053249244 -0.03539696 -0.012272428
000200 81 f8 83 bd bb d7 05 bd 5a d5 0d bd 20 2b 21 3c
       -0.06443883 -0.03267644 -0.034627296 0.009836942
000210 7f 30 8b bc d6 f3 d4 3c e7 b5 e9 3c d4 b5 e9 bb
       -0.016990898 0.025995176 0.02852912 -0.0071322713
000220 ea 99 8b 3d fa 2a ae bd 99 c8 62 3d 6d f1 88 3d
       0.06816466 -0.08504291 0.055367086 0.06686673
000230 a6 76 9a bc 30 68 71 3d e9 42 25 3d a2 d0 c9 3c
       -0.018855404 0.05893725 0.040347014 0.024635617
000240 98 ec 02 3d cc 6c 18 bd 21 f4 5f bc 69 eb f0 bb
       0.031963915 -0.03721313 -0.013669045 -0.007352282
000250 ac 33 a9 3d 9e 52 0e bd 94 33 51 bd 4f 2c 22 3d
       0.08261809 -0.03474676 -0.05107458 0.039593037
000260 8a 0a b2 3c d1 66 cd 3c 10 e4 49 bd 56 40 57 bd
       0.021733541 0.02507344 -0.049289763 -0.05255159
000270 77 4f 46 3d 94 64 ad 3d d7 f6 3c 3c 41 3f db 3d
       0.048415627 0.084664494 0.011533461 0.10705424
000280 09 b1 49 bc 9d 05 3c 3d bf 23 5e 3d e5 d3 54 bd
       -0.012310275 0.04590379 0.05423331 -0.05195989
000290 fa 5f 47 bd 8d 2f cc 3c d0 9d 2e bd bb ae be bc
       -0.048675515 0.024925018 -0.04263097 -0.023276677
0002a0 4b 72 4e 3d cb 56 bd 3b f6 28 ed bc f7 72 ad bd
       0.050401967 0.005778169 -0.028950196 -0.084691934
0002b0 5b 10 ae 3d 94 ef 7e 3c 98 10 97 bd a1 aa 0a 3d
       0.08499213 0.01556005 -0.07376212 0.03385413
0002c0 f8 5a 9c 3d ca 93 b2 3c 7e e1 44 3c f8 eb 7a bc
       0.076345384 0.021798987 0.012016652 -0.015315048
0002d0 4c ea cf 3c 98 d2 4a bd 31 e5 3e bd da 28 a6 bc
       0.025380276 -0.049517244 -0.046605293 -0.020283151
0002e0 af d9 98 bd bc d5 11 3b b8 62 b3 3d bb e2 58 bc
       -0.07463395 0.002225264 0.087590635 -0.0132376505
0002f0 ec fd 29 be f7 5d 85 3c 6c 34 ab 3c 19 40 b4 bb
       -0.1660077 0.016280157 0.02089902 -0.005500805
000300 54 26 fa 3b 2e b2 b8 bb 7b cf 31 bc f4 69 db 3c
       0.0076339636 -0.005636475 -0.01085269 0.02678392
000310 28 ac 56 3d fe 3d 80 3d 93 a9 cb 3d 84 1c a4 3c
       0.052410275 0.06261824 0.09944453 0.020033129
000320 f2 5e b9 3d ce f9 6c 3c 39 b9 61 3d 6b a5 70 bc
       0.090513125 0.014463855 0.055108283 -0.014687876
000330 97 6d 07 3d 44 e5 76 bd ed 70 b2 3d 2c 08 31 bc
       0.033063497 -0.06027724 0.08712945 -0.010805171
000340 b7 06 93 bc 82 5e 35 bd 12 b6 1c 3c 6d a3 cb bc
       -0.017947538 -0.044279583 0.009564893 -0.0248582
000350 2f 03 a3 3d f7 6f ce bb 73 b2 01 bb 12 63 ac 3d
       0.079595916 -0.0062999683 -0.0019790202 0.08417334
000360 83 7a 5e 3c ca 9c 99 bd cc 76 ad 3d b1 ad aa 3d
       0.013579014 -0.07500608 0.08469924 0.0833391
000370 58 bf d3 bc a8 0b 12 bd ac 12 bb 3d 68 1b be bb
       -0.025848076 -0.035655648 0.09134421 -0.005801607
000380 5d c4 c7 bc dd af 98 bd bd 97 24 bd 80 49 8d bd
       -0.024385625 -0.07455418 -0.04018377 -0.06898785
000390 7a c6 f6 bd 6d 86 3a bd 15 15 60 bd aa b2 c2 bc
       -0.12049575 -0.045538355 -0.054707605 -0.023766834
0003a0 c5 0a 38 3d e2 5e f2 bc e2 f8 99 3d 3b 64 9c 3d
       0.044932146 -0.02958626 0.07518174 0.07636305
0003b0 4c 5e 0b bb cb 41 4d 3c 1f 98 ea 3b eb f7 8d 3d
       -0.0021265922 0.012527893 0.0071592475 0.06932052
0003c0 7e aa 24 bd b2 bb c8 bc 5f c2 16 3d e8 57 7d bc
       -0.040201657 -0.024503563 0.03680646 -0.015462853
0003d0 0a 46 b1 3d 90 20 83 bd c9 b1 55 bd bc b3 c5 bc
       0.08655937 -0.06402695 -0.052171502 -0.024133556
0003e0 3c a6 e3 bc fd 4e ed bc 9c 51 5b 3c 9a 76 71 bd
       -0.027789228 -0.028968329 0.013386156 -0.058950998
0003f0 9b 5e 2f bd e0 86 00 3e 24 0c 57 3d 2b 29 a7 3d
       -0.042814832 0.1255145 0.052501813 0.08162149

fc2.bias f4 [128]
000000 46 e6 80 3d fa f0 2a 3d 58 6f 65 bc 4a 68 b6 3a
       0.06293921 0.04173372 -0.014003597 0.0013916579
000010 f9 6d 6f bd c5 73 a9 3b a2 a6 6a 3d 58 1d 05 3d
       -0.058454487 0.0051712715 0.05728782 0.032498688
000020 7d d5 40 3c f7 6b a5 bd 57 be 8b 3d b5 ac 92 bd
       0.01176965 -0.08077233 0.06823414 -0.071618475
000030 bc 88 87 3d 6e 39 3d bd cb f8 59 bd e4 ce 32 bd
       0.06617877 -0.046197347 -0.053215783 -0.043654338
000040 20 51 29 3c bd af a7 3c 9c 24 7f 3d 8a 84 fe 3c
       0.010334283 0.02046954 0.062290773 0.031069059
000050 75 a4 ad bc 98 f6 48 ba 5f 3d 5b 3b ba 2e 7e bd
       -0.021196583 -0.000766614 0.0033453328 -0.06205628
000060 c7 be b5 3c 47 54 0f bd a9 12 19 3d 66 9d 84 3c
       0.022185696 -0.034992483 0.03737131 0.016188335
000070 5d ac ad bc a9 92 5d 3d dd ef c3 3c 54 f2 3d 3d
       -0.021200353 0.054094944 0.023918087 0.04637368
000080 f4 8c 3e 3b d8 b7 df 3c 59 62 29 bd e4 fe 85 3d
       0.0029075714 0.027309343 -0.041353557 0.06542757
000090 39 a1 e0 bb 28 bb 95 bb ae 9d b6 3d 64 6b 02 bd
       -0.0068551567 -0.00456943 0.08916794 -0.031840697
0000a0 c9 54 2b bd fb 02 b6 bd db a8 47 3c f9 ef cf 3a
       -0.041828904 -0.08887287 0.012186254 0.0015864364
0000b0 9a 71 81 3c 3b 9c 94 bc aa 69 4b bc 2c 54 28 bd
       0.01580124 -0.018140903 -0.012415329 -0.041095898
0000c0 d1 65 65 3c 82 51 8e 3b 72 4b 19 bd de c0 7f 3c
       0.014001326 0.0043432126 -0.037425466 0.015609948
0000d0 a4 27 0b bd 39 4c 46 bd e3 30 b1 3c b2 10 7e bd
       -0.03397335 -0.048412535 0.021629756 -0.06202764
0000e0 e2 f2 6d 3d a1 9b 97 bc 0c a6 26 3d 12 e4 65 bd
       0.05809296 -0.018506827 0.0406857 -0.056125708
0000f0 b9 95 b6 bb e3 b5 dc bc eb b3 87 bc 17 3b 1b 3d
       -0.0055720476 -0.0269422 -0.016565284 0.03789815
000100 0e fc 00 bd 67 bd 59 bd 53 9c b9 3c da 4f 13 3d
       -0.031490378 -0.053159144 0.022657549 0.035964824
000110 ec 4d 09 bd 12 ea c2 bd 1d af b2 bb 4c 3a 6b 3d
       -0.033521578 -0.095173016 -0.005453004 0.057428643
000120 5b 4c ca 3b e1 63 b7 3c a4 fd 06 bc 1e 3b 6d bd
       0.006173653 0.022386493 -0.008239184 -0.057917707
000130 e3 95 91 bd 4f 36 e5 ba a1 91 41 3d d3 b2 2f 3c
       -0.07108667 -0.0017487499 0.047258023 0.010723787
000140 d7 ae 0f bd 11 8c 76 bc bf 27 37 3d e4 77 9e bd
       -0.03507885 -0.015048043 0.04471564 -0.07737711
000150 3d 69 37 3d d5 b1 ee 3c 62 0b 32 bd c7 99 27 bd
       0.044778097 0.029137531 -0.043467887 -0.040918138
000160 85 05 1f 3c 2d d3 3d ba 6d 1a 48 bd 22 59 35 bb
       0.009705906 -0.00072412455 -0.048853327 -0.0027671535
000170 e1 4e b6 bd 0a 61 64 3c 2b d1 50 3d c0 a8 e4 3b
       -0.08901764 0.013939152 0.050980728 0.0069781244
000180 91 a0 b7 bc d1 92 57 bc 14 31 59 bc 3d 66 02 3b
       -0.022415431 -0.013157562 -0.01325633 0.0019897365
000190 b6 b7 21 3d c9 92 ff 3c 6c 02 93 bb d0 90 9d 3c
       0.03948184 0.031197922 -0.0044863727 0.019234091
0001a0 95 a1 fa 3c 5e e3 22 bd d2 fd a6 bc 41 0a 8b bc
       0.030594626 -0.039767615 -0.020384703 -0.016972663
0001b0 b0 1d e5 3c 25 3a 28 3a 45 f1 10 3d 66 77 cb 3c
       0.027968258 0.00064173556 0.035386343 0.024837207
0001c0 bf a3 8f 3c 92 f6 95 3d 1c 58 16 3d eb 4f 2d 3d
       0.017534135 0.0732242 0.03670512 0.042312544
0001d0 b4 e3 13 3c d4 9d 31 bd b7 8a 43 3d 4b 3c e4 3c
       0.009026457 -0.043363407 0.04773971 0.027860781
0001e0 2b 58 6a 3d 33 24 2d 3d 60 64 f2 bc 4b 38 49 bd
       0.05721299 0.04227085 -0.029588878 -0.04912595
0001f0 41 b3 43 bc 60 89 68 3c cc 7b c3 bc 86 59 04 bc
       -0.011944593 0.014192909 -0.023862742 -0.008077985

fc3.weight f4 [1, 128]
000000 90 c9 50 3c 19 a8 dd 3b 2d 4d 4a bd d6 1b 8a 3c
       0.012743369 0.0067644236 -0.049390007 0.016858976
000010 92 69 9e bc 79 e1 84 3c 77 6b 71 3c 61 94 70 bd
       -0.01933745 0.016220795 0.014735094 -0.058735255
000020 96 21 c4 bb a6 e0 60 bc 44 00 72 3c 24 23 35 bc
       -0.005985449 -0.013725435 0.014770571 -0.011055741
000030 d4 ae 96 3c 3c 47 c2 bc fa 01 1d bd 37 c5 9e bc
       0.018393911 -0.023715608 -0.038331963 -0.019381149
000040 a1 38 5b 3c 14 bd 5e bc 7a 0d 4e 3c 56 3e 94 3b
       0.013380201 -0.013594884 0.012576455 0.0045240326
000050 3d 6f 2b 3d 9f 41 4b bd be f6 4f bc 82 fe da bc
       0.041854132 -0.049623128 -0.012693105 -0.026732687
000060 e0 f3 9f 3c b8 08 07 3c 9e fd cb 3c 22 42 2a bc
       0.019525468 0.008241825 0.024901208 -0.010391744
000070 87 8f 16 be 58 a5 c3 3d 32 ae 0c 3d 4b b3 52 bc
       -0.14703189 0.09553021 0.034345813 -0.01286013
000080 21 b0 78 bc 67 17 a7 3c 15 6e 9c bd 1f 17 8e bc
       -0.015178711 0.020396901 -0.07638184 -0.01734501
000090 bb 40 29 bc 2a c8 97 bd 55 61 90 3c 96 69 3a bc
       -0.010330374 -0.07411225 0.017624537 -0.011377713
0000a0 58 30 26 3c 15 be 8a bb ca b1 9f bd 81 70 7e bc
       0.010143362 -0.0042340853 -0.077975824 -0.015529753
0000b0 ac 64 ee bc 0e 7d a1 3c 2b ab 55 3c 20 a2 61 bc
       -0.029100738 0.019712951 0.013041298 -0.013771564
0000c0 96 13 08 3c f8 9d a3 bc e6 24 92 3c d1 92 bf bb
       0.008305451 -0.019972786 0.01783986 -0.0058463593
0000d0 88 ca 09 bd e7 d7 8c bc 06 a5 68 bc b9 97 33 3d
       -0.033640414 -0.017192794 -0.014199501 0.043845866
0000e0 85 ca 8d bc b5 c2 67 bc df 90 89 bc c1 af 8f bc
       -0.017308483 -0.014145543 -0.016792713 -0.01753986
0000f0 f4 65 93 bc 89 ff b7 bc 87 38 73 3c 0e 65 b9 bb
       -0.017992951 -0.022460716 0.01484502 -0.0056577986
000100 64 0a 5a bd 84 bb 2e 3d 1e aa 3e bc c2 98 42 bd
       -0.053232566 0.042659298 -0.011637239 -0.047508962
000110 1f 9a 80 bc 8e 38 cf bc 16 b2 f3 3c 5e 44 dd bc
       -0.01569849 -0.025295522 0.029748004 -0.02701014
000120 e4 be 86 3c 04 54 89 3d ee 09 b0 3c 1d 4f e4 bc
       0.016448446 0.06705478 0.02148911 -0.027869755
000130 09 c7 60 bc 56 17 2d bd 99 fb a3 3c a6 47 86 3c
       -0.013719329 -0.042258583 0.020017432 0.016391587
000140 95 5d 94 bc 37 ad 6f 3c 32 ef 21 3d af 76 03 bd
       -0.01811103 0.0146287 0.039534755 -0.032095607
000150 a9 05 30 3c bc 63 09 3d 47 09 02 3d 33 3b 7d 3c
       0.010743537 0.03354238 0.03174713 0.015456009
000160 ce c8 a9 bd 83 99 a2 bc c7 49 01 bc cf 43 11 3b
       -0.082902536 -0.01984859 -0.007891125 0.0022165661
000170 4c dd 42 bc 19 ee 6d bc fe ea 23 3d 64 ec 0e 3c
       -0.011893582 -0.014522099 0.040019028 0.008723352
000180 f6 57 b4 3c 5f 98 4a 3c b8 0d 8d bc 81 b0 24 bc
       0.0220146 0.01236543 -0.017218456 -0.010051847
000190 3b 47 3d 3d 9c 5b c7 bc 41 37 17 bc 54 a6 23 bc
       0.04621051 -0.024335675 -0.009229482 -0.009988386
0001a0 c5 d3 9e bc ed 40 26 3c 11 a2 5a bc 1b 03 71 bd
       -0.019388089 0.010147315 -0.013344304 -0.058840852
0001b0 42 52 41 bc d2 ea 4b bd 00 29 4c bc 74 f8 25 3c
       -0.011799397 -0.04978449 -0.012460947 0.010130037
0001c0 8d 2d 0d bc c7 e3 b0 3c db 20 87 3c fe af d9 3c
       -0.008616817 0.021592988 0.016495159 0.026573177
0001d0 64 70 38 bc 6b 4b 46 3c 42 03 32 bc 2b 64 18 3c
       -0.011257265 0.012102942 -0.010865035 0.009301226
0001e0 57 42 2d 3d bf 3c 11 bd 6c d7 5c bc a4 d4 c4 bb
       0.042299595 -0.035458323 -0.013479095 -0.006006794
0001f0 76 e6 82 3c 9b b7 ad bc 7d 21 a5 bd 77 4e 80 bc
       0.015979033 -0.021205714 -0.08063028 -0.015662415
