checkpoint_critic1.pth (torch_old, 159653 bytes, 5 tensors)

fc1.weight f4 [256, 24]
0	0xbaf595dd	-0.0018736679
1	0xbce58224	-0.028016157
2	0x3cfa04b2	0.030519817
3	0xbc255647	-0.010091371
4	0xbda6769a	-0.0812809
5	0xbd9f8563	-0.077891134
6	0xbc8d4c0c	-0.017248176
7	0x3d6b87a8	0.05750242
8	0xbcd92c34	-0.026510336
9	0xbcaf2db4	-0.021384098
10	0xbd4bdeaf	-0.049772914
11	0x3d17355a	0.036916114
12	0x3d5a4562	0.053288825
13	0xbd98f6f0	-0.074689746
14	0x3d4d132b	0.050067108
15	0x3d38f788	0.04515794
16	0x3bddd925	0.0067702704
17	0xbdd78cf5	-0.10524932
18	0x3d3c8051	0.04602081
19	0x3cb1c147	0.021698607
20	0x3bd36c6b	0.0064521334
21	0xbd1488c4	-0.036263242
22	0xbd49fec1	-0.049315218
23	0x3d494d0d	0.049145747
24	0x3d3648f5	0.04450317
25	0x3d9305ce	0.071788415
26	0x3b32f842	0.0027308618
27	0x3c985299	0.018594073
28	0xbcb6d70e	-0.022319343
29	0xbc26d618	-0.01018288
30	0x3d423010	0.047409117
31	0xbb2daaf9	-0.0026499613
32	0xbc28cd43	-0.010302844
33	0x3c87b943	0.016567832
34	0x3c4d24a5	0.012520944
35	0xbba61844	-0.0050688107
36	0x3c942d9a	0.01808815
37	0x3d2e6645	0.042578
38	0xbcc0b410	-0.02352336
39	0xbbe960d8	-0.0071221404
40	0x3d209ac4	0.039210096
41	0x3cb03a3a	0.02151214
42	0xbce11a63	-0.027478402
43	0xbd920166	-0.07129173
44	0x3ddeb650	0.10874617
45	0xbd92ed66	-0.071741864
46	0x3c74bfe0	0.014938325
47	0xbd31afbd	-0.043380488
48	0xbb365622	-0.0027822335
49	0x3b8c7c9d	0.004287316
50	0x39004daa	0.00012235963
51	0xbd968298	-0.073491275
52	0xbd01abd2	-0.031658
53	0xbd44693e	-0.04795193
54	0x3caf89c2	0.021427993
55	0xbd7615cd	-0.060079385
56	0xbc9489fb	-0.0181322
57	0xbc215262	-0.009846302
58	0x3bd65793	0.0065412014
59	0xbd54d895	-0.05196436
60	0x3cb13c5e	0.02163523
61	0xbd8ccfa1	-0.068755396
62	0x3cab1dd7	0.020888252
63	0x3cc96160	0.024582565
64	0x3c150304	0.009094957
65	0xbdd7c2bb	-0.10535189
66	0x3d3eafc5	0.046554346
67	0x3cf44cf2	0.029821847
68	0xbc597c0b	-0.013274203
69	0xbc6da012	-0.014503496
70	0xbc5014be	-0.012700258
71	0x3d0433e0	0.032276034
72	0x3d5b08df	0.053475257
73	0xbc375892	-0.01119055
74	0x3c96cda4	0.018408604
75	0x3b720d00	0.0036934018
76	0xbcc32878	-0.023823008
77	0x3cfd7dbf	0.03094375
78	0x3cf1973c	0.02949106
79	0x3cc3d92c	0.023907267
80	0x3c16df8f	0.009208574
81	0x3d88a021	0.06671167
82	0xbba9d45b	-0.0051827854
83	0x3d384336	0.044985972
84	0x3c7b73d3	0.015347439
85	0x3ba5b3de	0.005056842
86	0x3d70c4b8	0.058781356
87	0xbd05ec8c	-0.03269629
88	0xbd3e7750	-0.046500504
89	0x3d18eab4	0.037333205
90	0x3c520b06	0.012820011
91	0xbb8c7890	-0.004286833
92	0x3dba0453	0.09082856
93	0xbdd0b38e	-0.10190497
94	0x3ce426ed	0.027850593
95	0xbc4c2c5d	-0.012461749
96	0x3da1b1fc	0.07895276
97	0xbd508407	-0.05090716
98	0xbceed97d	-0.02915644
99	0x3c1d7a89	0.009611734
100	0x3d0c51c4	0.034257665
101	0x3d9452b7	0.07242339
102	0x3d012e88	0.031538516
103	0xbd120d29	-0.03565708
104	0xbd026b2f	-0.0318405
105	0x3d1e83f5	0.038700063
106	0xbc3b27ec	-0.011423092
107	0xbd5a86e6	-0.053351305
108	0x3dc56765	0.096388616
109	0x3cc536d4	0.024073996
110	0xbd0824a0	-0.033238053
111	0x3d32980c	0.043602034
112	0x3d6472a9	0.05577341
113	0xbc6b6dc4	-0.014369432
114	0x3bbe8e13	0.0058152764
115	0xbc82ecbb	-0.015982023
116	0x3da2a4a7	0.07941561
117	0xbdbda212	-0.09259428
118	0x3d413d0e	0.047177367
119	0xbd6f0b73	-0.05836053
120	0x3db86dba	0.09005304
121	0x3d812d9d	0.06307528
122	0x3cb27931	0.021786304
123	0x3c3e4b67	0.011614657
124	0x3cef5ea1	0.029219927
125	0x3ddc50fc	0.10757634
126	0xbc9c15b1	-0.019053312
127	0xbcf3b5b0	-0.029749721
128	0x3d9be81c	0.07612631
129	0xbc1d2c0d	-0.009593022
130	0x3cb180bd	0.021667833
131	0xbd112c15	-0.03544243
132	0xbd8b4a56	-0.06801288
133	0x3de8cb8c	0.113669485
134	0xbb49029f	-0.0030671728
135	0xbd71c6fd	-0.05902766
136	0x3cdedf51	0.027206095
137	0x3d99409f	0.074830286
138	0xba663089	-0.0008781036
139	0x3d0e806c	0.03479044
140	0xbe2aab3a	-0.1666688
141	0x3dc1176e	0.09428297
142	0x3c717621	0.014737637
143	0xbd1c9a2e	-0.038232975
144	0x3d30197a	0.042993046
145	0x3e06279c	0.13101047
146	0xbd0b05be	-0.033941023
147	0xbd24f7df	-0.04027545
148	0xbd1c9b96	-0.038234316
149	0x3d407b61	0.046992663
150	0x3bdb23f2	0.0066876346
151	0x3c58ceab	0.013232867
152	0x3cae8f76	0.021308642
153	0x3db1c60c	0.086803526
154	0x3d5e23cd	0.05423336
155	0x3a9b67ed	0.0011856534
156	0xbae976c9	-0.001781189
157	0xbcff6ae6	-0.031178903
158	0xbcdfa86d	-0.027301991
159	0xbd3aecd6	-0.04563602
160	0x3d0dd638	0.034628123
161	0x3de893cd	0.11356316
162	0xbc958367	-0.018251134
163	0x3bb7ef3c	0.0056132358
164	0x3dbc9f42	0.092100635
165	0xbda9a587	-0.08283525
166	0xbcaafa09	-0.02087118
167	0x3d4032ab	0.04692332
168	0x3a98c18a	0.0011654359
169	0x3e131e47	0.14367019
170	0xbc07ac3b	-0.008280809
171	0xbc65a71f	-0.014016896
172	0x3c4ec64a	0.012620518
173	0xbcd25b07	-0.02567817
174	0x3cd198e5	0.025585601
175	0x3c0d1dc1	0.008613051
176	0x3c10af39	0.008830839
177	0x3e07391e	0.13205382
178	0xbd413755	-0.04717191
179	0xbd377d2e	-0.044797115
180	0xbc8379e9	-0.016049342
181	0xbd96234c	-0.07330951
182	0x3cc7d789	0.024394767
183	0x3cccc977	0.02499841
184	0xbd1edfa6	-0.038787507
185	0x3db5952d	0.08866344
186	0xb943e8ee	-0.00018683422
187	0xbb8caa18	-0.0042927377
188	0xbd423d45	-0.047421712
189	0x3d31bdc4	0.043393865
190	0x3caf8d2b	0.021429619
191	0xbd233184	-0.039842144
192	0x3b955ff4	0.0045585576
193	0x3c5ebb62	0.01359448
194	0xbcc86759	-0.024463343
195	0x3d0adacc	0.033900067
196	0x3da67bda	0.081290916
197	0xbc84a8b7	-0.01619373
198	0xbb5b5828	-0.0033469293
199	0x3c1e2553	0.0096524535
200	0xbd921bd3	-0.07134213
201	0x3c5b2ceb	0.0133774085
202	0x3b9c8ff7	0.004777904
203	0x3d2c9149	0.042130742
204	0x3d0156be	0.031576864
205	0x3c632403	0.013863566
206	0xbda1abc2	-0.07894088
207	0xbd15f29d	-0.036608327
208	0xbd19c233	-0.03753872
209	0xbd9c1d6e	-0.07622801
210	0xbcb4c71e	-0.022067603
211	0xbc5da210	-0.013527408
212	0xb994e160	-0.00028396677
213	0x3de49112	0.111604825
214	0xbca52fa4	-0.020164318
215	0xbd1baf6f	-0.038009103
216	0xbd81dd1d	-0.06341002
217	0xbd2dc77f	-0.042426582
218	0xbcce80d1	-0.025207909
219	0x3be9be05	0.007133248
220	0xbcb4c97f	-0.022068737
221	0xbd8351b8	-0.06412071
222	0x3d2f241e	0.042759053
223	0xba5b8276	-0.0008373627
224	0x3d21a77c	0.039466366
225	0xbdc89fb5	-0.09796087
226	0x3d0f57de	0.034995906
227	0xbd7b2968	-0.061318785
228	0xbd2b621f	-0.041841622
229	0xbda7821e	-0.08179115
230	0xbd0821f4	-0.033235505
231	0xbd9312a4	-0.0718129
232	0xbd3896e5	-0.04506578
233	0xbcd61905	-0.026134977
234	0xbd53f3ca	-0.051746167
235	0x3d3e89ad	0.046518017
236	0xbd8ba863	-0.068192266
237	0xbe1bd0fc	-0.1521644
238	0x3ced9d2f	0.029005615
239	0x3c2bccec	0.010485869
240	0xbd4c0bd4	-0.049815968
241	0x3d737415	0.059436876
242	0x3cff4524	0.031160899
243	0xbd0706e3	-0.032965552
244	0xbd213526	-0.039357327
245	0x3e00b89b	0.12570421
246	0x3c93b2ce	0.018029597
247	0x3c84a1f4	0.016190507
248	0xbd26268e	-0.040564112
249	0x3c7bdf45	0.015373056
250	0x3d4a2cc1	0.049359087
251	0x3a9f8d2d	0.0012172811
252	0x3d11943d	0.03554176
253	0xbc74eea5	-0.014949475
254	0xbd0fb6ff	-0.035086628
255	0x3c692239	0.014229351

fc1.bias f4 [256]
0	0xbdc1a893	-0.09455981
1	0x3dd52552	0.10407509
2	0x3de5bfa2	0.11218192
3	0x3db1edcf	0.086879365
4	0xbda1ba14	-0.0789682
5	0xbe3cf428	-0.18452513
6	0xbe54f35f	-0.20795964
7	0xbc8677ed	-0.016414607
8	0xbe56f7e5	-0.20993002
9	0xbe0427f3	-0.12905864
10	0x3e0f26e0	0.13979673
11	0xbc162f29	-0.009166517
12	0x3daf7482	0.08567144
13	0xbe4efea2	-0.20214322
14	0x3d0ecffd	0.03486632
15	0x3e1a6641	0.1507807
16	0x3c396e61	0.01131782
17	0xbc7dd914	-0.01549365
18	0xbdec6871	-0.11543358
19	0xbe12de82	-0.14342692
20	0x3d5d713c	0.054063067
21	0xbe3b6d47	-0.18303405
22	0xbc5fdfa5	-0.013664161
23	0xbe3476dc	-0.17623466
24	0xbccad4be	-0.024759647
25	0xbe622988	-0.22086155
26	0x3d38cfb4	0.045119956
27	0xbc895bb0	-0.016767353
28	0xbe30f1e8	-0.1727978
29	0xbd94b763	-0.07261541
30	0xbd91f99d	-0.07127688
31	0xbdd741a5	-0.105105676
32	0xbdcc13fc	-0.09964749
33	0x3c6d0f1a	0.0144689325
34	0xbe02da68	-0.12778628
35	0x3d09fdf2	0.033689447
36	0xbe23e132	-0.16003874
37	0x3e421989	0.18955053
38	0xbe207e0d	-0.15673085
39	0x3da5bfc6	0.080932185
40	0xbe1f90b8	-0.1558255
41	0xbe193649	-0.14962114
42	0x3bc28ccf	0.005937196
43	0xbe103d34	-0.14085847
44	0xbda9627a	-0.08270736
45	0xbdfab3d7	-0.12241333
46	0xbd810fa9	-0.06301815
47	0xbe41a8a3	-0.18911986
48	0x3e471fb2	0.19445685
49	0x3ddaf6ca	0.106916025
50	0xbd9ea982	-0.07747175
51	0x3e2df8e1	0.16989471
52	0xbdb5eda2	-0.088832155
53	0xbe216cda	-0.1576418
54	0x3d7970b7	0.06089851
55	0xbd8fa7df	-0.07014441
56	0x3e11ceb1	0.14239003
57	0xbd558048	-0.05212429
58	0xbe2ec9c6	-0.17069158
59	0x3e3eaf42	0.18621543
60	0x3d06d135	0.03291436
61	0x3d6b4b73	0.057445
62	0xbd3b36f0	-0.04570669
63	0xbe4d1fdb	-0.20031683
64	0x3d57b739	0.05266497
65	0xbcccccf1	-0.025000067
66	0xbde7874f	-0.11305105
67	0x3dd69e01	0.104793556
68	0xbe565e1b	-0.20934336
69	0xbdef630b	-0.11688813
70	0xbd568ef6	-0.052382432
71	0xbe38a48a	-0.18031517
72	0xbe37865e	-0.17922351
73	0xbd8d260d	-0.06892023
74	0xbd814f76	-0.06313984
75	0x3e3d52a2	0.18488553
76	0x3dd38bb4	0.10329381
77	0x3e3c6684	0.18398482
78	0x3d32e838	0.043678492
79	0xbac3627d	-0.0014906671
80	0xbd36ab6a	-0.044597067
81	0xbd27060c	-0.04077725
82	0xbe5b6e13	-0.21428709
83	0xbe3bba40	-0.18332767
84	0x3de8e4e0	0.113717794
85	0xbde35619	-0.11100406
86	0xbdac547a	-0.0841455
87	0x3d624383	0.055240165
88	0xbde0e31a	-0.10980816
89	0x3d84136a	0.064490154
90	0xbd14e1c0	-0.036348104
91	0x3db01a3e	0.08598755
92	0xbdcd5233	-0.10025444
93	0x3e1d015a	0.15332547
94	0xbe2b6311	-0.1673701
95	0xbe2663ce	-0.1624901
96	0x3e15145a	0.14558545
97	0xbe1ae5b6	-0.1512669
98	0x3e5ea0b3	0.2174099
99	0x3dce537d	0.10074518
100	0x3e1f4c62	0.15556481
101	0xbcbbe870	-0.022937983
102	0x3c96f0ee	0.018425431
103	0x3c4bef78	0.0124472305
104	0xbdd54638	-0.10413784
105	0x3e0e1812	0.1387637
106	0x3ded2a8e	0.11580382
107	0xbc5ec9db	-0.013597931
108	0x3b135d04	0.0022485862
109	0xbd415693	-0.047201704
110	0xbdb62fb4	-0.088958174
111	0xbe208c93	-0.15678625
112	0xbdbd3ad1	-0.09239734
113	0xbe44ce6c	-0.19219369
114	0xbd69cffb	-0.05708311
115	0x3d820b9a	0.06349869
116	0x3e3c3aac	0.18381757
117	0xbe37391c	-0.17892879
118	0xbe4f194f	-0.20224498
119	0x3e3267e7	0.17422448
120	0xbd530008	-0.0515137
121	0xbd2fa98d	-0.042886306
122	0x3daa78e6	0.08323841
123	0x3e29f514	0.16597396
124	0x3d74456d	0.059636522
125	0x3ccafa24	0.02477748
126	0xbccd77db	-0.025081566
127	0xbd89d1e8	-0.067294896
128	0x3d805304	0.06265834
129	0xbe52ff26	-0.20605144
130	0xbe529fde	-0.20568797
131	0x3de630ce	0.112397775
132	0xbe5076d6	-0.20357832
133	0x3df809bc	0.12111232
134	0x3e2c8883	0.1684895
135	0x3e271ace	0.16318819
136	0x3d902e9e	0.070401415
137	0x3c91b031	0.01778421
138	0x3d70e18d	0.058808852
139	0x3d5b3b18	0.053523153
140	0x3c325385	0.01088417
141	0xbe213cb1	-0.15745808
142	0x3da5d1f2	0.080966845
143	0x3cbe9911	0.023266347
144	0x3de9731d	0.11398909
145	0xbdbddf9f	-0.09271168
146	0xbdc3e276	-0.09564678
147	0xbded9782	-0.116011634
148	0xbcd86e8a	-0.026419897
149	0x3e216830	0.157624
150	0x3c7ee01d	0.015556362
151	0x3e3d5ee6	0.18493232
152	0x3e291731	0.16512753
153	0xbe0e5617	-0.13900028
154	0x3e544c55	0.20732243
155	0x3c569161	0.0130961845
156	0x3e22192c	0.15829915
157	0xbc3b5da6	-0.011435902
158	0xbd9a3a05	-0.075305976
159	0x3e15acbb	0.14616673
160	0xbe250aca	-0.16117397
161	0xbcd1e341	-0.025621058
162	0xbd0dbbeb	-0.03460304
163	0x3acb7cdd	0.0015524883
164	0xbd1cb1c9	-0.038255487
165	0x3e13e0e4	0.14441258
166	0xbc2da40e	-0.010598196
167	0x3db92c92	0.09041704
168	0x3da5c6e0	0.08094573
169	0x3e0b309a	0.13592759
170	0x3db424bf	0.08796071
171	0xbe51dc81	-0.20494272
172	0xbe419361	-0.18903877
173	0xbe671fa8	-0.2257067
174	0xbe6df09e	-0.2323632
175	0xbe360fdb	-0.17779486
176	0xbcdaf6fb	-0.026729098
177	0x3e2b97e9	0.16757168
178	0xbe2be892	-0.16787937
179	0x3d96247c	0.073311776
180	0xbdd6996d	-0.104784824
181	0x3e030f1a	0.1279873
182	0x3e0f5f76	0.14001259
183	0x3da161d4	0.07879987
184	0x3e442493	0.19154577
185	0xbe242626	-0.16030177
186	0xbdf108fe	-0.11769293
187	0xbd94a956	-0.07258861
188	0x3cd1d2c9	0.025613206
189	0x3e18a394	0.1490615
190	0x3dda58f2	0.10661496
191	0x3da5ce2d	0.080959655
192	0xbd0ca426	-0.03433623
193	0xbdf35ccb	-0.11882933
194	0x3e3f7198	0.18695676
195	0xbe2b3180	-0.16718102
196	0xbe21aaf5	-0.15787871
197	0x3deadf9f	0.114684336
198	0x3e37689a	0.17910996
199	0x3d90f8ce	0.07078706
200	0xbc9b7654	-0.018977322
201	0xbd078d90	-0.03309399
202	0x3d382f6a	0.044967093
203	0xbdd91606	-0.10599904
204	0x3e2c0352	0.16798142
205	0x3e690807	0.22756968
206	0xbd97ec48	-0.07418114
207	0x3e210b8f	0.15727066
208	0xbd77b5da	-0.06047616
209	0xbe10243a	-0.1407632
210	0x3ca3a064	0.019973941
211	0xbd9a2fda	-0.07528658
212	0x3e510043	0.20410256
213	0x3ba22c3f	0.004949122
214	0xbda46ec8	-0.08028942
215	0xbe485d96	-0.1956695
216	0x3e03df66	0.12878188
217	0x3dd94c7c	0.10610291
218	0x3d52b8ce	0.051445775
219	0xbd19e31a	-0.037570097
220	0xbd98a036	-0.07452433
221	0x3d16a12d	0.036774803
222	0x3e1ebbf3	0.15501384
223	0xbb077719	-0.0020670353
224	0x3c46f2ed	0.012142879
225	0xbe762cb8	-0.24040496
226	0x3cafedac	0.021475635
227	0xbdb92f4a	-0.09042223
228	0x3a693aef	0.00088970264
229	0xbdabaff7	-0.08383172
230	0x3e1c91ff	0.15290068
231	0x3e1f6f05	0.15569694
232	0xbdf8330a	-0.1211911
233	0xbd67b075	-0.056564767
234	0x3da351ce	0.079745874
235	0x3dac8370	0.08423507
236	0xbdc59a06	-0.09648518
237	0x3d44d7e2	0.048057444
238	0x3d2806a4	0.041021958
239	0x3db2ddb4	0.08733693
240	0xbe0d191b	-0.13779108
241	0xbe14c593	-0.14528494
242	0x3d8bb69d	0.0682194
243	0x3c8bc96c	0.017063819
244	0xbde4dc1e	-0.111747965
245	0x3e38f25f	0.18061207
246	0xbd2f8b8b	-0.042857688
247	0xbdf271d7	-0.118381195
248	0xbd3e8966	-0.046517752
249	0xbdd3cc84	-0.10341743
250	0xbd2c6f3f	-0.04209828
251	0xbe24660a	-0.1605455
252	0x3ddfc5b8	0.10926384
253	0x3e6106f2	0.21975306
254	0xbe533e4b	-0.20629232
255	0x3e047c16	0.1293796

fc2.weight f4 [128, 258]
0	0xbcf09e51	-0.029372366
1	0xbd3e971e	-0.046530835
2	0x3da97570	0.082743526
3	0x3b84bfa7	0.004051167
4	0x3d2401d5	0.04004081
5	0xbbce1645	-0.006289276
6	0x3da86851	0.08223022
7	0x3db5171f	0.088423006
8	0xbe6d15bf	-0.23152827
9	0x3c1d318c	0.009594332
10	0x3d2c2c01	0.042034153
11	0xbddc882c	-0.1076816
12	0xbd57cc66	-0.052685164
13	0xbd2e1c77	-0.042507615
14	0x3c3e8277	0.011627785
15	0x3de05c50	0.10955107
16	0xbd8708ef	-0.06593501
17	0xbc2e7414	-0.010647792
18	0x3d85cb1b	0.0653288
19	0xbd43a35f	-0.047763225
20	0x3976fdaf	0.00023554893
21	0xbdd40807	-0.103530936
22	0x3cf2ad02	0.029623512
23	0x3c911e8b	0.01771476
24	0xbe06437e	-0.13111684
25	0xbd4205a3	-0.047368657
26	0xbd690f08	-0.0568991
27	0x3d28030b	0.041018527
28	0x3d397555	0.045277912
29	0x3cd971ec	0.02654358
30	0x3d410000	0.04711914
31	0xbc1436f0	-0.009046301
32	0x3dcad23b	0.099033795
33	0x3d310ce3	0.04322518
34	0xbd5a2e1e	-0.053266637
35	0x3d69cae1	0.057078246
36	0xbd058d48	-0.03260544
37	0x3d99cae1	0.07509399
38	0xbd8986f7	-0.067151956
39	0xbd9b5d3c	-0.075861424
40	0xbd36851f	-0.044560548
41	0xbc57bb56	-0.013167223
42	0x3d40cf8d	0.047072936
43	0xbe0f2427	-0.13978635
44	0xbd1a4ace	-0.037668996
45	0xbdadf9ae	-0.08494888
46	0xbc38bb50	-0.0112751275
47	0xbc2873bc	-0.0102814995
48	0xbd951870	-0.07280052
49	0xbad9cb41	-0.001661636
50	0xbd388ea0	-0.045057893
51	0x3c7fba5b	0.015608395
52	0x3d95d861	0.073166616
53	0xbc1d5516	-0.009602806
54	0xbccfe7eb	-0.025379142
55	0x3d23416e	0.03985732
56	0xbd227097	-0.039658155
57	0x3d3bda5b	0.045862537
58	0x3c1bad86	0.00950182
59	0x3d224d4b	0.039624494
60	0xbcd2b7c3	-0.02572239
61	0x3ccd8c87	0.025091423
62	0x3da12344	0.078680545
63	0xbda29303	-0.079381965
64	0xbcf4385b	-0.029812029
65	0xbd7b97ea	-0.061424173
66	0xbd782e1a	-0.06059084
67	0xbd4e4e2c	-0.05036752
68	0xbbbdab81	-0.005788267
69	0xbd72d8e8	-0.05928889
70	0xbcaaedc1	-0.020865323
71	0x3ce720d3	0.028213894
72	0xbcf2b75a	-0.029628444
73	0x3d69e15b	0.05709968
74	0xbcb98627	-0.022646977
75	0xbd04900e	-0.032363944
76	0x3c065b35	0.008200456
77	0x3ce5d99c	0.028057866
78	0x3c6c8c3e	0.014437733
79	0xbd6e3ea7	-0.05816522
80	0x3d9c7bff	0.07640838
81	0xb9cbc2bc	-0.00038864266
82	0x3da5d3eb	0.08097061
83	0xbc22d04a	-0.009937355
84	0x3ca2199d	0.019787604
85	0x3d3eb7cd	0.046562005
86	0x3d73f17e	0.059556477
87	0x3d4e06aa	0.050299324
88	0xbdd88b96	-0.10573499
89	0x3cdf6be5	0.027273128
90	0x3d32edb7	0.043683734
91	0xbdedd222	-0.11612345
92	0xbd99f5a7	-0.075175576
93	0xbd035154	-0.032059982
94	0x3da822fd	0.082097985
95	0x3cb80892	0.022465024
96	0x3df816d5	0.1211373
97	0xbcf986de	-0.030459817
98	0xbd023b86	-0.031795047
99	0xbd6fc3c7	-0.058536317
100	0x3dba4278	0.09094709
101	0xbd79a18c	-0.06094508
102	0xbd9d99d5	-0.07695357
103	0x3c63cbe3	0.013903591
104	0xbcf6ccae	-0.030126896
105	0xbda9291b	-0.08259793
106	0xbd339c68	-0.043850332
107	0xbdad4ce5	-0.08461932
108	0x3c4f4fed	0.012653333
109	0x3c48e802	0.012262346
110	0x3c32dc71	0.010916815
111	0x3d354bd5	0.044261772
112	0xbd46629a	-0.048433878
113	0xbdb57444	-0.088600665
114	0xbd991ce5	-0.07476214
115	0x3da766ca	0.08173902
116	0xbd7d1a27	-0.06179252
117	0xbd842532	-0.06452407
118	0x3d5d5562	0.054036506
119	0x3d865fe8	0.065612614
120	0xbd368e35	-0.044569213
121	0x3d60af1d	0.0548545
122	0xbd1eb2ac	-0.038744614
123	0xbcc74ebe	-0.02432954
124	0xbd9aaa47	-0.07552009
125	0xbc29eb31	-0.010371015
126	0xbcb7d7e6	-0.022441816
127	0xbbac0928	-0.005250115
128	0xbd972316	-0.07379739
129	0xbd47725e	-0.048693053
130	0xbd701166	-0.058610342
131	0xbc48c582	-0.012254121
132	0xbd8b9376	-0.06815235
133	0x3cfeef37	0.031119926
134	0x3da93308	0.082616866
135	0xbb02b2c8	-0.0019942988
136	0x3d96cd6d	0.073634006
137	0xbd039812	-0.032127447
138	0x3d20a5a9	0.039220486
139	0x3d82ee65	0.063931264
140	0xbc7a172f	-0.015264316
141	0xbca9c335	-0.020722965
142	0x3d512127	0.051057007
143	0x39ad43f4	0.0003304776
144	0xbca216a0	-0.019786179
145	0xbd633f71	-0.055480424
146	0xbdd98cd7	-0.10622566
147	0xbd038495	-0.032108862
148	0x3d7c9883	0.061668884
149	0x3d17d0fa	0.03706453
150	0xbd952475	-0.07282344
151	0x3ce2498d	0.027622962
152	0x3d835173	0.064120196
153	0x3b5ffa10	0.0034176148
154	0xbd5f4f54	-0.054519013
155	0xbde437d0	-0.11143458
156	0x3d28c48a	0.04120306
157	0x3d876c02	0.06612398
158	0x3cf51446	0.029916894
159	0x3dc5bd09	0.09655196
160	0xbbac2f12	-0.0052546347
161	0x3d267988	0.040643245
162	0x3d1b6432	0.03793735
163	0xbde60fce	-0.11233483
164	0xbd620854	-0.055183724
165	0x3cd79067	0.026313974
166	0xbd230f21	-0.03980935
167	0xbd8a8148	-0.0676294
168	0x3d16541d	0.03670131
169	0x3d00bea6	0.031431817
170	0xbd9f2b67	-0.0777195
171	0xbcea6f5e	-0.028617557
172	0x3b0c2250	0.0021382757
173	0x3d3dd849	0.046348844
174	0xbe581349	-0.21101107
175	0x3d15c77d	0.0365672
176	0x3d19fb77	0.03759333
177	0x3cec8baa	0.02887519
178	0x3d0d275d	0.034461368
179	0xbc81858d	-0.015810752
180	0x3c8395af	0.016062586
181	0xbcde5e37	-0.027144535
182	0xbce7cac3	-0.028294927
183	0xbd69df83	-0.057097923
184	0xbd796bb8	-0.060893744
185	0xbc1cb30d	-0.009564173
186	0xbdccb4ce	-0.09995423
187	0xbd8b7a75	-0.06810466
188	0xbdd1ac1b	-0.10237905
189	0x3c5175d1	0.012784437
190	0x3c9720b4	0.018448211
191	0x3ba490e0	0.0050221533
192	0xbd2287df	-0.039680358
193	0xbb0fdf79	-0.0021953268
194	0x3c0b7c7d	0.008513567
195	0x3c8a7025	0.016899178
196	0x3d162bec	0.03666298
197	0x3d25ff9c	0.04052697
198	0x3d5aae6e	0.053389005
199	0xbdc909cd	-0.098163225
200	0x3db34e37	0.08755153
201	0xbc82e415	-0.015977899
202	0x3d254e2f	0.040357765
203	0xbbed25fd	-0.0072371946
204	0xbbaf6012	-0.0053520286
205	0xbdf8e94e	-0.12153874
206	0x3e0a6a94	0.13517219
207	0x3c8d1c60	0.017225444
208	0xbd9a2db9	-0.07528252
209	0xbc5a3e3f	-0.013320505
210	0x3cbd9153	0.023140585
211	0xbd3a76ac	-0.04552333
212	0x3d3f2077	0.04666182
213	0xbb1b9d59	-0.002374491
214	0x3aff4333	0.0019474983
215	0xbbf86d34	-0.0075813774
216	0x3d6f9768	0.058494
217	0xbdf0e5ac	-0.117625564
218	0x3dacf631	0.08445395
219	0x3dbc50ff	0.09195136
220	0x3d5b853b	0.053593855
221	0xbd2c20cf	-0.042023476
222	0x3d749814	0.059715346
223	0xbd1f0f32	-0.03883285
224	0xbd9366e8	-0.07197362
225	0xbdee6349	-0.11640031
226	0xbd40e73d	-0.047095526
227	0xbd4ad226	-0.04951682
228	0x3caa6f0b	0.020804903
229	0xbd93abf1	-0.072105296
230	0xbd6b89bf	-0.05750441
231	0xbc936fe5	-0.017997691
232	0x3da6f217	0.08151644
233	0xbc506f76	-0.012721887
234	0x3e0a91b3	0.13532142
235	0x3dd2f7c3	0.10301163
236	0xbd1fab95	-0.038981993
237	0x3c8607cb	0.016361138
238	0xbccf4bf8	-0.02530478
239	0x3d723857	0.05913576
240	0xbb77ba60	-0.0037800297
241	0xbd0741da	-0.033021785
242	0x3d10a680	0.035315037
243	0xbd303bff	-0.043025967
244	0x3da2692c	0.07930216
245	0xbd5e4576	-0.05426546
246	0xbd741fca	-0.05960063
247	0x3d1ffe5e	0.039060943
248	0xbbc50017	-0.0060119736
249	0xbd0413bd	-0.032245386
250	0x3d303dae	0.043027572
251	0xbd8cf977	-0.06883519
252	0xbd187df7	-0.037229504
253	0x3db73e5c	0.08947441
254	0x3d0c6d80	0.034284115
255	0x3da2e3e9	0.07953627

fc2.bias f4 [128]
0	0x3d75042c	0.05981843
1	0x3c8c23e3	0.017106956
2	0xbd42fc03	-0.04760362
3	0xbc57cbb4	-0.013171125
4	0xbd27b1a7	-0.040940907
5	0xbcd899cd	-0.026440525
6	0x3b91baed	0.004447332
7	0x3d0d9fd3	0.03457625
8	0x3c2e6d7b	0.010646219
9	0xbd7c2393	-0.061557364
10	0x3d814280	0.06311512
11	0xbda3f94b	-0.08006533
12	0x3d650af9	0.055918667
13	0xbd8a490d	-0.067522146
14	0xbd44156b	-0.04787199
15	0xbc8552ed	-0.016274894
16	0xbd12413b	-0.03570674
17	0x3d0c9089	0.034317527
18	0x3d5e16d1	0.05422098
19	0x3c80be95	0.015715877
20	0xbd8eb44f	-0.06967985
21	0x3c29f143	0.010372463
22	0x3c3d3666	0.011548614
23	0xbd8a8fc4	-0.06765702
24	0xba95e469	-0.0011435869
25	0xbd1d7f6d	-0.0384516
26	0x3a2cb928	0.000658887
27	0x3d25584e	0.040367417
28	0x3c0c0be4	0.008547757
29	0x3cdd0146	0.026978146
30	0x3c493085	0.012279634
31	0x3d961518	0.07328242
32	0x3b7bbb9c	0.0038411384
33	0x3c141a0e	0.009039415
34	0xbd9d7cb4	-0.07689801
35	0x3d0fc312	0.035098143
36	0x3c92a8d1	0.017902764
37	0x373a17f2	1.1092039e-05
38	0x3d886fcc	0.066619486
39	0xbc9e95eb	-0.019358596
40	0xbd8d81c3	-0.06909516
41	0xbd9ccaee	-0.07655893
42	0xbd890221	-0.06689859
43	0x3d417b08	0.047236472
44	0x3cbb8b85	0.022893677
45	0xbd04be33	-0.03240795
46	0xbd999b4b	-0.07500323
47	0xbd612a5e	-0.054972045
48	0xbc8a4eec	-0.016883336
49	0x3cd6d3f7	0.02622412
50	0xbd6af2f8	-0.05736062
51	0x3c583567	0.013196326
52	0xbb366cac	-0.002783577
53	0xbcb4c8ec	-0.022068463
54	0x3d59b5d6	0.053151928
55	0xbd861dc4	-0.06548646
56	0x3d41df72	0.047332235
57	0xbd4c1335	-0.049823005
58	0x3d492c89	0.049114738
59	0xbd867a25	-0.06566266
60	0xbbef26fb	-0.007298348
61	0xbd07c07c	-0.03314255
62	0xbbdaf7bc	-0.0066823643
63	0x3d4d042d	0.05005281
64	0xbd061309	-0.032732997
65	0xbd4d1d8e	-0.050077014
66	0x3d132671	0.035925332
67	0x3cdea215	0.027176896
68	0xbccbef13	-0.024894273
69	0xbd7323c9	-0.0593603
70	0xbd542ca3	-0.05180038
71	0x3d91e7bf	0.0712428
72	0xbcef2de1	-0.029196681
73	0xbc56185e	-0.013067333
74	0xbcb281a5	-0.021790335
75	0xbd0c40c9	-0.03424147
76	0xbd54ce9a	-0.051954843
77	0x3d395ed2	0.045256443
78	0x3d4b8034	0.04968281
79	0x3c75869c	0.014985707
80	0xbd33defb	-0.043913823
81	0xbcadc74c	-0.021213196
82	0x3c8b6212	0.017014537
83	0xbd3c747b	-0.046009522
84	0xbad76b33	-0.0016435146
85	0x3c24e28a	0.010063777
86	0xbd61164f	-0.054952916
87	0xbc8560d8	-0.01628153
88	0x3d8ed2b1	0.0697378
89	0x3ce04d37	0.027380569
90	0xbcac57ce	-0.021037962
91	0xbb032bcb	-0.0020015116
92	0xbd87533e	-0.06607674
93	0x3d58eb5b	0.052958827
94	0x3cb97b95	0.022641936
95	0xbc8643d0	-0.016389757
96	0xbd0a28ec	-0.033730432
97	0xbd16520c	-0.03669934
98	0x3cb836c9	0.022487061
99	0x3c62deb8	0.013847046
100	0x3d3a91fe	0.045549385
101	0x3d7c3abe	0.06157946
102	0xbaac75e3	-0.0013157692
103	0x3d85d1da	0.06534167
104	0x3d0e8e1e	0.034803502
105	0xbd5c33f4	-0.053760484
106	0xbc1b9663	-0.009496304
107	0x3d262fbb	0.040572863
108	0x3d7265a8	0.05917898
109	0x3c8c4210	0.017121345
110	0x3d55af5a	0.05216918
111	0x3c24b3b2	0.010052608
112	0x3d09048a	0.033451594
113	0x3d133fe3	0.0359496
114	0xbc788749	-0.015168973
115	0x3cc63004	0.024192818
116	0x3d01abca	0.03165797
117	0xbd7d2873	-0.061806154
118	0x3d4cf58c	0.05003886
119	0x3c9f55ae	0.019450035
120	0x3cd96ab1	0.026540132
121	0x3d486cb9	0.04893181
122	0xbc3c1232	-0.0114789475
123	0xbcb5a25e	-0.02217215
124	0xbc76e33e	-0.015068827
125	0x3d36d2dd	0.04463469
126	0xbcde398d	-0.027127052
127	0x3d45ad80	0.048261166

fc3.weight f4 [1, 128]
0	0x3ca9b6d3	0.02071706
1	0x3cd26c06	0.025686275
2	0xbde57105	-0.112031974
3	0x3c8e10ff	0.017342089
4	0xbcd46308	-0.025926128
5	0x3d828da4	0.06374672
6	0x3d6691b9	0.056291316
7	0xbd5c2c05	-0.053752918
8	0x3c8b4e8a	0.017005224
9	0xbc35ceec	-0.011096697
10	0xbdb5f248	-0.08884102
11	0x3da7c902	0.08192636
12	0x3cac927d	0.021065945
13	0xbcf2f43b	-0.029657474
14	0xbcbcb9e0	-0.02303785
15	0xbd7bb738	-0.061454028
16	0x3c47a7f6	0.012186041
17	0xbcbfddb7	-0.023421152
18	0x3cd2dbc5	0.02573956
19	0x3d1dca31	0.038522903
20	0xbd4676e9	-0.048453245
21	0xbd22606a	-0.03964273
22	0xbcbf16ca	-0.023326296
23	0x3d11506b	0.035477083
24	0xbc81b122	-0.015831534
25	0x3cc15c20	0.023603499
26	0xbd3cb2b9	-0.04606888
27	0xbdc20d43	-0.09475186
28	0xbb3e36ac	-0.0029024286
29	0x3d7166f0	0.05893606
30	0x3cd42148	0.025894776
31	0xbd535aa9	-0.051600132
32	0xbcc281a1	-0.023743453
33	0x3d3d07ba	0.046149947
34	0x3d565b5b	0.052333217
35	0xbc19d464	-0.009389017
36	0xbc9341cf	-0.017975716
37	0xbc29cebb	-0.01036423
38	0xbcade789	-0.021228569
39	0xbc5e41ad	-0.013565463
40	0xbd034fb7	-0.032058444
41	0xbc785880	-0.015157819
42	0xbdc15e03	-0.094417594
43	0xbd0ce730	-0.034400165
44	0x3dc70ee9	0.09719641
45	0x3c73076a	0.014833311
46	0x3cbedce4	0.023298688
47	0xbd907d3f	-0.07055139
48	0xbd993e7d	-0.07482622
49	0xbc934c12	-0.01798061
50	0x3d89a982	0.06721784
51	0xbc60730e	-0.013699306
52	0xbc8d9149	-0.017281191
53	0x3cabec4f	0.020986704
54	0xbdd3851f	-0.10328125
55	0x3c933f05	0.017974386
56	0xbd9dc7c4	-0.07704118
57	0xbb91b961	-0.0044471477
58	0xbc616d63	-0.01375899
59	0xbd06f1ea	-0.03294555
60	0xbc4c6154	-0.012474377
61	0x3cdf4440	0.027254224
62	0xbcf8438e	-0.03030565
63	0xbc58d72c	-0.013234895
64	0x3cc8d491	0.024515422
65	0x3d463f46	0.048400186
66	0xbbcd0cf9	-0.00625765
67	0xbb1129ee	-0.0022150236
68	0xbde84fa9	-0.11343319
69	0xbb198093	-0.0023422583
70	0xbdd7dc78	-0.10540098
71	0xbdb1aabe	-0.086751446
72	0x3cbfe64f	0.02342525
73	0xbbd634ad	-0.006537041
74	0xbde1c40b	-0.1102372
75	0x3cbfae3c	0.023398511
76	0xbcf27630	-0.029597372
77	0xbd6d5db6	-0.057950698
78	0x3ce8f302	0.028436188
79	0xbd8519be	-0.064990506
80	0xbcb30074	-0.021850802
81	0xbc538379	-0.0129097635
82	0x3d16ba2d	0.036798645
83	0x3d147860	0.03624761
84	0x3c83062b	0.015994152
85	0x3d02dceb	0.031948965
86	0xbd038a62	-0.032114394
87	0x3d2eef93	0.042708945
88	0x3c921678	0.01783298
89	0xbd281f38	-0.041045398
90	0xbc5a4743	-0.013322654
91	0x3b1ba057	0.0023746693
92	0xbd897267	-0.06711274
93	0x3c2adab9	0.010428124
94	0xbd76ab12	-0.06022174
95	0x3c19dde1	0.009391279
96	0x3cba14ad	0.022714937
97	0x3d3f2446	0.046665452
98	0xbdd3e010	-0.10345471
99	0x3d42043a	0.047367312
100	0x3cbe58b2	0.023235653
101	0x3d332b73	0.04374261
102	0xbcb8e4dc	-0.022570066
103	0xbc9f0a67	-0.01941414
104	0x3c8d5b87	0.017255558
105	0xbc3db1ff	-0.011578082
106	0x3c7ed689	0.015554079
107	0xbc620f4e	-0.013797594
108	0xbd9359e5	-0.071948804
109	0x3c88022a	0.016602594
110	0xbc938fcb	-0.018012902
111	0x3c146383	0.009056929
112	0xbb6daf60	-0.0036267862
113	0x3cc494e1	0.023996772
114	0xbd8977ae	-0.0671228
115	0xbd831aa3	-0.06401565
116	0xbcde6ba7	-0.027150942
117	0xbd98d697	-0.07462805
118	0xbda2731d	-0.07932112
119	0x3cb234e1	0.02175373
120	0xbd021abf	-0.03176379
121	0x3d01d58b	0.03169779
122	0x3cf0919d	0.029366309
123	0x3cf647a7	0.030063463
124	0x3cb949e9	0.02261825
125	0x3c3e5ee3	0.011619302
126	0x3d75fc4c	0.060055062
127	0xbc469d4c	-0.012122463
