ddpg_checkpoint_actor.pth (torch_old, 159146 bytes, 6 tensors)

fc1.weight f4 [256, 24]
000000 3c 9e 10 3d 5f 02 89 3b 0b fe 83 3b 13 76 10 be
       0.035307154 0.004181191 0.004028087 -0.14107542
000010 e5 3d f6 ba 63 68 b2 bd 34 74 0c 3c d2 35 83 bd
       -0.0018786757 -0.087113164 0.008572627 -0.0640675
000020 b8 53 32 3c ee a9 46 3d e2 4e 57 3c 70 9e 16 be
       0.010884218 0.0485019 0.013141366 -0.14708877
000030 ca b1 97 3d 55 5b d5 bd aa 00 9a 3d c7 49 c0 bd
       0.074069574 -0.10417811 0.07519658 -0.09389072
000040 4b a4 68 bd cd 60 22 bd 12 97 94 bd 64 82 c4 bd
       -0.056797307 -0.039643098 -0.07255377 -0.095951825
000050 54 34 06 3d be 64 da bb 00 40 ea bb d8 81 10 be
       0.032764748 -0.0066648414 -0.0071487427 -0.14112031
000060 30 4e 11 3c 2c 46 b1 3d 19 da 23 bd b8 71 2b bd
       0.008868739 0.08655962 -0.040002916 -0.041856498
000070 65 69 7a 3c fa 65 f0 3c 33 f7 00 bd c4 d7 09 be
       0.015283917 0.029345501 -0.031485748 -0.13461214
000080 3e 96 c9 bc 9a 7c 8a bc 1d 7a c1 3d e3 8c fd bd
       -0.024607774 -0.016905118 0.094471194 -0.12380388
000090 c1 ed b1 bb 15 9b b4 3d 6f b8 40 3d e4 f1 e8 bd
       -0.005429954 0.08818642 0.04705089 -0.11374262
0000a0 5d b0 f5 3b 74 ba 98 bd 24 1e a9 bc 0c 1b d3 bd
       0.007497831 -0.07457438 -0.020644255 -0.10307893
0000b0 f3 f3 dd 3d d4 0a 02 3e cc 45 c9 3c c8 c9 10 be
       0.10837545 0.12699443 0.024569415 -0.14139473
0000c0 56 de 89 bd e3 64 00 bd 34 d5 23 3d b9 aa 13 bd
       -0.0673186 -0.031346213 0.03999825 -0.036051486
0000d0 ac ab e1 3d 38 2a 67 bc dc 2b 2f bd df 56 b8 bd
       0.11019072 -0.014109187 -0.042766437 -0.09000944
0000e0 d9 4d f6 3c 4f 11 e1 bc 99 16 96 bd de b8 2b be
       0.030066418 -0.027474074 -0.07328529 -0.1676974
0000f0 d0 35 18 3e a3 fa 6a bd cc 99 5d bd c4 68 17 be
       0.14864278 -0.057367932 -0.05410175 -0.14786059
000100 03 2f 51 3d 8c 1c b7 bd fd d9 78 bd fd ca a8 3c
       0.051070224 -0.08940992 -0.060754765 0.020604605
000110 d8 d2 1a 3e 0f 77 54 bd a0 83 6b bc 32 0d c4 3d
       0.15119493 -0.051871356 -0.014374644 0.09572829
000120 07 12 72 bd 5c 30 9b 3d 93 79 39 3d 3c 48 30 bd
       -0.059099223 0.07577583 0.045281958 -0.043037638
000130 db 53 49 bb 0c 48 b0 3d 18 85 8d 3d ec ca 4c bd
       -0.0030720148 0.08607492 0.06910151 -0.04999821
000140 51 58 8b bd 15 27 96 3d 2b b6 2b bd 2f f1 a1 bc
       -0.068039544 0.07331673 -0.041921776 -0.019768326
000150 9b 7f 0d 3c c5 cc 17 3c b8 a7 63 bb bb 4f 55 3d
       0.008636381 0.009265129 -0.003473742 0.05207799
000160 c3 3e 7f bb 59 5c d8 3d 6e 90 dc bd 63 b4 d2 3d
       -0.003894732 0.10564489 -0.10769735 0.10288312
000170 8c 74 b7 bb 4a 86 75 3d aa c3 37 bc a7 9e 07 3e
       -0.0055986103 0.05994252 -0.011216084 0.13244115
000180 c4 28 f1 bc a2 98 91 bd 86 18 aa 3d 3c 42 aa 3d
       -0.029438384 -0.071091905 0.08305459 0.083134145
000190 cc 36 8d 3d a3 e7 9f 3c 71 e1 b9 bc 82 93 32 3c
       0.06895217 0.019519633 -0.022690507 0.010899426
0001a0 15 85 5e bc 69 f4 89 bc 62 f6 04 3c e8 1f 85 bc
       -0.013581534 -0.016840177 0.008115383 -0.016250566
0001b0 40 ed 34 3e f7 2a 52 3d 82 91 f6 3c 1c 25 51 3d
       0.17668629 0.051310506 0.03009868 0.05106078
0001c0 4e ad 56 3d ca fb 61 3c a2 d2 20 bc 64 6e c1 3d
       0.05241137 0.013792941 -0.009815844 0.094448835
0001d0 46 fa a5 3d 6b e1 c4 3c a7 28 ec 3c 73 9b 26 3e
       0.081043765 0.024033269 0.028827978 0.16270237
0001e0 13 46 b0 bc 4a 0c 4d bd 08 04 5f bd 3d 17 c2 bd
       -0.021517789 -0.050060548 -0.054447204 -0.094770886
0001f0 94 07 c3 3d 83 a3 f2 3c 0a b2 c2 3c 7c c2 9c bd
       0.0952293 0.029618984 0.023766536 -0.076542825
000200 5f d0 f5 bc 7f bc 2b bd b6 a6 01 bd 6a eb 03 be
       -0.030006586 -0.04192781 -0.03165313 -0.12882772
000210 b6 2c c3 3b 2c 8f 11 bc c5 36 13 3d dc a4 d2 bd
       0.0059562577 -0.0088842325 0.035940904 -0.10285351
000220 32 3b 42 bd 6e 6e 94 be 74 b1 d1 3c 2f 95 87 bd
       -0.047419734 -0.289905 0.025597312 -0.066202514
000230 83 fb d3 3d 2e 13 26 3e ed 9a 0a 3d 99 3b bd bd
       0.103507064 0.16218254 0.033839155 -0.09239883
000240 6a 3f c9 bd 5e 89 0e 3e 30 f0 5f 3d f6 1b 7d bd
       -0.098265484 0.13919589 0.05467242 -0.061794244
000250 39 30 72 bc f4 bd a1 3c f6 2d a8 3d e7 46 e3 3c
       -0.014782005 0.019743897 0.08211891 0.02774377
000260 fc 1c eb 3c 5c e4 e2 3d 8b d3 57 3d 47 8a 88 3c
       0.028700344 0.11078712 0.052691977 0.016667498
000270 2d 97 d7 bd 2b 72 8d 3d b0 ce 00 3d af 02 cc 3c
       -0.10526881 0.069065414 0.031447113 0.024903623
000280 4d bd 66 bd 60 13 b3 bb 71 65 7c b9 28 13 8b 3c
       -0.056332875 -0.005464956 -0.00024070383 0.016976908
000290 a7 5a 8a 3c 12 a6 88 3d 3c 57 16 bb 4e 8d 43 3d
       0.01688893 0.066723004 -0.002294018 0.04774218
0002a0 eb cf 09 bd 5f 3a 38 bd ed 30 31 bd 78 fe 4b 3d
       -0.03364555 -0.044977542 -0.04325955 0.049803227
0002b0 6a a2 9c 3b c8 5b 16 3d 7b 77 7b bc d1 b9 82 3b
       0.0047801035 0.036708623 -0.015348311 0.003989436
0002c0 0e d0 27 bd 18 5f 99 3b eb 5f 99 bd f9 34 05 bb
       -0.0409699 0.0046805255 -0.07488998 -0.0020325764
0002d0 f2 88 c4 bc e6 3e 66 3d 2b d0 7b bd 15 64 b3 3b
       -0.023991082 0.05621233 -0.06147782 0.005474577
0002e0 9f f9 f1 bc e1 28 45 bd 49 cc 6b bc 1c fa 75 3d
       -0.029537974 -0.04813469 -0.014391967 0.060052976
0002f0 3b 0d f9 bb 1f e3 8f 3d 1f 97 7e 3d ce 27 26 3d
       -0.007600454 0.07025742 0.06215584 0.040565304
000300 15 d8 0d bb 25 ee f9 3c 10 b3 00 3d 46 89 95 3c
       -0.0021643688 0.030509064 0.031420767 0.018253934
000310 95 f2 b6 3c f8 73 f1 bc 3b c0 0a 3d d0 fa e8 bb
       0.022332469 -0.029474244 0.03387473 -0.0071099773
000320 75 86 65 3d a9 48 22 bd 87 cd 08 3d b9 a8 e8 bd
       0.05603643 -0.039620075 0.03339913 -0.11360306
000330 e1 32 1f 3d e8 af c8 3d 17 99 5b 3d ab fc b5 bd
       0.03886688 0.097991765 0.053612795 -0.08886083
000340 1f f3 d9 3d 46 6a 07 bd 45 bf 09 bc 0f ba b1 bd
       0.10642075 -0.033060335 -0.008407419 -0.08678066
000350 74 29 a0 3b 46 06 f5 3d e5 4f b0 bd 50 b9 1c be
       0.004887754 0.11964087 -0.08608989 -0.15305066
000360 47 67 0d bd f5 e4 07 3d aa 15 52 bd 57 e5 5b 3d
       -0.03452232 0.033177335 -0.05129019 0.053685512
000370 5e d1 75 bd ce d2 33 3d 2e 91 73 bd b7 f8 91 3d
       -0.06001412 0.04390221 -0.059464626 0.07127517
000380 44 2c f2 bd 63 dd ea bc 43 0a a1 3d 07 dc 04 3d
       -0.11824849 -0.028670019 0.078632854 0.032436397
000390 fa c1 a5 bc ac b3 87 3d 08 a9 08 3d b3 14 1b bd
       -0.020234097 0.066260666 0.033364326 -0.037861537
0003a0 16 d0 55 bd d6 b6 85 bd c1 03 04 be e2 5e ad 3d
       -0.0522004 -0.06529014 -0.12892057 0.08465363
0003b0 4e c6 0d 3d b3 7a 2f bd cf ef 02 bd a3 bf 6f 3d
       0.034612946 -0.042841624 -0.03196698 0.05853237
0003c0 d9 03 6c bd af d3 95 3c 77 94 38 3d 4d 0d 89 3d
       -0.057620857 0.018289415 0.045063462 0.0669199
0003d0 3c 79 4f bd 4d 98 dc 3d e2 01 30 3b c8 44 fb 3d
       -0.050652727 0.107712366 0.002685659 0.12268978
0003e0 af 21 6d bb 90 8e b2 3d 5a ba 5c bc db d6 9f 3d
       -0.0036183407 0.08718598 -0.013472164 0.07804652
0003f0 fd 2a b9 3c b4 d8 3e bb 50 9c 60 bd 5d d6 cb 3d
       0.022603506 -0.0029120864 -0.05483657 0.09952996

fc1.bias f4 [256]
000000 a2 93 6d bd cd 43 1f 3e cb fa b3 3d c6 80 18 3e
       -0.05800212 0.15553208 0.08788069 0.14892873
000010 6b 31 f7 bd 97 c2 e3 bd 12 c5 23 be 06 3c 09 3d
       -0.120699726 -0.111210994 -0.15993145 0.03350451
000020 10 d3 59 be c1 07 89 bd f8 4a 15 3e d3 75 a4 bd
       -0.2127192 -0.06690932 0.1457938 -0.08030286
000030 5a 60 c0 3d f3 5b 25 be 4e bd b8 3d 47 5a 7e 3e
       0.093933776 -0.16148357 0.09020482 0.24839126
000040 53 56 84 3d 11 c5 55 3d 17 ff 1d be 2c 18 05 be
       0.064617775 0.05218989 -0.1542934 -0.12997502
000050 a8 95 26 3e 6b b0 3a be a8 f5 16 bc 62 ac 3d be
       0.16268027 -0.1823136 -0.009213842 -0.1852279
000060 c1 b0 25 3d 88 74 5a be 70 d0 e9 3c f6 41 29 3c
       0.04045177 -0.21333516 0.028541774 0.010330668
000070 7f ac e2 bd 3d 49 39 bd d7 da ba bd 95 83 cd bd
       -0.11068057 -0.04523586 -0.09123772 -0.10034863
000080 39 74 af 3b 64 df b5 3d d6 31 cd bd 2d ec 8f 3d
       0.005354431 0.08880499 -0.10019271 0.07027469
000090 5c 46 09 be 73 6d 73 3e 5a f7 db bd db aa cc 3d
       -0.13405746 0.2377222 -0.10740538 0.099935256
0000a0 17 a5 4f be 5d 23 2e be 82 86 44 bc 1c a6 a9 bd
       -0.2027782 -0.17005678 -0.01199496 -0.08283636
0000b0 d3 dc f0 bc 96 0c a6 bd 88 88 0f 3b 73 e8 1f be
       -0.029402172 -0.08107869 0.0021901447 -0.15616016
0000c0 26 e6 6d 3e d1 b1 16 3e 05 bc 19 3c 5b 54 1a 3e
       0.23232326 0.14716269 0.009383206 0.15071242
0000d0 1d ac aa bd f7 1b 38 be 30 8c 92 3d 91 59 0d bd
       -0.08333609 -0.17979418 0.07155645 -0.034509245
0000e0 d8 db 22 3e 25 06 57 bc 98 eb d8 bd 0a 56 1f 3e
       0.15904176 -0.013124024 -0.10591811 0.15560165
0000f0 6d 77 c0 3d fc 81 99 3d 40 45 0c bc 63 92 07 be
       0.09397779 0.07495496 -0.008561432 -0.13239436
000100 5c f1 75 3d f5 e3 35 3d d4 43 aa bd 03 6c 2b 3e
       0.06004463 0.04440685 -0.083137184 0.16740422
000110 34 9a 23 be c9 9c 22 be 5a 97 5a bd 20 af 19 be
       -0.15976793 -0.15880121 -0.053366996 -0.15008211
000120 d4 79 cf bd 67 46 14 bd 88 a3 e6 3c 0b c2 cf 3d
       -0.10130659 -0.036199953 0.02815415 0.10144433
000130 1d b6 c3 3d 73 6d 71 3e 5f f2 b2 3d 07 37 94 3d
       0.0955622 0.23576908 0.08737635 0.07237058
000140 7b 76 7c bd 9b f9 9c bd 5e 5c 32 be 0c 36 43 be
       -0.06163643 -0.07664796 -0.17418048 -0.19063586
000150 c3 ec 5e 3d 25 8f fa bd b6 ce 9b bd 35 2e df 3d
       0.054425012 -0.12234334 -0.07607786 0.10897485
000160 0f cc ae bd c4 73 c3 3d 9d b6 5b 3c 21 d5 b8 3d
       -0.08535015 0.09543565 0.013410238 0.09025026
000170 02 2f a9 bd 6b 65 1e 3e d9 4c 0d be ab b0 6d be
       -0.08260919 0.15468375 -0.13798846 -0.23211925
000180 b1 a7 07 3e c9 0c cf bd 63 d9 6d 3e a3 4b fa 3d
       0.13247563 -0.101098605 0.23227458 0.12221458
000190 b3 cd 5b 3d 9d 23 1a bd 27 5f 13 3d 64 b9 b2 3d
       0.053662967 -0.03763162 0.035979416 0.08726767
0001a0 ab ec bc bd 41 42 25 3e 73 aa 2c 3e c6 69 02 3d
       -0.09224828 0.16138555 0.16861896 0.031839155
0001b0 cb a6 d0 3d 40 66 b6 3c ad c5 a6 bd b5 3f 40 be
       0.10188063 0.022265553 -0.081431724 -0.18774302
0001c0 3a c4 8e bd 82 43 08 be 7f be 49 bd c4 9c f8 3d
       -0.06971021 -0.13307002 -0.049253937 0.12139276
0001d0 b1 f9 64 3e 7a 45 7c be 77 de 1a be 47 73 ba 3d
       0.22360875 -0.24635878 -0.15123926 0.09104019
0001e0 0d d5 0d bd d5 6b 0b 3d 60 f8 e8 3d 4f 42 59 3e
       -0.03462701 0.034038384 0.11375499 0.21216701
0001f0 11 77 c5 3d 2e 15 31 3d ab dc ef 3c 4c e7 2d 3d
       0.09641851 0.04323309 0.029280027 0.04245691
000200 1c d0 00 3e 14 3e 6d be 9f 5f 1c be 64 59 1f 3e
       0.12579387 -0.23168212 -0.15270852 0.15561444
000210 02 34 42 be 30 0c 07 3e a2 d4 25 3e bd 72 55 3e
       -0.18965152 0.13188243 0.16194394 0.2084455
000220 b5 5d bb 3d a3 60 ea 3d ad 0d e8 3d 6b c2 32 3e
       0.091487326 0.11444213 0.113307334 0.17456977
000230 3e c0 c7 3d 3e 96 0e bc ea 37 12 3e d3 0a 91 3d
       0.09753464 -0.008702813 0.14279142 0.07082143
000240 6f cb f5 3d 9d 07 d2 bd b7 7d 85 bd 17 2e af bd
       0.120016925 -0.10255358 -0.06518119 -0.08553713
000250 06 51 02 3d 1d 37 26 3e 6a 5f 53 3d 73 49 2d 3e
       0.03181555 0.16231962 0.051604666 0.1692255
000260 96 c3 39 3e 32 c1 04 be 9d a9 7a 3e fc 45 10 3d
       0.18141016 -0.12964323 0.24478765 0.035222992
000270 ec 1f 24 3e 44 00 ba 3c 91 2f 65 bd a7 b2 17 3e
       0.16027802 0.022705205 -0.055953566 0.14814244
000280 e3 73 23 be dd 91 17 3d 8c ce 3a 3c 57 fe 31 bb
       -0.15962176 0.03700434 0.011401784 -0.0027159655
000290 eb 3b f9 bd 0e cc 31 3e 9a ac 13 bd 07 01 0a 3e
       -0.121696316 0.17362997 -0.036053278 0.13476954
0002a0 57 ca a4 3d c6 d0 2f 3e fc 80 ae 3d 3a 7c 42 be
       0.08046406 0.17169484 0.085206956 -0.18992701
0002b0 4f f3 41 be aa 89 3f be a3 ca 30 be 96 ea cc bd
       -0.18940471 -0.18704858 -0.172648 -0.10005681
0002c0 87 f8 42 3b ac 50 3f 3e bd 89 1f be d2 06 d3 3d
       0.0029750185 0.18683118 -0.15579887 0.10304035
0002d0 45 ac f0 bc 52 aa 1c 3e 81 a2 fd 3d 56 a8 fe 3d
       -0.02937902 0.15299347 0.12384511 0.12434451
0002e0 e5 c5 4d 3e 54 3a 09 be ad bb 24 be 94 21 01 be
       0.20095022 -0.13401157 -0.16087218 -0.12610465
0002f0 f5 6b b8 3d 06 1e 5b 3e c7 0d b1 3d 3c 68 ea 3d
       0.09004966 0.21398172 0.08645206 0.114456624
000300 82 5b 88 3c 4d 40 e5 bd 22 34 66 3e d4 f9 6c be
       0.016645197 -0.11193905 0.22480825 -0.23142177
000310 c9 21 bc bd 65 d6 e5 3d f3 f9 5c 3e 1c e4 16 3d
       -0.091861315 0.11222533 0.21579723 0.036838636
000320 84 75 af 3d 62 d3 44 3d e9 8b 86 3c 3c f9 0a be
       0.08567336 0.048053153 0.016424136 -0.13571638
000330 4e ab 31 3e 88 63 90 3e b8 20 ae bd 5b 31 5f 3e
       0.17350504 0.28200936 -0.08502334 0.21796171
000340 2f 10 0c bb cd fa 40 be b9 15 78 3d 3c 89 71 3d
       -0.002137195 -0.18845673 0.06056759 0.058968768
000350 fb b8 3a 3e ce 86 0f 3d bb 41 ff bc 86 31 36 be
       0.18234627 0.03504067 -0.031159272 -0.17792329
000360 22 f5 03 3e 8b fb 10 3e 93 25 4e bd c8 45 88 bc
       0.1288648 0.14158456 -0.050328802 -0.016634837
000370 5a 51 3a bd 6b 4a b4 bb 93 d1 6f 3e 94 cd f0 3c
       -0.04548774 -0.0055020354 0.2341979 0.029394902
000380 0b 3b 16 3c 35 7f ff bd 2d 48 0a 3e d5 90 44 bd
       0.00916935 -0.12475435 0.13504095 -0.047989685
000390 6a f5 7b 3c e4 73 c3 bd 17 1c 3c 3e a3 d8 19 3e
       0.0153783355 -0.09543589 0.1837009 0.15024047
0003a0 f0 c7 9a bc ed 53 34 bd a9 e7 af 3d 3e 1d 93 3d
       -0.018894166 -0.04402535 0.085891075 0.07183312
0003b0 06 2e 1b be 7c a6 ae 3d f6 5f 09 3c 6a 85 30 3e
       -0.15154275 0.08527848 0.008384695 0.17238393
0003c0 32 36 b1 bd 57 ec 61 bd f9 05 f4 3d 60 ce 8a 3c
       -0.08652915 -0.055157032 0.11915202 0.01694411
0003d0 48 73 c7 bd fa fe 54 3e 36 1f e5 3c 45 47 0f be
       -0.09738785 0.20800391 0.027968984 -0.13992031
0003e0 3c 98 74 bc d0 fc 91 bd 9b c0 b3 bd d0 72 f6 bd
       -0.014928874 -0.07128298 -0.08776971 -0.120336175
0003f0 61 0c 28 3e 3f 09 57 3e 38 88 81 be 0d 33 6f 3d
       0.16410972 0.20999621 -0.2529924 0.058398295

fc2.weight f4 [128, 256]
000000 ed fb 1e 3d 84 9e 8c bd d6 05 4c bd 29 f1 f9 bc
       0.038814474 -0.06866172 -0.049810253 -0.030510502
000010 47 61 25 3d 74 78 8a 3d f8 2c 68 3d 46 eb ca 3d
       0.040375974 0.06761256 0.05668351 0.09908156
000020 2f 0f 50 bd 5a dd 17 3e 2a 9a 11 bd a3 f7 1d bd
       -0.05079573 0.14830533 -0.035547413 -0.038566243
000030 3e e6 cd bd e6 c8 c8 3d 98 cc 15 3d 62 fb a6 3d
       -0.10053681 0.09803943 0.03657207 0.08153416
000040 7f 78 d8 3c 60 d3 06 be 80 f2 a9 3c ee c2 e7 bd
       0.026424645 -0.1316657 0.020745516 -0.11316477
000050 39 b8 87 bd fd 19 19 3e de 72 6d bd 19 d0 08 3b
       -0.066269346 0.1495132 -0.057970874 0.002087599
000060 6b 08 99 bd b0 8c 41 bc 90 d3 36 be eb 0c 9d bd
       -0.07472309 -0.011813328 -0.17854142 -0.076684795
000070 b2 81 55 bd 96 91 17 bd d5 bd 24 3e a5 db 1c bd
       -0.05212564 -0.037004076 0.1608804 -0.038295407
000080 f8 f8 e0 3b f5 f8 2a 3d 96 65 21 3e d6 5f 26 3d
       0.006865617 0.04174133 0.15761408 0.04061874
000090 76 ea ab 3d 72 de cb 3a 00 9b 06 3d c5 01 c4 3d
       0.08394329 0.0015553965 0.032862663 0.0957065
0000a0 d9 83 8c bd c8 0d e7 3c ed df 14 bd 9d 47 17 bd
       -0.068610854 0.028204814 -0.036346365 -0.03693353
0000b0 55 78 be 3c 01 8b 12 3e 6a 6b d2 3d ce 64 c5 bd
       0.023250738 0.14310838 0.10274394 -0.096383676
0000c0 28 6f 00 3d ca 02 db bb 45 fd 23 3d 95 9f 8c bd
       0.031356007 -0.006683682 0.04003646 -0.06866375
0000d0 39 77 a7 bb 08 45 65 bd 65 e0 e0 bc ab a2 80 bd
       -0.005110648 -0.055974036 -0.02745075 -0.062810265
0000e0 0f a2 2e 3d 79 49 b4 bc e9 a0 5d 3c 80 af 21 bd
       0.04263502 -0.02200769 0.0135271335 -0.03947401
0000f0 d4 44 3f bd 08 7e 76 3d f1 61 79 3d 61 62 0c 3e
       -0.0466965 0.060178787 0.06088442 0.13709404
000100 23 8a db 3a 0f ec 61 3d 17 8a ae 3d 31 3c e2 3c
       0.0016749542 0.055156764 0.08522432 0.027616592
000110 02 5a 64 ba 54 0d 53 3c bd 84 b5 3c d2 15 92 bd
       -0.0008710922 0.012881596 0.022158021 -0.07133068
000120 0b b3 d9 bd 34 64 db 3d 2d 72 c8 3c f1 f1 b3 3c
       -0.10629853 0.107124716 0.024468506 0.021965953
000130 86 ae c2 bc 65 41 1c bd 76 42 2a 3d 5c 42 81 bc
       -0.02376486 -0.038148303 0.04156729 -0.015778713
000140 1b 5c 3f bd b2 5b 6e bd 76 4e 43 3d 28 92 d1 3d
       -0.046718698 -0.058192916 0.047682248 0.10232955
000150 a6 01 21 3e 5d 78 53 bd 95 fd a0 bd 1c b1 1f bd
       0.15723285 -0.05162846 -0.07860867 -0.038987264
000160 b0 03 17 bd ea 3a f0 3b 59 a6 bc 3d dc 89 06 bd
       -0.03686875 0.007331242 0.09211416 -0.032846317
000170 46 25 40 bc 80 88 bb 3d e8 ee 48 bd b5 a2 e8 3c
       -0.011727637 0.09156895 -0.049055964 0.028397897
000180 67 8c 93 3d 0f 94 e3 bd 64 b9 d6 3d 4e f0 53 bd
       0.07204514 -0.11112224 0.10484579 -0.051742844
000190 60 7c 2c bd c5 e4 af 3d 30 fe 4f 3d 68 e1 fb 3d
       -0.0421108 0.08588556 0.05077952 0.12298852
0001a0 b3 d3 a5 3d e3 d1 03 3d cf 5b 37 bb 3a cb 32 3e
       0.08097019 0.032182585 -0.0027978306 0.17460337
0001b0 85 65 3a bc 1e e0 9b 3d f1 91 b8 bd 9c e7 e1 3b
       -0.011376743 0.07611106 -0.09012211 0.006894065
0001c0 db 2e 43 3d 20 c2 8e 3d 6a 66 18 bd c2 bd 02 3d
       0.047652107 0.0697062 -0.037207045 0.03191925
0001d0 07 32 1f bb 84 2a da 3d b1 c9 d8 bd 70 1d 7d 3c
       -0.0024291293 0.106526405 -0.105853446 0.015448913
0001e0 91 24 a1 3d 8a 4a d4 bd cb 42 45 bd 87 bf c8 3c
       0.078683026 -0.1036578 -0.048159402 0.02450539
0001f0 fc 2d 3a 3d 74 d5 1e 3e e6 71 1a 3d ae 57 a0 bc
       0.04545401 0.15511113 0.03770628 -0.019573059
000200 23 b5 28 3c 09 63 7d 3e c9 1d 2d 3e 52 da 94 3d
       0.010297093 0.2474481 0.16905893 0.07268204
000210 d5 b9 69 bd 45 56 1d 3e d2 23 85 3d 18 56 9e bc
       -0.05706199 0.1536494 0.06500973 -0.019328162
000220 72 a4 45 3d dd cc a6 3d 62 13 27 bd 01 11 be bc
       0.04825253 0.08144543 -0.04078997 -0.023201467
000230 e3 dc de 3c 97 2f b4 ba c9 d1 f2 3d d2 63 cb bd
       0.027204936 -0.0013747093 0.118564196 -0.099311486
000240 30 a6 f4 3c bc 67 90 3d 46 bb a2 bc 7c fd a1 3d
       0.0298644 0.07051036 -0.01986469 0.079096764
000250 ad f8 3d bc 05 d4 ce bd 60 23 aa 3d dd fa db bd
       -0.011594933 -0.10099033 0.083075285 -0.10741208
000260 05 6c fe 3b 0c c4 99 bc c8 e8 6b 3d 09 8f ac 3d
       0.007764342 -0.01877024 0.057595044 0.08425719
000270 8a 18 5b 3d c2 d1 da 3c 3c cb a0 3d 7a 81 8f 3d
       0.0534902 0.026711348 0.07851264 0.070071176
000280 5e ff 18 3d d2 0f ec bc 89 66 ad 3d ab 03 81 bd
       0.037352912 -0.028816137 0.08466823 -0.06299528
000290 71 fe 8d 3d b0 cd a5 bd 97 52 fd bc f3 53 d3 3b
       0.069332965 -0.080958724 -0.030923171 0.0064492165
0002a0 1f bd 81 3d 7c ef 5c 3d 82 8b 07 3c be 5c c1 bd
       0.063349 0.053939328 0.008273007 -0.09441517
0002b0 8a b5 37 be d4 65 17 bd 1d 48 16 3c 90 ed eb bd
       -0.17940345 -0.036962345 0.009172467 -0.11519921
0002c0 32 11 70 3d 4b 27 9f 3c 60 10 d5 3d 29 8d b2 3d
       0.05861015 0.019427916 0.10403514 0.087183304
0002d0 9e f7 a0 3d 68 ab 55 bd 11 82 7d 3c 5f f2 02 bc
       0.07859729 -0.05216542 0.015472905 -0.007992356
0002e0 88 f7 7d 3d a9 6e 2a 3d 91 0f c3 3b 00 11 31 3c
       0.062003642 0.04160944 0.0059527834 0.010807276
0002f0 bd 9b ab 3d 6d 80 6d 3d c5 b2 1c 3d 5c 7d ee bb
       0.08379314 0.057983804 0.038256425 -0.0072781276
000300 b6 86 46 bd 3f 68 04 3b 20 15 63 bb 7e ba 5b 3a
       -0.048468314 0.0020203737 -0.0034650043 0.00083819765
000310 8e b2 46 bd db 21 b1 bb 68 d7 37 3d 5a 9f 5f 3c
       -0.048510127 -0.005405647 0.04488316 0.013648832
000320 24 c9 77 3d 55 d5 43 bd 1c de 28 3c a2 76 ee bc
       0.060494557 -0.04781087 0.010306861 -0.029109303
000330 2a 74 ce 3c c0 9b 5d bd e7 0a 2b be c8 0c e3 3d
       0.025201876 -0.054103613 -0.16703378 0.11086422
000340 fa 26 b0 3c d6 ca 95 3d e2 ec 4d 3d 39 b2 bf 3d
       0.02150296 0.073140785 0.050274737 0.09360165
000350 dd 01 81 3d 22 36 95 3c 5c 83 83 3e 6b 21 a4 bd
       0.062991835 0.01821429 0.25686157 -0.080141865
000360 cd 3e 71 3c 69 49 60 3e af 90 05 be 89 22 34 bd
       0.0147244455 0.21903004 -0.13043474 -0.043978248
000370 db 52 70 bc e0 c2 70 3d 51 05 73 3d 39 4d 0d 3e
       -0.014668192 0.058779597 0.059331242 0.1379899
000380 d4 ab 8c bc 78 e9 66 bd 07 e9 f5 bd 49 aa fc 3d
       -0.017171778 -0.056374997 -0.12007337 0.12337167
000390 30 21 d5 bd 8f 83 95 3c 45 dd 36 3d fd e7 ce bd
       -0.10406721 0.018251209 0.044644613 -0.10102842
0003a0 89 a6 25 3c 15 4b 29 bd 5a 3c 3e bd 1e 1a 08 3c
       0.010110506 -0.04133137 -0.046444274 0.008307008
0003b0 a8 78 70 3d 54 51 92 3d 36 39 68 3d 51 32 b3 bd
       0.058708817 0.07144418 0.056695186 -0.087498315
0003c0 16 1c c0 bc fb 39 0c be 27 05 12 3e 4a dd e0 bc
       -0.023450892 -0.13693993 0.14259778 -0.027449269
0003d0 91 2b 9b 3d 8d c3 05 3e 41 89 12 3e f9 8d 44 bd
       0.07576669 0.13062878 0.1431017 -0.04798696
0003e0 04 37 9e 3d f1 cb 9c 3c 8e 08 e5 3c 28 c6 fd bd
       0.07725337 0.019140216 0.02795818 -0.12391311
0003f0 f9 54 9c 3d db 65 43 bd 6c 98 a5 bd 6d 80 a0 bd
       0.07633395 -0.04770456 -0.08085713 -0.07836995

fc2.bias f4 [128]
000000 a9 cf e7 3d 49 6d 37 3c 6d b6 c0 bc ff 46 3a 3d
       0.11318905 0.011195489 -0.023524487 0.045477863
000010 a8 d5 ce 3c 8e 64 6b 3c fd 01 8e 3d e5 69 09 bd
       0.025248364 0.014367236 0.06933973 -0.033548255
000020 6f a5 40 3d 6b de 6f 3d 88 39 51 3d 07 48 81 3d
       0.04703277 0.058561724 0.051080257 0.06312566
000030 26 d9 1c bd 50 c6 75 b8 5b 93 02 bc 4b 77 2b 3d
       -0.038293026 -5.8597245e-05 -0.007969703 0.041861814
000040 d6 f2 e5 3c f4 99 08 3c 50 18 02 bd 72 c6 8d bc
       0.028069895 0.008337487 -0.031761467 -0.01730654
000050 18 1f 11 bd 43 4d 8c bb c1 77 a3 3c 57 c9 86 3c
       -0.035430044 -0.0042816713 0.019954564 0.016453428
000060 7f 2f 6b 3d a4 36 01 3d b2 ec b1 bd c3 09 fb 3c
       0.057418343 0.03154625 -0.08687724 0.030644303
000070 83 c8 d3 3c 0a 00 bf bd 80 85 2f 3d 3a 88 4f 3d
       0.025852447 -0.09326179 0.042851925 0.050667025
000080 62 38 15 bc 2f 48 fb bc ba 9d 4d bd e5 d3 2a 3d
       -0.009107681 -0.030674068 -0.050199248 0.041705985
000090 89 21 74 3d d4 b1 8d 3c 59 2c 5c bc e5 f1 af bc
       0.059602294 0.01729671 -0.013438308 -0.021477649
0000a0 71 a0 e5 3c 7c f4 81 3d 9f 09 61 3d ca 90 99 3d
       0.028030606 0.0634546 0.054940816 0.074983194
0000b0 85 5b 5b 3d 76 55 c8 bc 61 c1 ef bb 09 dc a1 3d
       0.053554077 -0.024454813 -0.0073167537 0.079032965
0000c0 32 aa f5 bc 33 2d ae bd ce 5e e3 bc 11 45 d8 bb
       -0.029988382 -0.08504715 -0.027755167 -0.00660003
0000d0 1f a4 c0 bc c4 f1 4f 3c 0a 1c 2d bc 2d c8 d0 3d
       -0.023515759 0.012691919 -0.010565767 0.101944305
0000e0 3b ce b3 3c 68 9d 9a 3d ec e1 74 bc 31 d6 39 3d
       0.021948924 0.07549554 -0.014946442 0.045370284
0000f0 1c 99 81 3c 63 7f 09 bc 1a 3d 25 bd 63 79 18 3d
       0.015820079 -0.008392188 -0.040341474 0.03722514
000100 7e 5e 6c 3d d5 02 37 3d bf 05 30 bd e8 be 47 bd
       0.057707302 0.044680435 -0.04297423 -0.048766047
000110 92 75 6b bc d0 ea 47 3d 4b fe 37 3d 4b 17 98 bd
       -0.014371293 0.04880792 0.044920247 -0.07426318
000120 ab dc ae 3d df a2 09 bc f6 be 18 3d 0f 45 00 3d
       0.08538183 -0.008400648 0.03729149 0.03131586
000130 1e 0e 28 bd 5c 98 81 3d f7 49 8a 3c 4d 8f 22 bd
       -0.04102909 0.06327888 0.016880972 -0.039687444
000140 a2 7c 10 bd e4 91 43 ba ae 34 d2 3c 27 9f ec bc
       -0.03527511 -0.0007460399 0.025659885 -0.028884484
000150 bb c1 1b 3c 97 e3 c7 bc 41 01 d9 3a 95 29 ed bc
       0.009506638 -0.024400515 0.001655616 -0.028950492
000160 97 a1 24 3d 2c 84 85 bc 1d 12 c6 3d 1c b1 3e 3d
       0.040193167 -0.016298376 0.096714236 0.046555623
000170 ae dc a9 3b f5 e7 1a bd 27 b2 03 3c 09 c0 44 3d
       0.005183778 -0.037818868 0.00803808 0.0480347
000180 96 57 81 3d 58 15 c1 3b c8 fd 4c 3d 72 5c 43 3d
       0.06315534 0.005892437 0.050046712 0.047695585
000190 14 e1 96 3d bb 4a 22 3d 28 71 03 bd 6e b6 15 3d
       0.07367149 0.03962205 -0.032090336 0.03655093
0001a0 dc 73 1c bd 00 de e4 bc 0d ef 7d bd 06 e7 bc 3c
       -0.03819643 -0.02793789 -0.061995555 0.02305938
0001b0 81 cf ab 3c fa e9 c6 3d e6 04 28 bd 0a ee 2d bd
       0.020972969 0.09712596 -0.041020297 -0.04246334
0001c0 24 4d d4 bb 97 52 c8 3d 0c 91 3f 3d 5c 3c a2 3c
       -0.0064789224 0.09781378 0.046769187 0.019804172
0001d0 56 c5 06 3c eb f4 ba bc 88 42 90 bc ee 59 35 bc
       0.0082257595 -0.022821864 -0.01760985 -0.011068804
0001e0 dc 95 27 3d 0d 83 c0 3d 96 54 38 3d c6 fc 47 bc
       0.0409144 0.09399996 0.045002542 -0.012206262
0001f0 52 45 10 3d 5f e3 3e 3d ff 94 90 3d 56 3d 86 bb
       0.03522236 0.046603557 0.07059669 -0.0040966673

fc3.weight f4 [2, 128]
000000 2e 02 9a 3d 97 a0 da bd 84 27 b5 bd c8 75 1f 3e
       0.07519947 -0.10675161 -0.08845428 0.15572274
000010 22 b0 2c be d7 a7 51 bc c0 21 6f 3d b9 bb 08 3d
       -0.16864064 -0.012796364 0.058381796 0.03338215
000020 99 35 4e 3c 72 2d ca 3c 2a 7d ae bd 44 84 14 3c
       0.012586021 0.024679873 -0.08519967 0.009064738
000030 37 99 bc bd 5d 21 04 be d2 d1 ca 3c 04 ff 56 3d
       -0.09208911 -0.12903352 0.024758253 0.052489296
000040 bb a0 b9 3d 27 d4 10 be 91 86 3c bd 2c da c2 bd
       0.0906386 -0.1414343 -0.04602677 -0.09514269
000050 ed f6 f1 bd 17 77 ab bd 27 1d 9f 3d 27 a7 19 be
       -0.118146755 -0.08372324 0.07769232 -0.1500517
000060 86 fe 6a 3b 50 ef 70 3d dd 16 9f bd a6 1d 95 bd
       0.0035857274 0.058821976 -0.07768033 -0.072810456
000070 0d db e2 bd 1a 93 08 be e5 18 dc 3c ad 96 0e 3d
       -0.11076937 -0.13337365 0.02686734 0.034811664
000080 3b 94 07 be fc 14 b0 3d cf eb cb bd c3 ba 0b 3e
       -0.13240139 0.085977525 -0.09957086 0.13645463
000090 a7 72 a8 bd 82 2c 0d be b3 49 ad bd 98 74 5c 3d
       -0.08224993 -0.1378651 -0.08461323 0.05382213
0000a0 8a 61 a6 bd 27 e9 1d be 61 c7 40 3d d8 8b 1e 3d
       -0.08124073 -0.15420972 0.047065143 0.038707584
0000b0 a6 89 a0 3c d4 f9 36 bc b6 d6 8e 3d c6 c1 9f 3c
       0.019596886 -0.011167962 0.069745466 0.019501578
0000c0 30 71 cc bd d5 9e 86 3e df 7d d9 3d 90 ee d8 3d
       -0.09982526 0.26293054 0.10619711 0.10592377
0000d0 6f ff 3e be 79 c8 3a be 8e f7 f6 bb 7b 45 23 3e
       -0.18652128 -0.18240537 -0.007536835 0.15944473
0000e0 f6 b8 b4 bd fe e5 dd 3c 6a 93 48 3b 61 d8 2e be
       -0.08824341 0.027087208 0.0030605444 -0.1707473
0000f0 c4 b6 a0 3d 46 f2 d5 bd 71 9e 1d 3e 42 0a 03 be
       0.0784736 -0.104466006 0.15392472 -0.12796882
000100 da dd 55 bd 65 0c 6f 3d 27 35 1b 3c 38 c6 c7 bd
       -0.052213527 0.05836143 0.009473122 -0.09754604
000110 ce 60 af bb ae a6 c0 3d 12 37 73 3d 40 74 27 bd
       -0.005352116 0.094067916 0.05937869 -0.04088235
000120 a1 4e 85 3d 5b d9 ac bc d8 9f b3 bd 00 d0 56 bd
       0.06509138 -0.021099737 -0.08770722 -0.052444458
000130 b7 29 3e bb 94 1b 02 be 81 e1 a8 3d dd ce db bd
       -0.0029016563 -0.12705833 0.082461365 -0.107328154
000140 3a 8d 0b be 97 b2 53 3c 88 5e c7 3c 72 3a 40 be
       -0.13628092 0.012920997 0.024337068 -0.18772295
000150 a6 6b d0 bd d6 7e 10 3e 77 b3 e7 3c 26 5b a3 bd
       -0.10176782 0.14110884 0.028283818 -0.079763696
000160 c9 2a 2b be ef 50 ca 3c 10 74 ae 3d bc f8 0e 3e
       -0.1671554 0.024696795 0.08518231 0.13962072
000170 67 e4 8a 3a 2e ce 1a be f0 31 e5 3d f7 b5 34 bd
       0.0010596634 -0.15117714 0.111911654 -0.044118848
000180 ee 29 00 be 6c bc f9 3c aa bd fe 3d 74 48 cc bd
       -0.12515995 0.030485354 0.12438519 -0.09974757
000190 a3 2f a9 3d 23 47 3e bb 5a 64 c6 bd 95 06 0d 3d
       0.08261039 -0.00290341 -0.09687109 0.034430105
0001a0 aa ea f6 3d 5f 1c 7e 3c 04 d8 d6 be b1 ed 25 3e
       0.12056477 0.015509694 -0.41961682 0.16203953
0001b0 f2 cf d5 3d ff 07 d5 bc 70 21 df 3a 2f 7c a2 bd
       0.10440053 -0.02600479 0.0017023515 -0.079338424
0001c0 a2 1c 66 bd e8 8e 0f 3d b1 ac 82 bd 27 01 a5 bd
       -0.05617965 0.035048395 -0.063805945 -0.080568604
0001d0 90 c2 f8 bd 94 ec 2d be a2 56 09 be e5 bb 19 be
       -0.12146485 -0.16984779 -0.13411954 -0.15013082
0001e0 07 2f 9d bb 14 5a 12 3d 7c bd 4b bc 8f af 00 3d
       -0.004796866 0.035730436 -0.012435313 0.031417426
0001f0 37 64 38 3e 92 88 1b be 67 81 5c 3e d5 d0 fe bd
       0.18006979 -0.15188816 0.21533738 -0.12442175
000200 ea 32 2f 3d 4a f6 88 3d 2e 92 95 3d c2 7f 01 be
       0.042773165 0.06687601 0.07303272 -0.12646392
000210 2d df b8 bc cc 83 a3 bd 83 2f ca bd b1 2a 6f bd
       -0.022567356 -0.07984123 -0.098723434 -0.058390323
000220 b4 bf 54 3e 07 6a 79 3e c1 d6 c4 3d 68 50 da bd
       0.20776254 0.24356852 0.096112736 -0.106598675
000230 80 21 40 3d 0a 4d 25 3e de 2c be bd 4b be e9 3d
       0.046906948 0.1614267 -0.092859015 0.11413249
000240 1a 02 d2 3d ff 43 1f 3e 64 1b 92 3d df 14 c5 3d
       0.10254307 0.15553282 0.071341306 0.096231215
000250 45 64 86 3d 06 aa f0 3d 9d 83 2a be fb 16 ae 3d
       0.06562094 0.117511794 -0.16651769 0.08500477
000260 e7 32 0b be 4e 1e 0b bd 9d af a9 3d 03 09 83 3d
       -0.13593636 -0.033964448 0.08285449 0.06398203
000270 50 0a d9 3d 9f b5 b1 bd 4c 50 ca bd 03 04 c9 bd
       0.1059767 -0.086772196 -0.09878597 -0.09815218
000280 4a 1a 34 3e dd 75 a5 3d 32 91 05 3d 97 de 79 3e
       0.17588153 0.08079121 0.032609172 0.24401318
000290 89 50 8a 3d fd eb 41 3d 72 69 05 3d f8 0f 31 3e
       0.06753642 0.047344197 0.032571264 0.17291248
0002a0 94 55 b3 3d 45 61 1c 3e f3 6a 92 bd 76 d5 df bd
       0.08756557 0.1527148 -0.07149305 -0.10929386
0002b0 d9 52 b3 bd 93 58 b2 bd 49 59 42 bd dd a0 bd bd
       -0.08756036 -0.087083004 -0.04744843 -0.09259198
0002c0 05 0b 1e 3c 59 a0 ea 3d d0 0d 56 3e 73 fa c4 3d
       0.009646182 0.11456365 0.20903707 0.09618082
0002d0 5c 66 2d 3e 78 21 ee 3d 4b f4 b6 bd 24 57 51 3c
       0.16933578 0.116274774 -0.08933314 0.012777124
0002e0 5c b6 8f 3e 0b bd ab bd 81 ac 9e bd 79 ef 1c 3e
       0.28068817 -0.083856665 -0.07747746 0.15325727
0002f0 19 44 fb bb a1 4f 20 3e dd 01 be 3e 2e fe c6 3d
       -0.00766803 0.15655376 0.37110797 0.0971645
000300 cf c5 32 3e 25 e4 8f 3e a7 09 83 be ee 7c 82 bd
       0.1745827 0.28103748 -0.25593302 -0.06371485
000310 b6 a0 b2 3e 45 55 eb 3c ac 1f ff bc b1 e9 2c be
       0.34888238 0.028727183 -0.031143032 -0.16886021
000320 a4 1b 24 3e 5a f4 b0 bd 65 05 fc 3d 88 cc 98 3d
       0.16026169 -0.08640356 0.123057164 0.07460886
000330 e6 3c a6 bd f9 d2 0f 3e b3 cb e2 3d 28 e8 bc 3d
       -0.08117084 0.14045323 0.11074009 0.09223968
000340 c6 e8 d9 bc 8b b2 be bd 19 41 c9 bd af 0e 9b 3d
       -0.026600253 -0.09311398 -0.098268695 0.0757116
000350 2e 88 c1 3d 12 3b e9 3d 43 d5 5f 3e 64 1f dc 3d
       0.09449802 0.1138822 0.21858697 0.10748175
000360 8c 64 d7 3d 2a bf a7 bd c7 f4 9a bd 13 f3 1f 3e
       0.10517225 -0.081907585 -0.07566219 0.15620069
000370 15 ed dc 3a 3e 57 57 3d 66 f1 15 3e f8 a5 32 3e
       0.0016855324 0.052573435 0.14642867 0.17446125
000380 3e 68 05 3e c8 b0 d0 bd 1c df 84 3c 21 a5 02 3e
       0.13028046 -0.10189968 0.016219668 0.12758304
000390 41 03 c6 bb 25 5f 74 3e f1 a6 b9 3d 3f 49 55 3e
       -0.0060428684 0.2386442 0.09065045 0.20828722
0003a0 9e cc a1 3e 60 2b b4 bd b9 c8 1b 3d 04 c6 21 3e
       0.31601423 -0.087973356 0.03803322 0.15798193
0003b0 ba c6 80 3e ef 7f 60 3e 8f 59 c6 bd b5 3e 31 3e
       0.25151616 0.21923803 -0.09685051 0.17309077
0003c0 7b 8b ae 3d 68 2f 12 be bf 54 8e 3e 10 d1 c5 3c
       0.085226975 -0.14275897 0.2779903 0.02414754
0003d0 e2 78 e0 3b 27 0d 5b 3d d7 85 12 be bd 35 a1 3d
       0.006850348 0.05347934 -0.14308868 0.07871578
0003e0 69 bc cc bd 24 83 23 3e 56 46 d6 bd 32 d2 e4 bd
       -0.09996874 0.15967995 -0.10462634 -0.11172904
0003f0 43 f6 f0 3d bb e3 17 3d a4 25 15 3e 7f 0a c2 3d
       0.11765721 0.037082415 0.1456514 0.09474658

fc3.bias f4 [2]
000000 8b 93 c9 3c d1 1a b1 3c
       0.024606487 0.021619232
