ddpg_checkpoint_critic.pth (torch_old, 159653 bytes, 5 tensors)

fc1.weight f4 [256, 24]
000000 45 0c dd bc c7 cf a3 bb ab a2 fb 3c 1a d0 79 bc
       -0.02698339 -0.004999134 0.030717215 -0.015247369
000010 72 99 f3 bd 8f d0 da bd 77 af 8b bc 7d 69 56 3d
       -0.11894502 -0.10684311 -0.017051442 0.052346695
000020 3b a8 0f bd 4f cd 3c 3d 5a ab 4d bd a4 ec 5d 3d
       -0.035072546 0.046094235 -0.05021224 0.054180756
000030 ea ca c8 b8 9b c7 03 bd 8a 46 4b 3d 19 af 7f 3d
       -9.574539e-05 -0.03217278 0.04962782 0.062422846
000040 7a bb 17 3b 52 63 fc bb b1 aa 47 3d e1 8e dd 3c
       0.0023152516 -0.0077022696 0.04874677 0.027045669
000050 f3 c5 b4 bc eb 39 8a 3c 61 d4 3e bd 44 33 5f 3d
       -0.022067046 0.01687332 -0.04658926 0.05449225
000060 1f 2e a2 3b 76 84 2b bd cb 96 25 3a d9 94 7d 3c
       0.0049493457 -0.04187437 0.00063167204 0.015477383
000070 c8 9c c0 bd 21 e7 5f bd e5 96 39 3d 28 f2 bc bb
       -0.09404904 -0.05466378 0.04530992 -0.005766172
000080 29 76 af bc c4 83 5f bd e1 0e 58 bb ae ab 18 3d
       -0.021418648 -0.05456902 -0.0032967853 0.0372731
000090 46 cf 29 bb 89 8e 8f 3c 06 24 21 bd 8a 42 10 3d
       -0.0025910898 0.01752402 -0.039340995 0.035219707
0000a0 8b e1 50 3d a1 87 86 bd 39 e6 0a bd 55 26 52 bd
       0.050996345 -0.06568838 -0.033910964 -0.051306088
0000b0 20 b3 24 3e 7a b7 4a 3c d3 5a 0b 3c 2d a6 bf bc
       0.16083956 0.012372846 0.008505541 -0.023394668
0000c0 fd c8 a4 bb f2 98 bd bd 7f 5a f8 bb c5 e1 4a bd
       -0.0050288425 -0.09257688 -0.0075791474 -0.049531717
0000d0 9d ed 01 bd 73 48 d8 bd 1d e3 60 3c a7 f2 13 bd
       -0.031720746 -0.105606936 0.013726023 -0.036120083
0000e0 9b 97 1f bd d8 d4 98 bd 1a 02 4f bc 92 a9 ba 39
       -0.03896294 -0.07462472 -0.012634778 0.00035603024
0000f0 c9 35 c7 3c a0 d5 91 bd 14 62 e0 3a 37 7f 9d 3d
       0.024317639 -0.07120824 0.0017119073 0.0769028
000100 00 35 c0 bb 80 d9 03 be f5 11 39 3d 3a 85 93 3d
       -0.005865693 -0.12875938 0.04518314 0.07203145
000110 94 6f e4 3c 26 1d c3 3c 25 8d 66 bc e8 8b 98 3d
       0.027885236 0.02381761 -0.014071737 0.0744856
000120 ec 20 21 3d ed 43 0f 3d c3 67 09 3c 8c 85 3d bc
       0.039338037 0.03497689 0.008386555 -0.011567485
000130 c7 d9 97 bd 6d 32 38 3d 9f 7d 9f 3c 59 a8 0d 3c
       -0.074145846 0.044969965 0.01946908 0.008646094
000140 73 22 ff bb 9c 4e a4 3d 4c 3b 92 bc 33 60 27 3d
       -0.007786089 0.08022806 -0.01785054 0.040863227
000150 46 89 d1 bc 57 c0 08 bc 33 e1 3c 3d e3 ce 16 bd
       -0.025578152 -0.008346639 0.046113204 -0.036818396
000160 d1 8e 70 bd ed 94 4b 3d 56 87 d3 3c b6 fa 01 bc
       -0.05872995 0.049702574 0.02582137 -0.007933309
000170 b8 3d 2e 3d 01 78 b7 bd 3d 54 27 3d c8 f5 83 bc
       0.04253933 -0.08958436 0.04085182 -0.016108409
000180 fa 49 33 3d 54 51 d0 ba e3 b9 bc bb fb b2 66 3d
       0.04377172 -0.0015893378 -0.005759464 0.056323033
000190 35 0a c6 3c fc d7 17 bd 80 03 61 3d 1f 1e 35 3c
       0.024174789 -0.037071213 0.05493498 0.011054545
0001a0 d0 69 5a bd 43 f7 a2 3d f2 91 dc bc 27 20 c8 ba
       -0.053323567 0.07957318 -0.02692506 -0.0015268371
0001b0 b7 34 a8 3d bd a5 36 bd b0 a3 47 bd 0b 6f c3 3d
       0.082131796 -0.044591654 -0.04874009 0.09542664
0001c0 2e 66 49 3d c9 3f 24 3d fd f0 0f 3a da f9 e2 3c
       0.04916971 0.040099893 0.0005490927 0.02770703
0001d0 7b 08 65 3c ca c8 b4 bd 92 ab 2b 3d f4 5e 70 bc
       0.013979073 -0.0882736 0.04191167 -0.014671076
0001e0 83 c7 75 3d 11 ef 4a 3d 31 e1 aa 3c 5b 7c 24 3c
       0.060004722 0.049544398 0.020859333 0.010039414
0001f0 4f ca ac 3d 4a a7 08 3e 65 ad a3 bc 99 4d 00 bd
       0.08437025 0.13345066 -0.019980142 -0.031324003
000200 96 cb 6e 3d b5 94 74 bc ea 4a 91 3c 36 f6 f6 bc
       0.058299623 -0.014928033 0.017735917 -0.0301467
000210 fd f0 27 39 bd c1 e3 3d 4a 57 e5 bb 15 17 5c bd
       0.00016016136 0.11120937 -0.006998931 -0.05373295
000220 44 01 83 bb eb a0 2b 3d 65 1f 84 bb 68 bf a5 3c
       -0.0039979536 0.04190151 -0.004032063 0.020232871
000230 a1 74 e9 bd a9 8c a3 3d d7 c7 3d 3c 19 3b 58 bd
       -0.11399198 0.07985813 0.01158329 -0.052790735
000240 98 14 67 3d b1 cc 10 bc ab c6 4d bd 83 5e 04 3d
       0.056416124 -0.008837865 -0.050238293 0.032316696
000250 c9 7c a8 3c 18 6f 3b 39 0e 6e 1d bc ec c4 af 3d
       0.020567315 0.00017875095 -0.009608759 0.08582482
000260 db eb 04 3d 43 94 10 bd b5 1b 74 3d 15 8b ba 3d
       0.03245149 -0.035297643 0.059596736 0.09108559
000270 61 a6 1c bd 64 20 80 bd 84 b7 b3 bc 5b 4e 35 3d
       -0.03824461 -0.06256178 -0.021938093 0.04426418
000280 4c e2 45 3d 42 73 8f bb 36 e2 f3 bc 2d 58 55 3c
       0.048311517 -0.0043777535 -0.029770952 0.013021511
000290 99 92 28 bb 92 f9 ce bd 52 ac 04 bd c4 8a 5e 3d
       -0.0025722145 -0.101061955 -0.0323909 0.054331556
0002a0 fb 0c 65 3c 26 b9 21 bc a5 42 a4 bc 3a b1 10 bc
       0.013980146 -0.009870803 -0.02005131 -0.008831317
0002b0 39 5c ef bd af 23 58 3a c6 58 62 3c ca 13 62 3c
       -0.11687512 0.00082450634 0.013815111 0.013798663
0002c0 24 9e a1 3c 13 af cc bc 34 02 18 bd 93 83 2d bd
       0.019728728 -0.024985826 -0.037111476 -0.042361807
0002d0 ff fc fa bd e1 fc 01 bd 28 21 0d 3d 53 bd e0 3c
       -0.122552864 -0.031735305 0.03445545 0.027434027
0002e0 d4 f5 cc bc 1c c3 7d bd 8f 1b 2b bc f5 36 84 3c
       -0.025019564 -0.06195365 -0.010443582 0.016139487
0002f0 ba 0c e2 bd ea 85 61 3d cd 0d 37 3c 9d 01 9f bc
       -0.11037584 0.05505935 0.011172724 -0.019409949
000300 d2 a6 32 3d f0 a1 94 bb b3 80 19 bc 6e 26 86 3b
       0.043616123 -0.004535906 -0.009369063 0.0040939366
000310 f8 73 2a 3d 6c e6 6e 3b a9 78 40 3c 0e 18 a5 bc
       0.041614503 0.003645326 0.011747518 -0.020153072
000320 b2 1d 2d bd 28 47 9f bc 66 bc 37 3d 91 b9 c5 3c
       -0.042264648 -0.01944311 0.044857405 0.024136337
000330 b6 d4 97 3c 27 9d 75 3d 30 2d 1f bd 56 a8 5f bd
       0.018534046 0.059964325 -0.038861454 -0.054603897
000340 55 9a 66 bb 59 e3 07 be f9 1b 27 bd 85 dc 6a bd
       -0.0035187204 -0.1327032 -0.04079816 -0.05733921
000350 77 8a 23 3d 8c e0 e1 3d 49 50 1f bd 86 91 a7 bd
       0.039926972 0.11029157 -0.038894925 -0.08182053
000360 9c 2d 26 bd bd 12 3e bd fc 6f 8f bc 85 0a 09 bd
       -0.04057084 -0.04640459 -0.017509453 -0.033457298
000370 21 bc 78 bd aa f3 82 bd a9 ac 4e 3d fd af 29 bd
       -0.06072629 -0.063941315 0.05045763 -0.0414276
000380 c0 3e 6b 3d 4d bc 9b bd a2 b1 5d 3d 72 6f 10 bd
       0.05743289 -0.07604275 0.054124482 -0.035262533
000390 e2 ee 87 bd 35 2f fd bc 5f 1f 67 bc b4 69 3b bd
       -0.0663736 -0.0309063 -0.014106601 -0.045755103
0003a0 69 7f dd bc c4 b0 05 bc 49 5e 4b bd a9 0a 2e 3d
       -0.027038293 -0.00815982 -0.049650464 0.042490635
0003b0 7c a1 10 bd 67 82 6d 3d 1e c9 fe 3c a0 9e d3 3b
       -0.035310254 0.05798569 0.03110176 0.0064581186
0003c0 bd cc 8b bd 62 3e f1 3d c8 4c 25 3d 8b 23 12 bd
       -0.0682616 0.11779477 0.040356427 -0.035678428
0003d0 44 0c 30 bc 10 a9 d6 3c f6 06 df 3c 6d d1 5c 3c
       -0.010745112 0.026203662 0.027224999 0.013477665
0003e0 ed 7b 83 bd 4a 9b 94 3d b7 e6 22 3d 6e 3c 8d 3b
       -0.06420121 0.072561815 0.039770808 0.0043101823
0003f0 ec a9 4d 3d b8 ee c1 bd eb fc 36 bd b6 e6 8d 3c
       0.05021088 -0.0946936 -0.044674795 0.017321926

fc1.bias f4 [256]
000000 db 84 c5 bd 48 80 b6 3d 42 ee 97 3d 51 a8 12 3e
       -0.09644481 0.089111865 0.07418491 0.1432202
000010 36 43 9e bd dc d2 50 be e6 12 65 be 5c 4e ef bc
       -0.07727663 -0.20392936 -0.2237049 -0.02921217
000020 5d 79 45 be 0d a1 d9 bd 41 e9 13 3e 12 90 99 bc
       -0.19284578 -0.10626421 0.14444448 -0.018745456
000030 76 fe a4 3d 86 40 51 be 90 02 11 3d 5b 55 2a 3e
       0.08056347 -0.2043477 0.035402834 0.16634123
000040 1d f1 19 3d 4e 89 50 3c 42 77 f9 bd a0 31 a2 bd
       0.03758346 0.0127280485 -0.1218095 -0.079196215
000050 7c 26 49 3d 7d f2 42 be f4 b4 94 bd c2 1b 35 be
       0.049108967 -0.19037814 -0.072610766 -0.1768637
000060 38 2d e2 ba 58 c7 69 be 06 a1 69 3d 11 74 00 3c
       -0.0017255908 -0.2282995 0.05703833 0.007840172
000070 1f 50 2c be 08 1e c6 bd 32 71 ac bd 4a 7e c9 bd
       -0.16827439 -0.09673697 -0.08420028 -0.09838541
000080 21 c7 41 bd f6 32 81 3c 2b e9 c2 bd a7 5c 6b 3d
       -0.047309045 0.01577137 -0.095171295 0.057461407
000090 f4 a6 36 be 3d 42 48 3e e6 a8 d4 bd 5f a5 d7 3d
       -0.17837125 0.19556518 -0.10383777 0.10529589
0000a0 f0 a6 b1 bd b4 59 25 be 61 a6 64 3b 06 ca e3 bd
       -0.08674419 -0.161475 0.0034889209 -0.11122517
0000b0 1e 84 bd bd e6 24 0c be 69 10 72 bd 06 ad 2d be
       -0.09253715 -0.1368595 -0.05909768 -0.16960534
0000c0 fc c6 4e 3e a6 df cc 3d 22 1d 92 bd da dd 20 3e
       0.20193094 0.10003595 -0.07134463 0.1570963
0000d0 52 af 84 bd 07 02 29 be 27 b5 66 3d 92 f8 88 bd
       -0.06478752 -0.1650468 0.056325104 -0.06688036
0000e0 e8 87 01 3e 1b 5a 9e bd c5 7d 19 be b2 64 34 3e
       0.126495 -0.0773203 -0.14989384 0.17616537
0000f0 da da 40 3d fb 97 76 3d 4b 97 c8 3a 84 4c 39 be
       0.047083713 0.060203534 0.0015303878 -0.18095595
000100 a4 7d 86 3d 0e 76 3d bd bd 18 ae bd 67 3f 0d 3e
       0.06566933 -0.046255164 -0.08500812 0.13793717
000110 f8 1d 42 be ac ff b2 bd 3d 8f 86 bc e0 65 3b be
       -0.18956745 -0.08740172 -0.016425723 -0.18300581
000120 3f d0 43 be 1c eb 67 bd ff fe c2 bc 01 f5 49 3e
       -0.19122408 -0.056620702 -0.023803232 0.19722368
000130 13 fd c7 3d 4b 49 1c 3e b4 02 57 3d 78 59 22 3a
       0.09765067 0.15262334 0.052492812 0.00061931415
000140 66 cd 21 bd 4a 7f 94 bd 02 34 3b be b6 fb 2a be
       -0.039502524 -0.07250841 -0.18281558 -0.16697583
000150 09 21 da 3d 99 01 dd bd f9 8a c2 bd 9d 9a 36 3d
       0.10650832 -0.1079132 -0.09499163 0.044581044
000160 a9 b1 dd bd 0d ab bc 3d f4 29 2c bc 0b 20 86 3d
       -0.108249016 0.09212313 -0.010508049 0.065490805
000170 b0 f8 b5 bd 42 0c 3c 3e 83 65 34 be 9d 19 27 be
       -0.08885324 0.18364051 -0.17616849 -0.16318364
000180 09 e8 24 3e 29 c7 09 be f0 c6 5a 3e a7 fe b2 3d
       0.1610414 -0.1345488 0.21364951 0.08739977
000190 ba c2 f5 3d 77 b0 90 3b 9c 73 68 3c 19 0d eb bb
       0.12000032 0.0044155675 0.01418772 -0.007173192
0001a0 fe 5c b0 bd 78 72 0a 3e 57 e6 f3 3d 2a b0 49 bd
       -0.08611487 0.13520229 0.11909168 -0.04924027
0001b0 3e d1 f5 3c e1 9a 77 bd 9b 05 e1 bd 6e e0 02 be
       0.030007001 -0.06045044 -0.10987397 -0.12780926
0001c0 70 7b 9e bd ae 7f 5e be 33 65 33 bd 99 d9 f4 3d
       -0.077383876 -0.21728393 -0.043797683 0.11955566
0001d0 e8 92 45 3e dc 2c 36 be 68 5c 15 be d5 a9 1e 3e
       0.19294322 -0.1779055 -0.14586031 0.15494473
0001e0 b1 26 76 bd 3a df 47 ba bf cd 05 3e c0 68 3c 3e
       -0.060095493 -0.0007624511 0.13066767 0.18399334
0001f0 b9 c6 94 3d 4c 61 54 3c 60 8d d4 bc 6e b9 d0 bb
       0.07264466 0.0129626505 -0.02594632 -0.006369761
000200 4b 90 5f 3d 53 18 5c be 46 97 4d be 48 84 c6 3d
       0.054580968 -0.21493654 -0.20077237 0.096931994
000210 58 0e 59 be 12 6c 04 3e 11 9f 2d 3e d4 8f 13 3e
       -0.21196878 0.1293185 0.1695521 0.14410335
000220 c4 5e 90 3d 02 c5 3d 3d 74 7b 94 3d a8 31 d0 3d
       0.07049325 0.04633046 0.07250109 0.10165721
000230 5c cb e0 bb 7e 21 0a be 34 3a 08 3e 39 cd f6 bc
       -0.00686018 -0.13489339 0.13303453 -0.030127155
000240 0a 27 e2 3d 24 b6 01 be a5 83 88 bd 0d 66 12 be
       0.11042602 -0.12667137 -0.06665734 -0.14296742
000250 3f 10 11 bd 42 2b 47 3e 83 2d 62 3c 84 b6 46 3e
       -0.035415884 0.19450095 0.013804796 0.19405562
000260 70 4c 14 3e e8 12 fc bd 14 9d 52 3e 19 11 87 3d
       0.14482284 -0.123082936 0.20567733 0.06595058
000270 07 27 1f 3e b9 7d 43 3d f4 c2 cf bc 27 69 43 3e
       0.15542232 0.04772732 -0.025361516 0.19083081
000280 10 dc 11 be 32 1f 9c bc c7 87 0d bc 17 0c c5 bc
       -0.14244103 -0.019057844 -0.008638329 -0.024053616
000290 ac a1 52 bd 21 97 18 3e ba 8e b9 bc e5 5f a3 3d
       -0.051423714 0.14901401 -0.022651065 0.07977275
0002a0 46 5a 9d 3d 17 e4 1e 3e 6f ac 8d 3d e2 ae 52 be
       0.07683234 0.15516697 0.06917655 -0.20574525
0002b0 16 9d 4a be 35 30 4e be 10 a9 4e be ae e8 62 be
       -0.19786486 -0.20135577 -0.2018168 -0.22159073
0002c0 98 ac 6a 39 13 5b 48 3e db 34 13 be 9e 17 ed 3d
       0.00022380275 0.19565992 -0.14375632 0.1157677
0002d0 2e 1c 12 be ad e1 0e 3e b1 d8 05 3e 6b 47 9c 3d
       -0.14268562 0.13953276 0.13070942 0.076308094
0002e0 a7 03 63 3e 3c 74 02 be 8f 07 09 be 18 aa 9e bd
       0.22169362 -0.12739652 -0.1338179 -0.077472866
0002f0 ba bc b9 3c 1d 80 36 3e be e2 f8 3d 74 24 99 3d
       0.022673 0.17822309 0.12152623 0.07477656
000300 e8 2e 47 bd 89 23 d0 bd 00 ba 34 3e b8 eb 41 be
       -0.048628718 -0.10163028 0.17649078 -0.18937576
000310 2e 77 01 be 19 7d e0 3d 0f e7 32 3e 5c dc 76 3c
       -0.1264312 0.109613605 0.17470954 0.015067186
000320 3d b7 12 bc 0b 88 2c bc cb 07 5c 3b d3 55 f6 bd
       -0.00895482 -0.010530482 0.003357398 -0.120280884
000330 eb 52 30 3e 2e cf 4e 3e 32 b1 95 bd 00 25 38 3e
       0.1721913 0.2019622 -0.07309188 0.17982864
000340 9b 29 4c bd 2c 28 2c be 57 76 5c 3d 34 b0 ce bd
       -0.049844366 -0.168122 0.053823795 -0.10092202
000350 81 6c 43 3e dc 2e 8c 3c 62 8e 6b bd 0f b8 28 be
       0.1908436 0.017112188 -0.057508834 -0.16476463
000360 97 6c 2a 3e 1e 43 bb 3d ab b5 c7 bc b4 73 a5 bd
       0.16642986 0.09143661 -0.024378618 -0.08078709
000370 54 c7 80 bd 46 b2 b2 3d fd f6 49 3e c8 71 8a bc
       -0.06288019 0.08725409 0.19723125 -0.016899958
000380 a4 18 58 3b 25 0d 67 be e6 83 9e 3d f6 a2 c4 bd
       0.0032973671 -0.22563608 0.077400014 -0.09601395
000390 07 a8 8d bc 2c ab d9 bd e8 2c 42 3e 07 29 10 3e
       -0.017292036 -0.106283516 0.18962443 0.1407815
0003a0 00 e9 ab bd 10 da 5f bd ab a1 c5 3d dd 3a 82 3d
       -0.083940506 -0.05465132 0.09649976 0.063588835
0003b0 33 e8 90 bd 92 b5 c7 3d 5e e4 6f 3c ec ba ce 3d
       -0.070755385 0.09751429 0.014641849 0.10094246
0003c0 16 54 1a be 05 ef fc bd b8 b0 48 3d 10 c3 ca 3b
       -0.15071139 -0.12350277 0.048996657 0.006187804
0003d0 a0 48 a4 bd cb 52 44 3e 66 a8 22 bd 99 b3 1d be
       -0.080216646 0.19172208 -0.03971138 -0.15400542
0003e0 2a bb 1d bd aa d3 e5 bd 10 d5 bd bd 33 2d 52 be
       -0.03850857 -0.11222012 -0.09269154 -0.20525055
0003f0 08 64 27 3e 42 63 59 3e cc b6 69 be d2 44 fd 3d
       0.16346753 0.2122927 -0.22823638 0.12366642

fc2.weight f4 [128, 258]
000000 55 23 46 bd 20 67 95 bc 51 e5 b8 3d b1 a0 c4 3b
       -0.04837354 -0.01823765 0.09028114 0.006000601
000010 48 6b 95 3d ce 3a a4 bd 29 84 d8 3d 32 a1 9f 3d
       0.07295853 -0.080190286 0.105720825 0.077944174
000020 96 14 06 bd 01 4f ae bb be 18 b3 3d dd 93 54 be
       -0.032734476 -0.0053194766 0.087449536 -0.2075953
000030 81 ac 04 bd 3d 20 1c bd b1 69 94 3c d3 a9 a0 3d
       -0.032391075 -0.038116682 0.018116804 0.078448914
000040 97 0c 74 bd 8b 47 43 3c 32 2d 3a 3d 49 6e 80 3c
       -0.05958232 0.011918913 0.045453258 0.015677588
000050 96 4e ce bc 29 b4 ae bd 60 99 f8 3c d5 86 64 3d
       -0.025183957 -0.085304566 0.030346572 0.05579265
000060 99 6e b1 bd 8d f2 17 bd 05 ad 0c bd 7f 84 b2 3c
       -0.08663673 -0.03709655 -0.03434469 0.021791695
000070 de 2b 44 bc 63 3a ec 3b 04 2f b7 3c 24 d6 2a bd
       -0.011973349 0.0072091087 0.022361286 -0.041708127
000080 39 77 9a 3d 4a e2 f5 bc 33 f4 25 bd 8e d9 92 3d
       0.07542271 -0.03001513 -0.04051609 0.071704015
000090 51 14 4c bc 4f 05 f3 3b bd f9 7f bd 02 c8 97 bd
       -0.012456016 0.0074164043 -0.06249403 -0.07411195
0000a0 b3 f8 d6 be 49 a9 0a 3c 20 cc b0 3c 63 21 8a bd
       -0.41986617 0.008463212 0.02158171 -0.06744649
0000b0 4b 1a 97 bd 19 58 ac bd fd 59 2a bc 35 46 ce bd
       -0.07378062 -0.08415241 -0.010397431 -0.10071985
0000c0 19 41 79 bd 32 ab 99 3b 9a f5 56 bc 7d a7 f3 3c
       -0.060853098 0.0046895975 -0.013120079 0.02974295
0000d0 b9 1b 97 3d bf 22 0f 3d 40 6e f3 bc 30 5c d4 3d
       0.073783346 0.034945246 -0.029715657 0.10369146
0000e0 bd 76 53 bd 88 8a 6d 3d 01 f7 12 3c 42 3e 71 3d
       -0.05162691 0.05799344 0.008970023 0.058897264
0000f0 cd db 28 3d 5b de 03 3d 2c bd 39 3c 16 79 70 bd
       0.041225243 0.032194477 0.011336606 -0.058709227
000100 bc 49 e6 bc eb 9e c6 bd a7 a1 0b be 10 8e 54 bd
       -0.028111331 -0.0969828 -0.13635884 -0.051893294
000110 45 64 a2 3c 8e d6 6f bd 41 9b d9 bb 9c dd a2 bc
       0.019823203 -0.058554225 -0.006640822 -0.019881062
000120 09 e0 08 bc fd a4 31 3c 5f 7d 35 bd e8 dc 2f 3d
       -0.008354195 0.010842559 -0.044309016 0.042935282
000130 cc 9d 64 3c 99 2f 4a 3d 7b 68 80 3a 9e fa 9f bd
       0.013953637 0.0493618 0.0009796763 -0.07811473
000140 80 9e 9e 3d fb a2 90 38 7d 57 b3 3c 6f 86 19 be
       0.07745075 6.8968126e-05 0.021892304 -0.14992689
000150 97 2d 5e 3d e9 6d 68 bc 12 3a 58 3d f3 0c 64 3d
       0.054242697 -0.014186361 0.052789755 0.05567641
000160 94 40 ff bd 01 a0 90 3c e6 7a 16 3d 3c 80 be be
       -0.12463489 0.01765442 0.0367383 -0.3720721
000170 9b 4a 8d bd fc 67 f1 bc 09 fb 5a 3d c6 b7 0c 3d
       -0.068989955 -0.029468529 0.053462062 0.034354948
000180 47 a1 b1 3d 4d e6 97 bc d2 e4 bd bc d1 8e 7e bd
       0.08673339 -0.018542433 -0.0231804 -0.06214792
000190 8d f3 58 3d f5 27 2b bd 4e f0 a0 bd 7c c9 1f bc
       0.052966643 -0.041786153 -0.078583345 -0.009752627
0001a0 d0 5f cb bc a3 6b 40 bd ab bd ab bd e1 0c c5 bd
       -0.02482596 -0.04697765 -0.08385786 -0.09621597
0001b0 9a d0 9d 3c ec 23 ea 3c ef fc 99 3c b4 32 4e 3d
       0.019264508 0.028581582 0.018797366 0.050341323
0001c0 0f 0a 60 bd 14 db f2 bd ba 5b 6c bd cc c4 a3 3d
       -0.054697093 -0.11858192 -0.057704665 0.079965204
0001d0 f5 36 b6 bd 70 a9 9e bd 23 19 a2 3d 74 3d 8e 3d
       -0.08897201 -0.077471614 0.07914951 0.06945315
0001e0 34 23 63 bd fe 22 68 3d c3 fe 0d bd 79 55 1d be
       -0.055453494 0.056673996 -0.034666788 -0.15364636
0001f0 c0 51 cd bd e8 18 be bd 77 46 3d bc e7 cb 8d 3b
       -0.10025358 -0.09282094 -0.011552445 0.0043272856
000200 49 84 83 bd 6b 03 22 bd 79 b7 4c bd 63 67 bd bb
       -0.06421716 -0.03955404 -0.04997966 -0.005780147
000210 8a 63 12 bd e3 58 d4 3c 59 4b 39 3d 7e 43 88 3c
       -0.03573946 0.02592129 0.045237873 0.016633745
000220 82 93 ef 3d 4f 4b de bc 0c e5 49 3d 2f bd 80 3d
       0.11698057 -0.02713552 0.0492907 0.06286084
000230 7f 9c e0 bc 9d 88 af bc 1b ed 52 3d 31 43 c2 3b
       -0.027418373 -0.021427447 0.051495653 0.00592842
000240 19 7f 93 bc 39 6c fc bc 96 42 41 bc a4 01 cc bc
       -0.01800494 -0.030813323 -0.0117956605 -0.024903126
000250 a8 e6 78 3d 7e ca 33 bd 59 5c 7e bd c2 60 d2 bb
       0.060766846 -0.043894283 -0.06209979 -0.006420226
000260 2c df 21 3d 74 a1 06 3d 3a d5 59 bd ae df 08 be
       0.039519474 0.032868817 -0.053181864 -0.13366577
000270 98 a4 4c 3d f3 e8 93 3d d0 84 d4 bb 75 f8 2c 3d
       0.049961656 0.07222166 -0.006485559 0.042229135
000280 51 49 b5 bb bc 1e 03 3d 72 28 44 3d 15 91 92 bc
       -0.0055324216 0.032011732 0.047890134 -0.017891446
000290 c6 31 a0 bd 86 19 0e 3c 92 f6 65 bd ad 9b ed bd
       -0.078219935 0.008673077 -0.05614335 -0.116019584
0002a0 cd b8 36 3d 85 d9 2c bd cd 17 82 bd 39 17 cd bc
       0.044609834 -0.04219963 -0.06352196 -0.025035487
0002b0 ed 6c d7 3c 38 96 9f 3c cd e9 d7 bd 3e c4 eb 3c
       0.026297057 0.01948081 -0.10542641 0.028780099
0002c0 82 f2 8c bc 09 ad e1 3c f1 e9 b9 3c af 06 fa bc
       -0.01720548 0.02754833 0.02269456 -0.030520765
0002d0 a7 41 67 3b d0 d5 88 bd f4 eb 25 3d f4 6e b8 bd
       0.0035286935 -0.066814065 0.040508226 -0.09005538
0002e0 57 3b 38 bd 87 c6 8b be 7a 55 6c 3d 33 cd 52 bc
       -0.044978466 -0.27299902 0.057698704 -0.012866306
0002f0 f2 ab 57 be 83 91 50 3d 09 4a 9f 3c 5c 09 5a bd
       -0.21061686 0.05092002 0.019444482 -0.053231582
000300 63 a8 39 3d 66 e0 40 bd 8f 3f 33 bb a5 a7 1f 3c
       0.0453266 -0.047089003 -0.0027351116 0.009744559
000310 b7 97 70 3d 04 c0 51 3d b5 49 92 3d 6a 7f 04 be
       0.058738437 0.05120851 0.07142965 -0.1293923
000320 37 31 c4 3d 31 c9 8f bd 62 25 6c 3d 46 43 80 bc
       0.095796995 -0.07020796 0.05765284 -0.015657078
000330 b7 14 1a bd 9c 77 8c bd a1 eb 87 3d 09 b9 6b bc
       -0.03761741 -0.06858751 0.066367395 -0.014387378
000340 5b f2 c8 bc bf 3f bc bc 46 bd fd 3c 32 de 4c bd
       -0.024529627 -0.022979615 0.030974042 -0.05001659
000350 7c 7d 56 3d 5a 16 14 bd 1c b1 47 bb 17 12 89 3d
       0.052365765 -0.03615413 -0.0030470556 0.066929035
000360 8e 80 ec 3c 28 d5 84 bd fa 7d 9a 3c 87 4f b1 3d
       0.028869893 -0.06485969 0.018858898 0.08657747
000370 d0 86 53 bb aa a8 29 bd b2 60 2b 3d 36 15 01 3d
       -0.00322764 -0.041420616 0.041840263 0.03151437
000380 9f cd f4 bc cf 10 b8 bd 0b 4f d2 bd 47 9c 91 bd
       -0.029883204 -0.08987581 -0.102689825 -0.07109886
000390 46 27 78 bd 7d ce 8e bd b8 78 90 bd 8a f1 53 bd
       -0.06058433 -0.06972978 -0.07054275 -0.05174402
0003a0 b6 a4 8e 3c 75 61 68 3a 4a 4f 4f 3d 4f a6 44 3c
       0.017412525 0.000886462 0.050612725 0.012002542
0003b0 6e 90 25 bd a5 b7 8b 3c 2c 6b 72 3d 1a 10 66 3d
       -0.040420942 0.017055342 0.05918424 0.0561677
0003c0 fa fb 0a bc 64 de 20 bd e0 ae 0c 3d b2 6c 1f bc
       -0.008482927 -0.03927459 0.03434646 -0.009730505
0003d0 bc 18 14 3d 97 ad 31 bd c1 98 9b bc 33 6f b9 bc
       0.0361564 -0.04337844 -0.018993737 -0.022636032
0003e0 25 e0 98 bc e5 d3 95 bd 47 c7 62 3c ca 37 ca bd
       -0.018661568 -0.07315806 0.013841457 -0.09873922
0003f0 ce f2 4b bd 84 1d bb 3d 24 41 4d 3d 84 8c 04 3d
       -0.049792103 0.09136489 0.05011095 0.03236057

fc2.bias f4 [128]
000000 66 0a 5f 3d e9 96 23 3d cc af 59 bc 93 9b b1 bc
       0.054453276 0.03993884 -0.013286542 -0.021680629
000010 0d 41 60 bc 7f 96 9c 3b 43 37 f1 3c eb 3e 19 3d
       -0.013687384 0.0047786827 0.029445296 0.03741352
000020 d7 44 ae 3c ce ff 86 bd c8 90 ba 3c 81 be c4 bd
       0.02127306 -0.065917596 0.022774115 -0.09606648
000030 e6 de 89 3d 30 d7 95 bd 50 64 31 bd ac 80 c6 bc
       0.06731968 -0.073164344 -0.043308556 -0.024231277
000040 58 d0 0a bc c4 78 18 3d bd f7 89 3d e8 a8 a2 3c
       -0.008472525 0.037224546 0.067367055 0.019855931
000050 7c 10 91 bd 09 e5 b7 3c 65 37 b8 3b bd 49 85 bd
       -0.07083222 0.02244808 0.005621838 -0.06508205
000060 c0 8a 8e ba 14 97 6b bd 04 ec ef 3c 00 d7 26 3d
       -0.0010875091 -0.057517126 0.029287346 0.040732384
000070 bd 3a 47 3d d4 00 0e 3d 67 b5 8b bc 1c 92 68 3d
       0.04864 0.03466876 -0.017054273 0.056779966
000080 b7 51 a9 3c b6 47 34 39 6b 18 d3 ba d0 8f 8c 3d
       0.020668847 0.00017192852 -0.00161053 0.068633676
000090 a6 21 64 3c 83 6a 87 bb a9 45 9a 3d fb d1 7c bc
       0.013924038 -0.0041325702 0.07532818 -0.015430923
0000a0 2c 54 72 bd 5a fe af bd e0 80 fb 3b 42 60 1d 3d
       -0.059162304 -0.085934356 0.007675275 0.038421877
0000b0 32 c7 e0 3c cd f7 bc bc 54 9c 42 bd e4 4e 08 bd
       0.027438734 -0.02306738 -0.047512367 -0.03327836
0000c0 1a 37 ee 3a f8 a3 f8 3c b4 2b 4c bd d8 7d ff 3b
       0.001817438 0.030351624 -0.049846366 0.007796984
0000d0 9f fc 35 3c 67 3a 17 bd 98 c1 7b 3d cd a3 9e bd
       0.011107593 -0.03692093 0.061463922 -0.07746086
0000e0 08 49 44 3d c1 eb cd bc 3a f1 69 3d a4 c6 38 bd
       0.04792121 -0.02513683 0.057114817 -0.045111313
0000f0 3b 08 2b bc bd 9c 04 bd f2 a9 11 bd 4d 3d cb 3c
       -0.010438974 -0.03237604 -0.035562463 0.024809504
000100 e1 b8 46 bc ab 6c 22 bd 29 d1 e7 3c 6e 82 e7 3c
       -0.0121290395 -0.039654415 0.028297978 0.028260436
000110 c0 f1 21 bd 61 46 99 bd 3a 03 69 bc 2b ad 94 3c
       -0.03953719 -0.07484127 -0.014221961 0.01814898
000120 b8 90 b3 bc f6 0b 93 bc 48 43 2a bd 9b da ef bc
       -0.021919593 -0.01795004 -0.04156807 -0.029279044
000130 88 15 1f bd 96 4c 07 3d ff 3c 02 3d 62 b4 30 3c
       -0.038838893 0.033032022 0.03179645 0.010785194
000140 eb e7 5a bd 7f b1 21 bd 58 60 85 3a c8 e0 c6 bc
       -0.05344383 -0.039475914 0.0010175807 -0.024277106
000150 58 d5 28 bb 0d f5 da 3c 15 29 49 bd a2 bd cf bc
       -0.0025761928 0.026728177 -0.049111445 -0.025358979
000160 b7 9d 18 3d 65 c6 9a 3c ac 18 c6 bc 6d 64 c6 bb
       0.037259784 0.01889343 -0.024181686 -0.006054452
000170 7c 9a 88 bd 71 a7 2a 3d be 82 4b 3d 73 69 83 bc
       -0.066700906 0.04166359 0.049685232 -0.016041493
000180 25 9f 5a bc 1c 55 30 bd c2 8e 47 bc 8c c1 9d 3c
       -0.013343607 -0.043049917 -0.012180032 0.01925733
000190 61 fa ff 3c 2e f8 31 3d b3 45 0f 3c 16 ae 86 3d
       0.03124732 0.043449573 0.008744645 0.06576173
0001a0 70 c9 32 3d d5 98 43 bd 9e 65 db 3b d7 c9 19 3d
       0.043649137 -0.047753174 0.0066954633 0.037546005
0001b0 9a 04 11 3d 86 47 fd 3b 96 c3 26 3d bf 1d c2 3c
       0.03540478 0.0077294735 0.04071387 0.023695825
0001c0 a3 b7 15 3d 77 3a 81 3d c3 26 6e bb b6 6f 3d 3d
       0.036552083 0.063099794 -0.0036339022 0.046249114
0001d0 76 37 c7 3b 7f 6c 92 bd 87 e1 69 3d f4 d2 01 3d
       0.0060796095 -0.071496 0.057099845 0.03169532
0001e0 c4 8a bd 3c b3 8b 2b 3d e4 ff fc 3a f4 44 be bc
       0.023137458 0.041881274 0.0019302336 -0.023226239
0001f0 5d 13 51 bc b5 b6 9e 3c 04 36 27 bd cc b7 49 3d
       -0.012760964 0.01937423 -0.040822998 0.049247548

fc3.weight f4 [1, 128]
000000 ad ee d8 3c 43 3a 0c 3c 9f 8a 8e 3c 41 98 3e 3d
       0.026480997 0.008558813 0.017400084 0.04653192
000010 b1 a5 fa 3a ad 30 82 3c 9f be 96 3c 80 21 1b 3d
       0.0019122866 0.015892351 0.018401442 0.037873745
000020 79 36 40 3c 01 f5 b4 bc 85 d7 58 bd ce e9 bd bb
       0.011731737 -0.022089483 -0.05293991 -0.005795694
000030 04 11 07 3d b6 ed ab bc 76 75 f5 bc 02 14 44 bd
       0.03297521 -0.020987373 -0.029963236 -0.047870643
000040 ab 91 0f 3c db 64 b9 bc 4d 54 cf 3c b5 0e 8e 3c
       0.008762757 -0.0226311 0.025308752 0.017340997
000050 b0 78 75 3d fe de 2a bd a3 64 5b bd e5 f8 42 bd
       0.05992955 -0.04171657 -0.05356277 -0.047600646
000060 68 0a db bc ed ea b4 3c 41 7b a6 3c ad 49 cf bc
       -0.02673836 0.022084678 0.020322444 -0.025303686
000070 ba 67 1d 3d 5d f5 c8 3c a0 91 9d bc cb 34 d5 bc
       0.038429 0.02453106 -0.019234478 -0.02602615
000080 89 45 3a bd be 09 0f 3d 5d 98 cf 3d 4f 08 a7 3c
       -0.04547647 0.0349214 0.10136483 0.020389704
000090 96 3d 55 b9 1b 8c ae bc c7 13 19 3d 75 a8 c3 ba
       -0.00020336205 -0.021307042 0.037372377 -0.0014927523
0000a0 c3 bf 1b 3c ad 37 d7 bc dd 47 44 3d c7 18 6b bd
       0.009506169 -0.026271665 0.047920097 -0.057396676
0000b0 8d 54 f3 3c c1 15 2a 3d 81 1e 4c 3d 23 a1 f8 3c
       0.029703403 0.041524652 0.04983378 0.030350273
0000c0 8d 5c cd 3c f0 0e ca bc 6f fb af 3c 1e a1 23 bc
       0.025068546 -0.024665326 0.021482198 -0.009987144
0000d0 ef 59 af 3c 06 bc ca 3c 23 fe b7 bc 1e 7a 05 3d
       0.021405188 0.02474786 -0.022460049 0.032587163
0000e0 c8 6a 5e bd cd 02 e5 3c 65 85 4b bc a0 f6 9b 3c
       -0.054301053 0.027955437 -0.01242194 0.019038498
0000f0 1a 35 11 bd fe 39 1c 3b af 90 1e bc 17 88 71 bd
       -0.035451032 0.0023838277 -0.00967805 -0.058967676
000100 2a 01 0b 3d 5c 81 5d 3c b1 6b 07 bd 50 ca c7 bd
       0.033936657 0.013519611 -0.033061687 -0.09755385
000110 c8 5f 2d bd 30 3a 71 bd 73 3f 13 bc e6 44 63 bc
       -0.042327672 -0.058893383 -0.008987295 -0.013871407
000120 39 a7 94 3c 1e 9c e7 3d 08 9a db bc b4 8e 41 3c
       0.018146144 0.11309074 -0.026806846 0.011813808
000130 0e 9f b9 bc 6b fb 0d bd 78 48 95 3d 71 da fc 3b
       -0.022658851 -0.0346636 0.07289213 0.00771647
000140 97 2e 32 bc 86 a2 73 3d 3c ab d5 bc 23 2d 06 3d
       -0.010875366 0.059481166 -0.026082627 0.03275789
000150 2e e3 80 bd 26 38 58 3c 81 09 62 bd b9 11 41 3c
       -0.06293331 0.013196981 -0.055184845 0.011784011
000160 ec 51 f3 3c 6a 13 e1 bd 57 1e 49 bc 07 28 c3 3d
       0.02970215 -0.10990031 -0.0122753 0.09529119
000170 c8 e6 b4 bc 9b 3b 3f 3d 3c f9 30 3d 06 f8 fc 3b
       -0.022082701 0.046687704 0.04320644 0.0077199964
000180 41 f6 bd 3b 64 65 36 3d 0c bb ec bc ce da 01 bd
       0.005797178 0.044530287 -0.028897785 -0.03170281
000190 fc 15 fe 3c 2e 9a c3 3c 47 d4 f8 3c a2 49 c6 bc
       0.031016342 0.02387723 0.03037466 -0.024205033
0001a0 0b ac a4 3c ed ad 89 bc 4d 10 2e bd 7f 7e 44 bc
       0.020101568 -0.016806567 -0.042496014 -0.01199305
0001b0 8c f1 01 bd b6 69 32 3d 97 56 98 bd 90 92 ac 3c
       -0.031724498 0.043557845 -0.07438391 0.02106598
0001c0 d6 cd aa bc ac b0 89 3c 9c 41 03 bd a8 b6 cb 3b
       -0.020850103 0.016807877 -0.03204499 0.0062168427
0001d0 58 05 99 bc 94 65 de bc 03 2c 93 bc bd 08 83 3c
       -0.018679306 -0.027148046 -0.017965322 0.015995378
0001e0 21 8b bf bc 36 45 3c bd 7e 64 52 3b 67 76 6d bc
       -0.023381772 -0.045964442 0.0032103355 -0.014493561
0001f0 7c 09 9d 3c 96 79 f4 bc 2e 6a b7 3d 10 9d 39 bd
       0.019169562 -0.029843133 0.08955799 -0.045315802
