multi_checkpoint_critic0.pth (torch_old, 31392 bytes, 5 tensors)

fc1.weight f4 [64, 48]
0.09010963 0.10061175 -0.065322205 0.107248634 -0.03766206 -0.121467635 -0.020225048 -0.09435095
0.026071057 0.024155334 -0.055143774 -0.036043122 0.036845148 -0.068437055 0.051391885 -0.09256598
0.07407897 -0.059231464 -0.10433574 0.023981988 0.011898431 -0.09327858 0.1098883 -0.04509197
0.08237088 -0.032281995 0.083592236 -0.060258538 -0.086883396 -0.10203487 -0.06381017 -0.06819148
0.057026237 -0.082509816 -0.021184549 -0.04541509 -0.047194093 -0.015311599 0.068972245 -0.05154991
-0.10346671 0.0853429 -0.07263604 0.08626062 -0.0114468215 -0.015741441 0.11724049 0.022502258
-0.106171735 -0.10706048 -0.13601194 -0.05187424 0.029243926 -0.021133281 0.045687895 -0.07464984
0.08635939 0.10834343 0.052342586 -0.00939311 -0.106593326 0.081506155 0.015541134 0.06684191
0.032785382 0.09835861 -0.18117292 0.028112039 -0.056554835 0.042721223 -0.15587144 -0.06264763
0.03312848 0.05432231 0.008047532 0.045415398 0.05025542 -0.1571835 -0.041149255 0.0752234
0.09143704 -0.1042322 -0.088001505 -0.043904733 -0.06639744 -0.115128525 -0.05773741 0.08505365
-0.014600736 0.039483692 -0.017800653 -0.15536532 -0.012501045 -0.067747705 -0.07313529 -0.15544304
0.043782756 -0.02165071 0.01695702 0.016978612 -0.052234042 -0.049419656 0.11203762 -0.067027085
0.007710781 -0.006842193 -0.026303919 0.08607802 0.06568906 0.07940205 -0.04313403 -0.031841416
0.090152524 0.09688951 -0.07701965 0.009357601 -0.101400934 -0.043284595 -0.016155751 -0.030594623
0.008006362 -0.016152266 0.010123954 -0.0033429323 -0.03689271 0.11231934 -0.035492893 0.11875471
-0.029194755 -0.026960758 0.06002743 0.047381613 -0.048807856 0.07294429 -0.024867017 0.022665974
0.03687969 0.12525971 0.066852905 0.124273285 0.015291045 0.0935114 0.08523797 0.12773336
-0.022837784 -0.12588158 0.14186783 -0.108606994 -0.10427933 0.02865192 0.027376248 -0.087348625
0.1108479 0.007340528 -0.03902399 0.05456308 0.07670747 -0.10341787 -0.0017545694 -0.13352159
-0.06694681 0.010795454 0.06574699 -0.05168693 -0.012485051 -0.09458839 -0.04616151 -0.011285115
-0.017809747 0.047925517 0.10490884 0.11179648 0.0050105476 -0.07571133 -0.013475381 -0.10728903
-0.018643877 0.06019311 0.044166304 0.031260952 0.07308334 0.059213243 0.0038716667 0.08806388
0.05889348 -0.10450784 0.050853375 0.05694947 0.008569236 0.1324911 -0.049140666 0.014260851
0.08419886 -0.11283837 -0.011807206 0.13980953 0.010958039 0.16505453 0.0338079 0.1292068
-0.11060947 -0.07837203 0.03610785 -0.079582006 -0.045779284 -0.011916985 0.13963874 -0.028220825
0.042418327 0.017681662 0.17129524 -0.03508366 0.02738975 -0.04255382 -0.039317913 0.028320288
0.042518836 -0.09774782 0.13876608 0.096330605 -0.018826852 0.12696584 0.16291925 0.02307018
0.09099198 -0.04488562 -0.14898185 -0.08964604 0.0015942701 0.15295155 0.020872366 0.11690317
0.058399435 -0.008095197 -0.059588943 -0.1499929 0.0017698098 -0.012928664 0.13550755 -0.06657947
-0.015107706 0.02267307 0.10261282 -0.012862146 0.06555085 -0.0862385 -0.11909141 -0.019178003
0.05726996 0.07830252 0.045576975 0.09473957 -0.07349795 0.028109416 0.10400115 -0.07736844
00000000: 668b b83d 880d ce3d a6c7 85bd 2ca5 db3d
00000010: 8843 1abd 06c4 f8bd 00af a5bc 123b c1bd
00000020: f892 d53c 68e1 c53c 70de 61bd f4a1 13bd
00000030: f0ea 163d ba28 8cbd 4c80 523d 3c93 bdbd
00000040: b7b6 973d b19c 72bd faad d5bd e075 c43c
00000050: a3f1 423c d708 bfbd 1e0d e13d 5cb2 38bd
00000060: 10b2 a83d 203a 04bd 6832 ab3d a8d1 76bd
00000070: ecef b1bd a8f7 d0bd e8ae 82bd faa7 8bbd
00000080: 5894 693d e8fa a8bd 388b adbc 2c05 3abd
00000090: 984e 41bd 80dd 7abc 5241 8d3d 0026 53bd
000000a0: 5be6 d3bd 42c8 ae3d 34c2 94bd 68a9 b03d
000000b0: 738b 3bbc 32f4 80bc c81b f03d a856 b83c
000000c0: 9170 d9bd 8642 dbbd b746 0bbe 157a 54bd
000000d0: f590 ef3c b41f adbc 3b23 3b3d 04e2 98bd
000000e0: 31dd b03d 29e3 dd3d 2e65 563d 8fe5 19bc
000000f0: 9a4d dabd b3ec a63d 3ea0 7e3c 69e4 883d
00000100: f749 063d 3d70 c93d 6585 39be 384b e63c
00000110: 0ba6 67bd 73fc 2e3d c39c 1fbe 674d 80bd
00000120: bbb1 073d 1281 5e3d ccd9 033c 7f05 3a3d
00000130: a1d8 4d3d b6f4 20be 1f8c 28bd ba0e 9a3d
00000140: 5843 bb3d b177 d5bd 223a b4bd 73d5 33bd
00000150: 62fb 87bd 81c8 ebbd 107e 6cbd 9c30 ae3d
00000160: ed37 6fbc a7b9 213d add2 91bc 1618 1fbe
00000170: 2fd1 4cbc 4fbf 8abd f4c7 95bd 762c 1fbe
00000180: 8c55 333d d45c b1bc 73e9 8a3c bb16 8b3c
00000190: 5df3 55bd 446c 4abd fb73 e53d 7f45 89bd
000001a0: b8aa fc3b 7a34 e0bb 517b d7bc ac49 b03d
000001b0: fc87 863d 8b9d a23d 4fad 30bd 256c 02bd
000001c0: e3a1 b83d 026e c63d 7abc 9dbd a050 193c
000001d0: 4bab cfbd 304b 31bd 1159 84bc 93a1 fabc
000001e0: 1e2d 033c c251 84bc f1de 253c 1915 5bbb
000001f0: cf1c 17bd af07 e63d ff60 11bd ab35 f33d
00000200: d729 efbc cfdc dcbc 53df 753d 3913 423d
00000210: bfea 47bd d163 953d eab5 cbbc fead b93c
00000220: 280f 173d 1544 003e 2dea 883d fe82 fe3d
00000230: 4b87 7a3c e882 bf3d 3f91 ae3d 89cc 023e
00000240: 4e16 bbbc 1ae7 00be cd45 113e 586d debd
00000250: 6790 d5bd 6eb7 ea3c 2744 e03c d6e3 b2bd
00000260: 3904 e33d d088 f03b 9fd7 1fbd 897d 5f3d
00000270: ce18 9d3d c0cc d3bd 94f9 e5ba e2b9 08be
00000280: 691b 89bd 6adf 303c 5ca6 863d adb5 53bd
00000290: 198e 4cbc 8fb7 c1bd da13 3dbd 34e5 38bc
000002a0: bfe5 91bc 8c4d 443d 72da d63d 8ef5 e43d
000002b0: 852f a43b 8b0e 9bbd d8c7 5cbc 5aba dbbd
000002c0: 0bbb 98bc 0d8d 763d bae7 343d 7c0b 003d
000002d0: b8ac 953d 9689 723d cabb 7d3b d65a b43d
000002e0: 4a3a 713d 3508 d6bd a14b 503d d943 693d
000002f0: fb65 0c3c bfab 073e b947 49bd 58a6 693c
00000300: 7470 ac3d ce17 e7bd 0373 41bc 3b2a 0f3e
00000310: 5989 333c 0e04 293e 277a 0a3d ca4e 043e
00000320: 3887 e2bd 8481 a0bd d3e5 133d e4fb a2bd
00000330: 0f83 3bbd 753f 43bc 75fd 0e3e 5c2f e7bc
00000340: d7be 2d3d 22d9 903c 0568 2f3e e2b3 0fbd
00000350: 7860 e03c ea4c 2ebd d20b 21bd f3ff e73c
00000360: 3b28 2e3d 0230 c8bd b218 0e3e fb48 c53d
00000370: c53a 9abc 5503 023e 4ed4 263e adfd bc3c
00000380: 015a ba3d fcd9 37bd b38e 18be 5898 b7bd
00000390: d4f6 d03a 559f 1c3e 86fc aa3c ee6a ef3d
000003a0: 3f34 6f3d b8a1 04bc 8913 74bd bd97 19be
000003b0: f6f8 e73a bfd2 53bc 7ec2 0a3e d15a 88bd
000003c0: 5086 77bc e0bc b93c ac26 d23d c0bb 52bc
000003d0: 863f 863d d09d b0bd 32e6 f3bd 301b 9dbc
000003e0: e893 6a3d 125d a03d ecae 3a3d d206 c23d
000003f0: 1886 96bd b845 e63c 8efe d43d 5873 9ebd

fc1.bias f4 [64]
0.13458972 0.092575744 -0.15625514 -0.046092696 0.08203451 -0.082398176 0.028341666 -0.08116022
0.00826761 0.045197353 0.013290531 0.094232135 -0.04435576 0.066542126 0.018530462 -0.054586615
-0.10035958 0.16583236 -0.07702019 0.1590826 0.06500969 -0.0058122277 -0.096795484 0.035168238
-0.07997578 -0.02234579 -0.104148455 0.08724162 -0.13317865 0.04144831 0.038940866 0.027535899
0.08260872 -0.0625556 -0.1271115 0.08640348 -0.008148631 0.09508136 -0.09376809 -0.10762259
-0.08990498 -0.03625271 0.020246591 -0.10732821 -0.025445987 -0.020217152 0.097033545 -0.061240103
0.116191804 -0.10235653 -0.084113516 -0.12325121 0.13082774 -0.075480364 0.06876218 -0.05281253
0.15976077 -0.016098073 -0.10576997 -0.0067860484 0.024070607 -0.13669349 0.008689703 0.11720157
00000000: e3d1 093e 5a98 bd3d 5901 20be b2cb 3cbd
00000010: b601 a83d 60c0 a8bd c82c e83c 5437 a6bd
00000020: df74 073c dc20 393d 87c0 593c c7fc c03d
00000030: 63ae 35bd 3d47 883d 32cd 973c 3796 5fbd
00000040: 5389 cdbd f5cf 293e c3bc 9dbd 8de6 223e
00000050: cd23 853d 8074 bebb b63c c6bd 920c 103d
00000060: 57ca a3bd 850e b7bc c94b d5bd bcab b23d
00000070: fc5f 08be b4c5 293d 7580 1f3d f792 e13c
00000080: c32e a93d 271d 80bd 8429 02be 4ff4 b03d
00000090: d681 05bc 04ba c23d 7c09 c0bd 3c69 dcbd
000000a0: 1a20 b8bd b97d 14bd 2edc a53c e4ce dbbd
000000b0: 1a74 d0bc 719e a5bc 86b9 c63d e7d6 7abd
000000c0: f8f5 ed3d 4da0 d1bd b543 acbd 216b fcbd
000000d0: b5f7 053e 7395 9abd 30d3 8c3d f451 58bd
000000e0: 5498 233e 1be0 83bc ed9d d8bd 805d debb
000000f0: b92f c53c 61f9 0bbe 425f 0e3c 6007 f03d

fc2.weight f4 [64, 68]
0.050845735 0.009098074 -0.05122616 -0.00017102162 0.041099526 -0.07695106 0.106089965 -0.12355176
0.056262176 0.016028423 -0.08873246 0.11625024 -0.02186633 -0.016921233 -0.04022136 -0.10706001
0.07961806 -0.09297194 0.065880515 0.047745563 0.06925953 0.0446105 0.01910138 -0.17943488
-0.016480936 -0.021876821 0.1096212 0.036810692 -0.015354451 -0.05572841 -0.12513009 -0.12644376
0.065751955 0.022226226 -0.117040314 -0.11376282 0.07876088 0.050411537 -0.17209396 -0.10366909
0.08032379 0.012098368 -0.01660046 -0.03506014 -0.04268486 -0.052658174 -0.10772404 -0.0839912
0.07345447 0.043970954 0.05021724 -0.06675726 -0.0126403365 0.03135651 0.08971523 -0.030522723
-0.1118594 0.13853595 -0.10343407 -0.080190636 -0.06455036 -0.05480349 -0.0041287476 0.020882156
-0.0065532085 0.06591037 0.028851718 -0.03669492 0.04366079 0.018125147 -0.08231682 0.09148346
0.08094364 0.03984052 -0.04990478 0.026706127 0.05779271 -0.018528722 -0.053844184 0.0023905635
-0.10536966 0.08798902 0.012276307 -0.056496702 0.011906311 -0.06651951 -0.024521004 -0.08004643
0.03370425 0.060598373 -0.042707734 0.06726822 0.08865596 -0.11254625 -0.083642654 0.011422262
-0.066755995 0.08076519 0.10525435 -0.07040481 0.014000437 0.006680758 0.10492255 -0.1000898
0.03792363 -0.088950485 -0.10662328 0.10817736 0.07331343 -0.12521394 0.07473968 -0.08973792
0.105792746 0.018880071 -0.042432472 0.011647865 -0.022526205 -0.0010178228 -0.0860155 0.061677635
-0.09342931 0.008588806 -0.090614565 -0.06775327 0.01155911 0.01123184 -0.11385432 0.028125707
0.037969485 -0.057782516 0.014331609 -0.06646939 -0.107850745 -0.02083214 0.08266095 0.004773939
-0.08848573 0.060336553 -0.027741877 -0.141567 -0.07756018 -0.10238214 0.08108379 -0.023981536
0.04333385 -0.14209378 0.03217684 -0.023815759 -0.07886799 0.025605008 -0.120241836 -0.05485365
-0.19644465 -0.018427996 -0.0018701605 0.06847659 -0.12545381 -0.049317643 -0.0074935686 0.034964416
-0.1384138 -0.08263789 -0.039273757 -0.049907736 0.07052213 0.15132786 -0.02700666 0.03487805
-0.11823087 -0.03513754 -0.09406417 -0.030172303 -0.09483426 -0.005388722 -0.023674639 0.006517257
-0.106042415 -0.061077703 0.08649635 -0.26916674 -0.24252836 -0.34091237 -0.04812243 0.08721101
0.041889228 -0.24935478 -0.09785434 -0.078077845 0.06512918 -0.08018194 0.0017062271 0.08238122
0.0024896138 0.06729861 0.0025478578 -0.10482212 -0.1907149 -0.106223375 -0.087308384 -0.0118552055
0.04722708 -0.037564155 0.057336148 0.025533482 0.029794732 -0.04821417 0.039707385 -0.07970668
0.07855343 0.11187282 0.10274319 0.042286675 -0.0676023 -0.060348667 -0.05603581 -0.14597505
0.10570746 -0.06632155 -0.0076992163 -0.05668812 0.03377088 -0.15382217 -0.023012454 0.040728096
-0.048854332 0.023819715 -0.0024656514 0.074963115 -0.13007651 -0.07340668 -0.11682645 -0.08957884
-0.07862423 -0.056042835 0.042643826 -0.025058487 -0.030498363 -0.02073092 -0.1272642 0.11687848
0.028074892 -0.107020915 -0.11669145 0.09276913 0.05059187 0.068187706 0.09883509 0.0923291
-0.02778567 0.019523395 0.031152941 -0.10998975 0.0021605357 -0.081626914 0.11364975 0.07737856
00000000: 9e43 503d 1710 153c 86d2 51bd 4454 33b9
00000010: fa57 283d 8498 9dbd b245 d93d b508 fdbd
00000020: 2b73 663d 0a4e 833c 5db9 b5bd 9b14 ee3d
00000030: 0521 b3bc 669e 8abc 27bf 24bd 4742 dbbd
00000040: cb0e a33d 1368 bebd 5dec 863d da90 433d
00000050: f1d7 8d3d 80b9 363d 7f7a 9c3c c7bd 37be
00000060: 0703 87bc 0537 b3bc 1481 e03d cfc6 163d
00000070: 3c91 7bbc 7943 64bd 1a22 00be 797a 01be
00000080: f6a8 863d c613 b63c d5b2 efbd 7bfc e8bd
00000090: 624d a13d 547c 4e3d 6639 30be 7650 d4bd
000000a0: cd80 a43d 3c38 463c b0fd 87bc 399b 0fbd
000000b0: 52d6 2ebd 19b0 57bd 6c9e dcbd 9403 acbd
000000c0: 4c6f 963d e31a 343d 98b0 4d3d 08b8 88bd
000000d0: 6a19 4fbc af6f 003d 9ebc b73d ca0a fabc
000000e0: 8b16 e5bd 5edc 0d3e 3ed5 d3bd fd3a a4bd
000000f0: fb32 84bd a079 60bd 724a 87bb 0e11 ab3c
00000100: 4cbc d6bb 04fc 863d 705a ec3c 6a4d 16bd
00000110: a8d5 323d 307b 943c b995 a8bd ae5b bb3d
00000120: c7c5 a53d d02f 233d f468 4cbd cfc6 da3c
00000130: 0cb8 6c3d 8cc9 97bc b88b 5cbd 00ab 1c3b
00000140: 0ccc d7bd 9633 b43d 9022 493c 1669 67bd
00000150: b012 433c 613b 88bd 46e0 c8bc 62ef a3bd
00000160: 780d 0a3d 0036 783d 4eee 2ebd ecc3 893d
00000170: 4291 b53d a67e e6bd d74c abbd 7024 3b3c
00000180: 5eb7 88bd 3868 a53d 988f d73d 6630 90bd
00000190: 1762 653c 43ea da3b a2e1 d63d e2fb ccbd
000001a0: cf55 1b3d ac2b b6bd 4e5d dabd 178c dd3d
000001b0: 5a25 963d 1538 00be 1e11 993d 84c8 b7bd
000001c0: dea9 d83d 61aa 9a3c accd 2dbd b0d6 3e3c
000001d0: e088 b8bc 7768 85ba e528 b0bd b0a1 7c3d
000001e0: de57 bfbd 10b8 0c3c 2194 b9bd 3ac2 8abd
000001f0: 6c62 3d3c c005 383c 742c e9bd e267 e63c
00000200: e485 1b3d 5cad 6cbd 20cf 6a3c 1b21 88bd
00000210: dae0 dcbd 2aa8 aabc 254a a93d b46e 9c3b
00000220: 0238 b5bd 7623 773d ef42 e3bc f1f6 10be
00000230: dfd7 9ebd baad d1bd 420f a63d ed74 c4bc
00000240: d67e 313d 0881 11be ddcb 033d 4419 c3bc
00000250: 8a85 a1bd 98c1 d13c 5a41 f6bd 39ae 60bd
00000260: c928 49be 4ff6 96bc 2c20 f5ba 743d 8c3d
00000270: f776 00be 4c01 4abd 9c8c f5bb d936 0f3d
00000280: 59bc 0dbe 0e3e a9bd 85dd 20bd 0e6c 4cbd
00000290: e86d 903d b1f5 1a3e 123d ddbc 49dc 0e3d
000002a0: 0723 f2bd 62ec 0fbd b7a4 c0bd e82b f7bc
000002b0: 7738 c2bd e093 b0bb 51f1 c1bc b78e d53b
000002c0: c42c d9bd 9d2c 7abd 0025 b13d 39d0 89be
000002d0: 5b59 78be 118c aebe 061c 45bd b09b b23d
000002e0: 0a94 2b3d dc56 7fbe db67 c8bd 47e7 9fbd
000002f0: 7362 853d 6e36 a4bd 7ba3 df3a 7cb7 a83d
00000300: ca28 233b dbd3 893d f6f9 263b fbac d6bd
00000310: c44a 43be a48b d9bd bdce b2bd 563c 42bc
00000320: 2f71 413d dfdc 19bd 4fd9 6a3d 982b d13c
00000330: 1514 f43c 397c 45bd 36a4 223d 413d a3bd
00000340: 9fe0 a03d 941d e53d 066b d23d cb34 2d3d
00000350: 1373 8abd 2a30 77bd ce85 65bd 7c7a 15be
00000360: 277d d83d 98d3 87bd b549 fcbb cd31 68bd
00000370: 5653 0a3d 8f83 1dbe 9d84 bcbc 81d2 263d
00000380: 7b1b 48bd 9021 c33c c496 21bb 4386 993d
00000390: c732 05be 3e56 96bd b542 efbd 1c75 b7bd
000003a0: be05 a1bd 2c8d 65bd 4bab 2e3d 7547 cdbc
000003b0: b4d7 f9bc e4d3 a9bc 8c51 02be fc5d ef3d
000003c0: 51fd e53c c82d dbbd edfb eebd befd bd3d
000003d0: 6c39 4f3d ffa5 8b3d 0d6a ca3d 0a17 bd3d
000003e0: c69e e3bc 87ef 9f3c 7434 ff3c 4e42 e1bd
000003f0: c697 0d3b 032c a7bd 33c1 e83d a778 9e3d

fc2.bias f4 [64]
0.08867195 0.10390285 0.10600914 -0.16389653 0.15611233 0.081206076 0.012955074 -0.066088825
-0.13968343 0.0765171 -0.0588209 0.13190368 -0.14963475 0.048196323 -0.009086297 -0.039444473
-0.0006875198 0.09508954 -0.15118983 0.06492858 -0.07337286 0.06437612 -0.07425417 0.04787942
0.09876121 -0.05433586 -0.07642365 -0.066509746 0.10427264 -0.11205804 0.013427264 -0.07216764
-0.045004617 0.064629175 -0.077900305 -0.056528155 0.009109416 0.1066418 -0.0031970222 -0.01004292
-0.007776824 0.07701615 0.0049946816 -0.056832742 0.020620035 -0.034114044 -0.054348964 0.035807863
0.030900018 -0.09789887 -0.083799176 0.09865254 0.08011056 -0.15562713 0.08513738 -0.09036711
0.043845825 0.14786631 -0.10593472 -0.055778854 0.024600316 -0.087364085 -0.009243043 -0.06656904
00000000: a499 b53d 04cb d43d 521b d93d 7ed4 27be
00000010: e9db 1f3e 5f4f a63d 8541 543c 9459 87bd
00000020: 2c09 0fbe ffb4 9c3d 2fee 70bd c211 073e
00000030: da39 19be 8269 453d b1de 14bc 8790 21bd
00000040: ac3a 34ba 4ebe c23d 82d1 1abe 46f9 843d
00000050: 8344 96bd a1d7 833d 9212 98bd 361d 443d
00000060: 5143 ca3d 478f 5ebd 0184 9cbd 4336 88bd
00000070: e58c d53d b07e e5bd 07fe 5b3c a1cc 93bd
00000080: c356 38bd 4d5c 843d 328a 9fbd 118a 67bd
00000090: a93f 153c 0467 da3d 2285 51bb 0f8b 24bc
000000a0: bad4 febb a5ba 9d3d 6daa a33b 73c9 68bd
000000b0: 59eb a83c 2bbb 0bbd 059d 5ebd 44ab 123d
000000c0: 0922 fd3c 347f c8bd e79e abbd 580a ca3d
000000d0: 0111 a43d b85c 1fbe 825c ae3d 6412 b9bd
000000e0: ae97 333d 446a 173e 4df4 d8bd 5e78 64bd
000000f0: 9a86 c93c f1eb b2bd 2270 17bc 5955 88bd

fc3.weight f4 [1, 64]
0.008294155 -0.0044481014 0.012930765 -0.001280979 0.013616031 0.0031837265 -0.00085845246 -0.00089864514
-7.224247e-05 0.006242898 -0.0023053642 0.0034320385 -0.013780463 0.0025156918 -0.0038884275 0.00083827524
0.0033540446 0.0009234917 0.0024676248 0.0066021658 0.0035787094 0.004606408 -0.0042716223 0.0023721606
0.0029560248 -0.0038671023 0.0012846341 -0.006231197 0.0013606579 -0.0028742126 -0.0007296411 -0.001900497
-0.0024976037 0.0066171824 -0.009529048 -0.0016420741 -0.0024784529 0.0016962634 -0.00068903243 -0.004567028
0.004326959 0.00354968 -0.00095811987 0.007914083 -0.0012801252 -0.0015729336 0.009452231 0.005052864
0.0047075422 -0.0207208 0.0015952794 0.0013363616 0.000996056 0.0021376056 0.00046441294 -0.0004073985
0.0012050077 0.0034339132 -0.0031219118 -0.0023823183 0.00048604838 0.00471436 0.0009197885 0.0007288802
00000000: 35e4 073c 61c1 91bb 8fdb 533c 86e6 a7ba
00000010: c615 5f3c 11a6 503b c509 61ba 0e93 6bba
00000020: e180 97b8 3991 cc3b 9815 17bb 0dec 603b
00000030: 73c7 61bc 4ede 243b fdd4 7ebb b3bf 5b3a
00000040: 88cf 5b3b 7b16 723a e0b7 213b fb56 d83b
00000050: c888 6a3b 5af1 963b f7f8 8bbb 4076 1b3b
00000060: deb9 413b 366f 7dbb 2b61 a83a 122f ccbb
00000070: 1a58 b23a 495d 3cbb 6345 3fba 191a f9ba
00000080: d6ae 23bb f3d4 d83b b91f 1cbc dd3a d7ba
00000090: 8a6d 22bb 2855 de3a 2fa0 34ba 02a7 95bb
000000a0: 2ac9 8d3b c0a1 683b 562a 7bba 12aa 013c
000000b0: e0c9 a7ba e52a ceba 88dd 1a3c 7f92 a53b
000000c0: ba41 9a3b abbe a9bc b218 d13a db28 af3a
000000d0: 188e 823a 1217 0c3b 737c f339 1a98 d5b9
000000e0: 59f1 9d3a 810b 613b fd98 4cbb ab20 1cbb
000000f0: 4fd4 fe39 eb7a 9a3b f61d 713a 5212 3f3a
