multi_checkpoint_actor1.pth (torch_old, 315820 bytes, 6 tensors)

fc1.weight f4 [512, 24]
0	0xbd2ab001	-0.041671757
1	0xbbeca078	-0.007221278
2	0x3c92dcb4	0.017927505
3	0xbcc8af81	-0.02449775
4	0x3c9945be	0.018710013
5	0x3d25b1f9	0.04045293
6	0xbd04067d	-0.03223275
7	0x3cff36fe	0.031154152
8	0xbd06da65	-0.03292312
9	0x3bd10d10	0.006379731
10	0xbb1631e0	-0.0022917911
11	0x3d0bd99d	0.03414308
12	0x3c3237fc	0.0108776055
13	0xbc273a48	-0.010206766
14	0xbafe92a0	-0.001942236
15	0x3bfc49f8	0.0076992474
16	0xbc824730	-0.015903085
17	0x3bb92220	0.00564982
18	0xbcda82dd	-0.026673729
19	0xbbfaa1f0	-0.007648699
20	0xba725400	-0.00092440844
21	0x3c6f2dac	0.014598291
22	0xbcde545f	-0.02713984
23	0x3d101afd	0.035181988
24	0x3c490fc8	0.012271829
25	0xbc78cfc8	-0.015186258
26	0xbcdd348f	-0.027002601
27	0xbc63dace	-0.013907148
28	0xbc9023c8	-0.017595187
29	0x3c819600	0.015818596
30	0x3aad83a0	0.001323808
31	0x3c074f88	0.008258708
32	0xbd015d43	-0.031583082
33	0x3c074f14	0.0082586
34	0x3cfb8b66	0.030706119
35	0x3d1c59d5	0.038171608
36	0xbcc888c5	-0.02447928
37	0x3befc558	0.0073172264
38	0x3c0fee4c	0.008784842
39	0x3d1139af	0.035455402
40	0xbc190bcc	-0.0093411915
41	0x3d2760dd	0.04086386
42	0xbc13cf18	-0.009021543
43	0xbd293d03	-0.04131795
44	0x3d234f25	0.0398704
45	0xbb904c70	-0.0044036433
46	0xbca55dad	-0.02018627
47	0xbd03b688	-0.032156497
48	0x3d2c4d9f	0.042066213
49	0xbc8124cf	-0.015764622
50	0xbccfe2a2	-0.025376622
51	0x3d2de035	0.04245015
52	0xbb993ee8	-0.0046766885
53	0x3c7f37b0	0.015577242
54	0x394fbe00	0.00019811839
55	0x3ce41086	0.02783991
56	0xbcfecfea	-0.031105
57	0x3cd629ce	0.02614298
58	0x3d2c3901	0.04204655
59	0xbcde79ed	-0.027157748
60	0x3d00a2b5	0.03140517
61	0xbc60dcca	-0.013724515
62	0x3ce3c112	0.027802024
63	0x3d2304e7	0.039799597
64	0xbcd79fce	-0.026321318
65	0xbce5e1d3	-0.028061783
66	0xbd03c5ae	-0.032170944
67	0x3ce6f5be	0.02819335
68	0xbd01b1a7	-0.031663563
69	0xbb2bf830	-0.002624046
70	0x3d268cc5	0.040661592
71	0xbc2a55d0	-0.010396436
72	0x3cf2e71e	0.02965122
73	0xbd2e6f5e	-0.042586677
74	0x3d1b98c7	0.037987497
75	0xbcc3cd84	-0.023901708
76	0x3ca9b506	0.020716202
77	0xbcfffcfc	-0.031248562
78	0xbd34cf34	-0.044142917
79	0xba6e4400	-0.0009089112
80	0xbb85f618	-0.0040881746
81	0x36bbc000	5.595386e-06
82	0x3cd01b2a	0.025403578
83	0x3d3291f1	0.04359621
84	0x3cd7da1a	0.026349116
85	0xbcce1085	-0.025154362
86	0xbc2a7424	-0.010403667
87	0x3d1af25b	0.037828784
88	0x3c6e20fc	0.014534231
89	0xbbaf72d8	-0.0053542666
90	0x3ce42b8e	0.0278528
91	0xbaf1c2e0	-0.0018444918
92	0x3be15438	0.0068764947
93	0xbc82aff9	-0.01595305
94	0xbc58a1f2	-0.0132222045
95	0x3d301eb3	0.042998027
96	0xbc74a692	-0.014932292
97	0x3cec45aa	0.028841812
98	0xbb3531b0	-0.0027648024
99	0x3d15aa3b	0.036539298
100	0xbc773ca4	-0.015090141
101	0xbc99e4c9	-0.018785851
102	0x3d2863cf	0.04111081
103	0x3be81d30	0.0070835575
104	0xbd0b4b74	-0.034007505
105	0x3cecb732	0.028895948
106	0x3cde6572	0.027147982
107	0x3d0fcd4d	0.0351079
108	0xbc2192c8	-0.0098616555
109	0xbd119442	-0.03554178
110	0xbc1617c8	-0.009160943
111	0xbcaa0f15	-0.020759145
112	0xbd1b802f	-0.037964042
113	0x3d171469	0.0368847
114	0x3b1ddc10	0.0024087466
115	0x3ceabce2	0.02865452
116	0xbc9c03d2	-0.01904479
117	0xbbd518d8	-0.0065032057
118	0x3d26d447	0.040729787
119	0xbbe9afe0	-0.0071315616
120	0x3caa947e	0.02082276
121	0x3cb00d3e	0.02149069
122	0x3caba232	0.020951364
123	0xbd339303	-0.043841373
124	0xbd316101	-0.0433054
125	0x3c98ba16	0.01864342
126	0x3cdeae2e	0.027182665
127	0x3d2866b7	0.04111358
128	0x3c26d288	0.0101820305
129	0xbd1458d6	-0.036217533
130	0x3c982f4a	0.018577237
131	0x3cc06806	0.023487102
132	0x3bfb4698	0.0076683275
133	0x3c42905c	0.011875238
134	0x3c83af9a	0.016074944
135	0xbca508de	-0.02014583
136	0xbd00b842	-0.031425722
137	0xbb457bd0	-0.0030133612
138	0xbd134a7b	-0.035959702
139	0x3caf01fa	0.021363247
140	0x3c043818	0.008070014
141	0xbd006492	-0.03134591
142	0xbc6b6492	-0.01436724
143	0x3c726a70	0.0147958845
144	0xbd13747b	-0.035999756
145	0x3b5690c0	0.0032740086
146	0x3d005985	0.031335372
147	0xbd1488f1	-0.03626341
148	0xbca3e28c	-0.020005487
149	0xbd305a66	-0.04305496
150	0x3ce30dfe	0.027716633
151	0x3c661ce8	0.014044978
152	0x3c3c4714	0.011491556
153	0x3c80442c	0.015657507
154	0xbc4bb06c	-0.012432199
155	0xbd09125e	-0.033464782
156	0x3d1d05dd	0.03833567
157	0x3cfd3ec6	0.030913722
158	0xbb01c990	-0.0019803979
159	0xbc876c16	-0.016531032
160	0x3d1e1d57	0.0386022
161	0x3c55cd7c	0.01304948
162	0x3c317698	0.010831498
163	0xbd108ed3	-0.035292458
164	0x39f30e80	0.00046359375
165	0x3d1a84f5	0.037724454
166	0xbb3c2780	-0.0028710067
167	0x3d1d1075	0.038345773
168	0x3a5e1b80	0.0008472726
169	0xbcaadf2f	-0.020858375
170	0xbd2ab49a	-0.04167614
171	0xb84ec400	-4.9296767e-05
172	0x3ca22d6a	0.019797046
173	0x3d23746f	0.03990596
174	0xbca4552a	-0.02006014
175	0xbb704130	-0.0036659949
176	0xb9c20e80	-0.00037013367
177	0x3b96b350	0.0045990124
178	0xbd17c0dc	-0.03704916
179	0xbbf34a18	-0.007424604
180	0xbc033398	-0.008007906
181	0x3c337a58	0.010954462
182	0x3be6f8e0	0.007048711
183	0xbc84753d	-0.016169185
184	0xbc942ff8	-0.01808928
185	0xbc4d5c10	-0.012534156
186	0xbce3c809	-0.027805345
187	0x39dc4a80	0.00042017177
188	0x3c87dcf6	0.016584855
189	0xbd08e67d	-0.033422936
190	0xbd23209c	-0.03982602
191	0xbcae9b26	-0.021314215
192	0x3cadcefa	0.021216858
193	0xbd1752ac	-0.036944076
194	0xbd0661e5	-0.032808203
195	0xbd0cdf01	-0.03439236
196	0xbcddeb66	-0.027089786
197	0xbb9d7f80	-0.004806459
198	0xbd0ba35a	-0.03409133
199	0x3d333b15	0.043757517
200	0xbcd58f57	-0.026069326
201	0x3d25223d	0.040315855
202	0x3d1a419b	0.037660223
203	0xbce0ac5d	-0.02742594
204	0xbd30e826	-0.043190144
205	0x3cdfbb0a	0.027310867
206	0x3d1b882d	0.037971664
207	0xbca95ec5	-0.020675072
208	0x3ca5cd7e	0.020239588
209	0xbc771b8a	-0.015082249
210	0xbc419260	-0.011814684
211	0x3cb762be	0.022385951
212	0x3d113b61	0.03545702
213	0xb99e3700	-0.00030177087
214	0x3ca270a2	0.019829098
215	0x3d345f5f	0.044036265
216	0xbb5fcbf0	-0.0034148656
217	0xbb48ae80	-0.0030621588
218	0x3d0eb86d	0.03484385
219	0xbce2b507	-0.027674211
220	0x3ca7bcde	0.020475801
221	0x3c80adfc	0.015707962
222	0x3ca105a2	0.019656006
223	0x3cea3dda	0.028593946
224	0x3cc785b6	0.02435575
225	0xbbc40e88	-0.0059831776
226	0xbcd0c603	-0.025485044
227	0x3c675520	0.0141194165
228	0xbd06bdee	-0.032895975
229	0xbb98dab8	-0.004664745
230	0xbc53ed64	-0.012935016
231	0x3d0b12e1	0.03395355
232	0x3cdb7152	0.026787434
233	0xbb9461c8	-0.004528258
234	0xbd0b7b1a	-0.034052946
235	0xbd13bd24	-0.03606905
236	0x3d0e4043	0.034729254
237	0xbc870813	-0.016483342
238	0x3d31eb31	0.043437187
239	0xbd1f479f	-0.038886663
240	0x3d1a3b83	0.03765441
241	0x3d058de9	0.03260604
242	0xbd08aa0c	-0.033365294
243	0xbcb5b880	-0.022182703
244	0x3bfd3988	0.0077278055
245	0xbd13892b	-0.036019485
246	0x3c9cb36e	0.019128527
247	0x3c671110	0.014103189
248	0x3c711e18	0.014716648
249	0x3d183443	0.037159216
250	0xbbdeeb18	-0.0068029277
251	0xbb969c80	-0.004596293
252	0xbccfa4c6	-0.025347125
253	0x3ce7b6c6	0.028285395
254	0x3d092bab	0.03348891
255	0x3d1e8ad9	0.038706634

fc1.bias f4 [512]
0	0x3cacdaa8	0.021100357
1	0x3cd0ca88	0.0254872
2	0xbb897800	-0.0041952133
3	0xbe20deb3	-0.15709953
4	0xbd801fc8	-0.06256062
5	0x3d3d8888	0.046272784
6	0xbdc11d29	-0.0942939
7	0x3e4729ee	0.19449589
8	0xbd0eab30	-0.034831226
9	0xbd43e58c	-0.047826335
10	0xbde475a0	-0.11155248
11	0x3dd4f128	0.103975594
12	0x3e49d6d0	0.1971085
13	0x3e38d288	0.18049061
14	0xbe3da5fb	-0.18520348
15	0xbc91e6a0	-0.017810166
16	0xbd367074	-0.044540837
17	0xbd511824	-0.051048413
18	0xbe3c5768	-0.18392718
19	0x3e50cd3a	0.20390788
20	0x3e294158	0.16528833
21	0xbe131a28	-0.14365447
22	0x3e03c51a	0.12868157
23	0xbd767ec8	-0.0601795
24	0x3e3eb9a6	0.18625507
25	0xbbc5bac0	-0.006034225
26	0x3dda4610	0.106578946
27	0xbc503890	-0.012708798
28	0xbd789494	-0.06068857
29	0xbe4166d4	-0.18886882
30	0xbe1cee39	-0.1532525
31	0x3e456ac8	0.19279015
32	0x3e41ebf2	0.18937662
33	0x3e48c708	0.19607174
34	0x3e17c3e4	0.1482082
35	0xbe3c6064	-0.18396145
36	0xbe0597ce	-0.1304619
37	0x3d370508	0.044682533
38	0xbe4129c4	-0.18863589
39	0xbc010420	-0.007874519
40	0x3d88446c	0.066536754
41	0xbd8294da	-0.063760474
42	0x3d105350	0.035235703
43	0x3c69a600	0.014260769
44	0xbda0c436	-0.07849924
45	0x3cc89ee0	0.02448982
46	0x3d30396c	0.04302351
47	0xbe2ee196	-0.17078242
48	0x3e40b3bc	0.18818563
49	0x3e4f8a48	0.20267594
50	0xbe2bbcc8	-0.16771233
51	0xbd48531c	-0.048907384
52	0xbbb99020	-0.005662933
53	0xbae5d480	-0.0017534643
54	0xbd939184	-0.07205489
55	0x3c5e3960	0.013563484
56	0x3d77b678	0.06047675
57	0x3d7b3888	0.06133321
58	0x3deb980c	0.1150361
59	0x3d1e9cbc	0.038723692
60	0x3d8e511c	0.06949064
61	0xbce00f00	-0.027350903
62	0xbd5b88dc	-0.053597316
63	0x3dc0ba18	0.094104946
64	0x3e24a876	0.16079888
65	0x3b0c5080	0.0021410286
66	0xbe221d4c	-0.15831488
67	0x3d86b554	0.06577554
68	0xbe2437de	-0.16036937
69	0x3d874250	0.06604445
70	0x3e474fc2	0.19464019
71	0xbe0d6994	-0.13809806
72	0xbce73d30	-0.028227419
73	0x3e43d158	0.19122827
74	0x3da8eb9c	0.08248064
75	0x3e47bcfa	0.19505683
76	0xbdc524de	-0.096261725
77	0xbcbbe628	-0.022936895
78	0xbe0f2269	-0.1397797
79	0xbde2cb92	-0.11073984
80	0x3d33be48	0.04388264
81	0x3e294d68	0.16533434
82	0x3e3ad72c	0.18246144
83	0xbd9bb7f2	-0.07603444
84	0x3e314562	0.17311624
85	0xbe151a99	-0.14560927
86	0xbe43c57b	-0.19118302
87	0x3cdca1f8	0.026932701
88	0x3e42ba74	0.19016439
89	0x3e1fe2be	0.15613839
90	0xbe188306	-0.14893731
91	0xbd2e5298	-0.042559236
92	0x3e38f170	0.18060851
93	0x3ddaa304	0.10675624
94	0x3b8e0940	0.004334599
95	0xbdba9eb9	-0.09112305
96	0x3e045ad2	0.1292527
97	0x3e308956	0.1723989
98	0x3e06f8b6	0.13180813
99	0x3dafb7b4	0.085799605
100	0xbdbcf88f	-0.09227096
101	0xbe4b1977	-0.19833933
102	0x3e3c5908	0.18393338
103	0x3d436188	0.047700435
104	0x3cd2e0a8	0.02574189
105	0x3d9cba00	0.07652664
106	0xbd9da7c8	-0.07698017
107	0xbe177f11	-0.14794566
108	0x3de43524	0.11142948
109	0xbcc9a3d8	-0.02461426
110	0xbe4805f6	-0.19533524
111	0xbd1d2454	-0.038364723
112	0xbcfb45d8	-0.030672953
113	0xbe189b90	-0.14903092
114	0xbe257bc0	-0.16160488
115	0xbd415474	-0.04719968
116	0xbe2da39a	-0.1695694
117	0x3dd46910	0.103716016
118	0xbe49e10c	-0.19714755
119	0xbdbdbe8f	-0.09264862
120	0xbe18196f	-0.14853452
121	0xbd94a04e	-0.07257138
122	0xbe4f5de9	-0.20250668
123	0xbd6a3b40	-0.05718541
124	0xbe0aa326	-0.13538799
125	0x3e007fd8	0.12548769
126	0xbe2e9f97	-0.17053066
127	0x3e441c12	0.19151333
128	0x3e44a1d6	0.1920236
129	0x3d5c1570	0.053731382
130	0xbc977f18	-0.01849322
131	0xbdf7aded	-0.120937206
132	0xbdb9ccf6	-0.09072296
133	0xbe0d6c26	-0.13810787
134	0x3cfd0c78	0.030889735
135	0x3e463c90	0.1935904
136	0xbd8bd6be	-0.06828068
137	0xbdad8368	-0.084723294
138	0x3d399fec	0.04531853
139	0xbe43a262	-0.19104913
140	0xbd8e1884	-0.0693827
141	0xbe116deb	-0.14202087
142	0xbe167210	-0.14691949
143	0xbd7c70f0	-0.061631143
144	0x3e224ef8	0.15850437
145	0x3db1db24	0.08684376
146	0x3d688900	0.05677128
147	0x3e2e37b4	0.17013437
148	0x3df419b0	0.11918962
149	0xbb1dbec0	-0.0024069995
150	0x3d4f22b0	0.05057019
151	0xbce6c090	-0.028167993
152	0x3dcc66fc	0.0998058
153	0x3d3b7a9c	0.045771226
154	0x3da6f644	0.0815244
155	0xbe438c21	-0.19096424
156	0xbce2aa48	-0.027669087
157	0x3dde46d4	0.10853353
158	0x3d9c7b68	0.076407254
159	0x3d506680	0.050879
160	0xbdaa0156	-0.08301036
161	0x3e075ef4	0.13219815
162	0xbd32fc70	-0.043697774
163	0xbde2df0d	-0.110777
164	0xbe1544fc	-0.14577097
165	0x3aeb6d80	0.0017961711
166	0xbe250cd5	-0.16118176
167	0x3e02c3ba	0.12769976
168	0x3cde5c68	0.027143672
169	0xbd31115c	-0.043229446
170	0x3e34afd2	0.17645195
171	0xbb69c040	-0.0035667568
172	0x3cc5c698	0.024142548
173	0x3e09072c	0.13381642
174	0x3d0d4d94	0.034497812
175	0x3a84b280	0.0010123998
176	0x3e3f30b6	0.18670925
177	0xbe2086e6	-0.1567646
178	0x3dcea9c0	0.10090971
179	0x3d540538	0.05176279
180	0xbd019e24	-0.031644955
181	0x3d88ab9c	0.06673357
182	0x3c88f900	0.016720295
183	0xbe02008e	-0.12695524
184	0xbe0d4374	-0.13795263
185	0xbdd1d76b	-0.10246166
186	0x3e3cb0d4	0.1842683
187	0x3e233a14	0.15940124
188	0xbcb2ccb0	-0.021826118
189	0x3dd3020c	0.10303125
190	0x3dfd2988	0.12361437
191	0x3e301f8a	0.17199531
192	0x3d5d7478	0.05406615
193	0x3e1f7a74	0.15574056
194	0xbd5ff270	-0.054674566
195	0x3d2ff1ac	0.042955086
196	0xbdfeb0a9	-0.12436039
197	0xbe2e8fca	-0.17047039
198	0xbd353818	-0.04424295
199	0xbe284737	-0.16433416
200	0x3d8ad874	0.067795664
201	0x3e094c4a	0.13408008
202	0x3d280c98	0.041027635
203	0xbe4810e0	-0.19537687
204	0x3db18ea4	0.08669785
205	0x3e3a95c8	0.182212
206	0x3d04dcb8	0.032437056
207	0xbe3d4363	-0.18482737
208	0xbd2ae2e0	-0.04172027
209	0x3e4ae4e8	0.19813883
210	0xbdef5545	-0.11686186
211	0xbe21428c	-0.15748042
212	0x3e1a7c58	0.15086496
213	0x3e21296a	0.15738454
214	0x3b1d9a00	0.002404809
215	0x3e439f36	0.19103703
216	0xbe34540e	-0.1761019
217	0x3e00b888	0.12570393
218	0xbe452961	-0.19254066
219	0xbd7f9958	-0.0624021
220	0x3e265bba	0.16245928
221	0xbdcd7c40	-0.100334644
222	0xbe1c3056	-0.15252814
223	0x3d1259a8	0.035730034
224	0x3e4fc4b6	0.20289883
225	0xbd99a862	-0.075028196
226	0xbe3989ba	-0.18118945
227	0x3ded29e4	0.11580256
228	0x3e2b1c9c	0.16710132
229	0xbe05ed50	-0.13078809
230	0xbdd3b8e2	-0.10337998
231	0x3dc97c58	0.0983817
232	0x3d3bf7a8	0.04589048
233	0xbe20bc2f	-0.15696786
234	0xbd23126c	-0.03981249
235	0x3d18facc	0.037348554
236	0x3ca8a5d8	0.020586893
237	0x3e1a88f6	0.15091309
238	0x3de1d900	0.110277176
239	0x3caee3d0	0.021348864
240	0x3e1458c4	0.14486986
241	0xbe456f3c	-0.19280714
242	0x3d0f5ef4	0.035002664
243	0xbbb9d280	-0.0056708455
244	0xbe051284	-0.12995344
245	0xbd13559c	-0.035970315
246	0xbd7fb504	-0.06242849
247	0xbe48f4e5	-0.1962467
248	0x3c7a6a50	0.015284136
249	0x3e5051b8	0.20343673
250	0xbe0cb21a	-0.13739815
251	0xbcbfe928	-0.023426607
252	0xbd3ee410	-0.046604216
253	0xbde97dde	-0.114009604
254	0x3dbc464c	0.091930956
255	0xbe48201d	-0.195435

fc2.weight f4 [128, 512]
0	0xbcd0cd50	-0.025488526
1	0x3d261c6a	0.04055444
2	0x3d8abb65	0.06774024
3	0x3d861f31	0.06548918
4	0x3ca5a154	0.020218529
5	0xbd413043	-0.047165167
6	0x3d96da2b	0.07365831
7	0x3d0d0afc	0.034434304
8	0xbd1e0b78	-0.038585156
9	0xbda80b60	-0.082052946
10	0x3d3cbd7e	0.04607915
11	0xbc2223a8	-0.009896196
12	0xbd3d12fc	-0.046160683
13	0xbcdb22c2	-0.026749972
14	0x3db29be5	0.08721141
15	0xbd90732a	-0.07053216
16	0x3c1c1da0	0.0095285475
17	0xbd6b212e	-0.05740469
18	0xbc61ebc0	-0.013789117
19	0x3ca6e11c	0.020371012
20	0x3d9bd73d	0.07609413
21	0xbdaf1930	-0.08549726
22	0x3da2ed15	0.07955376
23	0xbd85ffce	-0.065429315
24	0xbd897d27	-0.06713324
25	0x3d508d62	0.050916083
26	0x3d71f672	0.05907292
27	0xbda70387	-0.0815497
28	0x3d2f6f0e	0.04283052
29	0xbcde1106	-0.027107727
30	0xbcf24aec	-0.029576741
31	0x3d010c2a	0.03150574
32	0x3d1b8b4e	0.03797465
33	0x3c966c50	0.018362194
34	0x3bd9ae20	0.006643072
35	0x3d218e8a	0.039442576
36	0x3d52f2a6	0.05150094
37	0x3d4224ea	0.047398485
38	0xbdadbe68	-0.08483583
39	0xbd9af086	-0.075654075
40	0x3da927af	0.08259522
41	0x3ce346e4	0.027743764
42	0x3d94f139	0.07272572
43	0xbd2c4c64	-0.04206504
44	0xbd56f909	-0.052483592
45	0xbd1fdda9	-0.03902975
46	0x3d7f6e02	0.06236077
47	0x3d9060e5	0.07049731
48	0x3d5bd09a	0.053665735
49	0xbc1faaf0	-0.0097453445
50	0xbbbb01e0	-0.0057070106
51	0x3d3cefbe	0.046127073
52	0xbd1a5a27	-0.037683632
53	0x3d98809b	0.074464045
54	0xbdac4b55	-0.08412806
55	0xbd4b9cc6	-0.049710058
56	0xbd84adde	-0.06478475
57	0xbd90e15e	-0.070742354
58	0xbcd5b732	-0.02608833
59	0xbd85c9be	-0.0653262
60	0xbda720ac	-0.081605285
61	0xbc14fd58	-0.009093605
62	0x3b3e96e0	0.0029081628
63	0xbc07d448	-0.008290358
64	0x3cfb5d9c	0.030684285
65	0xbd07b132	-0.03312797
66	0x3d16886a	0.03675119
67	0x3da3670f	0.07978641
68	0xbd923cc3	-0.07140496
69	0x3b898cf0	0.0041977093
70	0x3cbf9494	0.023386277
71	0x3d434b3a	0.047679164
72	0x3c9a86c0	0.018863082
73	0x3d48fbb6	0.049068175
74	0x3c559860	0.013036817
75	0x3c580af8	0.013186209
76	0x3bd2f540	0.0064379275
77	0xbdb03946	-0.08604674
78	0x3db4ac25	0.088218965
79	0xbd3ae163	-0.0456251
80	0x3da7a157	0.0818507
81	0x3c806ff4	0.015678383
82	0x3d4f05b2	0.05054254
83	0xbc8c8cc8	-0.017156973
84	0xbd83043a	-0.063972905
85	0xbcffe730	-0.031238168
86	0x3b38bf80	0.0028190315
87	0x3d5dee52	0.054182358
88	0xbd821ce5	-0.063531674
89	0x3d8fa1b3	0.070132636
90	0xbb0a12a0	-0.002106823
91	0x3cbdcd30	0.02316913
92	0x3db34cd7	0.087548904
93	0x3d73178e	0.059348635
94	0x3c353110	0.011059061
95	0xbcdde534	-0.027086832
96	0x3daefd9f	0.08544468
97	0x3d3749de	0.04474818
98	0x3d8cc857	0.06874149
99	0x3ae1de80	0.0017232448
100	0xbd6c0c4c	-0.057628915
101	0x3dadf55d	0.08494065
102	0x3cbb09b0	0.022831768
103	0x3c24e808	0.010065086
104	0x3d0b639c	0.03403054
105	0xbc1e9588	-0.009679206
106	0x3d8b07d7	0.06788605
107	0x3d132904	0.035927787
108	0xbcff65a2	-0.031176392
109	0x3d580b06	0.052744888
110	0xbcc06e4c	-0.023490094
111	0xbd398041	-0.045288328
112	0x3cb8d81c	0.022563986
113	0xbbb85cc0	-0.005626291
114	0xbcd0efc4	-0.025504954
115	0xbb883520	-0.0041567236
116	0x3c80d7fc	0.01572799
117	0x3da4489b	0.08021661
118	0x3bb107e0	0.00540255
119	0xbd0973f7	-0.03355786
120	0xbd920c10	-0.07131207
121	0x3d914533	0.07093277
122	0xbd9957e5	-0.07487468
123	0xbdaed458	-0.08536595
124	0x3d47cc36	0.048778735
125	0x3dac0459	0.08399267
126	0xbcada8dc	-0.021198682
127	0xbd7203de	-0.05908572
128	0xbba14040	-0.0049209893
129	0xbda5453b	-0.08069845
130	0xbc6ccce0	-0.014453143
131	0x3d0c8e64	0.03431548
132	0x3d4ff9de	0.0507754
133	0x3db2bc8d	0.087273695
134	0xbb804eb0	-0.0039156303
135	0xbd67611e	-0.056489103
136	0xbd9a16b2	-0.0752386
137	0x3d520482	0.05127383
138	0x3cdd0d0c	0.02698376
139	0x3db386f7	0.08765977
140	0xbd67f654	-0.0566314
141	0x3d99838d	0.074957944
142	0x3d0289d2	0.031869717
143	0x3db3acf9	0.08773226
144	0x39ab2a00	0.00032646954
145	0xbd80e3ba	-0.062934354
146	0x3d52c2d2	0.051455326
147	0xbd7b40d2	-0.061341114
148	0xbd333fc3	-0.04376198
149	0x3d42254e	0.047398858
150	0x3d524832	0.051338382
151	0xbd4230c7	-0.0474098
152	0xbcc2d7cc	-0.02378454
153	0x3d90ad4f	0.07064306
154	0xbcd231f8	-0.025658593
155	0x3c28a930	0.010294244
156	0xbd8bcff9	-0.06826777
157	0x3d463e62	0.048399337
158	0xbd0fcd9d	-0.035108197
159	0x3b9e43b0	0.0048298463
160	0xbbec5680	-0.00721246
161	0x3d0a98ea	0.033837236
162	0x3d57e742	0.05271078
163	0x3d44e0b2	0.04806585
164	0x3d137f70	0.036010206
165	0xbc79f4b0	-0.015256092
166	0xbcd1f0ac	-0.025627457
167	0x3d978795	0.07398907
168	0x3d6a797a	0.057244755
169	0x3db3aa01	0.0877266
170	0x3d296392	0.041354723
171	0x3d30be4a	0.043150224
172	0xbda64301	-0.08118249
173	0x3d4e2d96	0.050336443
174	0xbc9a7d84	-0.018858679
175	0x3da6c355	0.081427254
176	0x3da81c87	0.08208566
177	0xbdacfeaa	-0.08447011
178	0xbd86adb4	-0.065761
179	0x3d9648cb	0.07338103
180	0x3c09eb98	0.008417986
181	0x3cb324f4	0.021868207
182	0x3bfba780	0.0076798797
183	0xbda80dfc	-0.08205792
184	0xbd473096	-0.04863032
185	0xbc042928	-0.008066453
186	0x3d2fbc86	0.0429044
187	0xbd4345a7	-0.047673848
188	0xbcae1adc	-0.021253042
189	0x3d6dfdda	0.05810342
190	0xbd28afbd	-0.041183222
191	0xbcfe838a	-0.031068582
192	0xbba5f820	-0.005064979
193	0x3bf683a0	0.007523015
194	0xbd990342	-0.074713245
195	0xbd226d6d	-0.039655138
196	0x3c82e8d8	0.01598017
197	0x3d84c4dd	0.06482861
198	0x3d1c7862	0.038200743
199	0x3d8946a5	0.067029275
200	0x3d1d1ec6	0.038359426
201	0x3d2a7e86	0.04162457
202	0x39443400	0.00018711388
203	0xbd2e4465	-0.042545695
204	0xbd9da3c8	-0.076972544
205	0x3d98f833	0.07469215
206	0xbd8410d6	-0.06448524
207	0xbbdb11f0	-0.006685488
208	0xbd49b43d	-0.049244154
209	0xbd371d6f	-0.044705804
210	0xbd5ff4ed	-0.05467694
211	0x3d7e77c6	0.062125944
212	0xbda94f78	-0.082671106
213	0xbd9d5cd0	-0.07683718
214	0x3cc90104	0.024536617
215	0xbcfdd3de	-0.030984815
216	0xbda2e0c7	-0.07953029
217	0x3d9d789f	0.07689022
218	0x3c9c8ee8	0.019111112
219	0xbd510848	-0.05103329
220	0xbb827870	-0.0039816424
221	0xbd8c0ab2	-0.068379775
222	0xbab49c00	-0.0013779402
223	0xbd5e255c	-0.054234847
224	0xbc0a4a60	-0.008440584
225	0xbd585530	-0.052815616
226	0x3da6b013	0.08139052
227	0x39ac2600	0.0003283471
228	0x3d4dd47a	0.05025146
229	0xbb9eb490	-0.004843302
230	0x3d29788a	0.04137472
231	0xbd98ecbf	-0.07467031
232	0xbdada9b5	-0.08479635
233	0x3d5d9af6	0.05410286
234	0xbb7e83e0	-0.0038835928
235	0x3d2c487a	0.042061307
236	0xbd8d8f00	-0.06912041
237	0x3d3dea5e	0.046366088
238	0xbdb417f1	-0.08793629
239	0xbd285a2e	-0.041101627
240	0xbdaa3f22	-0.08312823
241	0x3d840f5b	0.06448241
242	0x3d8a1f0f	0.06744205
243	0xbd4d5531	-0.050130073
244	0x3c5f0e98	0.013614319
245	0xbc53ce20	-0.012927562
246	0xbdb2ace7	-0.08724385
247	0x3d8b52a7	0.06802874
248	0xbda6ea7d	-0.08150194
249	0x3d79294e	0.060830407
250	0xbd1efcab	-0.03881518
251	0x3cc77950	0.024349838
252	0xbca647ac	-0.020297848
253	0x3cb24ff0	0.021766633
254	0x3d43e9da	0.04783044
255	0x3d71891e	0.058968656

fc2.bias f4 [128]
0	0xbca3d251	-0.019997748
1	0xbc6e0430	-0.014527366
2	0x3c9f2722	0.01942784
3	0xbb937ef8	-0.00450122
4	0xbcf9539c	-0.030435376
5	0xbc29dacc	-0.010367107
6	0xbd1df471	-0.038563196
7	0x3ca83762	0.020534221
8	0xbc507f30	-0.012725636
9	0xbc563350	-0.013073757
10	0x3d1155c7	0.035482194
11	0x3cca867a	0.024722327
12	0x3c41b5c4	0.011823121
13	0x3bc0c950	0.0058833733
14	0xbbf5bef0	-0.007499568
15	0xbc811620	-0.01575762
16	0xbcba957e	-0.022776362
17	0x3c7d15a8	0.015447058
18	0xbc02fd58	-0.007994972
19	0xbd0195fa	-0.03163717
20	0x3a3cd500	0.00072033703
21	0x3be2de00	0.006923437
22	0x3cb00a06	0.021489155
23	0x3ce01172	0.027352069
24	0xbca40c14	-0.02002529
25	0x3d2eafd1	0.04264814
26	0xbd037547	-0.032094266
27	0x3bedcfc8	0.0072574355
28	0x3d3106d3	0.0432194
29	0xbd1b7b8c	-0.03795962
30	0xbd05a98e	-0.032632403
31	0x3c8c2908	0.017109409
32	0xbcbbad27	-0.022909714
33	0xbc903f72	-0.017608378
34	0x3c615bc8	0.0137547925
35	0x3d0d2dd5	0.034467537
36	0x3ce78916	0.02826361
37	0xbc30f2c8	-0.010800071
38	0x3c977f5a	0.018493343
39	0xbd0c8cd7	-0.034314003
40	0xbcbae6c4	-0.022815116
41	0x3c0d0518	0.0086071715
42	0x3cacb83e	0.021083947
43	0xbd0dfdda	-0.03466592
44	0xbd0fe120	-0.035126805
45	0xbb9b8c30	-0.0047469363
46	0xbd0cf8ee	-0.034417085
47	0xbaec2780	-0.0018017143
48	0x3a31bbc0	0.0006779991
49	0x3d24bfef	0.040222105
50	0xbd09e18e	-0.03366237
51	0x3b2b3da0	0.002612926
52	0x3c7b34b4	0.01533239
53	0x3d274dc1	0.040845636
54	0xbcb465e8	-0.022021249
55	0xbcc98354	-0.024598755
56	0x3cc1371e	0.023585852
57	0x3be804a8	0.007080633
58	0xbcbcc91a	-0.023045111
59	0x3c8cc79c	0.017185025
60	0x3d030821	0.031990174
61	0x3d1dd859	0.038536403
62	0xbcb7e1ff	-0.02244663
63	0x3b211400	0.0024578571
64	0xbd336f42	-0.043807276
65	0x3cb8457e	0.022494074
66	0xbcdc10c4	-0.026863463
67	0xbc7005a8	-0.014649786
68	0x3bc58f18	0.006029021
69	0xbc54b8ba	-0.012983495
70	0xbcc0b009	-0.02352144
71	0x3d08d217	0.033403482
72	0xbd30e38e	-0.043185763
73	0x3c5279a4	0.012846384
74	0xbd328e81	-0.043592934
75	0xbbe49d30	-0.006976746
76	0xbccc187c	-0.024914019
77	0xbd1964a1	-0.037449483
78	0xbc86b5af	-0.016444055
79	0x3d007821	0.031364564
80	0xbc5ae866	-0.013361072
81	0x3b2ee810	0.0026688613
82	0x3bb0ea10	0.005398996
83	0xbcde2902	-0.027119163
84	0x3ce5cdc6	0.028052222
85	0xbc9fd2f7	-0.019509776
86	0x3d30ebc7	0.043193605
87	0xbce9ca23	-0.02853877
88	0xbc0a4da0	-0.008441359
89	0x3d091b6d	0.03347342
90	0xbc8dd3a5	-0.017312834
91	0x3c451a30	0.012030169
92	0xbaa0b160	-0.0012259893
93	0x3b06d1d0	0.0020571835
94	0x3cedc3f2	0.029024098
95	0xbd003474	-0.031300023
96	0x36c76000	5.941838e-06
97	0xbd006ea8	-0.03135553
98	0xbcb0815c	-0.021546058
99	0xbca5a948	-0.020222321
100	0x3b542e30	0.0032376163
101	0xbcb6b742	-0.022304181
102	0x3d03790f	0.032097872
103	0x3b41b170	0.0029555224
104	0x3ac05040	0.0014672354
105	0xbb28c4b0	-0.0025752
106	0xbae9d4e0	-0.0017839931
107	0x3ce1819e	0.027527627
108	0xbd0c69b6	-0.0342805
109	0x3cc1a502	0.023638252
110	0x3cb3ee0e	0.0219641
111	0xbbba77f8	-0.005690571
112	0xbbe80d48	-0.0070816614
113	0x3c67b8a4	0.014143143
114	0xbcc6d9ff	-0.02427387
115	0x39061e00	0.00012790412
116	0x3ce958fe	0.028484818
117	0xbccaae97	-0.024741454
118	0x3af807e0	0.0018923245
119	0xbd2f3db0	-0.04278344
120	0xbd11f7be	-0.035636656
121	0x3c5720c4	0.0131303705
122	0xbc8f58bb	-0.017498365
123	0xbcf22221	-0.02955729
124	0x3ce22092	0.027603421
125	0xbd1842e0	-0.037173152
126	0xbd127746	-0.03575828
127	0xbc3a8c68	-0.0113860145

fc3.weight f4 [2, 128]
0	0x3a8e79ec	0.0010870076
1	0xbaa9591c	-0.0012920233
2	0x3acd0488	0.0015641609
3	0x3b046c0e	0.0020206007
4	0xba9e8f4f	-0.0012097153
5	0x3ad9a63c	0.0016605328
6	0xbb346154	-0.0027523832
7	0x3a82acf4	0.0009969757
8	0x393416e0	0.0001717466
9	0x3ae73614	0.0017640018
10	0x3a8b8b50	0.0010646377
11	0x3ad076c0	0.0015904531
12	0x3ab2a144	0.0013628383
13	0xbb3b89f9	-0.0028616174
14	0xb9f72da0	-0.00047145505
15	0xb9d09108	-0.00039780908
16	0xba96e3f4	-0.0011512027
17	0xbb05e100	-0.00204283
18	0x3aa34af4	0.0012458251
19	0x3b2ccb88	0.0026366431
20	0xb9c5fdd8	-0.00037763896
21	0xbada80df	-0.0016670487
22	0xbab497e2	-0.0013778175
23	0x3b354298	0.0027658101
24	0x3a9d2cc0	0.0011991486
25	0x3b2bf888	0.0026240665
26	0xb9f02e18	-0.0004581071
27	0xb89081a0	-6.8905996e-05
28	0xba38cd54	-0.0007049639
29	0x3a60b1f8	0.0008571441
30	0xbb3e911d	-0.0029078193
31	0xbb28289c	-0.002565897
32	0x3adbdcb0	0.0016774144
33	0x3adb19f0	0.0016716104
34	0xb81346c0	-3.5113422e-05
35	0xbab0d573	-0.0013491347
36	0x3b3bc0d4	0.002864887
37	0x3a521174	0.0008013465
38	0xb8c12460	-9.2097325e-05
39	0xbb3fb552	-0.0029252362
40	0x3b29df40	0.002592042
41	0xbb12747e	-0.0022347267
42	0x38302400	4.1995198e-05
43	0xbad906d0	-0.0016557816
44	0xba9da86e	-0.0012028345
45	0xbaa23f75	-0.0012378531
46	0x3ab47a9c	0.0013769451
47	0xbb30f8bf	-0.0027003733
48	0xbb21f561	-0.0024712908
49	0xb908a4f0	-0.00013031415
50	0x3b06c7f8	0.0020565968
51	0xbb29c2da	-0.0025903494
52	0x3b3634c0	0.0027802438
53	0xbb273b16	-0.0025517396
54	0x37907280	1.7219456e-05
55	0xbaab2e86	-0.001306013
56	0xbac66832	-0.0015137254
57	0xbb0bc8fa	-0.0021329508
58	0xba427d58	-0.00074191904
59	0xb9960b90	-0.00028618844
60	0xba45a93c	-0.00075401715
61	0x39afe960	0.0003355248
62	0x39dfd440	0.00042692013
63	0xb82cea00	-4.1225925e-05
64	0xb9ccae70	-0.00039039878
65	0x3b2bcd04	0.0026214728
66	0xbaa5fed5	-0.0012664447
67	0x3a6b3454	0.0008972336
68	0x3b3b4d90	0.0028580166
69	0xbae11e66	-0.0017175197
70	0x3a815c18	0.0009869365
71	0xbac28195	-0.0014839644
72	0x3a873050	0.0010314081
73	0xbb1a2364	-0.002351963
74	0x3add16e4	0.0016867784
75	0x3ade8714	0.0016977512
76	0x3b02320a	0.0019866251
77	0x3aa31120	0.0012441017
78	0xbb15dd92	-0.0022867662
79	0xb9b6c1e0	-0.00034858193
80	0xbb387d36	-0.0028150803
81	0x39588cf0	0.00020651869
82	0xba904611	-0.001100721
83	0xbafe648d	-0.0019408629
84	0x3a121a6c	0.0005573395
85	0xbae9541a	-0.0017801553
86	0xbb2bf0a0	-0.0026235953
87	0x38e767a0	0.0001103424
88	0x3aced890	0.0015781093
89	0xba242a0c	-0.0006262369
90	0xbb07de12	-0.002073173
91	0xba27485c	-0.0006381327
92	0xba8fb9d9	-0.0010965421
93	0xb92e76f0	-0.00016638241
94	0x3a574ac8	0.00082127424
95	0xbb0d9d7e	-0.0021608765
96	0x3a3ff7dc	0.00073230057
97	0xba1a2bec	-0.00058811787
98	0xbad588ef	-0.001629142
99	0xba7e32a0	-0.0009696875
100	0x3b42cfb0	0.0029725842
101	0x3aa3baf8	0.0012491634
102	0xba078ab8	-0.0005170512
103	0x3a0e34ec	0.0005424756
104	0xb857c100	-5.143974e-05
105	0xb8b3bee0	-8.5709384e-05
106	0xbad2c295	-0.0016079718
107	0xb9b9c7a8	-0.00035434705
108	0xbb07be41	-0.0020712765
109	0x3b308b22	0.0026938398
110	0x3a557484	0.00081426674
111	0xbb41b531	-0.0029557461
112	0xb9aa9268	-0.00032534008
113	0x3a754c58	0.00093573844
114	0xbb148783	-0.002266378
115	0x3ad70904	0.0016405885
116	0xbace8a20	-0.0015757717
117	0x3ae51718	0.0017478196
118	0xbb3dc777	-0.0028958002
119	0x3a835110	0.0010018665
120	0x3b3c7bf0	0.0028760396
121	0xbb01951e	-0.0019772719
122	0x3aad4504	0.0013219421
123	0x39e47de8	0.00043581356
124	0x3a3ee070	0.00072813686
125	0x39984360	0.00029041898
126	0x3a217d90	0.0006160373
127	0xbb3f17e4	-0.0029158527
128	0xbaa8d627	-0.0012881205
129	0xba2245dc	-0.00061902194
130	0x3a521a8c	0.000801482
131	0xbb1d03fc	-0.0023958674
132	0x3a72dd78	0.0009264569
133	0x37ab7100	2.0437408e-05
134	0x3a7ee320	0.00097231753
135	0x3b282e80	0.0025662482
136	0xba173e38	-0.0005769464
137	0x3adcd64c	0.0016848533
138	0xba56ff40	-0.00082014874
139	0xbb126261	-0.002233647
140	0x3a273bbc	0.00063794455
141	0xbaf822fc	-0.0018931325
142	0xbab53dcc	-0.0013827621
143	0x3b0b6b4e	0.0021273675
144	0xbb2ed71d	-0.002667851
145	0xba54efe4	-0.00081229047
146	0xbb10495a	-0.0022016377
147	0xba82ea02	-0.0009987953
148	0x3a305174	0.00067260046
149	0xbafa7de3	-0.0019111003
150	0xbad2022c	-0.0016022376
151	0x3b290366	0.002578938
152	0x3ad33a24	0.001611535
153	0xbaf0ffc2	-0.0018386769
154	0xbae6817c	-0.0017586197
155	0x3afa63ec	0.0019103265
156	0xbac29441	-0.0014845208
157	0x3af78ef8	0.0018887212
158	0x3b32496c	0.0027204407
159	0xbb01f4e6	-0.0019829809
160	0xba9ca340	-0.0011950508
161	0xbb2a37bd	-0.0025973164
162	0xbb373db3	-0.002796036
163	0xba0bd18c	-0.0005333654
164	0xbac98688	-0.0015375176
165	0x3a35d594	0.00069364277
166	0xbaaa6060	-0.0012998693
167	0x3a7be1c0	0.00096085295
168	0x3ab69560	0.0013930015
169	0x3836d000	4.3585896e-05
170	0xb92d25b0	-0.00016512605
171	0x3a4ced88	0.00078173773
172	0x3b2d35da	0.0026429803
173	0x3a021418	0.00049621006
174	0x3b416702	0.002951086
175	0xbb2869d0	-0.0025697835
176	0xba0c8094	-0.0005359736
177	0xbab1e06d	-0.0013570912
178	0x3b1e5246	0.0024157926
179	0x38ed88e0	0.000113265356
180	0xbab51dd7	-0.0013818097
181	0x3b11a21e	0.0022221874
182	0xbada6fa7	-0.0016665355
183	0xbadb870c	-0.0016748621
184	0x3ad30318	0.0016098944
185	0x3acafa5c	0.001548599
186	0x3b29f65c	0.0025934195
187	0xbab1213a	-0.0013513931
188	0x3b04780a	0.002021315
189	0x3b09e666	0.002104187
190	0x3b0cfc50	0.0021512695
191	0xbb179482	-0.002312929
192	0x3b3da4bc	0.00289373
193	0xbb2b707a	-0.002615957
194	0x3a8689b4	0.0010264427
195	0x3aa06f54	0.001224021
196	0xbadd2711	-0.0016872605
197	0x39f69ce8	0.0004703768
198	0x3b2c7fa2	0.0026321192
199	0x3b22ada4	0.0024822736
200	0x3888ea60	6.528641e-05
201	0xbb0cb1da	-0.0021468312
202	0xbb1c3518	-0.0023835357
203	0x3af91c94	0.0019005709
204	0x3afbce6c	0.0019211299
205	0x3ac7a658	0.0015232069
206	0xba2e07e0	-0.00066387467
207	0xba5c4748	-0.0008402956
208	0x3b0a42e4	0.0021096999
209	0xbb203ece	-0.0024451497
210	0x391a4600	0.00014712662
211	0xba6f07d8	-0.0009118295
212	0xba27e638	-0.00064048497
213	0xba4ba320	-0.0007768143
214	0x3b04c976	0.0020261682
215	0xba3dc3d8	-0.0007238961
216	0x3a7a3260	0.00095442496
217	0x3abfe40c	0.0014640107
218	0xbb310f6f	-0.0027017256
219	0xba6f1388	-0.0009120037
220	0xba97a258	-0.0011568768
221	0xbb236a9e	-0.0024935375
222	0xb7eba280	-2.8089853e-05
223	0x3a20c19c	0.00061323657
224	0x3b10128a	0.0021983706
225	0x3a5af028	0.0008351826
226	0x3ab3b798	0.0013711331
227	0xba74b330	-0.00093345623
228	0x39966e50	0.0002869242
229	0xb92c4350	-0.00016428274
230	0x3a6c352c	0.0009010609
231	0xba407938	-0.0007342282
232	0x3b37e3a6	0.0028059273
233	0xbb2978d0	-0.0025859363
234	0x3b216bd6	0.0024630926
235	0x3b26a268	0.0025426392
236	0xbb33a520	-0.0027411655
237	0x3b009e78	0.0019625705
238	0x3a12fa20	0.00056067295
239	0x39171590	0.00014408515
240	0x3b324c5c	0.0027206158
241	0x395f86c0	0.00021317136
242	0xb9d10e50	-0.0003987425
243	0xbafad93f	-0.0019138231
244	0xb9a62880	-0.00031692162
245	0x3b3b4f98	0.0028581377
246	0x3acb4b18	0.001551005
247	0xb891a5e0	-6.9450354e-05
248	0xbadf75c1	-0.0017048643
249	0x3810fb40	3.456627e-05
250	0xbab8b47d	-0.0014091876
251	0x39dad2c0	0.0004173722
252	0x3a35397c	0.0006913168
253	0x3aa47ad4	0.0012548813
254	0x3af079d4	0.0018346854
255	0x3af47068	0.0018649222

fc3.bias f4 [2]
0	0x3cece6f0	0.028918713
1	0xbc72cd48	-0.014819451
