multi_checkpoint_actor1.pth (torch_old, 24484 bytes, 6 tensors)

fc1.weight f4 [64, 24]
000000 f8 e9 d0 bc 30 49 43 bd 68 90 f1 3c 9e 7e ef 3d
       -0.02550219 -0.04767722 0.029487804 0.11694072
000010 22 c3 b8 bd 80 6a f0 ba aa 6f de 3d 7a 39 95 bd
       -0.09021594 -0.0018342286 0.10861142 -0.072863534
000020 46 ce c7 bd 24 90 08 3d 00 e5 be ba 00 54 d6 ba
       -0.097561404 0.03334059 -0.0014564097 -0.0016351938
000030 6e d5 a0 3d 38 0c db bd 08 28 99 bd f4 ac b1 3d
       0.078532085 -0.1069569 -0.074783385 0.08675566
000040 92 b9 b3 bd 40 7a 89 bc c4 b4 6d 3d d8 cd 8b bd
       -0.08775629 -0.016781926 0.05803372 -0.06826371
000050 b6 84 c6 bd 96 e0 98 bd 86 81 be bd 24 60 db bd
       -0.09693281 -0.07464711 -0.093020484 -0.10711697
000060 68 d1 a7 bc b0 a1 ed bd 04 b5 9b bd 30 24 17 3c
       -0.020485595 -0.11603105 -0.07602885 0.009224936
000070 4a 62 ee 3d 06 6d fc 3d a8 fb d5 3d 60 ba 62 3c
       0.11639841 0.12325482 0.1044839 0.013838381
000080 bc 65 9f 3d 7c 13 20 bd 4e 97 a4 bd 52 79 80 3d
       0.07783076 -0.03908108 -0.080366716 0.0627314
000090 b0 fb 49 3d dc 37 34 3d 58 40 6e 3d 6c a8 00 bd
       0.049312294 0.043998584 0.05816683 -0.03141062
0000a0 84 52 bc 3d 72 84 8b 3d 94 c5 5e bd dc 23 bc 3d
       0.09195426 0.06812371 -0.054387644 0.09186527
0000b0 cc 83 38 3d a0 9c 8b 3b 00 1d f6 3a f0 08 dc 3d
       0.045047566 0.0042606145 0.0018776953 0.10743892
0000c0 80 13 85 3b f0 0e 34 3d c6 d1 ba 3d e0 65 dd 3b
       0.0040611625 0.043959558 0.09122042 0.006756529
0000d0 42 ea e7 3d ce 88 97 bd a0 18 48 bc a0 9c 25 3c
       0.11323978 -0.0739914 -0.012212902 0.010108143
0000e0 e0 1c de 3b 70 14 ba bd a2 4b f4 3d 4e a6 8f bd
       0.0067783445 -0.090859294 0.11928488 -0.07014142
0000f0 0e c6 b8 3d 34 41 4c bd 74 94 4b 3d b2 0e 8d bd
       0.09022151 -0.04986687 0.049702123 -0.068875685
000100 5c f9 5e bd 50 fc 06 3d 42 0a b0 3d f0 98 24 bc
       -0.054437026 0.032955468 0.085957065 -0.010046229
000110 e0 01 40 3d 08 36 8d bd 28 d8 21 3d 40 1b 66 bc
       0.04687679 -0.06895071 0.039512783 -0.014044583
000120 88 4e e9 bc 08 16 7c 3d 80 f4 29 bd 50 58 9c bd
       -0.02847983 0.061544448 -0.04149294 -0.07634032
000130 2c 3b 11 bd 14 55 7f 3d 26 13 f5 3d 00 6b e7 3d
       -0.03545682 0.062336996 0.11966543 0.112997055
000140 22 d3 b2 3d 52 fc 9d bd dc 9c e4 3d 50 6f 50 3d
       0.08731677 -0.07714142 0.11162731 0.050887406
000150 d0 01 b6 3c 38 68 94 bd b8 02 88 bd 30 16 04 3d
       0.022217661 -0.07246441 -0.066411436 0.032247722
000160 40 95 35 bc 70 a4 10 bd 62 69 c3 bd 4a 33 da 3d
       -0.011082947 -0.03531307 -0.095415846 0.10654314
000170 d8 81 1e 3d c0 8c 86 3c d0 6a 40 3c 68 c1 89 3d
       0.038698047 0.016424537 0.011744216 0.067263424
000180 58 61 9a bd c0 90 a3 bb 78 f5 e1 3d c8 f3 9e bc
       -0.07538098 -0.004991621 0.110331476 -0.019403353
000190 24 31 db bd d2 b7 98 bd 28 b6 9e 3d 8a d0 86 3d
       -0.10702732 -0.07456936 0.07749587 0.065827444
0001a0 0e b2 b0 3d 70 f3 34 bd 44 0e 6e bd ee 52 e2 bd
       0.08627711 -0.044177473 -0.058119074 -0.11050974
0001b0 50 4c 0d 3c 38 57 dd bc 42 e4 f2 3d b0 a8 66 bd
       0.008624151 -0.027019128 0.11859943 -0.056313217
0001c0 80 ab a2 bd 84 a2 4f 3d b4 ce 3a bd 70 23 3e bc
       -0.07942867 0.050692096 -0.045607284 -0.011605129
0001d0 04 62 ff 3d 20 ac 9f 3d 04 27 ff bd e0 8a c5 3b
       0.12469867 0.07796502 -0.124586135 0.006028518
0001e0 a0 e7 80 3b 74 5e fa 3d 1c 53 dd bd 32 98 9d 3d
       0.003933862 0.12225047 -0.108068675 0.076950446
0001f0 0c 5f fb bd ac a8 fb bd 60 3a 83 bd de d8 f4 bd
       -0.12273988 -0.12288031 -0.064076185 -0.11955427
000200 00 fb fb bb 78 ba ce 3d bc 0a 0e bd 0c 24 c2 bd
       -0.0076898336 0.1009416 -0.034678206 -0.09479532
000210 30 30 30 bc 1e 5c d0 bd ca ad ad 3d 48 0d 94 3c
       -0.010753676 -0.1017382 0.08480413 0.01807274
000220 4c 0b e3 3d 30 33 59 3d 18 13 37 3d bc 85 2c 3d
       0.11086139 0.05302733 0.044695944 0.042119727
000230 30 ca ed 3d be 25 a0 bd 64 8c 9c bd 8a e1 c4 3d
       0.1161083 -0.07819699 -0.07643965 0.09613331
000240 24 d0 39 3d 4a c0 ea 3d 30 ab ee 3c 2c 5e 39 3d
       0.045364514 0.114624575 0.029134363 0.045255825
000250 32 c7 9d 3d 20 ce a6 3d a6 78 8c 3d 86 c1 c8 bd
       0.07704009 0.08144784 0.06858949 -0.09802537
000260 e8 35 14 3d d2 30 af bd 90 2d 84 3c f2 24 8c 3d
       0.03618422 -0.085542336 0.016135007 0.06842984
000270 40 22 2b bd 12 1c de 3d 54 ee e3 3d a4 66 13 3d
       -0.04178071 0.10845198 0.11129442 0.035986558
000280 2e 32 b9 bd c0 f9 2a 3b 34 30 c7 3d b8 eb b7 3c
       -0.09042774 0.0026088804 0.09725991 0.022451267
000290 ec 04 df 3d a0 32 14 3c 08 1f 6d bd 16 0e a7 3d
       0.10889611 0.009045273 -0.05789092 0.081569836
0002a0 1c 6f 29 3d b6 57 8d 3d c0 f6 98 bd 06 1b c2 bd
       0.041365728 0.06901495 -0.07468939 -0.094778106
0002b0 3c 76 ab 3d 58 1d 33 3d 3a 4a bb 3d c0 6f d5 bd
       0.08372161 0.043729156 0.09145017 -0.10421705
0002c0 f8 98 6b bd 40 cd 81 bb a2 f6 84 bd 50 f0 9f 3d
       -0.05751893 -0.0039612353 -0.06492354 0.07809508
0002d0 de 51 cb 3d 30 e3 dd 3d b0 cb 8f 3c 1a 78 e8 bd
       0.09927724 0.10834348 0.01755318 -0.113510326
0002e0 c8 a5 37 bd 10 90 ed 3c f4 2c 0a bd 84 a8 5a 3d
       -0.044835836 0.028999358 -0.033734277 0.053383365
0002f0 58 d3 08 bd 48 8a d3 3d 00 c1 dd 3d 30 a7 fd 3d
       -0.033404678 0.103291094 0.108278275 0.12385404
000300 c8 90 29 3d b4 4d ad bd 24 83 04 bd e8 9d 88 bd
       0.04139784 -0.08462086 -0.032351628 -0.06670743
000310 f4 49 66 3d 10 af 33 bc 68 00 4d 3d 5c 9e 14 3d
       0.05622287 -0.010967031 0.050049216 0.036283836
000320 20 25 1d bd e8 de 8d 3c 80 47 9d bc 90 4a b1 3c
       -0.038365483 0.017318204 -0.019199133 0.021642
000330 a6 78 a9 bd 40 a8 17 3b ec 21 c3 3d 06 73 84 3d
       -0.08274965 0.0023141056 0.095279545 0.064672515
000340 8c 03 9f bd cc 96 d5 3d e4 be 43 bd 72 d0 e4 3d
       -0.077643484 0.10429153 -0.04778947 0.1117257
000350 60 cb d0 bc e0 f2 f6 3d b0 8b 96 3d e0 4b 29 bc
       -0.025487602 0.120580435 0.07350862 -0.010333031
000360 fc 7b ac 3d 78 70 d9 3d ec 3b c8 bd 98 11 b8 3c
       0.08422086 0.10617155 -0.09777054 0.022469327
000370 c4 3e af 3d 80 12 54 bc 00 0a a2 3d 8c b0 c7 3d
       0.085568935 -0.012943864 0.079120636 0.097504705
000380 e6 09 cb bd cc 95 8b 3d ce 37 eb bd b6 48 a0 3d
       -0.09913997 0.06815681 -0.11485253 0.078263685
000390 a2 8d 8d bd ec 5a 1f bd 68 6f fa 3c 06 70 dc bd
       -0.0691178 -0.03890507 0.0305707 -0.10763554
0003a0 e0 32 8d bb a4 1f 33 bd cc fe 21 3d 40 c9 f2 bb
       -0.0043090433 -0.043731347 0.039549634 -0.007409245
0003b0 d0 a5 e8 bd 98 d1 fc bc a8 b8 9f 3c 1a 2c 8c 3d
       -0.11359751 -0.03086166 0.01949723 0.06844349
0003c0 7c 27 92 bd 10 a4 9b bd a4 aa 66 3d fe aa 99 bd
       -0.07136437 -0.07599652 0.05631508 -0.07503317
0003d0 18 5f 4a bd 26 e0 ff bd 60 ae f6 bc 00 21 cc bd
       -0.049407095 -0.12493925 -0.030112445 -0.09967232
0003e0 c8 6d a0 3c fc 4e cf 3d f0 5f 63 3d e4 6b d5 bd
       0.019583598 0.10122487 0.055511415 -0.10420969
0003f0 c8 7a e5 3d f2 c6 e4 bd 40 73 44 bd 92 a0 8f 3d
       0.11205059 -0.11170758 -0.047961473 0.07013048

fc1.bias f4 [64]
000000 c8 00 8b bd f8 b4 86 3d e4 ea b8 3d 80 fc ed bb
       -0.067872584 0.06577486 0.09029177 -0.0072627664
000010 8c 2a 47 3e fa ab 10 be d8 48 a0 3d 16 43 3c 3e
       0.19449824 -0.14128104 0.07826394 0.18384966
000020 bc 61 11 bd 04 f2 25 3e 00 85 5c 3b a1 86 1c be
       -0.035493597 0.16205603 0.003364861 -0.15285732
000030 d8 58 e5 bd 74 9a 9b 3d b9 e8 b4 bd e8 16 49 3d
       -0.11198586 0.07597819 -0.08833451 0.04909411
000040 6c bb 4d 3e 8c 00 8e 3d d8 7f 9c bc 48 fc 50 3d
       0.20091027 0.06933698 -0.01910393 0.051021844
000050 d0 da f0 bd e1 a1 2f be 62 1f 1d be 4f 64 2f be
       -0.11760485 -0.17151596 -0.15344003 -0.17128108
000060 20 95 2b 3d 58 db 22 3d 02 a8 b1 bd c3 74 4c be
       0.041890264 0.039759964 -0.08674623 -0.19966416
000070 28 75 e2 3d 0d 34 ed bd 70 95 0b bd 1a 43 2f be
       0.11057502 -0.115821935 -0.03407806 -0.17115441
000080 1f d8 eb bd 64 64 ae 3d a3 c0 42 be f6 62 ee bd
       -0.11515831 0.08515242 -0.19018798 -0.11639969
000090 02 b6 1c 3e fe 64 d6 bd f1 f8 ad bd bc c0 6a bd
       0.15303805 -0.104684815 -0.084947474 -0.057312712
0000a0 9c b2 b2 3d e2 1c 09 be 88 a9 a7 3c 30 bb aa 3d
       0.08725473 -0.13389924 0.020466581 0.083364844
0000b0 50 c7 72 bc 60 2e 17 3d ea 73 1f be 9c ff bc 3d
       -0.014818028 0.03690946 -0.15571561 0.09228441
0000c0 78 3c 9c 3d e8 be d1 bc c4 d5 2c be 50 35 a7 3d
       0.07628721 -0.025603727 -0.1687842 0.081644654
0000d0 72 65 08 3e 3c 3d 12 bd 7c 0a c5 3d e0 f3 9a 3d
       0.13319948 -0.03570293 0.0962114 0.07566047
0000e0 77 34 a7 bd d0 2a 68 bc d6 11 50 3e 00 9f 7c 3a
       -0.08164304 -0.014170364 0.20319304 0.000963673
0000f0 f8 67 26 be 30 e6 73 bc 98 f9 cf 3d ce 75 88 bd
       -0.16250598 -0.014886424 0.10155028 -0.066630945

fc2.weight f4 [64, 64]
000000 6c e1 24 3d 5e 1f bd bd cc cb 8a 3d e4 1c 57 3d
       0.04025404 -0.092344984 0.067771524 0.052517787
000010 60 18 6d 3c 16 97 94 3d 18 7a c5 bc 20 fd e9 bd
       0.0144711435 0.0725538 -0.02410607 -0.11425233
000020 46 10 d5 bd 9a 5b f1 3d 48 e2 28 bd da e2 ba bd
       -0.104034945 0.1178505 -0.041231424 -0.091253
000030 f2 81 fa 3d f2 f7 b4 bd 72 0a d0 3d 20 05 e4 3d
       0.12231816 -0.08836354 0.10158242 0.1113379
000040 d0 05 82 bc 50 11 95 3d 9e ef c3 3d 84 de f0 bd
       -0.015871912 0.07278693 0.09567188 -0.117611915
000050 7c 06 89 bd 50 30 85 3c a4 84 20 3d ac c0 ae bd
       -0.0669069 0.016258389 0.039188996 -0.08532843
000060 b0 cc d2 bd 3a 57 f5 3d d8 4e 71 bd 6c b5 f9 bd
       -0.10292947 0.11979528 -0.058913082 -0.121928066
000070 7c ea 60 3d 5e a3 83 bd 14 b0 32 bd 74 92 33 bd
       0.05491112 -0.06427644 -0.043624952 -0.04384084
000080 48 4f ec 3d 90 d7 42 3d 7a d8 fa 3d bc f2 34 bd
       0.11538559 0.047568858 0.12248321 -0.044176802
000090 e2 8e b9 3d 56 bc cf bd 36 07 9b 3d 20 a3 a7 3b
       0.09060456 -0.10143344 0.07569735 0.0051158816
0000a0 e0 f5 98 3b 6c 09 da 3d 80 dc 1c 3c 7c c0 59 bd
       0.0046679825 0.10646328 0.009574056 -0.053162083
0000b0 0c 32 8d bd 78 eb a5 3c dc 48 2b bd 16 6f 81 3d
       -0.06894311 0.020253882 -0.04181753 0.06320016
0000c0 a0 ce d5 bd 22 08 ac bd b8 44 df 3d c0 33 46 bd
       -0.10439801 -0.08399989 0.10901779 -0.048389196
0000d0 20 4e fc bd 84 27 b7 3d e0 ec 0a bd 00 a1 41 3a
       -0.12319589 0.08943084 -0.033917308 0.00073863566
0000e0 f6 9c 9e 3d c0 ea 2a 3d e4 9c f5 bd 40 b5 b7 3c
       0.07744782 0.04172778 -0.11992815 0.022425294
0000f0 82 0a f8 3d 40 aa ec bb be 29 ba 3d 2c 46 e0 3d
       0.12111379 -0.007222444 0.09089993 0.10950884
000100 b4 af 3c 3d 80 9e ec bd 98 9d db 3d 50 31 ca 3d
       0.046066 -0.11553669 0.10723418 0.09872687
000110 e0 7b 19 3d 10 a0 28 bc 80 54 b0 bd e0 be e1 3c
       0.037471652 -0.010292068 -0.08609867 0.027556837
000120 84 dd 31 bd 78 68 e5 3d 04 35 ff bd e0 c8 dc 3c
       -0.043424144 0.112015665 -0.12461284 0.026951253
000130 00 e1 2c bb 00 f0 ab 39 70 94 7e bc 4c b1 58 3d
       -0.0026379228 0.00032794476 -0.01553832 0.05290346
000140 1a d0 db bd 00 63 dc 3c 2c 77 aa bd ac e4 22 3d
       -0.107330516 0.026902676 -0.083235115 0.03976886
000150 90 e0 2d bc 20 f2 81 3c e4 5b 90 3d bc 94 4b bd
       -0.010612622 0.015862525 0.07048777 -0.04970239
000160 46 07 ce bd 68 d8 6e bd 34 ac d0 3d 4e 62 d0 bd
       -0.10059981 -0.05831185 0.10189095 -0.10175
000170 a4 57 a2 3d 34 c9 34 bd 80 6a d7 3b bc b4 51 3d
       0.079268724 -0.044137195 0.006573975 0.051197752
000180 1c 83 34 bd ae 57 b0 bd 1c 47 2d 3d c4 99 9a 3d
       -0.04407035 -0.086104736 0.042304143 0.0754886
000190 70 c6 3e 3d 00 ac 8e bb 10 5f 5a 3c 98 f7 56 3d
       0.046575963 -0.004354 0.013328329 0.052482218
0001a0 30 2a 23 3d a0 c6 7d bd dc 88 b8 3d 90 10 89 bc
       0.039835155 -0.061957 0.09010479 -0.01673153
0001b0 e4 fc 49 bd dc 78 1a bd e0 fd 87 3c b2 75 84 bd
       -0.04931344 -0.037712917 0.01660055 -0.06467761
0001c0 a6 c5 ba bd 42 c1 8e 3d bc e8 d0 3d 3a 70 fe bd
       -0.0911973 0.06970455 0.102006406 -0.12423749
0001d0 78 b8 cb 3d bc 70 96 bd 38 df f1 3c 84 eb ec 3d
       0.09947294 -0.07345721 0.029525384 0.115683585
0001e0 c6 16 a0 bd 20 82 52 bd 9c 92 13 3d 82 21 a0 bd
       -0.07816844 -0.051393628 0.03602849 -0.07818891
0001f0 a8 45 47 bd 3a 9a d6 bd 50 03 6f 3c 80 d5 9f 3d
       -0.048650414 -0.10478635 0.014588192 0.07804394
000200 68 20 09 3d e0 3d b6 bc ea ab f2 3d 56 d0 c7 3d
       0.03347817 -0.022246301 0.11849196 0.09756534
000210 a2 44 8b bd 12 71 92 3d d0 ed ea bc 74 1e 25 3d
       -0.068002 0.07150473 -0.028677851 0.040312245
000220 50 80 5e 3c 04 18 60 3d 08 39 82 bd a8 c6 76 bd
       0.013580397 0.054710403 -0.06358534 -0.060248047
000230 cc ff 91 bd 46 c1 a5 bd ec c5 5c bd 80 cc f5 3c
       -0.071288675 -0.080935046 -0.05389969 0.03000474
000240 68 be 11 3d 60 09 c2 3c 34 82 be 3d 9c b0 c2 3d
       0.035581976 0.023686111 0.09302178 0.09506342
000250 b0 96 ce 3d 10 55 9f 3d 80 76 80 ba 74 3f 02 3d
       0.10087335 0.07779896 -0.0009800941 0.031798795
000260 12 e9 80 bd c0 4e 09 3b b0 44 1b 3c a4 4e d1 bd
       -0.06294455 0.002095148 0.009476826 -0.10220078
000270 2a 86 d1 3d f0 f1 e2 bc 7a e9 c3 3d e4 30 73 3d
       0.10230668 -0.027703255 0.095660165 0.059372798
000280 cc 0c 8b bd d4 10 16 3d 40 9a 61 bd 54 00 7c bd
       -0.0678955 0.036637142 -0.055078745 -0.06152375
000290 10 87 22 3d e4 61 7a 3d d4 38 92 bd 5c 6d 81 bd
       0.039679587 0.061128512 -0.07139745 -0.06319687
0002a0 4c 55 c1 3d fc 38 3c bd f8 d2 ab bd 06 c7 d8 bd
       0.09440097 -0.045952782 -0.083898485 -0.10584836
0002b0 ce f9 93 3d 26 6b b8 3d b6 c6 fd 3d f2 34 c0 bd
       0.07225381 0.09004812 0.12391417 -0.093850985
0002c0 00 97 75 3c a8 2b c7 3c d0 9d 4a 3c 10 bb ce 3c
       0.0149896145 0.02431281 0.012366727 0.025235683
0002d0 50 79 ec bd 8e 19 f6 bd d0 48 54 bd 50 54 3c 3c
       -0.11546576 -0.12016593 -0.051827252 0.011494711
0002e0 c0 22 1b 3c 98 5f 92 bc 20 ac ff bd 4c db 9f 3d
       0.009468734 -0.017867848 -0.12484002 0.078054994
0002f0 62 9e ab bd 00 20 f3 3c 1e 0f bb bd 66 8b b8 3d
       -0.083798185 0.029678345 -0.09133743 0.09010963
000300 88 0d ce 3d a6 c7 85 bd 2c a5 db 3d 88 43 1a bd
       0.10061175 -0.065322205 0.107248634 -0.03766206
000310 06 c4 f8 bd 00 af a5 bc 12 3b c1 bd f8 92 d5 3c
       -0.121467635 -0.020225048 -0.09435095 0.026071057
000320 68 e1 c5 3c 70 de 61 bd f4 a1 13 bd f0 ea 16 3d
       0.024155334 -0.055143774 -0.036043122 0.036845148
000330 ba 28 8c bd 4c 80 52 3d 3c 93 bd bd 22 9d 95 3d
       -0.068437055 0.051391885 -0.09256598 0.07305361
000340 50 9c 73 bd fa ad d5 bd e0 75 c4 3c 80 dc 57 3c
       -0.059475243 -0.10433574 0.023981988 0.01317513
000350 7e 0f bd bd 1e 0d e1 3d 5c b2 38 bd 10 b2 a8 3d
       -0.092314705 0.1098883 -0.04509197 0.08237088
000360 20 3a 04 bd 68 32 ab 3d a8 d1 76 bd ec ef b1 bd
       -0.032281995 0.083592236 -0.060258538 -0.086883396
000370 a8 f7 d0 bd e8 ae 82 bd fa a7 8b bd 58 94 69 3d
       -0.10203487 -0.06381017 -0.06819148 0.057026237
000380 e8 fa a8 bd 38 8b ad bc 2c 05 3a bd 98 4e 41 bd
       -0.082509816 -0.021184549 -0.04541509 -0.047194093
000390 80 dd 7a bc 52 41 8d 3d 00 26 53 bd 92 82 d6 bd
       -0.015311599 0.068972245 -0.05154991 -0.10474123
0003a0 76 48 ae 3d 34 c2 94 bd 68 a9 b0 3d 50 76 50 bc
       0.085099146 -0.07263604 0.08626062 -0.01272352
0003b0 80 1d 72 bc c8 1b f0 3d a8 56 b8 3c d6 97 e7 bd
       -0.014777541 0.11724049 0.022502258 -0.11308257
0003c0 74 64 f5 bd 68 77 ef bd f2 ea bc bd 0c 12 39 3d
       -0.119820505 -0.11692697 -0.092245 0.045183226
0003d0 e0 a7 54 3d 94 a7 84 3d ca 8f eb bd 72 d5 99 3d
       0.05191791 0.064772755 -0.11502035 0.075114146
0003e0 e2 f1 e2 3d c4 f7 48 3d a0 da 49 bd 9e fe dd bd
       0.11081292 0.049064413 -0.049280763 -0.1083958
0003f0 5c 19 fd 3d 90 ec 48 3c 60 cf dc 3c 80 fd 9a 3b
       0.123583525 0.012263432 0.026954353 0.0047299266

fc2.bias f4 [64]
000000 7c 57 9d 3d a8 9c 66 3d c8 df 8b 3c 18 18 ba 3d
       0.07682702 0.056301743 0.01707448 0.09086627
000010 c0 d3 4e bd 8e 86 d5 bd 76 83 8d bd 1a 80 be 3d
       -0.05049491 -0.10426055 -0.0690984 0.09301777
000020 d4 e3 7f bd 54 20 cc bd 50 4b e0 3c b2 05 9f bd
       -0.062473133 -0.099671036 0.027379662 -0.07764758
000030 00 60 ad bb d0 7c a2 bd 80 5b d8 3c 28 2b a7 bc
       -0.005290985 -0.07933962 0.026410818 -0.02040632
000040 b8 1b 87 3c 78 aa 6c 3d 50 d6 a4 bd 90 90 2e bd
       0.01649271 0.05777976 -0.08048689 -0.042618334
000050 d0 b4 aa bd fe 2d d5 3d 08 52 37 bd 78 d1 40 3d
       -0.083352685 0.10409163 -0.044755965 0.047074765
000060 c8 53 ec 3c 98 90 fc bd 24 bd b5 bd 80 95 03 bd
       0.028848544 -0.123322666 -0.08873966 -0.032124996
000070 84 40 c4 bd 7a be 87 3d dc eb a0 3d 00 74 70 b9
       -0.09582618 0.066281274 0.078574866 -0.00022931397
000080 60 c5 7a 3c bc ec 06 3d 20 4a 2a 3d e8 0f c6 bc
       0.015305847 0.03294061 0.041574597 -0.024177507
000090 70 76 49 bd 98 4a 9e bd c0 19 a3 3b 78 6e ca 3d
       -0.049185216 -0.077290714 0.004977435 0.098843515
0000a0 c0 91 7e bc 76 46 dc 3d 44 17 33 3d 8a b8 83 bd
       -0.015537679 0.10755627 0.04372336 -0.064316824
0000b0 4c df 46 3d 60 15 4d 3d a0 de 63 bd e8 7c b3 bc
       0.048552796 0.050069213 -0.055632234 -0.021910146
0000c0 e0 b0 54 bc 04 bd 34 3d 98 c1 c7 3d 60 35 e1 bc
       -0.012981623 0.04412557 0.09753722 -0.027491271
0000d0 0e 78 a6 3d ac 08 8a 3d a8 d1 dd bd f0 25 bb 3d
       0.08128367 0.06739935 -0.108310044 0.091380954
0000e0 20 e6 a5 bb 40 98 c5 3d 42 68 c7 3d 66 e5 f7 bd
       -0.0050628334 0.0964818 0.097366825 -0.12104301
0000f0 fe 32 d5 bd d0 1f 69 bc 9c 86 24 3d 40 f8 a2 bc
       -0.104101166 -0.014228776 0.040167436 -0.019893765

fc3.weight f4 [2, 64]
000000 d8 b7 67 3a cf c9 aa ba 20 65 65 39 a7 87 ef ba
       0.00088393455 -0.0013030114 0.00021876814 -0.001827468
000010 d0 d2 ca 3a 13 e4 0e bb 36 65 23 bb 84 57 39 bb
       0.0015474204 -0.0021803423 -0.0024932153 -0.0028280923
000020 3e 1f 2b 3b 0c 2e b9 3a 42 cd 09 bb 70 f0 41 ba
       0.002611115 0.0014128103 -0.0021026884 -0.00073981937
000030 ba af 16 3b 58 0c 71 3a 0c 61 32 3b 40 b1 e8 b9
       0.0022992925 0.000919526 0.002721849 -0.0004438255
000040 c0 de 97 b9 44 8e 12 3b 30 c3 01 b9 b0 6c 27 bb
       -0.00028966926 0.002236263 -0.00012375112 -0.002554696
000050 84 e7 32 ba 8a ad 11 3b 08 ee a2 3a ac f5 1f ba
       -0.00068246596 0.0022228681 0.0012430558 -0.00061019766
000060 db 8e 40 bb 7c 6c 10 3b dc c3 2a ba f4 21 25 ba
       -0.0029382023 0.0022037318 -0.00065141707 -0.000629931
000070 e4 98 32 3b 94 47 d6 3a c0 32 73 3a 24 04 85 3a
       0.0027251774 0.0016348236 0.00092772767 0.0010148329
000080 80 40 6c 38 90 dd 6d 39 87 08 cd ba 60 69 8b 3a
       5.6326855e-05 0.0002268462 -0.00156428 0.0010636263
000090 1c 35 c2 3a f8 ed d4 3a 56 17 c7 ba c0 c4 35 39
       0.0014816853 0.0016245237 -0.001518945 0.000173348
0000a0 10 41 48 b9 55 33 e5 ba c4 85 2a 3a e0 5b da 3a
       -0.00019097724 -0.0017486612 0.0006504918 0.0016659461
0000b0 c0 e0 89 39 25 2e b3 ba 76 a5 1d 3b b5 b2 ce ba
       0.00026298128 -0.0013670368 0.0024054921 -0.0015769812
0000c0 a4 48 99 3a 80 c9 d0 37 f0 8c 89 3a a0 08 98 3a
       0.0011694622 2.4889363e-05 0.0010494273 0.001159925
0000d0 be b0 37 bb 48 e7 3f 3a 00 f0 0b b6 44 fb 1d bb
       -0.002802893 0.00073205354 -2.0852312e-06 -0.0024106065
0000e0 04 e2 f6 3a 58 ef 92 39 94 69 62 ba e0 dd 0b b9
       0.0018835668 0.00028025615 -0.0008636948 -0.00013338728
0000f0 78 b6 0a 3b 5f e2 92 ba b4 cd d5 ba 5c bb 74 ba
       0.0021165889 -0.001120638 -0.0016311915 -0.000933578
000100 94 1f 3f ba 58 23 a6 3a 48 64 12 ba 40 97 b5 3a
       -0.0007290777 0.0012675328 -0.0005584401 0.001385428
000110 e1 3e 1c bb 30 18 c3 39 72 21 18 3b 78 f8 a6 b9
       -0.002384119 0.0003721132 0.0023213294 -0.0003184711
000120 02 e8 1d 3b 10 c3 75 3a 57 18 3c bb 7e 1a e2 ba
       0.0024094586 0.0009375075 -0.002870103 -0.0017250327
000130 e4 6f 1c 3b fc 82 03 ba da 4d 3b 3b 4d 46 3f bb
       0.0023870403 -0.00050167716 0.0028580339 -0.002918619
000140 d3 c4 d2 ba 5e e1 15 3b 3e 01 35 3b ef fa 32 bb
       -0.0016080387 0.0022869925 0.0027619149 -0.0027310213
000150 98 f4 7e 3a 90 85 41 bb ce 7c 0e bb 58 bd b0 3a
       0.00097257784 -0.0029529072 -0.002174187 0.0013484163
000160 2d 61 c3 ba d0 47 6d b9 66 d5 92 ba 02 27 31 bb
       -0.001490628 -0.00022628834 -0.0011202514 -0.0027031307
000170 92 fb 30 bb d8 1f a2 3a 28 b0 ef 3a 34 69 0c ba
       -0.0027005416 0.0012369109 0.0018286752 -0.00053562527
000180 cc 55 1f 3b 8c 0a 13 bb f8 f4 4a ba b0 a6 2b bb
       0.0024312614 -0.0022436706 -0.00077421917 -0.0026191883
000190 92 99 34 3b 5c a3 14 3a 20 18 c7 38 6e 61 c6 ba
       0.0027557355 0.00056700944 9.493553e-05 -0.0015135237
0001a0 99 59 30 bb 8c 31 2d 3b c4 74 af 3a f0 95 0f ba
       -0.0026908873 0.0026427237 0.0013386239 -0.00054773595
0001b0 d0 03 33 39 4c 56 5d 3a 4e 0e ba ba ca c1 3f 3b
       0.0001707219 0.000844334 -0.0014194937 0.0029259794
0001c0 60 af ee 39 80 1f 1a 39 44 a5 f6 3a 9c 99 04 bb
       0.00045525562 0.00014698319 0.0018817564 -0.002023316
0001d0 50 af e5 3a ac c9 a5 ba da 92 19 bb 00 49 65 ba
       0.0017523561 -0.0012648604 -0.0023433478 -0.00087465346
0001e0 ed 76 9b ba f6 b4 33 3b 80 4a c5 39 3a 5b 07 bb
       -0.0011861004 0.0027421094 0.00037630275 -0.002065374
0001f0 75 7c 12 bb 5b 23 c5 ba 1f a1 42 bb a0 55 12 b9
       -0.0022352014 -0.0015040444 -0.0029698086 -0.00013955543

fc3.bias f4 [2]
000000 08 ee e4 bd 74 8d 80 bd
       -0.11178213 -0.0627698
