multi_checkpoint_critic1.pth (torch_old, 31392 bytes, 5 tensors)

fc1.weight f4 [64, 48]
000000 66 8b b8 3d 88 0d ce 3d a6 c7 85 bd 2c a5 db 3d
       0.09010963 0.10061175 -0.065322205 0.107248634
000010 88 43 1a bd 06 c4 f8 bd 00 af a5 bc 12 3b c1 bd
       -0.03766206 -0.121467635 -0.020225048 -0.09435095
000020 f8 92 d5 3c 68 e1 c5 3c 70 de 61 bd f4 a1 13 bd
       0.026071057 0.024155334 -0.055143774 -0.036043122
000030 f0 ea 16 3d ba 28 8c bd 4c 80 52 3d 3c 93 bd bd
       0.036845148 -0.068437055 0.051391885 -0.09256598
000040 f3 44 98 3d 55 56 72 bd fa ad d5 bd e0 75 c4 3c
       0.07435026 -0.059164364 -0.10433574 0.023981988
000050 46 53 3d 3c e9 91 bf bd 1e 0d e1 3d 5c b2 38 bd
       0.0115554985 -0.09354002 0.1098883 -0.04509197
000060 10 b2 a8 3d 20 3a 04 bd 68 32 ab 3d a8 d1 76 bd
       0.08237088 -0.032281995 0.083592236 -0.060258538
000070 ec ef b1 bd a8 f7 d0 bd e8 ae 82 bd fa a7 8b bd
       -0.086883396 -0.10203487 -0.06381017 -0.06819148
000080 58 94 69 3d e8 fa a8 bd 38 8b ad bc 2c 05 3a bd
       0.057026237 -0.082509816 -0.021184549 -0.04541509
000090 98 4e 41 bd 80 dd 7a bc 52 41 8d 3d 00 26 53 bd
       -0.047194093 -0.015311599 0.068972245 -0.05154991
0000a0 b2 32 d3 bd 67 eb ae 3d 34 c2 94 bd 68 a9 b0 3d
       -0.10312404 0.08540993 -0.07263604 0.08626062
0000b0 16 ed 35 bc 86 18 83 bc c8 1b f0 3d a8 56 b8 3c
       -0.011103889 -0.016002905 0.11724049 0.022502258
0000c0 6b 78 d9 bd ec 1e 94 bd 30 fc e1 bd 16 99 32 bd
       -0.10618671 -0.072324604 -0.11034429 -0.043603025
0000d0 79 9a 7d 3a a6 74 49 3b c8 22 92 3d 89 f1 87 bd
       0.00096742023 0.0030739694 0.0713554 -0.06637866
0000e0 fa 0b a5 3d bd 74 23 3e 5d 79 eb 3c bd 12 a8 bc
       0.08058925 0.15962501 0.028744394 -0.020516748
0000f0 64 40 1c be af 13 b7 3d c0 ff 03 bc 0e 39 64 3d
       -0.15258938 0.08939301 -0.008056581 0.055718474
000100 c9 bc 8b 3c 9f 94 0e 3e 75 ac 60 bd af fa 7a 3d
       0.017057793 0.13923882 -0.054851968 0.061274227
000110 2a 6d f9 bd 45 bc 89 3d d0 13 f2 bc 21 8a f1 bc
       -0.121790245 0.06725363 -0.029550463 -0.02948481
000120 5f f1 41 3d 33 64 b6 3d 53 2f 56 3d 32 e6 5b 3d
       0.04734933 0.0890583 0.052291226 0.05368633
000130 64 d5 a0 3d f8 2a 08 be 5f c9 4a 3b 01 ff aa 3d
       0.07853201 -0.13297641 0.003094278 0.083494194
000140 41 d7 e7 3d fa e0 58 bd ee 39 20 bd da 64 61 bd
       0.11320353 -0.05294893 -0.039117746 -0.05502782
000150 98 1f a7 bc dd a1 db bd 80 0c 11 bc d7 68 97 3d
       -0.020400807 -0.10724232 -0.008853078 0.073930435
000160 ba 1c 1d bb 43 96 a4 3d e6 18 09 3d c4 45 fa bd
       -0.0023973421 0.08036473 0.03347101 -0.12220338
000170 d6 fe 57 3d fd 01 31 bd 9e 1b b3 bc 8e 6e fa bd
       0.052733265 -0.043214787 -0.021863755 -0.12228118
000180 47 f9 ee 3c a4 8d ba bc 4c e7 78 3c 93 44 5b 3b
       0.0291716 -0.022772618 0.015191864 0.0033457621
000190 2d b9 91 bd 56 5b 70 bd 8a d6 e1 3d 42 31 a5 bd
       -0.071153976 -0.058680855 0.11027248 -0.08066036
0001a0 f3 e6 e1 bb 93 68 5f bc f4 0f c8 ba f2 7b 04 3e
       -0.0068939864 -0.013635772 -0.0015263543 0.12937906
0001b0 f6 de 93 3d ca a4 a9 3d 6f 60 96 bc 49 c0 3b 3c
       0.07220261 0.08283384 -0.01835653 0.011459419
0001c0 41 51 8a 3d 49 53 ac 3d 0c 1e 9e bd b0 a5 61 3c
       0.06753779 0.08414323 -0.07720575 0.013772413
0001d0 59 4f d2 bd 1f a6 eb bc 97 df 85 bc d3 76 d6 bc
       -0.102690406 -0.028765736 -0.016341968 -0.026179707
0001e0 9e b5 74 bc b7 82 8d bc 5f fc a5 3c a9 10 8b bc
       -0.014935879 -0.017274244 0.020261941 -0.016975718
0001f0 44 3b 93 bc 58 10 d3 3d 73 b4 cf bc e8 49 d7 3d
       -0.017972596 0.10305852 -0.0253546 0.105121434
000200 be 11 6d bd 17 42 0a bd 5d a5 a3 3d a0 b7 b9 3d
       -0.05787825 -0.033754434 0.07990525 0.09068227
000210 34 99 62 bd 10 6b 9c 3d f5 7a a3 bb 90 19 87 3d
       -0.055321887 0.07637608 -0.004989023 0.065966725
000220 ec 93 9a 39 99 6d e6 3d 1f 1b 68 3d cc c6 03 3e
       0.0002948338 0.11251373 0.05666649 0.12868804
000230 fa d2 87 3c 04 3f dd 3d c2 b4 99 3d d4 51 07 3e
       0.016580094 0.10803035 0.0750518 0.13214809
000240 78 28 9a bc e9 8e 00 be eb db b6 3d a9 01 74 bd
       -0.018818125 -0.12554516 0.08928665 -0.059571896
000250 0d 08 ca bd 0a bb 0b 3d a3 7b ce bc 43 ef 1c bd
       -0.09864817 0.03411392 -0.025205439 -0.038314115
000260 0a 17 dc 3d 86 6e 36 bc 56 2f 8b bd dc 22 68 3d
       0.10746582 -0.011134749 -0.06796138 0.05667387
000270 d5 dc a8 3d 48 98 a4 bd b9 6d fb bc 57 90 06 be
       0.08245245 -0.08036858 -0.030691968 -0.13140999
000280 f4 51 73 bd 3a 1e a7 ba 29 29 af 3a c5 d5 95 bd
       -0.05940433 -0.0012750097 0.0013363707 -0.07316164
000290 91 b4 e8 bb 56 5d c7 bd 62 73 e2 bd 48 2f 06 bd
       -0.0071016033 -0.09734599 -0.11057164 -0.032759935
0002a0 5b 11 39 bb a4 ae 45 3d fc fd 8c 3d 3e b1 24 3e
       -0.0028239104 0.048262253 0.06884381 0.16083238
0002b0 32 a1 22 ba d9 de 8f bd 00 eb 4a bd b3 9b 6e bd
       -0.00062038295 -0.07024927 -0.04954052 -0.058253955
0002c0 5a 2f 3f bc 55 e0 2a 3d f7 9b ad 3c 4c b1 08 3d
       -0.011669004 0.041717846 0.021192534 0.03337221
0002d0 d3 e8 89 3d 74 79 a8 3d 63 7c 9c bc 9f ad b8 3d
       0.06733861 0.0822629 -0.019102281 0.090174906
0002e0 f9 fe 89 3d cf c0 ee bd c4 be f7 bb ea 4d 11 3d
       0.06738085 -0.11657869 -0.007560583 0.035474695
0002f0 74 c8 50 3b c0 d8 04 3e 41 45 dc bd 37 60 ec bb
       0.003185776 0.12973309 -0.10755397 -0.007213618
000300 74 d1 10 3e 1f dc 8f bd 44 44 e3 bc bc 01 c6 3d
       0.141424 -0.07024407 -0.027742513 0.096682996
000310 83 21 30 3d 8a f3 ad 3d ce 69 92 3c bc 4a b0 3d
       0.04300071 0.08493717 0.017872717 0.086080045
000320 0f d6 ab bd 63 2a 7d bd f4 6a d2 3d b2 d5 98 bd
       -0.08390438 -0.061808 0.10274306 -0.07462634
000330 3a 4f c0 bc 6a 1f 78 bd 40 39 53 3e 2d 97 be bc
       -0.023475278 -0.060576834 0.20627308 -0.023265446
000340 88 ab 89 3d 0f eb 0d 3d 22 02 07 3e dc 94 a0 3b
       0.0672217 0.034647997 0.13184407 0.004900558
000350 b6 8b 4b 3d 0e 37 cb bd fb 51 a1 bd 4f e3 8b 3d
       0.049693786 -0.0992261 -0.07876965 0.06830465
000360 8f 3b c6 3d f4 e8 61 bd e9 c4 06 3e 05 ec 59 3d
       0.09679329 -0.055153802 0.13161053 0.0532036
000370 81 5c 50 bd 27 e5 3f 3d 45 80 1f 3e ad 4d a4 bc
       -0.05086947 0.046849396 0.15576275 -0.02005657
000380 19 e9 ef 3d 15 02 e8 bc 41 44 06 be 26 72 ad bd
       0.11714382 -0.028321305 -0.13111974 -0.08469038
000390 ce a7 a9 bc 81 96 d5 3d 7e a7 1e 3d 26 91 f9 3d
       -0.020709898 0.10429097 0.03873395 0.12185888
0003a0 97 11 ac 3d 24 58 11 3c 9c 78 83 bd ed 4b e1 bd
       0.084017925 0.008871112 -0.06419489 -0.1100081
0003b0 ae 37 a8 bc d8 8a 8e bd fc 0a 06 3e 10 de d9 bc
       -0.020534363 -0.06960076 0.13090128 -0.026595145
0003c0 50 86 77 bc e0 bc b9 3c ac 26 d2 3d c0 bb 52 bc
       -0.015107706 0.02267307 0.10261282 -0.012862146
0003d0 86 3f 86 3d d0 9d b0 bd 32 e6 f3 bd 30 1b 9d bc
       0.06555085 -0.0862385 -0.11909141 -0.019178003
0003e0 e8 93 6a 3d 12 5d a0 3d ec ae 3a 3d d2 06 c2 3d
       0.05726996 0.07830252 0.045576975 0.09473957
0003f0 18 86 96 bd b8 45 e6 3c 8e fe d4 3d 58 73 9e bd
       -0.07349795 0.028109416 0.10400115 -0.07736844

fc1.bias f4 [64]
000000 1c c6 09 3e 72 6c 5c 3d 5a f5 11 be 30 68 09 bd
       0.13454479 0.05381436 -0.1425375 -0.033546627
000010 92 d7 8c 3d 60 c0 a8 bd c8 2c e8 3c 84 9e 87 bd
       0.06877054 -0.082398176 0.028341666 -0.06622031
000020 f0 57 35 3d fa 37 24 3d 1e dc 0c 3d ba 55 d4 3d
       0.044273317 0.040092446 0.034389608 0.103679135
000030 ce 13 7b bd 03 62 90 3d c5 8c 50 bb 54 c8 c9 bd
       -0.061298184 0.07049944 -0.0031822186 -0.09852663
000040 da d1 c9 bd 4c 5e 30 3e 83 ca 9d bd d3 b1 1d 3e
       -0.09854479 0.17223471 -0.07704642 0.15399866
000050 c9 7e 3a 3d 80 74 be bb 63 d5 e8 bd 4e 9b 04 3d
       0.045531068 -0.0058122277 -0.11368825 0.032374673
000060 71 d0 9b bd fe 8f 1e 3d a0 cf 8d bd e3 97 a9 3d
       -0.076081164 0.03871154 -0.06924367 0.08280923
000070 88 e3 36 be 46 a6 f7 bb 17 e6 2b 3d 84 cd 45 bc
       -0.17860234 -0.007557663 0.041967478 -0.0120729245
000080 6d a3 be 3d a5 3d 88 bd a9 7a 01 be 97 ad b0 3d
       0.09308515 -0.06652383 -0.12644447 0.0862686
000090 e5 0c ce 3c 04 ba c2 3d 57 7b af bd 39 70 b3 bd
       0.025152633 0.09508136 -0.08568447 -0.08761639
0000a0 bd fe ab bd eb 19 13 bd 43 0c ba 3c f1 d5 f2 bd
       -0.08398197 -0.03591339 0.022710925 -0.11857212
0000b0 76 5f db bb 58 b5 3d bc 0c 06 ef 3d 17 9f 7f bd
       -0.0066947294 -0.01157888 0.11671075 -0.06240758
0000c0 3a c4 d3 3d 31 5f fa bd 3f a0 da bd 6a 9c a0 bd
       0.103401616 -0.122251876 -0.10675096 -0.078423336
0000d0 4a 0a 05 3e 9d d0 ab bd 9a 38 bb 3d 3d 1b 3a bd
       0.12992206 -0.08389399 0.09141655 -0.045436133
0000e0 81 68 fb 3d 77 58 b7 bc fe 56 ea bd 95 28 e9 bc
       0.12275792 -0.02238105 -0.11442374 -0.028461734
0000f0 92 a4 0f 3d a9 83 db bd 23 d0 dc 3c 89 6d ee 3d
       0.035069056 -0.107184716 0.026954716 0.11641986

fc2.weight f4 [64, 68]
000000 24 35 50 3d c3 2c 81 3b 51 94 df bd af 2e 81 bc
       0.05083193 0.0039421036 -0.10916961 -0.01576933
000010 a8 f7 4a 3d 84 98 9d bd b2 45 d9 3d 04 16 00 be
       0.04955259 -0.07695106 0.106089965 -0.12508398
000020 be a0 8d 3d be bb 70 3a 57 7b bf bd e0 b0 c8 3d
       0.06915425 0.0009183249 -0.09349697 0.09799361
000030 a5 6d 2f bd 8d 0d 8e bc ab 30 50 bd 64 03 06 be
       -0.042829175 -0.017340446 -0.050827663 -0.13087231
000040 a6 d0 9c 3d e7 52 b8 bd cb 8c e5 3c 49 f5 39 3d
       0.07656984 -0.09000187 0.028021237 0.045399938
000050 a5 82 81 3d 80 b9 36 3d b3 51 ba 3c d0 5d f5 bd
       0.063237466 0.0446105 0.022744035 -0.11980784
000060 c6 fa 8c bc 28 cb 46 bd 65 20 9e 3d d2 c0 13 3d
       -0.017209422 -0.04853359 0.077210225 0.03607256
000070 1e 10 32 bb 6d 31 cb bd 3e a4 d8 bd 67 40 e8 bd
       -0.002717025 -0.099215366 -0.10578202 -0.11340409
000080 11 df 81 3d fd f0 90 3d 5c 85 f4 bd de ce e8 bd
       0.06341375 0.07077215 -0.11939499 -0.11367582
000090 07 80 bf 3d 54 7c 4e 3d 86 e9 32 be 37 55 9d bc
       0.09350591 0.050411537 -0.17471895 -0.019205673
0000a0 ed 67 a7 3d 8a 73 b3 3c 8a 9d b7 bc e6 b8 73 bd
       0.08174119 0.02190568 -0.022413988 -0.059502505
0000b0 a3 eb 3c bd 94 8d 4f bd 85 3b ce bd 8b 8d aa bd
       -0.04612316 -0.05067213 -0.10069946 -0.083277784
0000c0 a4 42 86 3d 3e 10 d8 3a f5 dd 80 3c 41 6e cb bd
       0.065556794 0.0016484333 0.015730837 -0.09933139
0000d0 d0 ed 88 bc 5c b3 1e 3d f6 fc 39 3d 05 4f 81 bc
       -0.01671496 0.03874527 0.045407258 -0.01578475
0000e0 f2 f9 86 bd 7b e1 dc 3d 97 f6 1c bd f6 61 95 bd
       -0.06590642 0.107851945 -0.038321104 -0.07294075
0000f0 9c f5 99 bc 52 08 39 bd 35 15 8b bb 87 fc 23 bd
       -0.018793873 -0.04517395 -0.0042444714 -0.04003575
000100 14 50 bd bd 80 78 96 bc b7 9b a3 3d e5 42 0a be
       -0.09243789 -0.018368006 0.079886846 -0.1350208
000110 a8 d5 32 3d 49 da 4e 3c 4a 20 b2 bd 95 c7 b3 3d
       0.04366079 0.012625285 -0.08697565 0.087783016
000120 d8 3e a7 3d d0 2f 23 3d f4 68 4c bd 95 de 84 3c
       0.08166283 0.03984052 -0.04990478 0.016219417
000130 0c b8 6c 3d 6c d4 ae bc 98 99 5d bd 00 ab 1c 3b
       0.05779271 -0.021341525 -0.054101557 0.0023905635
000140 cd 37 db bd 96 33 b4 3d da d3 42 3c a7 e9 60 bd
       -0.107040025 0.08798902 0.01189133 -0.05491033
000150 b0 12 43 3c 95 2e 95 bd 11 bb 06 bd 62 ef a3 bd
       0.011906311 -0.072842754 -0.032893244 -0.08004643
000160 65 cd f0 3c 00 36 78 3d d7 6f 28 bd ec c3 89 3d
       0.029394815 0.060598373 -0.041122284 0.06726822
000170 4c 90 b5 3d a8 51 e7 bd 38 b2 a6 bd 3f 8e 16 3c
       0.08865413 -0.112948716 -0.08139461 0.009189188
000180 5e b7 88 bd af 5b 90 3d 2f a6 c8 3d b4 d5 8f bd
       -0.066755995 0.07048737 0.09797322 -0.070231825
000190 30 02 7b 3c 05 e8 dd 3b a2 e1 d6 3d e2 fb cc bd
       0.015320346 0.0067720436 0.10492255 -0.1000898
0001a0 84 89 15 3d ac 2b b6 bd 4e 5d da bd 42 b9 e0 3d
       0.0365081 -0.088950485 -0.10662328 0.10972835
0001b0 1e 14 91 3d 8b 5d 03 be 1e 11 99 3d fa 7a bb bd
       0.07083915 -0.12828653 0.07473968 -0.09154315
0001c0 bd d0 d3 3d 97 8e 05 3c c8 70 31 bd b0 d6 3e 3c
       0.10342548 0.008151672 -0.043320447 0.011647865
0001d0 b8 04 de bc cf d1 82 bb 6c 73 bd bd a9 80 71 3d
       -0.02710186 -0.0039922963 -0.092505306 0.05896059
0001e0 cb e0 d4 bd 10 b8 0c 3c c9 81 bb bd 6b 66 8e bd
       -0.10394438 0.008588806 -0.09155614 -0.069531284
0001f0 70 fb 6a 3c c0 05 38 3c 51 84 ea bd a4 85 ec 3c
       0.014342174 0.01123184 -0.114510186 0.028872319
000200 7b 90 07 3d 5c ad 6c bd 20 cf 6a 3c 01 74 89 bd
       0.03309677 -0.057782516 0.014331609 -0.06711579
000210 ff c8 db bd ac a3 a7 bc 60 53 aa 3d e8 e8 a6 3b
       -0.10731696 -0.020463787 0.08316684 0.0050936826
000220 02 38 b5 bd 7a 3c 98 3d e1 ff 55 bd a9 1b 06 be
       -0.08848573 0.0743341 -0.05224598 -0.13096489
000230 87 58 27 3d ba ad d1 bd 42 0f a6 3d ff 47 1b bd
       0.04085591 -0.10238214 0.08108379 -0.037910458
000240 02 ae 62 bc 77 c5 e9 bd c0 c9 04 3d 09 42 d8 bc
       -0.013835432 -0.114146166 0.032418966 -0.026398676
000250 f6 bb 2f bd dc 9f dc 3c ef 96 00 be 71 11 d6 bd
       -0.042903863 0.026931696 -0.12557577 -0.104525454
000260 56 41 e9 bd cf 9a 95 bd 70 74 81 3d 17 1c 16 3d
       -0.11389415 -0.07304918 0.06321037 0.036647882
000270 f4 2e 7a 3c 4c 01 4a bd 53 d2 9b bb ea e6 57 3d
       0.015269984 -0.049317643 -0.004755297 0.05271045
000280 1d a7 9b bd 7c 05 13 be 2e 74 c1 bc 5f 6a 4c bd
       -0.07600234 -0.14357561 -0.02361497 -0.04990613
000290 72 13 b0 3d e2 9c 01 3e db 98 e4 bc d8 83 38 3d
       0.08597459 0.12657502 -0.027904918 0.04504761
0002a0 93 12 cb bd 3b 5c b5 bd 24 fa bc bd e8 2b f7 bc
       -0.09915652 -0.08855482 -0.09227398 -0.030172303
0002b0 99 a4 bb bd e0 93 b0 bb f4 a0 6a bd e7 19 93 3d
       -0.09162254 -0.005388722 -0.057282403 0.07182675
0002c0 96 2d e4 bd 44 cd 82 bd 3b fd a2 3d 2a 89 88 3d
       -0.11141507 -0.063868076 0.07958456 0.06666787
0002d0 ae df 5b ba fe 0b ad bd 1e 6c e8 bd b0 9b b2 3d
       -0.0008387518 -0.08449553 -0.11348747 0.08721101
0002e0 18 e0 fa bc 57 39 97 bd 92 75 db bc 1e d1 54 bd
       -0.030624434 -0.073839836 -0.02678946 -0.051957242
0002f0 9d 4a ca 3c e6 e7 c0 bd 70 7c c3 bc fd f4 90 3d
       0.024693782 -0.09419231 -0.023863047 0.07077978
000300 a6 de f8 3a 9c 63 46 3d 54 19 01 3d cd 02 0d be
       0.0018987253 0.04843484 0.031518295 -0.137706
000310 4d 42 14 3b be 9a 93 bd 4a 7d d6 bd 6d 5e 02 bd
       0.0022622526 -0.07207249 -0.10473116 -0.031828333
000320 ed 58 e3 3d 97 57 ca 3d d2 62 06 3e bf dc 0d 3e
       0.111009456 0.09879988 0.13123634 0.13853739
000330 6b fe f3 3c f6 0e 89 bd 09 64 fa 3c e3 b2 cb bd
       0.029784402 -0.06692307 0.030565279 -0.09946229
000340 42 d2 b7 3d 94 1d e5 3d 06 6b d2 3d e0 26 d3 3c
       0.0897565 0.11187282 0.10274319 0.025775373
000350 07 5a 5d bd 54 41 8f bd 25 ce 9d bd 6b 9e 15 be
       -0.054040935 -0.06994882 -0.077053346 -0.14611213
000360 d6 a1 be 3d f5 ba 83 bd 61 42 a5 bc b3 28 6d bd
       0.093082115 -0.064321436 -0.020173253 -0.057900142
000370 27 49 6b 3c d3 57 1e be 12 5d 3d bd 8c 2a 31 3d
       0.014360703 -0.1546319 -0.046231337 0.043253466
000380 b5 1b 96 bd 90 21 c3 3c c8 35 a5 3c e9 76 66 3d
       -0.073295034 0.023819715 0.020167246 0.056265745
000390 a4 87 0a be 03 ab 9b bd 0e 89 dc bd 9d 62 b6 bd
       -0.13528305 -0.07600977 -0.107683286 -0.08905528
0003a0 36 02 a1 bd 62 3f e0 bc 51 78 34 3d 14 1f 56 bc
       -0.0786175 -0.027373973 0.044060055 -0.013068933
0003b0 e3 b7 46 bd 38 a3 a3 bc ef f4 04 be df 06 ee 3d
       -0.04851521 -0.01997529 -0.1298406 0.11622404
0003c0 30 88 64 3c c8 2d db bd 91 35 01 be cc aa b4 3d
       0.013948485 -0.107020915 -0.1261809 0.088216394
0003d0 21 e8 3b 3d 5b 08 89 3d 3a fb b3 3d 4f 57 a3 3d
       0.045875672 0.06691047 0.08788152 0.07975637
0003e0 6e 96 1a bd 05 19 06 3a 70 89 7c 3c ff 14 df bd
       -0.037741117 0.00051154225 0.015413627 -0.108926766
0003f0 6f 26 97 bc 9e 88 af bd e2 a0 c6 3d 62 3d 36 3d
       -0.018450944 -0.085709795 0.09698655 0.044492133

fc2.bias f4 [64]
000000 03 cf 4c 3d 69 cc ca 3d 3e e5 44 3c 97 89 2e be
       0.05000211 0.099022694 0.012017546 -0.17044674
000010 ef b1 25 3e ec f8 88 3d 30 ba 54 bb a8 d8 9e bd
       0.16181158 0.06688103 -0.003245961 -0.07756168
000020 bd 8f 0b be dc 92 61 3d 63 4a bf bd 5c 40 15 3e
       -0.1362905 0.055071697 -0.0934036 0.14575332
000030 88 16 12 be 90 24 0d 3d 1a 54 c7 bc 09 89 54 bd
       -0.14266407 0.034458697 -0.024332095 -0.0518885
000040 45 f9 15 bd 9e d3 03 3d 6d 26 11 be 8a d4 68 3d
       -0.036614675 0.032184236 -0.14174815 0.056843318
000050 30 cd 18 bd 53 cd d1 3c bc 52 93 bd 7d 32 58 3d
       -0.037305057 0.025610602 -0.07193515 0.052782524
000060 a3 aa 3c 3d 4a 11 9e bd 46 14 9c bd 8e 20 b0 bd
       0.04606117 -0.077181414 -0.07621054 -0.08599959
000070 68 3b 50 3d 8c 12 1d be 8f 95 33 3c cb 38 b9 bd
       0.050837904 -0.15339106 0.0109609505 -0.090440355
000080 67 b5 67 bd c7 fa 9b 3d f0 d7 8c bd b7 51 1f bd
       -0.056569483 0.07616191 -0.06877124 -0.03889629
000090 40 44 c8 3c db 8a ba 3d 44 15 36 3c c3 ef c8 bc
       0.024446607 0.09108516 0.011113469 -0.02452839
0000a0 67 70 d5 3b 00 5d 6c 3d 53 fe 2d 3b ba 5e 13 bd
       0.0065136435 0.05770588 0.0026549294 -0.03597901
0000b0 a3 c0 d9 3c b5 72 40 bd d6 ac 5d bd 07 94 66 3b
       0.026581114 -0.046984393 -0.054119907 0.0035183446
0000c0 14 81 b4 3b 74 4e ee bd b6 65 a8 bd 85 38 7e 3d
       0.0055085514 -0.116360575 -0.08222525 0.06206562
0000d0 54 77 99 3d c4 73 13 be 46 8b d4 3d 77 bb a2 bd
       0.07493463 -0.1439963 0.10378127 -0.07945912
0000e0 b1 93 fd 3c 65 15 1e 3e 77 ca ca bd 2c a5 61 bd
       0.030954214 0.15437849 -0.09901898 -0.05508916
0000f0 02 c4 a9 3b d2 ac d3 bd 64 de ff bc b4 6e 99 bd
       0.0051808367 -0.10335697 -0.031233974 -0.07491818

fc3.weight f4 [1, 64]
000000 93 1f 04 3c ec a1 ec b9 79 43 15 3a a9 d1 18 bb
       0.0080641685 -0.0004513407 0.0005693953 -0.0023318327
000010 96 92 76 3c 7e a3 de 3a 9d e3 6d 3b b6 d7 9a bc
       0.015049597 0.001698598 0.0036298998 -0.018901687
000020 a5 b6 87 bb fb 10 02 3a 11 84 89 bb 36 de 16 3b
       -0.004141646 0.0004961637 -0.0041966517 0.0023020632
000030 8f 08 14 bc dc 58 38 bb 59 8c b6 3b 3e 24 37 bb
       -0.009035244 -0.0028129136 0.00557093 -0.0027945186
000040 d1 c8 c1 3b 19 3a 4c bc 72 1f e8 bb 08 92 b0 3b
       0.0059138318 -0.012465023 -0.0070838267 0.005388502
000050 6c 96 85 3a 15 cf f6 3a 17 29 70 3c fd 4b 1d 3a
       0.0010191924 0.0018830026 0.014658234 0.0006000398
000060 44 8c 52 3b 16 72 3b bb a1 80 16 3b 36 5a 8e 3b
       0.0032127062 -0.0028601936 0.0022964852 0.00434425
000070 ce 22 03 39 db 87 ce bb ad 5b be bb 42 24 42 bc
       0.000125061 -0.0063028163 -0.0058092684 -0.011849465
000080 ab 1e 6f ba 36 6e 3a 3c 3d c4 b1 bb 7c 2b 22 3b
       -0.00091216963 0.011378815 -0.0054250048 0.0024745157
000090 01 04 8b 3b 35 bc 35 3b 3c 02 88 3c c2 5d bc 3b
       0.0042424207 0.0027730588 0.016602628 0.0057484815
0000a0 9a 06 ea 3b cd e8 aa 3a f3 be 55 3c b5 f2 ce 3a
       0.0071419002 0.0013039351 0.013046014 0.0015788885
0000b0 9f ce 1d 3c cf 61 22 bb ab 8a bd 3b 32 91 18 3b
       0.009631782 -0.0024777537 0.005784353 0.0023279903
0000c0 82 b3 a7 bb 74 03 38 3c f6 72 26 3b 0f d4 ab bb
       -0.0051178345 0.011231292 0.0025398112 -0.005243785
0000d0 68 4b 6e 3b f0 7c 9d 3c cf 87 89 bc d3 2f b7 bb
       0.0036360864 0.019224614 -0.016788391 -0.005590418
0000e0 d8 9e 20 bc 61 cf c4 3b 7b 7d 84 38 87 85 3a bc
       -0.009803496 0.006006167 6.317623e-05 -0.011384374
0000f0 e4 5f 6b b9 bd 9a 94 3b eb 95 08 3c 93 ad e5 ba
       -0.00022447068 0.004535048 0.0083365245 -0.0017523043
