No_multi_checkpoint_critic1.pth (torch_old, 159653 bytes, 5 tensors)

fc1.weight f4 [256, 24]
-0.008179124 -0.103564516 0.026803495 -0.018440818 -0.11456186 -0.05847979 -0.020964427 0.049154554
-0.016556231 -0.06748769 -0.056984607 0.030128278 -0.007329295 -0.04053077 0.042855415 0.038370576
0.023100128 -0.15494907 0.052264854 0.03325005 -0.0126018245 -0.10911457 -0.043071173 0.060696535
0.07650608 0.06779336 -0.0022959255 0.05382976 -0.07503667 -0.010120723 0.042382147 0.03258615
0.0042771553 0.05194014 0.017743291 0.027321037 -0.053823326 0.021609917 -0.018301167 0.025267579
0.06137218 0.004445369 -0.029013844 -0.10762006 0.05241669 0.0005223379 0.013402991 -0.07970935
0.059876796 0.0014827464 0.010158993 -0.040365603 -0.063955866 -0.08999868 0.031463955 -0.02695397
0.003332391 -0.000797744 -0.016472306 -0.03887575 0.008579761 -0.09410816 -0.0021256867 0.037670814
0.021421188 -0.0539148 0.03487819 0.0589217 0.026540117 -0.15192434 -0.024376001 0.061375286
0.049684566 0.071584485 0.0065775993 0.008500641 -0.035639398 0.11358282 0.017658971 0.028714277
-0.0049446966 0.08499566 -0.012772688 0.035972767 0.0016470603 0.012053665 0.051191643 -0.041708454
-0.07341813 0.05491521 0.0071600885 0.03256107 0.069794476 -0.14408599 0.022190738 0.024386046
0.109483436 0.021510325 -0.019759275 0.03519178 -0.050775655 -0.052590895 0.040934797 -0.010076967
-0.006846517 0.1272166 -0.009209742 -0.047586996 0.030268554 -0.060940042 -0.031025153 0.049366105
0.09470278 0.08778053 -0.004693172 -0.0083691 0.041707106 -0.14325106 0.036670357 -0.050747536
0.11329507 -0.032689396 0.019226661 -0.0038891365 0.011395271 0.086522445 -0.021612482 -0.045253582
0.101198494 -0.15128322 0.02405477 -0.0012876746 -0.04684346 0.12990782 -0.0006795272 -0.024873536
0.042885713 -0.07646213 -0.0095827 0.013039375 -0.11506059 0.11907456 0.0060329316 -0.059985064
0.051905286 0.15645236 -0.046069384 0.03244837 -0.012929153 0.035145342 -0.0054392754 0.08595781
0.030942814 0.14164397 0.037254196 0.02208628 -0.027868927 -0.051579602 -0.04428074 -0.024735743
0.04203113 0.1447241 -0.027767837 -0.033079457 0.017826533 -0.107637055 -0.030387826 0.00823093
0.0006000425 0.11262259 -0.009270589 -0.0011892974 0.025819413 0.005483839 0.02459555 0.021441186
0.009703624 0.049991995 -0.044854246 -0.070904516 -0.015193227 -0.060395427 0.026712218 -0.0011100338
-0.02696743 -0.002121039 -0.0037068361 0.025289176 -0.102746665 0.0045608487 0.01791009 -0.010260649
0.054194186 0.045053005 -0.027327789 0.034679573 0.06737572 -0.03553701 -0.006211294 0.010432106
-0.008563925 0.03196788 0.035001878 0.03822625 -0.00010540091 0.026501467 -0.048716653 -0.04051367
0.02780418 -0.028101273 -0.01360226 0.02079895 0.029289283 0.020040631 -0.011698925 -0.0036825829
-0.065045916 0.08504204 -0.021524722 0.0078122914 0.0036348498 -0.036300637 0.046442196 -0.00015807332
0.041668262 0.018590724 0.04958666 -0.028544229 -0.014363057 -0.014386621 -0.018645238 -0.039036997
-0.032624274 0.08899804 -0.046834815 0.013436048 -0.010633498 -0.007866932 0.033916455 -0.022596449
-0.042414103 0.12234239 0.02931783 -0.060280394 -0.051513385 0.050562177 0.016185507 -0.011123791
-0.028710827 0.061259277 0.05031432 -0.003934339 0.04174972 -0.06150937 -0.034131426 0.009077459
00000000: bc01 06bc a219 d4bd 0193 db3c 3311 97bc
00000010: 699f eabd 8188 6fbd 97bd abbc 4956 493d
00000020: efa0 87bc fc36 8abd b168 69bd 94cf f63c
00000030: 952a f0bb 9803 26bd 2989 2f3d 772a 1d3d
00000040: 7b3c bd3c f8aa 1ebe ac13 563d 3431 083d
00000050: e277 4ebc 7677 dfbd 666b 30bd ee9c 783d
00000060: 38af 9c3d 3fd7 8a3d 3d77 16bb 987c 5c3d
00000070: d3ac 99bd 64d1 25bc e798 2d3d 0e79 053d
00000080: 6127 8c3b 2fbf 543d 615a 913c 5ed0 df3c
00000090: d975 5cbd 4807 b13c 54ec 95bc f4fd ce3c
000000a0: 6561 7b3d 75aa 913b 71ae edbc e867 dcbd
000000b0: e2b2 563d 81ed 083a 3898 5b3c a83e a3bd
000000c0: 5f41 753d b758 c23a e871 263c 6756 25bd
000000d0: 4bfb 82bd 3a51 b8bd 59e0 003d 92ce dcbc
000000e0: 3e64 5a3b b21f 51ba eef0 86bc 2e3c 1fbd
000000f0: 2092 0c3c c7bb c0bd 1b4f 0bbb b64c 1a3d
00000100: 7d7b af3c c4d5 5cbd 6fdc 0e3d e157 713d
00000110: a96a d93c 0e92 1bbe 2eb0 c7bc a764 7b3d
00000120: 0b82 4b3d e39a 923d e788 d73b 4646 0b3c
00000130: 9efa 11bd 1c9e e83d 8ca9 903c 343a eb3c
00000140: 1f07 a2bb 3412 ae3d 8944 51bc 2e58 133d
00000150: 2ce2 d73a bc7c 453c 54ae 513d 7cd6 2abd
00000160: 3f5c 96bd c5ee 603d 2d9f ea3b c25e 053d
00000170: 68f0 8e3d 478b 13be 5ac9 b53c 3fc5 c73c
00000180: da38 e03d 6c36 b03c 34de a1bc 4225 103d
00000190: 22fa 4fbd 8d69 57bd 3fab 273d dd19 25bc
000001a0: bf58 e0bb 1245 023e 75e4 16bc 95ea 42bd
000001b0: c2f5 f73c 449c 79bd 7628 febc 1d34 4a3d
000001c0: 88f3 c13d 47c6 b33d 2ec9 99bb 8d1e 09bc
000001d0: 12d5 2a3d 68b0 12be a833 163d a6dc 4fbd
000001e0: 3f07 e83d 51e5 05bd 3b81 9d3c e2e0 7ebb
000001f0: 3bb3 3a3c ae32 b13d a90c b1bc d25b 39bd
00000200: 2841 cf3d fde9 1abe 820e c53c 31c7 a8ba
00000210: eede 3fbd 8e06 053e 4c22 32ba 96c3 cbbc
00000220: eea8 2f3d 2d98 9cbd c200 1dbc 1aa3 553c
00000230: e3a4 ebbd 5ddd f33d e6af c53b e6b2 75bd
00000240: a39a 543d 0c35 203e 40b3 3cbd 95e8 043d
00000250: ccd4 53bc 90f4 0f3d f33b b2bb a60a b03d
00000260: c97b fd3c 1e0b 113e db97 183d 49ee b43c
00000270: 604d e4bc 2245 53bd b95f 35bd 9da2 cabc
00000280: d628 2c3d 8e32 143e 6079 e3bc 537e 07bd
00000290: f308 923c d170 dcbd e4ef f8bc 06db 063c
000002a0: 2c4c 1d3a aca6 e63d abe3 17bc 33e2 9bba
000002b0: 3c83 d33c c7b1 b33b 9b7c c93c 6da5 af3c
000002c0: f3fb 1e3c 68c4 4c3d 16b9 37bd 6336 91bd
000002d0: 03ed 78bc 3261 77bd 95d3 da3c 8e7e 91ba
000002e0: cdea dcbc 2101 0bbb 64ee 72bb 3f2b cf3c
000002f0: d86c d2bd 2c73 953b 2eb8 923c 481c 28bc
00000300: b9fa 5d3d 8089 383d 87de dfbc 2b0c 0e3d
00000310: 48fc 893d 418f 11bd 1c88 cbbb 6deb 2a3c
00000320: b44f 0cbc c0f0 023d 215e 0f3d 2193 1c3d
00000330: af0a ddb8 9b19 d93c 1d8b 47bd a9f1 25bd
00000340: 97c5 e33c a434 e6bc 03dc 5ebc 8f62 aa3c
00000350: 14f0 ef3c 402c a43c d9ac 3fbc 7d57 71bb
00000360: cb36 85bd 852a ae3d 9d54 b0bc 40fe ff3b
00000370: a936 6e3b faaf 14bd 2c3a 3e3d 7cc0 25b9
00000380: 57ac 2a3d 934b 983c 621b 4b3d 96d5 e9bc
00000390: 0753 6bbc ddb5 6bbc e6bd 98bc 42e5 1fbd
000003a0: 08a1 05bd 9b44 b63d ddd5 3fbd df22 5c3c
000003b0: 2038 2ebc 4ee4 00bc fbeb 0a3d 301c b9bc
000003c0: 69ba 2dbd a68e fa3d f22b f03c 93e8 76bd
000003d0: b3ff 52bd 491a 4f3d 7897 843c 9040 36bc
000003e0: f832 ebbc 02eb 7a3d 6316 4e3d a1eb 80bb
000003f0: c101 2b3d 40f1 7bbd 65cd 0bbd 9fb9 143c

fc1.bias f4 [256]
-0.11628482 0.14565548 0.07979611 0.1514108 -0.06349579 -0.18725887 -0.15013285 -0.03740651
-0.24544254 -0.19492218 0.161256 -0.0467338 -0.009881352 -0.1999648 -0.017300796 0.18325886
0.037766717 0.0114758 -0.16189907 -0.18594687 0.068437174 -0.16424981 -0.01724129 -0.19124347
-0.08138939 -0.27814886 0.017061614 -0.010770069 -0.2009487 -0.042264916 -0.076879665 -0.13791509
-0.07466374 0.08628817 -0.09504504 0.06333479 -0.188021 0.14710683 -0.11002846 0.060096603
-0.10322448 -0.17954522 0.007518368 -0.1152985 -0.093067765 -0.092262946 -0.08712285 -0.16489734
0.19789267 0.04470874 -0.07763003 0.1405347 -0.09319024 -0.15216558 0.04402862 -0.06823219
0.10233026 -0.05816402 -0.20876837 0.26076484 0.037207253 0.049885917 -0.04364403 -0.15422137
0.08280607 -0.013374637 -0.16365488 0.11293759 -0.2308779 -0.09376449 -0.054148916 -0.18265454
-0.23200992 -0.13655052 -0.036597863 0.1756987 0.12329711 0.23266444 0.13992113 0.047398183
-0.08817708 -0.1444297 -0.1719909 -0.2136037 0.16749924 -0.14798598 -0.08203716 0.04460291
-0.12068358 0.10536224 -0.039666012 0.07142805 -0.09029613 0.1318507 -0.15449585 -0.21019877
0.18589304 -0.18023358 0.20375253 0.11454437 0.103788555 0.0839863 0.040326588 0.0071961684
-0.15135725 0.17175677 0.11563491 -0.031982057 -0.013093701 -0.09027408 -0.09754313 -0.20910186
-0.07897649 -0.20261922 -0.05537537 0.10528286 0.17073688 -0.19343898 -0.1989671 0.14512473
-0.092573464 -0.0147157 0.06671522 0.2016158 0.026706459 0.054992825 0.031375747 -0.034331795
0.07770353 -0.2602122 -0.18075746 0.13563702 -0.1961458 0.05948937 0.15870474 0.1351186
0.05352467 0.022712002 0.0558505 0.037434693 0.06571982 -0.1561441 0.11819462 0.0054926146
0.11404089 -0.1629708 -0.085656166 -0.20055757 -0.022672515 0.1500134 -0.03570258 0.22266401
0.15108345 -0.10108188 0.16957624 0.025943471 0.18218265 -0.002904453 -0.072893344 0.15708023
-0.134906 -0.050125588 -0.06058176 -0.024233965 -0.079415515 0.19313003 0.015238217 0.107482225
0.030860571 0.09571454 0.06138521 -0.23683923 -0.1663266 -0.20915309 -0.21263666 -0.1830491
0.022794109 0.12678094 -0.1538312 0.08329384 -0.13424568 0.10540903 0.15384802 0.12942982
0.2063795 -0.16939534 -0.17092054 -0.056119863 0.022945672 0.1728358 0.0649417 0.14368677
-0.102985896 -0.12748803 0.17697297 -0.17255941 -0.13797724 0.124287196 0.16383173 -0.017102491
-0.012464179 -0.063789696 0.060719848 -0.090858035 0.24315186 0.25887847 0.05389468 0.14861286
-0.085099064 -0.10135776 -0.033037774 -0.050396368 0.17849045 0.011333679 -0.070050895 -0.1872585
0.055900324 0.13370094 0.053422887 -0.027026126 -0.05090398 0.108693644 0.17870721 -0.05576823
0.0070715616 -0.24987811 0.1004982 -0.10730594 -0.051189788 -0.13354385 0.19277906 0.08430595
-0.07251039 -0.033510752 0.08039993 0.06782485 -0.10197491 0.0576242 0.051469486 0.06785482
-0.14563121 -0.09430606 0.059059177 -0.06280839 -0.087957 0.17441052 -0.02193846 -0.111722134
-0.07595191 -0.1460881 -0.055083618 -0.16655275 0.087660775 0.27272472 -0.19000494 0.100160986
00000000: bc26 eebd b626 153e 256c a33d 6f0b 1b3e
00000010: 150a 82bd cac0 3fbe 6dbc 19be 9237 19bd
00000020: 4a55 7bbe ae99 47be 4b20 253e f16b 3fbd
00000030: 65e5 21bc 93c3 4cbe 66ba 8dbc 36a8 3b3e
00000040: 46b1 1a3d fe04 3c3c dfc8 25be db68 3ebe
00000050: ca28 8c3d 1a31 28be 9b3d 8dbc 54d5 43be
00000060: 7baf a6bd 8769 8ebe ccc4 8b3c f274 30bc
00000070: 7fc5 4dbe fa1d 2dbd 1673 9dbd 9d39 0dbe
00000080: 4ee9 98bd dab7 b03d f9a6 c2bd acb5 813d
00000090: 9488 40be 2ca3 163e 9a56 e1bd db27 763d
000000a0: 5b67 d3bd b4da 37be a45c f63b 9f21 ecbd
000000b0: 509a bebd 5bf4 bcbd 776d b2bd d9da 28be
000000c0: 60a4 4a3e 8320 373d 7efc 9ebd 54e8 0f3e
000000d0: 86da bebd 4bd1 1bbe 5b57 343d 52bd 8bbd
000000e0: 8792 d13d 653d 6ebd 60c7 55be f882 853e
000000f0: a266 183d 2d55 4c3d 15c4 32bd 35ec 1dbe
00000100: 3b96 a93d 4b21 5bbc 2595 27be d34b e73d
00000110: 426b 6cbe 9907 c0bd 41cb 5dbd cb09 3bbe
00000120: 0294 6dbe e6d3 0bbe a4e7 15bd 5cea 333e
00000130: 3283 fc3d 963f 6e3e 7c47 0f3e 9924 423d
00000140: 2f96 b4bd 61e5 13be 621e 30be eeba 5abe
00000150: ec84 2b3e a389 17be 1903 a8bd 8ab1 363d
00000160: f428 f7bd 28c8 d73d d478 22bd df48 923d
00000170: 2ded b8bd df03 073e 2934 1ebe 593e 57be
00000180: bf5a 3e3e 278f 38be 81a4 503e 3d96 ea3d
00000190: 188f d43d 0201 ac3d 7e2d 253d d6cd eb3b
000001a0: 65fd 1abe 02e1 2f3e ffd1 ec3d 9eff 02bd
000001b0: f686 56bc 9ee1 b8bd b1c4 c7bd cc1e 56be
000001c0: 6dbe a1bd 6a7b 4fbe 49d1 62bd 8a9e d73d
000001d0: a6d5 2e3e de14 46be 08be 4bbe 949b 143e
000001e0: 2897 bdbd 1f1a 71bc fda1 883d 5f74 4e3e
000001f0: 81c7 da3c 2840 613d db83 003d 7f9f 0cbd
00000200: 0723 9f3d 893a 85be 7c18 39be 6ee4 0a3e
00000210: 72da 48be 20ab 733d 7f83 223e 885c 0a3e
00000220: af3c 5b3d 850e ba3c 7ec3 643d 1f55 193d
00000230: 1d98 863d 3de4 1fbe 0510 f23d 64fb b33b
00000240: 458e e93d d1e1 26be 806c afbd f75e 4dbe
00000250: b6bb b9bc 1d9d 193e de3c 12bd 0902 643e
00000260: 9fb5 1a3e 0404 cfbd 65a5 2d3e 6787 d43c
00000270: 178e 3a3e a358 3ebb 1b49 95bd a4d9 203e
00000280: cc24 0abe 7d50 4dbd 9424 78bd 4f86 c6bc
00000290: 9aa4 a2bd e1c3 453e b7a9 793c a41f dc3d
000002a0: 4fcf fc3c fc05 c43d 0f6f 7b3d fc85 72be
000002b0: 8551 2abe 3a2c 56be 6dbd 59be 3971 3bbe
000002c0: b6ba ba3c ddd2 013e ed85 1dbe f695 aa3d
000002d0: b377 09be b1e0 d73d 568a 1d3e 4089 043e
000002e0: 2655 533e f975 2dbe cb05 2fbe f1dd 65bd
000002f0: 90f8 bb3c defb 303e 2700 853d a022 133e
00000300: 45ea d2bd 398c 02be 6738 353e 6ab3 30be
00000310: e849 0dbe 498a fe3d 81c3 273e 861a 8cbc
00000320: 8e36 4cbc 2ca4 82bd 60b5 783d c713 babd
00000330: cdfc 783e b88b 843e abc0 5c3d f82d 183e
00000340: 6b48 aebd a894 cfbd 9e52 07bd 6c6c 4ebd
00000350: 33c6 363e e5b0 393c d876 8fbd b1c0 3fbe
00000360: bdf7 643d e6e8 083e f5d1 5a3d e565 ddbc
00000370: b180 50bd c69a de3d 06ff 363e 3a6d 64bd
00000380: 8fb8 e73b 0ce0 7fbe 00d2 cd3d 37c3 dbbd
00000390: 62ac 51bd b8bf 08be e067 453e 99a8 ac3d
000003a0: 5480 94bd 9242 09bd b8a8 a43d c1e7 8a3d
000003b0: 39d8 d0bd 5a07 6c3d abd1 523d 78f7 8a3d
000003c0: 5920 15be 8923 c1bd 09e8 713d afa1 80bd
000003d0: cd22 b4bd ac98 323e 49b8 b3bc 93ce e4bd
000003e0: ad8c 9bbd 1e98 15be 5c9f 61bd ce8c 2abe
000003f0: 7e87 b33d 93a2 8b3e a890 42be 3421 cd3d

fc2.weight f4 [128, 258]
-0.026151571 -0.018567426 0.10942355 0.019775989 0.032014627 -0.076962106 0.08482874 0.10483061
-0.121298306 0.027868496 0.0025424547 -0.049966414 -0.10208289 -0.026138768 0.010699572 0.10134394
-0.03944255 0.026084088 0.027875857 -0.006534742 -0.0096274605 -0.041707087 0.05917043 0.018618781
-0.11256819 -0.022447826 -0.07931417 0.07532305 0.0459988 0.006366869 -0.024821777 -0.008211018
0.044426057 -0.091740556 -0.010694469 0.07438126 -0.00296697 0.048619073 -0.04931153 -0.055310164
-0.08356591 0.041700583 0.006941783 -0.05334773 -0.04812302 -0.07861448 0.010196041 -0.030298432
-0.023776578 -0.05884977 0.030161452 0.07748017 0.07451211 0.06388159 -0.029501842 0.05938273
-0.009234185 0.06398103 0.011969778 0.11249722 0.03332381 0.030975506 0.05948824 -0.062466364
-0.014304425 -0.082981564 0.02326758 -0.038166028 0.021412253 -0.028442316 0.00227894 -0.04244166
-0.031603795 0.0021128233 -0.019567471 0.09649218 0.04812648 0.047136083 0.0056879786 -0.06817221
0.10540446 0.047589794 0.049316492 0.0029870672 0.009062574 -0.035166595 0.030763604 0.07676684
-0.089015 0.027203582 0.07469714 -0.2725343 -0.057558924 -0.021385064 0.007749605 0.046286047
0.09173558 -0.06592556 -0.04996371 -0.032988638 0.09602534 -0.037034262 -0.05072227 -0.05011939
0.036129892 -0.011938288 -0.02525971 -0.05691351 -0.008413123 0.040810417 0.0044905483 0.0924802
-0.02946862 0.043523714 -0.074182674 0.07233592 -0.08327594 -0.08163127 0.09390607 0.03955261
-0.0601305 0.02959966 -0.043578368 0.009088241 -0.062078033 -0.03519133 -0.01205334 0.005403811
-0.06309014 -0.052083462 -0.078249946 0.009911221 -0.035577748 0.01752154 0.06457095 0.01759651
0.07931155 0.047786143 0.060576584 0.06304141 -0.040843252 -0.013375316 0.046842866 0.009109023
0.03805424 -0.14018863 -0.002016702 -0.033342693 0.06301773 0.03966531 -0.074651636 0.039781973
0.1014778 -0.05560364 -0.046095647 -0.0759403 0.05541282 0.060609937 0.024363508 0.058830008
-0.01148806 -0.00095056585 0.038562827 -0.1284943 -0.031224044 0.006667279 -0.07230589 0.027769605
0.049474448 -0.016078742 -0.018954158 0.010540332 0.055306908 0.012034636 -0.06160575 0.03984841
0.06523745 0.029220002 0.007133118 -0.015265949 0.048809886 -0.05132486 0.013905576 -0.058500454
-0.026030822 0.084607236 0.09003672 -0.13966328 -0.064773925 0.023184387 0.018157812 0.07775723
0.036363132 -0.07706005 -0.008748125 0.059168085 0.071213335 0.05492949 0.089898825 -0.082203746
0.100937285 0.03587915 -0.0013850325 -0.062459134 0.05532392 -0.021941423 0.09060609 -0.007943034
-0.026444994 -0.07169617 0.042819817 -0.06581904 0.039698493 0.022031585 0.021805089 0.043285914
0.020357737 -0.07317325 0.093527816 0.092165105 0.082644984 -0.02257435 0.08239796 0.025271572
-0.03349493 -0.11287992 0.009691944 0.03569858 0.000839509 -0.028670624 -0.048082747 -0.082771435
0.06668426 -0.0070286384 0.086246796 0.10704562 -0.024899494 -0.048862934 0.057433557 0.05126199
0.0064653642 0.00083003787 0.047061075 -0.0133104725 0.08804975 0.0060628457 -0.010634761 0.042768903
-0.015546243 -0.111719325 0.08142411 -0.067698814 -0.04858864 0.08587963 0.047588028 0.10058192
00000000: d23b d6bc b71a 98bc 7419 e03d 4101 a23c
00000010: c521 033d 4f9e 9dbd b1ba ad3d 6eb1 d63d
00000020: 3f6b f8bd 794c e43c 509f 263b 95a9 4cbd
00000030: d610 d1bd f820 d6bc 424d 2f3c 698d cf3d
00000040: 838e 21bd 4cae d53c e95b e43c 6421 d6bb
00000050: 7fbc 1dbc 0dd5 2abd b15c 723d 6a86 983c
00000060: 278a e6bd 81e4 b7bc 786f a2bd f942 9a3d
00000070: 3d69 3c3d 2ba1 d03b 0a57 cbbc 8187 06bc
00000080: 19f8 353d 79e2 bbbd db37 2fbc 3455 983d
00000090: 7f71 42bb cb24 473d e3fa 49bd e98c 62bd
000000a0: 9b24 abbd 3bce 2a3d e577 e33b 2683 5abd
000000b0: a51c 45bd a100 a1bd 4c0d 273c 6b34 f8bc
000000c0: 19c7 c2bc 750c 71bd 2615 f73c ecad 9e3d
000000d0: ce99 983d 5ad4 823d d9ad f1bc 4e3b 733d
000000e0: fb4a 17bc 7c08 833d e31c 443c f164 e63d
000000f0: 8c7e 083d 58c0 fd3c f1a9 733d bbdc 7fbd
00000100: 1b5d 6abc 3df2 a9bd a79b be3c fb53 1cbd
00000110: c068 af3c dcff e8bc 455a 153b 4ed7 2dbd
00000120: fb72 01bd 4b77 0a3b f64b a0bc b19d c53d
00000130: 4620 453d c411 413d 3962 ba3b df9d 8bbd
00000140: 4bde d73d 84ed 423d 1700 4a3d acc2 433b
00000150: 317b 143c d90a 10bd f403 fc3c ef37 9d3d
00000160: 7f4d b6bd 0cda de3c d0fa 983d 9e89 8bbe
00000170: e8c2 6bbd bb2f afbc 66f0 fd3b 7096 3d3d
00000180: dddf bb3d fb03 87bd bfa6 4cbd 181f 07bd
00000190: efa8 c43d 3db1 17bd 28c2 4fbd fd49 4dbd
000001a0: f0fc 133d cf98 43bc 74ed cebc 241e 69bd
000001b0: 32d7 09bc d328 273d 7325 933b 4266 bd3d
000001c0: 2d68 f1bc ec45 323d 16ed 97bd db24 943d
000001d0: 938c aabd 4c2e a7bd d351 c03d eb01 223d
000001e0: 664b 76bd fc7a f23c 3b7f 32bd d8e6 143c
000001f0: 8945 7ebd c924 10bd 5f7b 45bc 7412 b13b
00000200: 6735 81bd 7855 55bd 8241 a0bd ad62 223c
00000210: f9b9 11bd 5589 8f3c c63d 843d 8e26 903c
00000220: 186e a23d 67bb 433d 271f 783d db1b 813d
00000230: 414b 27bd 2424 5bbc 4ede 3f3d 033e 153c
00000240: c3de 1b3d 9c8d 0fbe a52a 04bb 5992 08bd
00000250: 710f 813d 1878 223d f5e2 98bd 6cf2 223d
00000260: 98d3 cf3d a4c0 63bd cace 3cbd 9786 9bbd
00000270: 8ef8 623d 2042 783d fb95 c73c bcf7 703d
00000280: 6a38 3cbc 652f 79ba 0ef4 1d3d 0394 03be
00000290: 91c9 ffbc 3179 da3b 1c15 94bd 157d e33c
000002a0: b8a5 4a3d 91b7 83bc c045 9bbc 5bb1 2c3c
000002b0: 7f89 623d ec2c 453c 5056 7cbd 1638 233d
000002c0: 369b 853d c95e ef3c eebc e93b 081e 7abc
000002d0: e0ec 473d 043a 52bd 37d4 633c 2c9e 6fbd
000002e0: 973e d5bc 8f46 ad3d 2c65 b83d e403 0fbe
000002f0: 31a8 84bd 2fed bd3c b1bf 943c 2f3f 9f3d
00000300: 82f1 143d a9d1 9dbd 4c54 0fbc 3c5a 723d
00000310: 4cd8 913d bffd 603d e01c b83d 705a a8bd
00000320: 35b8 ce3d 04f6 123d fb89 b5ba 26d5 7fbd
00000330: 569b 623d 80be b3bc b08f b93d 8023 02bc
00000340: 2ca3 d8bc 71d5 92bd d563 2f3d 22cc 86bd
00000350: e39a 223d 957b b43c 96a0 b23c 924c 313d
00000360: 45c5 a63c dbdb 95bd 838b bf3d 0fc1 bc3d
00000370: c641 a93d d8ed b8bc 43c0 a83d 5406 cf3c
00000380: fb31 09bd 962d e7bd f6ca 1e3c ad38 123d
00000390: 7f12 5c3a a8de eabc 6af2 44bd 1284 a9bd
000003a0: c291 883d 7e50 e6bb 29a2 b03d bc3a db3d
000003b0: 06fa cbbc 8024 48bd 733f 6b3d 18f8 513d
000003c0: 68db d33b e696 593a 1dc3 403d 2b14 5abc
000003d0: 6d53 b43d d6aa c63b 6c3d 2ebc 722e 2f3d
000003e0: abb5 7ebc 1acd e4bd afc1 a63d ada5 8abd
000003f0: e204 47bd a9e1 af3d aaeb 423d e5fd cd3d

fc2.bias f4 [128]
0.07407396 0.04781465 -0.07539382 0.021202138 0.00028214176 -0.006057971 0.04865855 0.03612727
0.009617205 -0.07360218 0.027018085 -0.08778504 0.06865168 -0.09066419 -0.057041533 -0.05132824
0.0010841987 0.011487775 0.04888012 0.043078896 -0.100836396 0.014458462 -0.027875315 -0.03786797
-0.02064213 -0.029049544 -0.004091339 0.04818701 -0.019570094 0.033338565 0.019295333 0.02126737
0.0011860981 0.04500269 -0.070363216 0.09468994 -0.0011740748 -0.04562948 0.043868423 0.0044867173
-0.052343454 -0.06881692 -0.022823919 0.0031467804 0.057315934 -0.013948711 -0.07499735 -0.09351148
-0.0014475605 0.018951401 -0.017596997 0.054148868 -0.0029179733 -0.0011796692 0.074750535 -0.04038485
0.022487858 -0.034170054 0.018519724 -0.08352738 -0.01481335 -0.025698312 -0.038467698 0.043364573
-0.03712582 -0.04565502 -0.0060067237 0.016824702 -0.053928964 -0.06203346 -0.004074102 0.02826343
-0.027433949 -0.039267328 -0.031069972 -0.009181675 -0.06251456 0.06672787 0.070043944 0.046167783
-0.056495246 -0.013988495 -0.027975857 -0.05675579 0.031828262 0.04805264 -0.09427242 -0.0015686041
0.08025882 0.0036007413 -0.010816527 -0.0069348663 -0.06667047 0.05818107 -0.025877677 0.0072688432
-0.018094396 0.009503862 -0.0037350627 0.03199489 0.034561906 0.03721302 -0.0084238425 0.03433046
0.0532466 -0.049960773 -0.013776491 0.052599873 0.07312042 0.040716514 0.08770802 0.032206144
0.00012135072 0.029818827 0.043866273 0.06285882 0.0050673615 -0.08661068 0.05860365 0.010562184
0.02552307 -0.009169083 0.023144914 -0.036544718 -0.029034888 0.027777143 -0.04810016 0.039465923
00000000: 17b4 973d 4bd9 433d 1368 9abd 1bb0 ad3c
00000010: 6dec 9339 f281 c6bb 304e 473d 30fa 133d
00000020: 7b91 1d3c bdbc 96bd 0855 dd3c a5c8 b3bd
00000030: 4199 8c3d 26ae b9bd 62a4 69bd 903d 52bd
00000040: ac1b 8e3a 3837 3c3c 8536 483d 7f73 303d
00000050: 5083 cebd 2fe3 6c3c c65a e4bc 721b 1bbd
00000060: af19 a9bc 4ff9 edbc a410 86bb be5f 453d
00000070: 7651 a0bc 058e 083d 3f11 9e3c e838 ae3c
00000080: d976 9b3a be54 383d 971a 90bd cdec c13d
00000090: 6ae3 99ba fae5 3abd 60af 333d 5005 933b
000000a0: 1766 56bd e3ef 8cbd 3af9 babc 373a 4e3b
000000b0: 1dc4 6a3d 2289 64bc 3698 99bd f282 bfbd
000000c0: 12bc bdba f83f 9b3c 9427 90bc 34cb 5d3d
000000d0: 783b 3fbb 219f 9aba cf16 993d 966a 25bd
000000e0: 7538 b83c e6f5 0bbd adb6 973c 6710 abbd
000000f0: b1b3 72bc 4485 d2bc 4e90 1dbd 0d9f 313d
00000100: 3e11 18bd c200 3bbd 0dd4 c4bb f5d3 893c
00000110: 9ee4 5cbd cc16 7ebd 0b80 85bb b588 e73c
00000120: 29bd e0bc c7d6 20bd 7486 febc bc6e 16bc
00000130: a207 80bd 9fa8 883d 3373 8f3d 6e1a 3d3d
00000140: 8f67 67bd 0030 65bc a02d e5bc c278 68bd
00000150: 5a5e 023d d8d2 443d e611 c1bd 9f99 cdba
00000160: bc5e a43d 6afa 6b3b cd37 31bc e03d e3bb
00000170: 878a 88bd 464f 6e3d 6cfd d3bc 7a2f ee3b
00000180: b33a 94bc 16b6 1b3c f4c7 74bb 130d 033d
00000190: c990 0d3d ae6c 183d 2804 0abc 199e 0c3d
000001a0: 1b19 5a3d aba3 4cbd cbb6 61bc f772 573d
000001b0: 29c0 953d 5cc6 263d 43a0 b33d 97ea 033d
000001c0: ac7d fe38 9d46 f43c 1fad 333d 20bc 803d
000001d0: 1c0c a63b f160 b1bd 620a 703d 030d 2d3c
000001e0: c215 d13c ec39 16bc 679a bd3c eaaf 15bd
000001f0: 93da edbc e48c e33c ac04 45bd 05a7 213d

fc3.weight f4 [1, 128]
0.0253251 0.019086432 0.06863248 0.0112566305 0.03702613 0.02067954 0.051207587 -0.030765615
-0.023466729 -0.010164992 -0.023990972 -0.023405248 0.089732885 -0.024584418 -0.02879236 -0.011778303
0.0253533 -0.01632523 0.014664453 0.026427278 -0.05799033 -0.019283704 -0.008155716 0.013917847
-0.013480054 -0.012472681 -0.03660085 -0.023221582 -0.02332699 -0.06044194 0.037215065 -0.009216211
-0.016501177 0.028265338 -0.03436426 0.017082723 -0.018803865 0.050442047 -0.01580434 0.11147521
0.021383744 0.029966684 -0.08313904 -0.036482237 0.0208648 0.014649372 0.061243594 -0.09249327
-0.014204006 -0.014180978 -0.016237792 -0.10210115 -0.010003768 0.07262016 0.04117896 0.015421568
-0.08643487 -0.01912759 -0.032904327 -0.024626955 -0.049143903 0.037883956 -0.013522098 0.064427115
-0.017416613 0.03168867 -0.022982715 -0.012356243 -0.021621589 -0.015446326 -0.06384764 -0.1115123
0.022947485 -0.030940173 -0.046332352 0.017604917 -0.02076527 -0.09241355 0.028182674 0.014370595
-0.05826098 0.02318908 -0.023616284 -0.0128201395 0.028186742 0.01623451 -0.015470405 0.014916953
0.022023315 -0.027304586 0.0195439 -0.058769796 -0.024790237 0.022221701 -0.13874875 0.034901608
0.014385564 0.034995534 0.07810041 -0.0637446 0.013474437 0.008375479 -0.01645731 -0.021256387
0.01834184 0.02448392 0.023128271 0.094506145 -0.017964585 0.036850117 0.015609835 0.013217553
-0.043679353 0.025149481 0.054905206 0.01770861 -0.022346808 -0.01920736 -0.17880392 0.0093835695
-0.027974827 -0.0928414 0.013048406 0.029179202 0.0068705822 -0.0266323 -0.019370493 0.07232141
00000000: 9676 cf3c 265b 9c3c 308f 8c3d bb6d 383c
00000010: b6a8 173d 2368 a93c 0cbf 513d 2c08 fcbc
00000020: 4c3d c0bc 118b 26bc b788 c4bc 5dbc bfbc
00000030: e0c5 b73d 4365 c9bc f5dd ebbc c9f9 40bc
00000040: b9b1 cf3c 7dbc 85bc 2d43 703c 057e d83c
00000050: 4587 6dbd dcf8 9dbc 8d9f 05bc ae07 643c
00000060: 72db 5cbc 375a 4cbc c6ea 15bd 303b bebc
00000070: 3e18 bfbc f891 77bd d36e 183d 97ff 16bc
00000080: 7a2d 87bc b68c e73c 8ac1 0cbd 11f1 8b3c
00000090: 900a 9abc 529c 4e3d 1a78 81bc 1d4d e43d
000000a0: f62c af3c b17c f53c cd44 aabd 666e 15bd
000000b0: a8ec aa3c eb03 703c 90da 7a3d 1d6d bdbd
000000c0: ebb7 68bc 5557 68bc 1e05 85bc 681a d1bd
000000d0: d8e6 23bc e1b9 943d 45ab 283d bfaa 7c3c
000000e0: c404 b1bd 77b1 9cbc b0c6 06bd 78be c9bc
000000f0: 1e4b 49bd 352c 1b3d ca8b 5dbc 5df2 833d
00000100: 49ad 8ebc fbcb 013d 3f46 bcbc d771 4abc
00000110: c21f b1bc 9612 7dbc 8dc2 82bd 9060 e4bd
00000120: 5dfc bb3c 3f76 fdbc fec6 3dbd 3038 903c
00000130: ed1b aabc 5143 bdbd 5adf e63c a572 6b3c
00000140: 11a3 6ebd 07f7 bd3c f076 c1bc 900b 52bc
00000150: e2e7 e63c 3cfe 843c 9577 7dbc 3c66 743c
00000160: 3d6a b43c dead dfbc 871a a03c 99b8 70bd
00000170: e514 cbbc 490a b63c 2714 0ebe fdf4 0e3d
00000180: 6eb1 6b3c 7a57 0f3d 1cf3 9f3d 878c 82bd
00000190: e3c3 5c3c 4e39 093c 7bd1 86bc e021 aebc
000001a0: a041 963c 8092 c83c 8077 bd3c 708c c13d
000001b0: 772a 93bc 26f0 163d 65c0 7f3c 6f8e 583c
000001c0: 1fe9 32bd 4906 ce3c 48e4 603d a611 913c
000001d0: a710 b7bc c158 9dbc 6018 37be 8bbd 193c
000001e0: 772b e5bc a223 bebd fbc8 553c 3909 ef3c
000001f0: 9f22 e13b fb2b dabc deae 9ebc 3f1d 943d
