No_multi_checkpoint_actor0.pth (torch_old, 159146 bytes, 6 tensors)

fc1.weight f4 [256, 24]
000000 6a b0 ea 3d 95 53 a0 3d c2 1e 27 3d 3e a2 25 3c
       0.114594296 0.07828442 0.040800817 0.010109482
000010 b3 54 10 be 16 3d 31 bd 9c bc 39 3d 3d 6b b2 3d
       -0.1409481 -0.043271147 0.045345888 0.0871186
000020 81 56 01 3d ba 86 a5 3d 20 4d b0 ba 9b d0 96 3d
       0.031576637 0.08082338 -0.0013450719 0.07364007
000030 c2 68 b2 3c 4c 34 32 bd 02 ab 78 3d bf e1 01 3e
       0.021778468 -0.043506905 0.06070996 0.12683772
000040 d5 26 e4 bc 8d 14 e3 3c 5a 0e b2 3b ff bb f9 3d
       -0.027850548 0.02771976 0.0054338397 0.121940605
000050 86 16 fb 3d 4d fb 42 bd a7 13 91 3d 59 3a 9d 3d
       0.122601554 -0.04760294 0.070838265 0.076771446
000060 de 0f d5 3c 11 db bd 3d 67 f9 e9 bd 1f 1e a0 3d
       0.026008543 0.09270299 -0.11424523 0.07818245
000070 6c f8 9b 3d 44 14 f9 bd d7 87 d8 bd 63 ca 6e bc
       0.07615742 -0.121620685 -0.105727844 -0.01457462
000080 ce b4 af 3c 2d 53 e2 bc cb bd 40 3d aa 43 40 3d
       0.02144852 -0.027627552 0.047056 0.04693953
000090 f3 c6 64 3d c5 8a 80 bd 0e 06 bf b9 be 79 69 3d
       0.055853795 -0.06276468 -0.0003643487 0.057000868
0000a0 d1 23 af 3c 03 20 b8 bd 21 f9 88 bd 14 38 95 3d
       0.021379383 -0.08990481 -0.066881426 0.07286087
0000b0 1b 15 e6 3d 63 a9 a5 3d 1c 80 b1 bc d3 7e 0d 3d
       0.11234494 0.080889486 -0.021667533 0.034544777
0000c0 69 7e bc bd 1b 9a ae 3d 72 a4 20 3c 8f f5 be bd
       -0.09203798 0.08525487 0.009804832 -0.0932418
0000d0 4b ac 88 3b 4d db 7c 3b 0c 6c 95 bd 95 bb 16 be
       0.0041709295 0.0038582862 -0.07295999 -0.14719994
0000e0 d6 a4 25 3d 31 12 0b 3e d0 db 8a bd ac 60 48 be
       0.040440403 0.13581158 -0.06780207 -0.19568127
0000f0 05 10 86 3d 23 80 52 be db 24 47 bd da 10 34 be
       0.06546024 -0.20556693 -0.048619132 -0.17584553
000100 1d d7 91 3c e0 fc 3a 3d f5 66 e5 bd ae c4 eb bc
       0.01780277 0.045651317 -0.11201278 -0.028780308
000110 b8 b1 ef 3d 8a ee 30 be 17 6b 86 bd 84 d1 3d 3d
       0.11703819 -0.17278495 -0.065633945 0.046342388
000120 08 e5 0f bd e6 d7 c2 bd 0b 2c 16 3c 9b 4b c0 bd
       -0.03513053 -0.095138356 0.009165774 -0.093894206
000130 06 c3 d0 bd 6a 16 76 3d d7 1b 07 3d cd 8c ce bd
       -0.10193448 0.06007997 0.032985535 -0.10085449
000140 f3 3f cc bd e0 8e 39 be 75 64 9e bc 19 66 86 bd
       -0.09973135 -0.18120909 -0.019335011 -0.06562442
000150 b0 85 f5 3c 42 53 59 3c 19 93 9c 3c 24 e6 cb 3b
       0.029970974 0.013264479 0.01911311 0.0062225033
000160 84 2e a3 bc a2 1f 9d bd 1c 9b 2e bd cb 4f 51 3d
       -0.019919641 -0.07672049 -0.042628393 0.051101487
000170 ed 8b 11 3d 97 50 c1 bc 74 96 5c 3d 3b 31 a5 3d
       0.035533834 -0.023597999 0.05385442 0.080660306
000180 7d 6a 8c bc c5 82 09 be df cf 6f 3d cd 7c 10 3d
       -0.017140621 -0.13428791 0.05854785 0.03527527
000190 11 b7 52 bd 08 7e a7 bb 13 52 41 bd 51 63 17 bd
       -0.051444117 -0.0051114596 -0.047197413 -0.03695995
0001a0 cb d6 7e bd d4 f5 16 be 5f 0c 84 3d fa 29 5c bd
       -0.06221656 -0.14742213 0.06447672 -0.05375097
0001b0 c1 b4 1f 3d a6 e7 c4 3d fd 11 b1 3d c7 29 5e 3c
       0.03899074 0.09614496 0.08646009 0.013559765
0001c0 cd 35 f1 3c 80 1d 0f be ad dd a5 39 ca 3d 01 be
       0.0294446 -0.13976097 0.00031636414 -0.12621227
0001d0 8b 5a 3e bd be fd 8e 3d 4a 94 1f 3d 9d 66 6d bd
       -0.046473067 0.06981991 0.03895978 -0.057959188
0001e0 46 e1 83 3d 2d fc e3 38 87 3b b0 bc 42 15 63 be
       0.06439452 0.00010871175 -0.02151276 -0.22176078
0001f0 ba 68 56 bc 33 44 06 bc f2 3e 68 3d e4 6a 50 be
       -0.013086492 -0.008194971 0.056700654 -0.20353276
000200 46 07 85 3c b2 82 85 bc b4 d7 34 bc 48 78 47 be
       0.01623882 -0.016297672 -0.011037756 -0.19479477
000210 56 00 0d be 19 34 f8 bc f5 a7 67 3d 66 df 2c be
       -0.1376966 -0.03029828 0.05655666 -0.16882095
000220 18 97 6e 3c b1 28 2a be 86 ec 69 3d 69 03 2f be
       0.014562391 -0.16617085 0.057110332 -0.17091145
000230 36 86 64 bd f8 64 5c 3c 79 d7 85 3d ef d6 49 be
       -0.055792056 0.013451807 0.06535239 -0.19710897
000240 62 da 32 be 82 29 00 3e 7b 4a 4b 3d c7 49 8c 3d
       -0.17466119 0.12515834 0.049631577 0.068500094
000250 65 72 a5 3d c6 a5 6d 3d 9e db 9d 3d 08 d5 21 3e
       0.0807846 0.058019422 0.07707904 0.15803921
000260 3c 5b 72 bd 71 2c 16 3e ed 0b 3d bb 2e 59 7c 3d
       -0.05916904 0.1466539 -0.002884622 0.061608486
000270 5c 4c 31 bb 33 a0 ed 3d 84 a9 c5 bc 9f 0a 8f 3d
       -0.002705357 0.11602821 -0.024128683 0.06984448
000280 60 54 b9 bd 64 4a eb 3d c0 54 68 3c c1 23 1e 3d
       -0.090492964 0.11488798 0.014180362 0.038608316
000290 8e 47 6c 3d be a5 09 3d ba af 46 3c c5 13 8e 3d
       0.057685427 0.03360533 0.012126857 0.069373645
0002a0 f0 44 4f 3d 52 53 b9 bd 9d d4 e6 bc b5 14 76 3c
       0.050602853 -0.09049095 -0.028177554 0.015019585
0002b0 68 9f b6 bd 02 af 9c bd e7 ce 8b b9 4d 40 fc bc
       -0.08917123 -0.076505676 -0.000266663 -0.03079238
0002c0 ed fb 6f 3d bb 00 d3 bc d0 c5 bb bd 4e 0c 08 bd
       0.058589865 -0.025757184 -0.09168589 -0.03321486
0002d0 7b 53 40 be c0 55 7c bd 88 4d a0 bd a0 99 d2 bc
       -0.18781845 -0.061605215 -0.07827288 -0.02570802
0002e0 49 76 c6 3d f4 98 c6 bd 15 66 a5 bc b3 f5 09 3c
       0.0969053 -0.09697142 -0.020190278 0.008420396
0002f0 d5 02 62 be 71 c5 3a 3c 5f d7 66 3d 73 53 35 bc
       -0.22071393 0.011399613 0.056357738 -0.011067259
000300 aa 2c aa bd 95 43 6f 3c 7d af 93 3c 33 2c c1 3d
       -0.083093 0.014603515 0.018028015 0.094322585
000310 52 ab 85 3d c2 ee d2 3d ef c9 a7 3c 9f 3a 8d 3d
       0.065268174 0.10299446 0.020482032 0.06895947
000320 c8 b2 13 3d 68 a5 73 3d c4 08 04 3d 0a a7 00 bd
       0.03605917 0.059483916 0.032234922 -0.0314093
000330 c3 a8 df bb dc bc de 3d 28 d4 56 3d 9e 78 da bb
       -0.006825538 0.10875866 0.05244842 -0.0066672107
000340 2b 57 a1 3d b5 e2 8a 3d 98 67 0d 3d dc 35 8b 3d
       0.07877954 0.06781522 0.034522623 0.06797382
000350 c8 82 b9 bd d3 7e 43 3e 56 c7 30 bd 15 01 df 3a
       -0.09058148 0.19091348 -0.04315885 0.0017013872
000360 5a 59 00 3d 91 62 56 3d 89 28 6b bd a2 b1 1f 3c
       0.031335212 0.052340094 -0.057411704 0.009746941
000370 08 01 b7 bd ba 85 b3 3d 7e 52 86 bd 7c f2 df 3c
       -0.089357436 0.08765741 -0.06558703 0.027337305
000380 b3 8d d6 bd 9f 82 1e bd a7 b3 8a 3d 3e 72 66 3c
       -0.10476246 -0.03869879 0.06772547 0.014065323
000390 c6 7e 50 bd ea 89 2c 3e 79 fa b7 3c f2 52 66 bd
       -0.05090215 0.16849485 0.022458302 -0.056231447
0003a0 61 01 8e bc 99 d6 7f bd 7c d3 c3 bb 83 2e 19 bb
       -0.017334642 -0.062460516 -0.0059761386 -0.002337367
0003b0 37 1c 05 bc 7e d4 07 3d bf 52 ba 3d 10 23 e9 bc
       -0.008124403 0.033161633 0.09097814 -0.028459102
0003c0 8f e1 81 bd 86 0e 23 3e c7 8b 56 bc db 7b 5e 3d
       -0.0634185 0.15923509 -0.013094849 0.054317337
0003d0 06 da 38 bc 29 7c 8b 3d 66 38 63 bd a4 75 e1 3d
       -0.01128245 0.06810791 -0.055473708 0.11008766
0003e0 74 93 f3 3a 17 b9 43 3e fc 2a b9 bd 96 3c a7 3d
       0.0018583373 0.19113575 -0.09041402 0.08165853
0003f0 8d 56 ca 3d 8e 43 c7 bc ed f0 06 be e2 3b d3 3d
       0.098797895 -0.024324205 -0.13177843 0.10314156

fc1.bias f4 [256]
000000 35 5c 2f bd 40 e8 9e 3d 0f d4 32 3c 54 5c 09 3e
       -0.042812545 0.07759142 0.0109148165 0.13414127
000010 48 09 89 bc b1 6a 47 be db 5a 2d be d2 36 ad bd
       -0.016728058 -0.19474293 -0.1692919 -0.08457722
000020 0f 59 80 be 5b 7a e5 bd af 2e d8 3d 02 8a 02 3c
       -0.25067946 -0.11204978 0.10555779 0.007967474
000030 3c e5 cb 3d b1 1b 19 be ba 04 84 3c 21 0b 80 3e
       0.09955832 -0.1495197 0.016115535 0.2500849
000040 39 d5 ae 3d a7 c8 1c 3c 2d 46 dc bd a1 fb 7b be
       0.08536763 0.009569324 -0.107555725 -0.24607708
000050 38 2e f2 3d bc b6 52 be eb c5 35 3d 5c 86 30 be
       0.11825222 -0.2057752 0.044378202 -0.17238754
000060 d8 3b f4 3d 12 7a 91 be 5f 3c 94 ba ee 25 05 3c
       0.11925477 -0.28413445 -0.0011309496 0.008126719
000070 6e 66 1a be 26 1e c6 bd f0 77 fe bd fb 68 bc bd
       -0.15078136 -0.09673719 -0.1242522 -0.09199711
000080 59 54 93 bd 3c 45 a8 3c d3 73 41 be da a7 32 3b
       -0.071938224 0.020540826 -0.1889184 0.0027260692
000090 85 b6 1d be f0 7a 5c 3e c1 ab 4d be ff 19 9d 3d
       -0.15401657 0.21531272 -0.2008505 0.07670974
0000a0 47 2a c9 bd 62 92 25 be fd 62 54 bd c1 db c6 bd
       -0.09822517 -0.16169122 -0.051852215 -0.097098835
0000b0 1c c7 90 bd 41 f8 c4 bd c9 f0 98 bd 22 62 31 be
       -0.07069227 -0.09617663 -0.07467801 -0.17322591
0000c0 86 f1 62 3e 4a d7 07 3e cb 6d 59 bd b1 ec 4f 3e
       0.22162446 0.1326572 -0.053083222 0.20305134
0000d0 1f 58 6e bd b1 9b f3 bd 37 f2 4f 3d 57 47 8b bd
       -0.058189508 -0.1189493 0.050768103 -0.06800716
0000e0 a9 ed 3f 3e de ec b8 bd 2e 90 0d be 7d 02 0a 3e
       0.18743004 -0.09029554 -0.13824531 0.13477512
0000f0 2b 62 e8 bc a0 1b b3 3d 73 de 14 bd 2e 41 1f be
       -0.028367123 0.087455034 -0.036344957 -0.15552208
000100 48 18 3e 3d c4 92 27 3c 5e d9 89 bd 25 22 fd 3d
       0.046409875 0.010227863 -0.067309126 0.12360028
000110 24 40 58 be 3c 3a b5 bd 9b ab f7 bd 62 90 6d be
       -0.21118218 -0.08848998 -0.12093278 -0.23199609
000120 d1 3c 59 be 26 86 d3 bc 42 18 04 3a 4a 89 5f 3e
       -0.21214606 -0.025820803 0.0005039015 0.21829715
000130 0f dd 08 3e 81 21 64 3e 66 10 92 3d 93 32 e0 3d
       0.13365577 0.22278406 0.07132034 0.10947146
000140 04 50 d3 bc e7 a4 d8 bd 9b 00 5a be 03 5f 36 be
       -0.02579499 -0.105783276 -0.21289293 -0.17809682
000150 f7 bb 02 3e 32 36 51 be 42 c6 1a be d5 46 a1 3d
       0.12767015 -0.2043083 -0.15114692 0.07874838
000160 d6 1b 23 be 7f c4 01 3e b8 ff 5f 3d d8 37 94 3c
       -0.15928587 0.12672614 0.05468723 0.018093035
000170 b1 92 76 bd 6b 0e df 3d 46 41 11 be 79 6d fd bd
       -0.06019849 0.10891422 -0.14185056 -0.12374396
000180 de 33 2e 3e e2 ef 21 be d2 d5 3e 3e 72 01 93 3d
       0.17011973 -0.15814164 0.18636253 0.0717801
000190 35 4a d1 3d 95 c1 a6 3c bd 9f d1 3c 2c e4 94 3d
       0.10219232 0.020355979 0.025588864 0.07270083
0001a0 3f 66 a0 bd f9 f0 4c 3e eb 6a 3c 3e 34 21 5d bc
       -0.07832002 0.20013799 0.18400161 -0.013496686
0001b0 f5 66 b4 3d 97 25 a0 bd d8 66 c9 bd 71 77 31 be
       0.088087 -0.0781967 -0.09834069 -0.1733072
0001c0 42 18 5b bd a7 0c 40 be 8e 5d 8b bd 68 10 f5 3d
       -0.05348993 -0.18754826 -0.068049535 0.1196602
0001d0 a5 95 9b 3e ce 8c 2b be dc 67 2f be 4a ae 3e 3e
       0.30387607 -0.16752931 -0.17129463 0.18621174
0001e0 2a ca 26 bd 6b ee 58 bc 66 ab dd 3d d9 c8 32 3e
       -0.040720142 -0.013240437 0.10823707 0.1745943
0001f0 5c 54 e4 3d 60 13 66 3d 84 d0 b6 bd 10 4e 7e 3d
       0.11148903 0.05617082 -0.0892649 0.062086165
000200 d8 55 a1 3d 7c cd 29 be d4 f0 6f be 41 38 33 3e
       0.078777015 -0.16582292 -0.23431712 0.17501928
000210 1e 65 08 be 8a 82 ca 3d 28 6e 01 3e 42 a5 45 3e
       -0.13319823 0.098881796 0.12639678 0.19301322
000220 e0 4f 36 3d 25 31 6d 3c e9 c0 c4 3d 21 2b 3c 3e
       0.04450977 0.014477049 0.09607107 0.18375827
000230 d6 c3 6e 3d fa 0a 16 be 71 23 2c 3e 44 85 62 3d
       0.058292232 -0.14652625 0.16810395 0.055302873
000240 fd f3 0a 3e 5e d2 12 be ea 1d de bd 67 7c 75 bd
       0.13569637 -0.14338061 -0.108455494 -0.059933092
000250 ba f0 70 3b b6 7a 1c 3e 7f 91 a8 bc 70 df 06 3e
       0.0036764578 0.15281186 -0.02057719 0.13171172
000260 7f 9b f4 3d 11 af 32 be c0 d2 2c 3e cb cd 46 3c
       0.11943721 -0.17449595 0.1687727 0.012134026
000270 70 a2 61 3e bf 48 5e 3d 82 7d 68 bd 59 fe 58 3e
       0.22034621 0.054268595 -0.05676032 0.21190776
000280 a0 45 3c be 1d 27 26 3d 70 1d c4 bb 23 db 38 3d
       -0.18385935 0.040564645 -0.0059849545 0.04513086
000290 e2 08 ec bd a1 25 54 3e 70 b2 1e bc d5 04 ba 3d
       -0.11525132 0.2071748 -0.0096860975 0.09082953
0002a0 57 d9 a6 3d 61 15 3b 3e 08 d7 9d 3d a4 e7 36 be
       0.08146923 0.18269874 0.077070296 -0.17861801
0002b0 fc d3 67 be a0 98 7e be d0 2a 64 be 91 dd 6b be
       -0.2263946 -0.2486291 -0.22281957 -0.2303374
0002c0 68 3e 3c bd 81 27 2b 3e 58 fe 8b bd b8 2a 30 3d
       -0.045957953 0.16714288 -0.068356216 0.04300949
0002d0 ff b5 30 bd 44 6b 2a 3e 8b f1 1a 3e e2 5f 00 3e
       -0.043142315 0.16642481 0.15131204 0.12536576
0002e0 f9 01 40 3e 28 b7 78 be df 61 02 be 0d 9e fe bd
       0.18750753 -0.24288619 -0.12732647 -0.124324895
0002f0 2e b3 91 3d f8 98 17 3e f1 93 07 3e 97 97 17 3d
       0.07114254 0.14804447 0.13240029 0.0370098
000300 ae c2 2c 3d 0c ae 8c bd 26 8e 72 3e ea 98 51 be
       0.04217785 -0.06869134 0.23687038 -0.20468488
000310 1f c8 4f be f1 94 6a 3e b7 1f d1 3d 3c f6 a1 3c
       -0.20291184 0.22908379 0.10211127 0.019770734
000320 96 6d 73 3b 96 75 57 3d 0b 10 95 3d 4f 70 05 be
       0.0037144176 0.052602373 0.072784506 -0.13031124
000330 39 88 93 3e 17 4e 81 3e 1c 64 0f 3d 0c 2e 61 3e
       0.28814867 0.2525489 0.03500758 0.21990222
000340 76 2c 3f bd 34 df df bd c5 b0 35 bd 39 a3 75 bc
       -0.04667326 -0.109312445 -0.044358034 -0.014992529
000350 34 68 14 3e cc 0f 94 3d 25 f3 6f bd fa 0a 7a be
       0.14492875 0.072295755 -0.05858149 -0.2441825
000360 57 5b e8 3d e7 3c 16 3e 24 f7 87 3d 35 9d 0f 3d
       0.11345547 0.1467167 0.06638935 0.035062034
000370 f9 1c dd bd 1a 19 81 3b ab 27 1f 3e 44 a1 e9 3c
       -0.10796542 0.00393976 0.15542476 0.02851928
000380 18 62 62 3d 22 4e 5b be 8a f8 a7 3c fe 83 dc bc
       0.05526933 -0.21416524 0.020504255 -0.026918408
000390 80 81 98 bd ad 87 0f be 6b 41 75 3e 7c b8 0a 3e
       -0.07446575 -0.140166 0.23950736 0.13546938
0003a0 0a 4c ca bd 36 f3 4f bd 8b d4 70 3d 8a 68 b6 3d
       -0.098777846 -0.050769053 0.058796447 0.08906658
0003b0 93 cd 42 bd 86 e2 d2 3d cd 40 04 3d 8d f0 18 3e
       -0.047559332 0.10297112 0.03228836 0.14935513
0003c0 34 fe b7 bd 32 3b 8d bd 4f 42 a0 3d a9 b1 24 bc
       -0.08984032 -0.06896056 0.07825147 -0.010052123
0003d0 9d 86 b2 bd dd f8 e1 3d c4 37 b7 bc cf ee ee bd
       -0.08717082 0.11033795 -0.022365458 -0.11666643
0003e0 33 4d 77 bd 50 34 e3 bd 22 ff b4 bc d8 10 42 be
       -0.060376357 -0.11093962 -0.022094313 -0.18951738
0003f0 91 ca 02 3e 10 7c 29 3e fc 6a 30 be 84 00 ea 3d
       0.12772585 0.16551232 -0.17228311 0.114258796

fc2.weight f4 [128, 256]
000000 b4 a5 10 be c4 a5 54 bd 4b d9 db bd d7 2b 21 3d
       -0.1412571 -0.0519159 -0.10734805 0.03934845
000010 63 6c 08 3e 20 9b 4e 3c d4 eb 8a bc e7 4c 5b 3d
       0.13322596 0.012610227 -0.016958155 0.053540137
000020 d0 b5 3f 3d 1a b1 ec 3d 21 37 11 be fe ca 04 3d
       0.04680425 0.11557217 -0.14181186 0.03242015
000030 fc 18 3b 3d 7c 70 56 b9 d3 e0 2b be 73 f7 b6 3c
       0.045678124 -0.00020450534 -0.16784982 0.02233479
000040 a4 09 9a 3d 12 53 eb bb 5d 61 c8 bd 46 b7 49 be
       0.0752137 -0.0071815336 -0.097841956 -0.1969882
000050 d9 ad 62 3d cb 04 eb 3d bf 81 d3 3b c0 0a a8 bd
       0.055341575 0.114755236 0.006454676 -0.082051754
000060 7e ab 7b 3d 3e f9 24 bc 24 e1 77 bd e1 4e ba bb
       0.061442845 -0.01006919 -0.060517445 -0.0056856726
000070 73 f0 97 bd 59 72 a5 3c 97 14 0c 3e 9c 56 26 bd
       -0.07418909 0.020196127 0.1367973 -0.04060994
000080 d5 df c7 bc 98 b6 e9 3d 61 3b 39 3c bc 21 72 be
       -0.024398724 0.1141178 0.011305661 -0.23645681
000090 60 7d a8 3d 22 7a 45 bd 71 de 2e 3d 12 19 cd 3d
       0.082270384 -0.048212178 0.042692605 0.100145474
0000a0 a1 6e f7 3d 62 3c 9b 3d 6b fe 84 3d 8a 7b c5 bd
       0.12081648 0.075798765 0.06493839 -0.09642704
0000b0 c4 a3 10 3e 93 50 98 3e 3b ff b2 3c 13 af 34 be
       0.14124972 0.29748973 0.021850219 -0.1764491
0000c0 7b de fc 3c 48 83 ee 3c 29 e9 67 bd 16 7c ed bd
       0.030867806 0.029115334 -0.056618843 -0.11595933
0000d0 2b f9 17 bc 53 1e a0 3c cd b8 2e 3c 95 ae 06 be
       -0.009275715 0.01954571 0.010664177 -0.13152535
0000e0 42 8f 78 bc 2b 23 24 be 8c e6 ae bd 3b 9a 1b be
       -0.015170874 -0.1602904 -0.08540067 -0.15195553
0000f0 ac 32 de bb 08 4d 22 3e 93 10 49 bd 1f b8 1d be
       -0.006780943 0.15849698 -0.049088072 -0.15402268
000100 08 19 e7 bd 30 cc 94 3d 56 08 02 3e e1 d5 e3 bc
       -0.11284071 0.07265508 0.12698492 -0.027811946
000110 18 65 f9 bd 93 14 12 bd 49 cc 8a 3d db 67 2f be
       -0.12177485 -0.035664152 0.067772456 -0.17129461
000120 8a a0 f9 bd e7 85 4d 3d 7e 45 dd bd 43 43 54 bc
       -0.121888235 0.050176527 -0.1080427 -0.01295549
000130 6d 89 8a bc 8b 18 79 be f8 12 60 3d c9 5f f2 ba
       -0.016911233 -0.24325769 0.05470559 -0.0018491681
000140 ee ff 4a bd bf 10 a1 be b7 29 f6 bd 56 6a c2 3d
       -0.04956048 -0.3145809 -0.12019675 0.09492938
000150 d6 2a f9 3d 55 4e 85 be 46 ba 37 3d 30 81 88 bd
       0.121663734 -0.26036325 0.04485538 -0.066652656
000160 09 a0 9e bd e6 0a 90 3d 2d 05 82 3e 70 5f b4 bd
       -0.07745368 0.07033329 0.25394574 -0.08807266
000170 50 0e ab 3b 85 99 12 3d ce b4 81 bc 68 c6 b4 3d
       0.005220212 0.03579094 -0.015833285 0.088269055
000180 0a cb b7 3d 39 94 34 be ab 13 ae bc ff 56 0e bd
       0.089742735 -0.17634667 -0.021249613 -0.034750935
000190 2d 26 93 bd 37 67 04 3e d6 00 4c 3d a0 95 f7 3d
       -0.07185016 0.12929998 0.049805485 0.120890856
0001a0 3d 86 14 3d c3 87 a2 bd f2 eb 00 3e c1 3d 2e 3e
       0.036260832 -0.07936051 0.12590006 0.17015745
0001b0 d4 33 0a bd 58 45 6b 3e f6 3d c1 bd cb 50 8a be
       -0.033740833 0.22975671 -0.09435646 -0.27014765
0001c0 69 77 92 bc 52 7a d7 3d 1d 0a bd bb 66 59 8c 3d
       -0.017879205 0.105213776 -0.005769028 0.06852989
0001d0 8e 17 28 3d 5e a2 0d 3e c0 1b 80 bd 47 88 e8 3c
       0.04103809 0.1383147 -0.06255293 0.028385295
0001e0 b2 7c 6e 3d 26 ce ae bd 03 29 88 bd 20 24 a3 bc
       0.058224387 -0.085354134 -0.06648447 -0.019914687
0001f0 31 59 97 bc a4 80 1a 3e 40 26 8c 3d c1 c2 3f 3c
       -0.018475147 0.15088135 0.06843233 0.011704148
000200 be 94 22 3d ad b8 cb 3d e0 e5 34 bd 8a a7 0b 3e
       0.039692633 0.099473335 -0.04416454 0.1363813
000210 90 69 38 be 9f c3 b4 3d 88 ab 2b 3e 83 f4 0c be
       -0.18009019 0.08826374 0.16764653 -0.13765149
000220 e9 50 51 3c 25 51 26 bb 09 f6 a7 bd a7 fd 91 bc
       0.012775638 -0.0025377956 -0.08201224 -0.017821146
000230 67 4c 43 bd 5c a4 ad 3b 0e 30 ac 3d 3a 4b 33 bd
       -0.047680285 0.005299134 0.08407603 -0.043772914
000240 24 7c 24 3c 2a 36 ea 3d a1 ce 49 bd de c0 29 bd
       0.010039363 0.11436112 -0.049269322 -0.041443698
000250 fb 23 7e bd a8 a6 f5 3d 55 b5 c2 3d 2c 9e 32 bd
       -0.062046032 0.11994678 0.095072426 -0.043607876
000260 94 c6 d6 bc bf 92 91 bc f0 64 c7 bc 90 37 55 3d
       -0.026217736 -0.01777017 -0.024340123 0.05205494
000270 2d 11 57 be 5a fb ba 3d 3e de 5c 3a a0 17 fb 3d
       -0.21002646 0.09129973 0.00084254507 0.122603655
000280 12 d4 3a be 79 b5 54 bd ea 6c 12 3e 46 f7 e5 3d
       -0.18244961 -0.05193088 0.1429936 0.11228804
000290 dc 13 43 3d 50 4b a2 bd f4 95 7a 3d 23 6f 10 be
       0.04762636 -0.07924521 0.061178163 -0.14104895
0002a0 c5 5b b3 3d f5 46 65 be c7 f0 d1 3c be fa c8 bd
       0.08757738 -0.22390349 0.025627507 -0.0981345
0002b0 c6 af 1f bd f5 26 44 3c 8f 08 13 3e 5c 12 81 bd
       -0.03898599 0.011972179 0.14358734 -0.0630233
0002c0 b6 b1 4a bd 44 f4 33 3d 8b 1e b9 3d 8c 65 8e bc
       -0.049485885 0.04393412 0.09039029 -0.017382406
0002d0 f4 72 8c 3d fb 23 7d 3a 2a df 8c 3e 42 fe 81 bc
       0.06857863 0.00096565456 0.2751401 -0.01586831
0002e0 4a 30 e5 3d 41 bd 60 3e dd 65 16 be 62 cb 3d 3d
       0.11190851 0.21947195 -0.14687295 0.04633654
0002f0 70 08 9a 3d e0 d8 35 3e 46 67 aa bd 50 0b 80 bb
       0.075211406 0.17758512 -0.08320479 -0.0039075986
000300 97 5a 96 bc bc 39 f2 bd 68 23 7e bd 71 9d 5c 3d
       -0.018353743 -0.11827418 -0.062045485 0.053861085
000310 14 ee 00 be 07 6d 90 3c d5 78 87 3c 35 af 12 3d
       -0.1259082 0.017630113 0.01653711 0.03581162
000320 6a 7c 13 3e 31 42 98 bd e7 ca 46 3d 75 d4 b7 3d
       0.14402929 -0.074345 0.048533347 0.0897607
000330 83 b4 16 3e e2 b7 84 bb 27 7d 5a bd d8 a0 c5 3c
       0.14717297 -0.004050241 -0.05334201 0.024124548
000340 2c 2d f1 3c 78 15 95 3d e6 f6 1a bd f8 44 e7 3c
       0.029440485 0.072794855 -0.037833117 0.028231129
000350 cd 07 67 be 8c a4 56 bd 0b b3 06 3e 6b 7a 49 be
       -0.2256157 -0.052403018 0.13154237 -0.19675605
000360 58 19 43 3d 17 bf 7e 3d 5d 69 ef 3c 9b e4 16 be
       0.04763159 0.062193956 0.029225046 -0.14735644
000370 0b d8 09 be c8 88 99 3d 98 17 3e 3e 07 db 95 3d
       -0.1346132 0.07496792 0.18563688 0.07317167
000380 8c 26 6d bc 6e 73 ae 3d 48 5d 87 3c 84 47 19 3d
       -0.014474522 0.0851811 0.016523972 0.03742172
000390 07 5c 51 be 7e 98 62 bd 7c f4 37 3c d7 31 64 bd
       -0.20445262 -0.05532121 0.011227723 -0.055711593
0003a0 11 72 0c bd 66 21 11 3c ab cf 0b be 8d ea a8 3d
       -0.03428847 0.00885806 -0.13653438 0.08247862
0003b0 dd 54 1d 3d f9 c6 cd bd 06 dc 7c 3d a6 e7 a1 3b
       0.03841101 -0.10047717 0.06173327 0.0049409447
0003c0 57 dc 0a bd 1b 91 e3 bd 32 a3 ec 3d d2 07 3f bd
       -0.03390154 -0.11111661 0.115545645 -0.046638317
0003d0 0f 0c fb 3d d9 ca 24 3e 1f 45 ff 3d c9 99 93 be
       0.12258159 0.16093005 0.12464356 -0.28828266
0003e0 0d 9e 9c bd c2 cd 40 3c 90 16 8c bc eb b2 cb bc
       -0.07647333 0.0117678065 -0.017100602 -0.024865588
0003f0 b3 64 fd bb 5c cf 86 3c ff 88 91 3d 6c 60 3e be
       -0.0077329515 0.016456299 0.07106208 -0.1859147

fc2.bias f4 [128]
000000 dc 8a 6e 3d cc 67 97 3d 4e f2 71 bd 64 14 04 bc
       0.058237895 0.073928446 -0.05906897 -0.008061502
000010 7b 79 29 3c 22 77 0b 3c 5b 70 6d 3c 2e ab 74 bd
       0.010343905 0.00851229 0.01449212 -0.059733562
000020 f9 7b 56 3c 98 62 22 3d 89 66 99 3d 85 95 1e 3d
       0.013091081 0.039644808 0.0749026 0.03871681
000030 d8 84 0e 3c 56 31 41 3c 42 8b 28 bd 01 9d 74 3c
       0.008698665 0.011791548 -0.04114843 0.014930011
000040 31 f1 c6 bc c6 79 29 3d fd e2 86 ba 4d 4f ce 3a
       -0.02428493 0.041375898 -0.0010291036 0.0015740186
000050 08 81 67 bd 47 b7 62 3d 36 a6 6b 3d f8 9a 67 3d
       -0.05651954 0.05535057 0.057531558 0.056544274
000060 5f 61 4b 3d 88 f1 c0 bc a4 3e 82 bd df 5b 14 3b
       0.049653407 -0.023552671 -0.06359604 0.0022637767
000070 1f 8a 2e 3c 42 ca 51 bd c7 c3 66 3c 27 61 e8 3b
       0.010653048 -0.05121828 0.014084763 0.0070916596
000080 53 40 cb bc 36 cc 7c bc 47 09 8e bd 6c 2c ae 3c
       -0.024810946 -0.015429547 -0.06935363 0.021261416
000090 db 21 2f 3d ef 3a c3 bc 22 2b 57 3c 72 3d 2d 3c
       0.042756896 -0.023831813 0.013132842 0.010573732
0000a0 3f 31 91 3d 13 0f 6b 3d af f9 a1 3b c2 c8 42 3d
       0.07089471 0.057387423 0.0049430947 0.04755474
0000b0 67 57 5d 3d 8e c9 83 3b 71 41 4a bd df 0f 94 3d
       0.05403843 0.00402183 -0.049378816 0.0722959
0000c0 91 27 5b bc 23 d9 56 bc a7 c9 29 bd 9a 10 17 be
       -0.013376133 -0.013113293 -0.041452076 -0.14752427
0000d0 59 7c c2 bd 75 61 01 3d be 9b 65 bc ee a5 9d 3d
       -0.09496374 0.031587083 -0.014014183 0.07697664
0000e0 5d 9a 16 3a 28 89 64 3d 3c 4f 64 3b 35 84 e6 3c
       0.0005745048 0.055794865 0.0034837266 0.028139213
0000f0 4a 3c 0f bd 52 5b 2a bc a6 46 29 bb cb 33 60 3d
       -0.034969606 -0.010397749 -0.0025829463 0.054736894
000100 ca 61 99 3d cc bf e9 3d 1e 7d 24 bd a4 c7 ba bc
       0.07489355 0.114135355 -0.040158384 -0.022800274
000110 79 53 fa 37 c0 9e e3 3c 40 d6 8c bb 39 24 76 bd
       2.9841192e-05 0.027785659 -0.0042980015 -0.06009314
000120 8b 8e 7e 3d 9d 3e 7e bc 25 b3 2d 3d 33 cc 99 3d
       0.06214766 -0.015517858 0.042407174 0.07509651
000130 65 12 7d bd 54 79 ad 3d 1e 61 7e bd 09 c7 82 bd
       -0.06178512 0.08470407 -0.062104337 -0.06385619
000140 06 e9 e7 3c 64 2b cc bc b5 2a 88 3c 38 42 8d bc
       0.028309356 -0.024923034 0.016621927 -0.01724349
000150 a3 9b 95 3c c4 ae 30 bd a0 1d 23 bd ec ef 75 bd
       0.01826269 -0.04313542 -0.039823174 -0.06004326
000160 ce fe c6 3d 9f b4 4f bd b4 eb 00 3d 73 55 26 3d
       0.09716569 -0.050709363 0.031474784 0.040608834
000170 80 a8 b6 3b d1 c1 aa bc c2 a8 c4 bc 9e ea d2 3c
       0.005574286 -0.020844372 -0.024006251 0.02574664
000180 e6 8f 75 bc 62 f1 d1 3c be 8d 27 3d e8 66 4b 3c
       -0.014987921 0.025627796 0.04090666 0.0124146715
000190 5f db c4 3d a5 a1 12 3d 76 d6 87 3c 1a 24 19 3d
       0.09612154 0.035798687 0.016581755 0.037387945
0001a0 8c 0f 15 be 1c 94 d1 bc cf b1 cf 3c b0 16 88 bb
       -0.14556712 -0.02558332 0.02535334 -0.004153095
0001b0 af be 98 3c 27 f3 c6 3d 2e 76 54 bd 51 ae cf bc
       0.018645613 0.097143464 -0.051870517 -0.025351675
0001c0 3f 0f 99 3c f5 be be 3d dc 41 72 3d 4b 9d 98 3c
       0.018684028 0.09313766 0.05914484 0.01862969
0001d0 04 ae 3c bd f6 b6 7a bd 30 4a 8e 3d 2a 84 10 bd
       -0.04606439 -0.06120964 0.06947744 -0.03528229
0001e0 32 bf d9 3c 8f ac 97 3d 65 9a 1b 3d 3e a0 cb bc
       0.026580427 0.0740596 0.03798904 -0.024856683
0001f0 ac 7a 49 3d f4 9d 00 3d a6 53 98 3d db 37 27 3c
       0.049189255 0.031400636 0.0743783 0.010206188

fc3.weight f4 [2, 128]
000000 d1 96 1b 3e f9 db 02 3c af 36 55 3d dc de 6f bc
       0.1519425 0.007987016 0.052054103 -0.014640536
000010 83 ae 5e 3e 7a fd e8 bc ee 62 92 bc 4b 01 c1 3d
       0.21746258 -0.02844118 -0.017869439 0.09424075
000020 a4 52 24 be 99 6c 00 be b7 38 9a 3d bb 54 86 3d
       -0.1604715 -0.12541427 0.07530349 0.0655913
000030 d5 2d 2d 3d 4f 9d 57 bd 9f ae ea 3c 47 af 77 3d
       0.042280037 -0.052640256 0.028647719 0.060469892
000040 08 12 31 be 9e dd f3 bc 4e 46 5e bd f2 55 46 3c
       -0.17292035 -0.029768761 -0.054266267 0.012105452
000050 b8 3d 2c bf d7 d6 29 3e db f0 9a bd c5 5a 3c bd
       -0.67281675 0.16585861 -0.07565471 -0.045985002
000060 16 d5 83 3d bd 38 8f 3c c9 12 05 be 0a 06 c8 3d
       0.06437127 0.01748311 -0.12995447 0.09766777
000070 2b ce 83 3d 05 7f 8f be 67 3c c5 bb d1 5c f7 3c
       0.06435808 -0.28026596 -0.0060191634 0.030195625
000080 f1 6b 3f 3d a7 89 f1 3d 3b 0b dd bd 61 6b 1b 3e
       0.0467338 0.11793833 -0.10793158 0.1517768
000090 32 7a 25 be e1 a7 c2 be 58 5d e5 be 74 2c c3 bd
       -0.16159895 -0.38018706 -0.44797778 -0.09529963
0000a0 51 cb 50 bd 6c ab 85 be 35 62 72 3d cb fe 1f 3d
       -0.050975148 -0.26107347 0.05917569 0.03906135
0000b0 a7 f4 b6 3d e9 b4 c8 bd 8c a1 0e 3d 79 b1 49 bd
       0.089333825 -0.09800131 0.03482203 -0.049241517
0000c0 ce 58 4b 3e 4e c3 c0 3d 23 55 6a 3d b3 85 d3 3e
       0.19858095 0.094122514 0.0572101 0.41312942
0000d0 2c 31 d6 be d7 cb ff bd dd c6 71 3d 29 2f af 3d
       -0.4183439 -0.12490051 0.05902754 0.08553917
0000e0 83 af de 3c 8e 0b bd bc e3 14 a6 be 79 41 f8 3d
       0.0271833 -0.023076799 -0.3243781 0.12121863
0000f0 5a 94 2c 3d 86 40 99 3d 4d 23 59 3d 2e 10 a3 3d
       0.042133667 0.0748301 0.05301218 0.079620704
000100 6a b5 b0 bd 54 b7 4d bc 01 d6 9d 3b 86 35 a7 be
       -0.08628352 -0.012555916 0.004816771 -0.32658023
000110 29 10 af bd 31 0d 3f 3d a0 eb 38 3e 2b 47 aa 3b
       -0.08548004 0.04664344 0.18058634 0.005196472
000120 93 8d 4a 3e 79 46 1e 3d 0c 6c 26 be 73 98 8b bd
       0.19780569 0.038641427 -0.16252154 -0.06816187
000130 81 4d b5 3d 3a 80 65 bd 3f e7 b0 3e ad 0e 3d be
       0.08852673 -0.05603049 0.34551427 -0.1846263
000140 f8 46 8c be 08 f4 10 3d 7e f9 05 bd 31 4f 02 3e
       -0.27397895 0.035388976 -0.032708637 0.12725522
000150 cc f5 c4 3d fe 1a 82 3d f3 b4 d7 be c2 ec 8c 3d
       0.096171945 0.063528046 -0.4213024 0.068810955
000160 df 00 1e bd 32 e1 14 3d 6c 3d 13 3d cf 5a a4 3c
       -0.03857505 0.036347575 0.03594725 0.020062832
000170 a4 f1 a7 3a 97 1d b3 be d1 16 df 3d 2b 9b 89 be
       0.0012813103 -0.34983513 0.10893024 -0.26876196
000180 9b b8 07 3e d3 ee 3d bd ed ea 3a 3e a8 07 27 3e
       0.13254015 -0.04637034 0.1825368 0.16311514
000190 90 80 de 3d 66 5e a6 be 38 5f 69 3d cb ea 76 be
       0.10864365 -0.32493895 0.056975573 -0.24113004
0001a0 7f 7e 31 3e 6d eb a5 bc 81 e9 e7 be 3c ec 53 3e
       0.1733341 -0.020253861 -0.45295337 0.20695585
0001b0 8b c5 0b be 48 d3 5c be cb 1a 09 3d 49 03 0e 3d
       -0.13649575 -0.21564972 0.033472817 0.0346711
0001c0 d8 25 ae bd 7d 19 7f bd f4 e7 be bd a5 17 89 be
       -0.08503312 -0.062280167 -0.09321585 -0.26775852
0001d0 49 f3 9c be 14 59 a1 be 6a d3 08 3e db fa 48 be
       -0.30654362 -0.31513274 0.13361898 -0.19626944
0001e0 e6 2c 9a 3d e0 f7 92 be 35 89 10 3b 13 5b e5 3d
       0.07528095 -0.2870474 0.0022054438 0.11199012
0001f0 31 0b 23 3e 1b 6e 3d be 86 95 e4 3d f0 04 48 bd
       0.15922238 -0.18499033 0.11161332 -0.048832834
000200 4b 68 8e 3d 2b 6e 4e 3e 13 9a 7f 3e 2e de 1c be
       0.06953486 0.20159213 0.24961118 -0.1531913
000210 d7 e6 ea 3d e1 65 f0 bd 5d 55 b4 3e 97 ed a0 bd
       0.114698105 -0.11738182 0.35221377 -0.07857817
000220 15 f4 bf 3d aa b3 81 3e 67 d6 66 3e 8c 2b 09 bd
       0.09372727 0.25332385 0.22542726 -0.033488795
000230 a5 f2 93 3e 87 a1 b5 bd ce f1 a4 bd ad 4c e0 3d
       0.2889606 -0.088686995 -0.08053933 0.10952125
000240 6c 5b 68 3e c8 1b e0 bc 94 98 f3 3d 10 a7 6b 3e
       0.22691125 -0.027356997 0.11894336 0.23012948
000250 67 45 93 3e 5b e4 a3 3e c8 51 9b bd f1 5b 02 3e
       0.28763887 0.3201016 -0.07583958 0.12730385
000260 43 bc a8 bd 23 1a 94 bd 75 0d 4a 3c 03 12 89 3d
       -0.08239033 -0.07231548 0.01233231 0.066928886
000270 c1 b5 92 3e 2b 0d 17 be b1 37 b3 bd a2 59 c1 bd
       0.28654292 -0.14751117 -0.08750857 -0.09440924
000280 c6 e9 96 3e d4 bf 2c 3e db b9 c1 3d 6a 85 40 3e
       0.2947523 0.16870052 0.09459277 0.18800893
000290 c4 19 7d bc d1 4c 2a 3d c6 5b 9b bc 89 0a 8b 3e
       -0.015448038 0.041577164 -0.01896466 0.27156475
0002a0 d9 29 a7 3e b5 26 8a 3e 25 ec 8a bd 58 b1 7b be
       0.32649115 0.26982656 -0.06783322 -0.2457937
0002b0 9d 7b 44 3e 0c 07 c0 bd e7 ec 53 bd ed 70 ca bd
       0.1918778 -0.09376344 -0.0517396 -0.0988482
0002c0 6f db 8d 3e 12 fd ff 3d b2 26 b2 3d 7f 27 b4 3e
       0.27706477 0.12499441 0.08698787 0.35186383
0002d0 1f 9b 32 3e 89 db 18 bd 00 79 5a be 6f 49 20 3d
       0.17441987 -0.03731874 -0.2133522 0.03913253
0002e0 e3 63 65 bc 52 7e d4 bd ef 4d a4 be 8d 71 8b 3e
       -0.014000866 -0.10375656 -0.3209071 0.2723507
0002f0 d9 c0 0c 3d f3 c8 ae 3e f9 e5 08 3e ef df 3c 3e
       0.0343636 0.34137687 0.13368978 0.18444799
000300 67 19 61 bd e0 97 fd 3d d1 fd f7 bd c4 6e 85 3c
       -0.054955866 0.123824835 -0.121089585 0.016288169
000310 51 88 8f bd f0 f0 9e 3c d5 b4 0e 3e 5c 4e 01 be
       -0.07008422 0.019401997 0.1393617 -0.12627548
000320 3f 45 8e 3e b4 ce 99 bd 2c 56 10 bc d6 9a 57 bb
       0.27787206 -0.075101286 -0.0088096075 -0.0032898686
000330 c5 c7 1e be c1 b5 80 bd 48 28 23 be 19 55 c0 3e
       -0.15505894 -0.06284667 -0.15933335 0.37564924
000340 36 8b 1b bd e8 a8 e7 bd 48 bd bd bd 8f 8e 29 3e
       -0.03797456 -0.11311513 -0.09264618 0.16558288
000350 28 13 03 3f 6a a9 fd 3d e3 03 25 3e a3 3f 6f 3e
       0.51201105 0.12385829 0.16114764 0.23364119
000360 0f c1 17 3d c1 06 32 bd a4 b6 42 bd 20 ad a7 bd
       0.03704935 -0.043463472 -0.04753746 -0.08187318
000370 90 4e de 3a 55 8e 0e bc 45 aa 35 3e 98 37 6a 3e
       0.0016960669 -0.008700927 0.17740734 0.2287277
000380 76 28 b1 3e a3 06 8f bd c8 5e ca 3d 79 9e 40 be
       0.34601182 -0.06983688 0.09881359 -0.18810453
000390 bf ca e6 3d b0 81 cf 3e 11 a3 3a 3e 9c 5f 80 3e
       0.112691395 0.4052863 0.18226267 0.25072944
0003a0 45 73 92 3e 11 06 b8 bd 05 4c 7b 3d bf a5 37 be
       0.2860357 -0.08985532 0.061351795 -0.17934321
0003b0 47 e9 40 3e 26 ec 49 3d 24 67 de bc b0 3a 25 3e
       0.18838988 0.049297474 -0.02714879 0.16135669
0003c0 89 d7 0c 3e 27 40 b8 bd 88 ec 42 3e 13 71 4a be
       0.13754095 -0.08996611 0.19035542 -0.19769697
0003d0 81 12 ec be 73 96 be 3d 52 b2 af bd d8 5f 21 bc
       -0.46107867 0.0930604 -0.08578934 -0.009849511
0003e0 1f 8f a0 bb 9a 0b 22 3e 07 4f f3 bd 3f b0 bc 3d
       -0.004899874 0.15824738 -0.11880308 0.09213304
0003f0 d7 53 3e 3e 01 21 9a 3e 39 f2 df 3d 27 92 b4 bd
       0.1858667 0.30103305 0.10934872 -0.08816939

fc3.bias f4 [2]
000000 10 be 8c bc 9e 1d 29 3d
       -0.017180473 0.04128801
