No_multi_checkpoint_actor1.pth (torch_old, 159146 bytes, 6 tensors)

fc1.weight f4 [256, 24]
00000000: 2305 883d 8229 82bb 41f8 893d 37fb adbb
00000010: 9a7f 1abd 8ded a73d df46 933d 52d7 923d
00000020: 12d5 793c 7ea0 963d 735a 48bd 9d47 d33c
00000030: eb2c 883d ee82 16bd 1d4d 573c 64c4 a13d
00000040: 617c 28bd cfcd 083d 5498 f4bc e35e 0b3e
00000050: d8a5 b33d afc2 61be a998 113d a33c ba3d
00000060: 6e96 80bd 6f59 0b3d e275 8dbd 0e09 433e
00000070: 018d 743d 7129 5fbd 5c09 78bd bf1b c83d
00000080: c654 a7bd 5b06 9e3c a5c7 0f3d 91eb 903d
00000090: ed7f 9fbc cd33 0fbd 74ca 49bc 9786 a53d
000000a0: 4b7d babc 5921 353d 75c9 b4bc a8b7 a2bc
000000b0: 4006 303d d5c1 c03c b99b bd3c 944d 6ebd
000000c0: 3690 74bc 1ccc 6eb9 27da 9e3d dcc3 1abe
000000d0: da6a f8bd 8836 30bd f969 aabb b004 52be
000000e0: 033a 7b3d 420f 8dbd 38c8 cfbb cf09 56be
000000f0: 5026 c8bd 1492 f2bd 286c 523c f5b9 41be
00000100: 0886 7b3d be0d 0abe 9923 18bd 84b2 28be
00000110: 65a3 b1bd 3c50 60be 7259 173c 928a b7bd
00000120: 0d2f 86bc 91f7 b2bd cedf cb3c 3115 c7bd
00000130: 12ea b23b 0696 9fbc 2980 473d a356 d5bd
00000140: 6342 8cbd cf5a 88bd d0d2 51bd f9ec 5fbd
00000150: f90e 9f3c 57c0 fe3c 0b5c 51bc 2ab8 8c3c
00000160: 15c4 293d 0631 673d 898a adbc 2641 bc3d
00000170: ebf6 e9bc aa50 f53d d735 9a3d c4c9 f83d
00000180: c2b5 783d 6f68 0bbe 520c 9b3d 40a7 bd3b
00000190: 9732 503e bd45 2b3e 470f f6bc ce15 88bd
000001a0: 0659 023d 633e 16be dbb2 c63c 89e3 aebd
000001b0: eb38 1f3e 9a17 683e 1864 3d3d ee27 94bc
000001c0: 18d4 973d d1a4 2fbe 97b2 cf3c 7172 ae3c
000001d0: 89f7 3b3d 8272 733e 6511 833d af65 b73d
000001e0: 7cca a73c 7c49 ac3a c8a4 a23c 6fbd b1bd
000001f0: 77bd b03d 2767 1bbd 1ad8 c83d 5968 8cbd
00000200: 7486 cdbc d110 c83d dd34 ddbb 5721 a33c
00000210: da63 5a3c 224d 2ebc d437 793d 6cf4 3b3d
00000220: 3924 533d 4859 003d b32c 893d 7a87 ff3d
00000230: 23fd ac3c 772d d53d bf0d 9a3d 9ce0 c93d
00000240: f04c 36be 69b2 3cbc 2235 423d 2442 eabd
00000250: 41e9 2b3d 9bbd 57bd f050 993d f78c cbbc
00000260: ad06 10bd 0a74 4b3d 14ee 813d 4f07 19bd
00000270: 0c17 9abd ed82 433d 31d8 2c3d a895 eebc
00000280: aec0 92bd 110e 623d 3567 693d 3c09 9f3d
00000290: d8a3 80bd 5da9 a8bc f9fd 603d be0a de3d
000002a0: fc1b bfbd 67cf 6b3d 46e1 c5bc 6657 5bbc
000002b0: 4436 483e 4e21 43bc 6c31 763b 247c 72bd
000002c0: a29a e0bd 5fce 3c3d 075f 0fbd 608c ecbd
000002d0: 4e58 c73d 36b7 de3d bddf b0bc 802c ddbd
000002e0: 9b02 6dbd 9359 ca3d ef98 09bd 6b20 f3b9
000002f0: 033b 613d 7235 883d 83ef 2f3d 9f72 a3bc
00000300: 777e b7bd 4421 1d3e c0ab a33d 4035 c1bc
00000310: c11f 833c 54a7 93bc 5eb2 a83d f27e 48bd
00000320: 35c3 20bd 3a4a 9d3d ef16 c23c b20f 84bd
00000330: da9f b83a 2d80 433d a6d7 333d 7bc7 22bd
00000340: 466d 2dbb 9495 b43d 5d43 913c 3aa2 87bc
00000350: d52f 39bd c7ad 663d 9c8c 75bd d1a1 a9bd
00000360: 9296 153d e458 9ebd 40d0 15bb c0ea dabc
00000370: dd1a 02bd 56b1 083e 3f65 2bbc 01a0 15bc
00000380: 53f5 23bd 1657 13bd 2717 a33d 8590 cc3d
00000390: f612 b3bd f1af 003e 0ac4 0c3d 4960 f23c
000003a0: dc6e 033d b436 b33c 6a7c 43bd bb2c 2f3e
000003b0: 08a7 18be cf86 c3ba 3aa3 493d 356d 143e
000003c0: 5f6c c4bd e2c4 44bd 04e7 393c be56 393d
000003d0: 308b 46bc bf64 033e 9d35 febc c3e3 ce3d
000003e0: e723 37bd 2ac7 d7bc c7b2 703d 1c8f 513d
000003f0: a5a1 643d f5ef 823d d28a 8e3c f9c6 943d
0.06641605 -0.0039722333 0.06736804 -0.005309488 -0.037719347 0.08199606 0.07191252 0.07169975
0.015248554 0.0735483 -0.048914384 0.025790984 0.066491924 -0.036745958 0.013140944 0.07898787
-0.041134242 0.0333994 -0.029857792 0.13610415 0.087718666 -0.22046922 0.03554598 0.09093597
-0.06278692 0.034020837 -0.0690725 0.19046423 0.059704784 -0.05448288 -0.0605558 0.09770917
-0.08170466 0.01929014 0.035102505 0.07076181 -0.01947018 -0.03496151 -0.012316335 0.080823116
-0.022764822 0.044221256 -0.022068718 -0.019862965 0.04297471 0.023529926 0.023145543 -0.058179453
-0.014926961 -0.00022773485 0.07756453 -0.15113777 -0.12129755 -0.043020755 -0.005200621 -0.205096
0.06133462 -0.06887676 -0.0063410066 -0.20902179 -0.097729325 -0.118442684 0.012843169 -0.18918593
0.06140712 -0.13481805 -0.037143324 -0.16474348 -0.08673743 -0.21905607 0.009237634 -0.08961977
-0.016379857 -0.08738626 0.024886992 -0.09720839 0.0054600323 -0.019480716 0.048706207 -0.10416915
-0.068486 -0.06657945 -0.051226437 -0.054669354 0.01941632 0.031097574 -0.012778292 0.01717766
0.041446764 0.056443237 -0.021184223 0.091921136 -0.028560122 0.11978276 0.075298004 0.12147859
0.060720213 -0.13614057 0.07570709 0.00578776 0.20331798 0.16725822 -0.030036582 -0.06644784
0.03182318 -0.14672236 0.024255207 -0.08539493 0.15549056 0.22665253 0.046238035 -0.018085446
0.074135005 -0.17152716 0.025353713 0.021294804 0.045890365 0.2377415 0.06399802 0.089549415
0.020482294 0.0013144459 0.019853964 -0.0867871 0.086298876 -0.03794017 0.09806843 -0.0685584
-0.025088526 0.097688325 -0.0067506866 0.019913359 0.0133294705 -0.010638507 0.060844257 0.045887396
0.051548216 0.031335145 0.06697979 0.12477012 0.021116799 0.10409062 0.07522153 0.09857294
-0.17802787 -0.011517146 0.047413953 -0.114383966 0.041970495 -0.052671056 0.07486141 -0.02484749
-0.035162617 0.04967121 0.06344238 -0.037360486 -0.07523927 0.047732282 0.042198364 -0.029124096
-0.07165657 0.055189196 0.05698319 0.07765433 -0.06281251 -0.020588571 0.054929707 0.10841893
-0.093315095 0.05757084 -0.02415527 -0.013387537 0.1955195 -0.011909796 0.0037566079 -0.05920042
-0.10966994 0.04609525 -0.035002735 -0.11550212 0.0973364 0.108747885 -0.021591062 -0.10799503
-0.057863813 0.09880366 -0.033593114 -0.00046372725 0.05498792 0.06650819 0.042953026 -0.019952117
-0.08959668 0.15344721 0.07991743 -0.023584962 0.016006352 -0.018024124 0.08237146 -0.04894919
-0.039248664 0.07680173 0.023692576 -0.06448306 0.0014085725 0.04772966 0.04390683 -0.03974102
-0.0026462837 0.08817592 0.017732317 -0.016556848 -0.04521163 0.05631807 -0.05994855 -0.08282817
0.03652055 -0.07731798 -0.0022859722 -0.026723266 -0.0317639 0.13348898 -0.010461151 -0.009132386
-0.04002888 -0.035971723 0.079634 0.099885024 -0.08743851 0.12567116 0.034366645 0.029586928
0.032088146 0.02187667 -0.047726072 0.17106907 -0.14907467 -0.0014917495 0.04922793 0.14494784
-0.09590983 -0.048039325 0.011346582 0.04524874 -0.012118146 0.128314 -0.031031424 0.10102036
-0.044711974 -0.026340086 0.058764245 0.05116187 0.05581822 0.063934244 0.017400179 0.072645135

fc1.bias f4 [256]
00000000: a2e3 26bc 89dd 853d 9815 013e 7c65 833d
00000010: 41a6 203d b765 79be 492c 5dbe 821d 4fbc
00000020: 9285 2bbe 40a2 11be da86 243d 71f9 e4bb
00000030: 58f6 d43d 678c 51be 6ef4 0c3e eee1 7c3e
00000040: 237a 8a3d 8dcf 843d 68f8 87bd 10b2 18be
00000050: 3901 5f3d 93e5 a7bd 0bfd bfbd 896b 66be
00000060: 5614 e63b 6da9 30be 9657 8e3d b6f3 5bbd
00000070: de49 1dbb 0ede 993c 9c80 b1bd c829 c8bd
00000080: 1251 76bb 5dce 4d3d 82c0 28be d39b d63c
00000090: 2da4 40bd ded8 6d3e 0118 ccbd e877 353d
000000a0: 5212 3cbc 77ec 6bbe 1988 32bd 68d9 1fbe
000000b0: 8f32 343d 0dcf 1fbd 5606 b1bd 2e04 14be
000000c0: 8604 483e 28cb 1b3d bcd3 17be fdb0 f53d
000000d0: c88e 32be 590d 72bd 5ab4 323e 2717 b3bd
000000e0: 3d27 663e c6d3 5ebd bce0 a2bd 6ea8 563e
000000f0: bde7 a43d 2cf5 ae3d cbfd 94bd 32d8 3dbd
00000100: 0b33 733d ffd1 16bb fc71 09be 1eda f43d
00000110: c843 81be d8fb 09be 34aa d03b cb7b aebd
00000120: b06f 0abe e3e9 65bd 1d31 4bbd 99bd ec3d
00000130: 5ade 08bd fc2b 883e bd77 1f3e a48c 233d
00000140: 73e8 403c 3eec 15be 29c4 33be aa6d 28be
00000150: f1a1 3b3d 1741 a3bc b05d dfbc cd9c 963d
00000160: 9895 02bd 80f9 1e3e 65eb 803d cb54 e0bc
00000170: 7787 cfbd 63bb 013e 66da 57be daa8 06be
00000180: fa64 693e fb43 dbbd 5cfd 6d3e ff37 b03c
00000190: 156e b13d c0fd 0dbd 4f69 db3d 382a a63d
000001a0: e9a5 833c dd2b 673e aa4b 3b3e d23c bb3d
000001b0: 40bd c83d ac6e 853d 0fc2 cb3c 67f3 3cbe
000001c0: 9868 95bd 8bac 0ebe dafc a8bd 2e4a 5a3c
000001d0: a2da 313e 9686 debd 7d42 32be e5a0 4d3e
000001e0: c7c2 e6bd 73a0 26be f744 1e3e ffa7 0e3e
000001f0: 4bd9 113d fa93 ce3c d1c6 9d3d 69c3 9f3d
00000200: 16f9 893d 1181 babd 81aa 5ebe d1a5 223e
00000210: 5f1e 2ebe e72f f03d a116 d43d 1b6f 363e
00000220: 4e13 dd3d 615d 623d a39f 943c aefd a33d
00000230: 4447 9a3d 176d 07be f9c3 103e ed40 0b3e
00000240: 1087 a03d 3f02 14be b71b 91bd 9f02 11be
00000250: cdfb 39bd a8e2 253e ebe9 0e3e 8137 833e
00000260: 1cc3 0a3e 4560 83bd 5874 833e 479f f33c
00000270: 3f05 de3d 0acc 993d cfa5 d4bd 8fdb 073e
00000280: b149 2abe 0c6c b9bd 8520 4ebd 4aa7 ed3c
00000290: 9798 8e3d 008d 093e 6459 8fbd fd0e 6a3d
000002a0: ca82 3f3d 3c43 fb3d 55f5 273d 4db5 38be
000002b0: 38b5 7cbd bb1b 6fbe c5b5 80be c468 d1bd
000002c0: 31c1 f2bd 0b92 943e ed70 03be 6c3f 673d
000002d0: df6b 243b 406a d23d ecb1 163e 1662 f43d
000002e0: 02bf 383e b7a1 1cbe 1e1b 27be fb9d 0bbe
000002f0: 9bc9 073e 2fb7 683e b5c4 423e 7b9d 043e
00000300: edd7 493c ed3f e6bd 9298 113e da9f 6dbe
00000310: d57e bebd 5154 3e3e fdd1 e83d 4ec1 233c
00000320: 2693 d63b a84d 383d cbe7 c8bc 16f6 073c
00000330: 693d 813e dcce ba3e 9ef8 03bd ce99 473e
00000340: 7810 3cbc b436 51be 708e 4c3d 7ee4 64bd
00000350: 62fc db3d b504 4cbd 52fc 09be a649 15be
00000360: 8baf c33d 64ff e73d 4853 963d 4a45 93bd
00000370: 4d31 d7bc 4562 db3d 441d a13e bae3 97bc
00000380: 0568 aebc 27f6 0fbe 6617 a03d 0077 323d
00000390: 82fe 4d3d 1b6e f5bd 9a64 2d3e 75e3 163d
000003a0: 3d2f f1bc bcda 253d 15ed da3c d6ca 1c3d
000003b0: fd73 7cbd 4a51 da3c a9f0 45bc a530 763e
000003c0: b2bb e33c e208 0abd 6538 323e 5405 d3bd
000003d0: d6dd b0bd e88a 5b3e 9c81 c3bc 4c26 cabd
000003e0: a306 f1bd cb67 8ebd f5a5 1ebe 8570 d6bd
000003f0: 59ea 1b3e 1810 e23d 9160 95be 2c10 ea3d
-0.010186108 0.06536395 0.12605894 0.06415841 0.039221052 -0.24355207 -0.21598925 -0.012641313
-0.16750172 -0.1422205 0.040167667 -0.0069877435 0.10398549 -0.20463715 0.13765118 0.2469556
0.06761577 0.064849 -0.066391766 -0.14911675 0.054444525 -0.08198085 -0.09374436 -0.22501959
0.007021467 -0.17252131 0.069502994 -0.053699218 -0.0024000327 0.018782642 -0.086671084 -0.09773594
-0.0037584943 0.05024563 -0.16479686 0.02619735 -0.04703157 0.2322726 -0.09965516 0.044303805
-0.011478977 -0.23039423 -0.043586824 -0.15610278 0.04399353 -0.03901582 -0.086437866 -0.1445472
0.19532976 0.03803554 -0.14826864 0.119966485 -0.17437279 -0.05909476 0.17451611 -0.0874465
0.22475906 -0.05440118 -0.07953021 0.20962688 0.08052013 0.085428566 -0.0727497 -0.046348758
0.05937485 -0.002301335 -0.13422388 0.11955665 -0.25247025 -0.13474977 0.006367946 -0.085197054
-0.13519168 -0.056131255 -0.049607385 0.115596004 -0.033415176 0.26596057 0.1557302 0.039929047
0.01177417 -0.146409 -0.17555298 -0.16448084 0.045808736 -0.019928498 -0.027266353 0.07354126
-0.031880945 0.15524864 0.06294898 -0.027384182 -0.1013326 0.12669139 -0.21079406 -0.1315035
0.22792426 -0.107063256 0.2324118 0.021511076 0.086635746 -0.034665823 0.107134454 0.08113521
0.016070323 0.22575326 0.18290582 0.0914246 0.098017216 0.065152496 0.024872808 -0.18452226
-0.0729534 -0.13933007 -0.082513526 0.01332335 0.17368558 -0.10865514 -0.17408176 0.20080908
-0.112676196 -0.16272144 0.15455996 0.13931273 0.035607617 0.025217045 0.07703937 0.078009434
0.067369625 -0.09106649 -0.2174473 0.15883566 -0.17003773 0.11727887 0.103558786 0.17815821
0.10794698 0.055264834 0.018142527 0.0800737 0.07533124 -0.13225208 0.14137258 0.13598986
0.07838261 -0.14453982 -0.07085364 -0.14161156 -0.04540615 0.16199744 0.1395642 0.25628284
0.13550991 -0.06414846 0.256747 0.029739035 0.10840844 0.075096205 -0.10383188 0.13267349
-0.16629674 -0.090538114 -0.05032398 0.029010434 0.06962698 0.13432693 -0.06999472 0.0571432
0.04675559 0.12268683 0.04100545 -0.18037911 -0.06169626 -0.23350422 -0.2513868 -0.102250606
-0.118532546 0.29017672 -0.12836047 0.05645697 0.002508871 0.10274172 0.1471631 0.11932771
0.18041614 -0.15296064 -0.16318938 -0.13634484 0.132605 0.22726129 0.1902035 0.12950699
0.012319547 -0.112426616 0.14218357 -0.2320551 -0.09301535 0.18586852 0.11368177 0.009994818
0.006548303 0.044995934 -0.02452459 0.008298418 0.25242165 0.36485946 -0.03221952 0.19492266
-0.011478536 -0.20431024 0.049940526 -0.05588197 0.107414976 -0.049809176 -0.13475159 -0.14578876
0.095549665 0.11328009 0.073401034 -0.0719095 -0.026268626 0.10712103 0.3146764 -0.018541206
-0.021289835 -0.14058743 0.07816963 0.04357052 0.050291546 -0.119838916 0.16932908 0.036838014
-0.02944147 0.040491804 0.026724378 0.038279377 -0.061634053 0.02665009 -0.012081304 0.24041994
0.027799461 -0.033699878 0.17404325 -0.10303751 -0.08636062 0.21439707 -0.023865514 -0.09870586
-0.11768844 -0.06953391 -0.15492995 -0.1047068 0.15226115 0.11038226 -0.29175237 0.11428866

fc2.weight f4 [128, 256]
00000000: 6f3f dabc ae8b aabd 363b 513e 8826 633b
00000010: bc39 c73d 64d1 2fbb ba05 7abb 8afb bb3d
00000020: fa93 0e3b df90 3d3d d68e 88bd c240 5fbe
00000030: e9a2 373d 9c94 473d 9e29 cb3d 6f24 b83d
00000040: 0428 223e 60cb 16bd 76e0 39be eac3 29bd
00000050: 0ef4 7cbe e717 cc3d 51a0 19be a441 e6bb
00000060: e234 d43c 0d38 3fbe d496 02be 0f73 783c
00000070: 119b 433d ed4d b6b9 8ee6 5c3d 401b 13be
00000080: b178 8f3d f346 29be deab c93c 2d2b 9d3d
00000090: 5e30 403d 3b7e 8abc 24bb 803d 6604 953e
000000a0: a36a 423d 2841 93bd 6130 fbbd 328f 52be
000000b0: e91c 303e e448 7f3d 49e8 72bd b938 053d
000000c0: b088 41bd 8bbd 1c3d 82cf efbc 9adc 1cbd
000000d0: 1d60 1dbe 8e03 9739 8e5f 983d e8ca 0d3e
000000e0: ee8e e93c 077d fc3d a0a2 a03b aca8 90bd
000000f0: 73d0 f4bd dcaa 39bc 099e b33c de78 f8bc
00000100: dce7 bdbc 9e0a 50bd 4e30 a03d 5f89 e1bc
00000110: e1c7 20be 9595 aa3d c941 de3d d9a8 8cbd
00000120: 8fb9 82bd 803e 513e 0c68 db3d c3c2 b33d
00000130: bbe7 febd 4167 ae3c 8075 833c 93fe d3bd
00000140: 67a2 303d bc29 47bd c578 3dbe 737a cebd
00000150: 5906 1e3d 8ffc 05be dbea b8bd cc98 b33d
00000160: 1db7 bcbd 53b4 1a3c 3fbf 8d3d e677 a338
00000170: 8e68 99bd 1525 32bd 379b 11be 2958 bc3c
00000180: 8bc8 293d 23eb d43d 8e73 c13d a532 193d
00000190: 76f7 bbbd 05d3 943e 6bd5 493d 1dfb c33d
000001a0: 3f88 a4bd 3d3e 973d bc94 d8ba 771d 023e
000001b0: 8356 ef3d 1847 e73d 91ce 84bc 6683 24be
000001c0: e9af 8e3c ede4 d23d 87c4 b9bc 685b fe3c
000001d0: 3aa6 993c 1f82 3c3e 48bc 15be 1110 1e3e
000001e0: 053f 5a3d 4680 8fbd 967e 4abe 8e03 433e
000001f0: 0a59 0e3c eab6 503e 720a 173e 6567 353d
00000200: ba65 81bd a91f 413e 8c84 72bc 9de5 163d
00000210: 6531 94bd dc93 043e a7da 2d3e b33b 753d
00000220: 4101 083d 311a 3d3d 5805 cdbd 4ed5 083d
00000230: 66fa 78bd ca47 643e e3c0 133e 04a4 84bd
00000240: 10ed c53c 6910 64bd 8efc 433d 0405 6d3b
00000250: 3b9b 8cbc eed4 c43d 4ffa 7b3d 19df c8bd
00000260: b187 ddba 2229 49bd 09d8 103e fc1c 543d
00000270: 4512 e13c 5252 bd3d 091c 6cbd fb77 e83d
00000280: fc3b dc3c 7962 70be 9513 be3d 5961 9bbc
00000290: 5d7e 433e 6cbe ca3d 603e 4abd d109 d33e
000002a0: 75b0 203b 84e3 2b3c 6deb 31be f674 83bd
000002b0: 810f d0bd f39a 34bd ec96 193d 47d0 11be
000002c0: e69e 8a3d 5f34 88bc e27b 3b3d d1fc 933e
000002d0: f752 953d af93 8ebd 870a 883d 68e1 713d
000002e0: 7868 02be cd7e 63bd 5239 0b3d 9919 52bd
000002f0: 2cbd 5d3e 1617 783d 8233 953d 849a 99bd
00000300: 0382 2fbe 3f6d 833c 87c0 b3bd b40b 823d
00000310: 5365 0f3c ca5b db3d 0949 0bbc f659 a1bd
00000320: 9826 91bc 2ea7 15bd f8c1 163d b193 ccbd
00000330: 5a8f e43c 1030 143e 4fa9 35be 3af5 b73d
00000340: 8228 e5bc 2fec 073e 30d9 27bd 1778 e5bd
00000350: c310 403d 7dd5 a93d 5679 913d 990a 01be
00000360: 5c64 91bc 5365 c73d 23bc 0b3d 06ab 59be
00000370: b528 e9bd 6680 843d 1f86 96bd 1ba1 4e3d
00000380: f0f5 0ebe 40ff ce3d b6c1 a6bd a8db 023e
00000390: f202 bc3d 191f aabd f6fb 393c 8220 e0bd
000003a0: 5e7b 033d 52df 233d 57c6 32be e32d 073d
000003b0: e087 4bbc 900b 18bd cd4b ac3c 8f9d 4b3b
000003c0: da8b 6f3d 8b6c 12bb 6fdb bd3d cc04 c4bd
000003d0: c1bc e3bd 8e60 0d3e ddda a43d b348 b6bd
000003e0: 5978 053d c296 f1bb a7ab 723e a4e4 17be
000003f0: 89ee acbc dfe4 b8bc baa8 d2bc 01b8 97be
-0.026641576 -0.08327423 0.20432743 0.0034660418 0.09727809 -0.0026827687 -0.0038150386 0.09178837
0.0021755681 0.046280738 -0.06667869 -0.21802047 0.044833098 0.04872571 0.09920047 0.08991324
0.15835577 -0.036815047 -0.18152031 -0.041446604 -0.24702474 0.099654965 -0.15002562 -0.007026868
0.025904123 -0.18673725 -0.12752849 0.015164151 0.047755305 -0.00034771804 0.05393081 -0.14365864
0.07005442 -0.16530971 0.024618085 0.07674251 0.046921127 -0.016905895 0.06285694 0.29104918
0.047464978 -0.07190162 -0.12265087 -0.20562437 0.17198528 0.062325373 -0.059303556 0.032524798
-0.047249496 0.0382667 -0.029273752 -0.03829632 -0.15368696 0.00028803613 0.074401006 0.13846934
0.028510537 0.123285346 0.004902199 -0.070634216 -0.11953821 -0.01133224 0.021925943 -0.030331071
-0.023181848 -0.050791375 0.078217134 -0.027531324 -0.15701248 0.08329312 0.10852391 -0.06868143
-0.06383049 0.20433998 0.10713205 0.08777382 -0.12446543 0.02128947 0.01604724 -0.103512906
0.04312363 -0.048623785 -0.18503101 -0.10081949 0.038580272 -0.13084625 -0.0902917 0.08769378
-0.092146136 0.009442407 0.06921243 7.7947785e-05 -0.07490645 -0.043492395 -0.14219366 0.022991257
0.04145102 0.10396411 0.094458684 0.037401814 -0.09178059 0.29067245 0.049275797 0.095693804
-0.080337994 0.07384918 -0.0016523818 0.12706552 0.11686423 0.11292857 -0.01621178 -0.1606575
0.017417865 0.102975704 -0.02267672 0.031049445 0.01875602 0.18409012 -0.14622605 0.15435816
0.053282756 -0.07006888 -0.19774851 0.19044325 0.008688221 0.20382276 0.14750078 0.044288058
-0.06318231 0.18859734 -0.014802109 0.03684007 -0.07235984 0.12947029 0.1697794 0.059871387
0.03320432 0.046167556 -0.10010785 0.03340655 -0.060785674 0.2229301 0.14429049 -0.06476596
0.024160892 -0.055679712 0.047848277 0.003616632 -0.017163863 0.096109256 0.06151801 -0.098081775
-0.0016901401 -0.049111493 0.14144911 0.051785454 0.027474532 0.09244217 -0.057643924 0.113510095
0.026884072 -0.23475064 0.09281079 -0.018967317 0.19091173 0.09899601 -0.04937589 0.41218427
0.002451924 0.010491256 -0.17374964 -0.06418793 -0.10159207 -0.044093084 0.037497446 -0.14239608
0.06768589 -0.016626535 0.04577244 0.2890382 0.07291215 -0.06961762 0.06642633 0.059052855
-0.12735164 -0.05554085 0.03399021 -0.051293943 0.21654195 0.06056889 0.07285215 -0.07500175
-0.1713944 0.016043304 -0.08776956 0.063498884 0.008752185 0.10710867 -0.0085013 -0.07878487
-0.017718598 -0.036536388 0.036806077 -0.099891074 0.027900387 0.1447146 -0.17740367 0.0898232
-0.027973417 0.1327369 -0.04097861 -0.11204546 0.046890985 0.08292673 0.07103221 -0.12601699
-0.01774805 0.09736123 0.034114968 -0.21256647 -0.113847174 0.064698026 -0.073498 0.05044661
-0.13961005 0.10107279 -0.08142416 0.12779105 0.09180249 -0.08306713 0.011351576 -0.109437004
0.032100074 0.040007897 -0.17458473 0.033002745 -0.012422532 -0.0371204 0.021032238 0.0031069254
0.058482982 -0.0022342529 0.09270369 -0.095712274 -0.11119986 0.13806364 0.08049557 -0.08900585
0.032585476 -0.007372708 0.23698293 -0.14833313 -0.021109836 -0.022570072 -0.02571522 -0.2963257

fc2.bias f4 [128]
00000000: dc2d 183e b830 8d3d 517d acbc 71aa 2a3d
00000010: c17a 2c3d e197 f33d 96a9 f4bc 133b 1c3b
00000020: de9a 203a 818e 083e 459b ce3b 4d1d 153e
00000030: a061 acbd 5e90 52bd 893e 873d 9b5e 9e3d
00000040: 0c54 b5bd 9ad1 14bd 2757 adbd e814 fa3c
00000050: cf66 343c 634d 78bd a7fa 553d 2209 413c
00000060: ada0 553d 9985 a83d 3c1a 79bc 091c ff3b
00000070: bef0 81bc 6fca 143d 37bf d53d 91e6 5d3d
00000080: 5588 1e3d b66e 983c 099e f6bc 6b75 193d
00000090: 82fd 0dbc 5569 a13c ff61 023b 19b7 51bd
000000a0: 53e1 ccbc 70f7 f3ba 311e 5e3c 4cb9 003e
000000b0: b659 d73d 35ed 78bc 78cb 123d ab8e b93d
000000c0: 8184 723c bbd0 3e3d 1571 043c f9a4 1c3d
000000d0: f3c7 b1bd d226 ac3d 8e9d a23d 13c5 093e
000000e0: 0610 a63d e25a 033e 476c 0a3b 161a a1bb
000000f0: 6c83 a53d 8699 83bd 729b e9bc 6ece 113c
00000100: 6dca ca3d fabf 043e 75e7 5dbd a2ab 89bc
00000110: 9615 6ebd 472f 373e aa9d a33d 50b6 f8bc
00000120: a806 6b3d 3415 dcbc d153 b6bc f91a 143d
00000130: 5303 55bd 785c d7ba aa63 19bd dfc7 99bc
00000140: 6848 993b 2265 953d c2f0 97bc fb5a 133d
00000150: 8477 34bd 81d7 e2ba c49e 633d 74c7 59bd
00000160: 4336 b83d 55ea 373c a8b8 0a3e d967 153e
00000170: 2a32 993c a8f6 a3bd 0f38 a13d c9ea bb3d
00000180: af2d 043e 2c2c de3b b54a f03d f226 f43d
00000190: d36d c53d c4b0 fb3d 8694 9abd ff69 b63d
000001a0: dac2 693d 6d6a ac3c 2bb6 1e3c f90d ad3d
000001b0: 8670 7d3d f105 a33d 031b 46bb c462 92bd
000001c0: 7b40 eebc 234d 983d 8959 0abc 0163 723d
000001d0: b51a 5abc e671 58bd 7e25 c83d 8183 70bd
000001e0: c6db c33d eb8d 823c f30a ac3d 6a5b e83c
000001f0: f9cd c43d ac1b 95bc f976 073e 34af 843d
0.14861244 0.06894058 -0.02105585 0.04166645 0.042109255 0.11894203 -0.029866021 0.0023838922
0.00061265926 0.13335611 0.0063051307 0.14561959 -0.08417058 -0.05140721 0.066037245 0.07732888
-0.08853921 -0.036332704 -0.084638886 0.030527547 0.01101084 -0.060620677 0.052240994 0.011781963
0.052155185 0.08228607 -0.015204009 0.0077853245 -0.015861865 0.03632587 0.10436862 0.054174963
0.038704235 0.018607479 -0.030104654 0.037465494 -0.008666398 0.019703547 0.0019894836 -0.051200006
-0.025009787 -0.0018613171 0.013557003 0.12570685 0.10515158 -0.015193273 0.035838574 0.09060415
0.014802099 0.04658578 0.0080836015 0.038243268 -0.086807154 0.08405842 0.079402074 0.13454084
0.08108525 0.12827638 0.0021121667 -0.0049164398 0.08081707 -0.06425767 -0.028516505 0.008899314
0.09901891 0.12963858 -0.054175813 -0.016805474 -0.058126055 0.17889129 0.079890564 -0.03036037
0.057379395 -0.02686558 -0.022256764 0.036158536 -0.052005123 -0.0016430756 -0.037448563 -0.018772064
0.004677821 0.0729468 -0.01854742 0.035975438 -0.04405929 -0.0017306657 0.055571333 -0.05316873
0.089947246 0.011225303 0.13547003 0.14590396 0.018700678 -0.0800603 0.078720205 0.09175641
0.12908052 0.006780168 0.11732999 0.11921491 0.09640088 0.12289575 -0.0754786 0.08906936
0.05707059 0.021046842 0.009686987 0.08449931 0.06187489 0.079601176 -0.0030228503 -0.07147744
-0.029083481 0.07436588 -0.008444198 0.05917645 -0.0133120315 -0.052842997 0.09772776 -0.058719162
0.09563403 0.015936812 0.08400526 0.028363902 0.09609599 -0.018201672 0.13228978 0.0647873

fc3.weight f4 [2, 128]
00000000: b05e 213d ac8e edbd 747a 92be 38bf 2bbd
00000010: a532 81bc 12db 8c3d 022e a7bc 68bd 5a3d
00000020: e483 c2bd 9aa1 3a3d a2d9 26bd c9a1 ab3d
00000030: 4127 dfbd cdae 06bc 808b 993d 4fcf 773d
00000040: c215 a2ba 720f 9fbd dca0 60bd 2508 f03c
00000050: dfbb acbe 2589 c3bc 1c59 30bd 9e77 9cbe
00000060: e8a4 7fbe 0cdd 5b3d 3d6e cc3d b14e 78be
00000070: 4273 14be 1a93 b13a ac72 593d 285d 70bd
00000080: 486d b13d fa86 163e abea 00be 7464 263e
00000090: 89b1 2dbd d1d6 053c 0f9a abbe a498 79be
000000a0: a867 6fbe 88fc acbc 72e9 15be fdb1 a53d
000000b0: 0338 3a3d d2a7 c2bd 1cba e83c 90bb 17be
000000c0: 1d0e 9fbc 325e a13d 6f2b 59bc db63 34bd
000000d0: 2aec cabc e1aa 303e ad0c c53d c89f c23d
000000e0: 9453 c63c cece 433d 73f8 a2bd fb66 fcbc
000000f0: e327 2a3d 1263 92be 339a bdbd f0c1 61be
00000100: 2973 453d ec6b 653d c617 29be e603 a0be
00000110: 16f3 9ebe fceb c93d ca75 3abd 8738 38bd
00000120: 8723 733c 3899 cfbd 6e54 9abe a5a2 a8be
00000130: 945e cebd bc33 a8bc af57 39be 207c 15bd
00000140: 24e4 aa3c e00b ed3c 365c a4bd 75f9 8c3d
00000150: ce02 c6bc ea80 10be 02c6 d73d bce4 27be
00000160: 008d aabe 72d0 c6bb 1698 233d a083 d13c
00000170: 5f43 dabd 2fcd 87bd 5ccd 493e 02df b23c
00000180: 253f b63d 9496 febd e9d4 e63d 8401 e43d
00000190: 1666 523d 64e4 b33d 2e33 01be 7ee9 fa3d
000001a0: 3bde c33d 39a4 5d39 4b96 793d 87cf 963c
000001b0: 650e 3e3d 64e0 b33c 39fc 0bbc d38f 84be
000001c0: bb2e 9cbe 7f4e 01be f9c7 94be 84e5 9bbd
000001d0: 0a79 47be 1193 d6bd 90cb aabe c768 bbbe
000001e0: 3172 f83c 1863 66bd 1e92 8fbc d656 f6bb
000001f0: 1805 d53c 786c 12bd 5357 8a3d 0265 a73d
00000200: f7e4 99be b51e aebe 8e8e 4abc 9cb6 90be
00000210: b13d 4bbe ae74 45bd 5799 243e f6de 80be
00000220: fd8f ad3b f52a 16bd f687 3e3d 1806 cfbd
00000230: e6ac f2bc e07e 1a3e 1d99 31be a3ec e0bd
00000240: f8e7 0c3e 92cc ce3c 65c7 bf3d 1c55 2abe
00000250: eb68 a5bd dd7c 673e 1846 5abe ff3c 1f3c
00000260: 3135 97be daee 8cbd d97e 37be f1af 20be
00000270: bb28 873d 448a 57be a175 d8bc 6095 4ebe
00000280: 0010 5fbd e49d 92bd 0c7b e7bd 78f3 b53e
00000290: ef72 cd3d a9dd 053e 1b9f 3bbe 4bd2 093e
000002a0: c0f9 28be fc6b 0e3e ea81 a0bc 669d 2b3c
000002b0: 77fa b8be 3c42 35be f117 f5bd 64a1 36be
000002c0: d53c 48be 7486 093d 782c 0bbe 5a6a b3be
000002d0: 05e8 2a3e 007a afbe 4a55 80be 9d85 8abe
000002e0: ebdc 8abc 7f05 f6bc 572b 3abe a6b7 093e
000002f0: 201b 27bd 8e2e f03d 3047 1ebe e11a 5c3d
00000300: f452 243e 0529 81bd e558 cdbd 6ad6 51bd
00000310: b396 5d3d f583 f7bd 4232 81be 1c0f ecbd
00000320: ab0a 123e a055 4abe e8bb c23a e6fd e53d
00000330: f961 ddbd 83d4 0e3e 36e4 393e a62d 52be
00000340: de75 c0be 52a8 89be 8f8f 99bd 1dac 5b3d
00000350: 0c30 283e ba38 26be 827b adbe 3491 0fbe
00000360: 9c60 adbd 276f 7dbe 97f0 e0bd b498 37bd
00000370: a377 913d a8ff fa3d 432e 16bd f405 2abe
00000380: f49a 723d 0b1d 9ebe 8dd3 19be b11f 8cbe
00000390: d28c 36bd c199 043c fda3 d03d 4345 96be
000003a0: e23a 42be 4f31 97be 8435 85be b8f8 f2bd
000003b0: 8e41 fb3d 787f 183e 2ca1 51be ab00 0c3d
000003c0: 2b03 8a3d eab9 c0be 4603 bebd 0215 80be
000003d0: e6ab aabd 22c7 a6bd 43c8 f1bd c144 c33c
000003e0: d7e9 2bbe a1e8 423d 9e3e 95be bff2 7dbe
000003f0: 64dc a8bd 506d b83d a12a 16be 025c e73d
0.03939694 -0.11599478 -0.2860905 -0.041930407 -0.01577122 0.06877722 -0.02040768 0.053403288
-0.094978124 0.04556427 -0.040734895 0.083804674 -0.10896159 -0.008220387 0.07497311 0.06050044
-0.0012366103 -0.07766618 -0.054840907 0.029300759 -0.33737084 -0.023869107 -0.04305373 -0.3056001
-0.2496525 0.053677604 0.09981964 -0.24248768 -0.14497092 0.0013547868 0.053087875 -0.05868259
0.08663422 0.14699927 -0.12589519 0.16249257 -0.04240564 0.008168892 -0.33515975 -0.24374634
-0.23379385 -0.02111651 -0.14639834 0.08090589 0.045463573 -0.095046654 0.028409056 -0.14817643
-0.01941591 0.078792945 -0.013254984 -0.044040542 -0.024770815 0.17252685 0.09621558 0.09503132
0.024209775 0.047804646 -0.07957544 -0.030810824 0.041541945 -0.2859121 -0.09257927 -0.22046638
0.04820553 0.056011125 -0.16512975 -0.31252974 -0.31044835 0.098594636 -0.04552249 -0.044975784
0.014840013 -0.10136646 -0.3014254 -0.32936588 -0.10076633 -0.020532481 -0.18099855 -0.036495328
0.020860739 0.028936327 -0.080254 0.06883518 -0.02417126 -0.14111677 0.10535814 -0.16395849
-0.333107 -0.006067329 0.039939962 0.025575459 -0.10657381 -0.066309325 0.19707245 0.021834854
0.088987626 -0.12431064 0.11271078 0.111331016 0.051366888 0.087837964 -0.1261718 0.12251566
0.095638715 0.0002113738 0.060934346 0.018409504 0.046400446 0.021957584 -0.008544021 -0.2589098
-0.30504403 -0.126276 -0.29058817 -0.07612136 -0.19479766 -0.104772694 -0.3335843 -0.36603376
0.030327888 -0.056246847 -0.017525729 -0.007517676 0.026003405 -0.035747975 0.06754937 0.081735626
-0.300575 -0.34007803 -0.012363089 -0.2826432 -0.19847752 -0.048206978 0.1607412 -0.25170106
0.0052967058 -0.03666206 0.04651638 -0.10108584 -0.02962346 0.15087461 -0.17343564 -0.10982635
0.13760364 0.025244031 0.09364203 -0.16634029 -0.08076652 0.22606225 -0.21315801 0.009719132
-0.2953277 -0.06881495 -0.17919482 -0.15692116 0.065995656 -0.21048838 -0.026423277 -0.2017417
-0.05445862 -0.071590215 -0.11302766 0.35537314 0.100316875 0.13072838 -0.18322413 0.13459127
-0.16501522 0.1390838 -0.019593198 0.010474538 -0.3612859 -0.17701048 -0.11967457 -0.17835003
-0.19554456 0.03357549 -0.13591182 -0.35042077 0.16690071 -0.34272766 -0.2506507 -0.27055064
-0.016951045 -0.030031918 -0.18180595 0.13448963 -0.040797353 0.117276296 -0.15456843 0.05373657
0.16047269 -0.06306652 -0.10026721 -0.05122987 0.054098796 -0.12085716 -0.25233656 -0.115263194
0.14261882 -0.19759226 0.0014857026 0.11230068 -0.108097024 0.13948254 0.18153462 -0.20525226
-0.37589926 -0.2688623 -0.07498085 0.053630937 0.16424578 -0.16232577 -0.3388329 -0.14020234
-0.084656924 -0.24749433 -0.10983389 -0.044823363 0.07102897 0.12255794 -0.036665212 -0.16603833
0.059229806 -0.30881533 -0.15022106 -0.2736793 -0.04456789 0.008093298 0.10187528 -0.29349717
-0.18967775 -0.29529807 -0.26017392 -0.118638456 0.12268363 0.14892375 -0.20471638 0.034180325
0.067388855 -0.3764184 -0.09277968 -0.25016028 -0.08333568 -0.0814345 -0.11805775 0.023836495
-0.16788422 0.047585133 -0.29149336 -0.24799632 -0.08245161 0.09005225 -0.14664699 0.11296846

fc3.bias f4 [2]
00000000: 2026 6b3d 989c 50bb
0.057409406 -0.0031831618
