No_multi_checkpoint_critic0.pth (torch_old, 159653 bytes, 5 tensors)

fc1.weight f4 [256, 24]
00000000: 053a cabc d6dd 9fbd 5e0b 053d f91b dcbb
00000010: fb7a b2bd f090 cfbd 1375 7abc 315a 793d
00000020: 4a08 fbbc ee36 81bd 6bb6 58bd 5c87 593c
00000030: 0fa1 a13b ebf7 91bd 9b3b 403d c447 b03c
00000040: 7ee8 b63a b9b3 0fbe 6272 333d d75a 4b3c
00000050: 51b3 8b3c a245 edbc b00c 53bd 5943 233d
00000060: 5f9d 6b3d bc16 723d 4ac5 d6ba 6623 193d
00000070: 5b61 9ebd 157b 55bc d249 303d 963e 843c
00000080: df8b 80bb bff4 4d3c 45dc 933c a3a1 063e
00000090: bce3 edbb 9831 d43b b569 93bc 5387 043e
000000a0: 791c 883c a5fa bc3c aa64 13bd dc63 0dbe
000000b0: d782 103e 0952 86bc debc d23b 779e e1bd
000000c0: 0545 453c cd92 45bd 3b98 5abb 7e4f bbbc
000000d0: fc0c 78bd 5be8 cebd e034 933c c7e1 1abc
000000e0: a603 57bc 1e2c 8dbc 0ee3 9c3b 95cb 96bc
000000f0: aaad dfbb 02b9 8fbd c1bf 9c3c 5923 6e3d
00000100: ec23 04bc 4aef 9bbd 5827 433d a0c9 993d
00000110: 41ad b33d b382 83bd 6a37 3ebc 44d0 9e3d
00000120: 177e 383d 9214 8b3d 90b7 003b 53a0 8c3c
00000130: 7b84 d8bc 6eaa cdbc e5bf 553c 4a1c 193d
00000140: aad8 66bc 6082 e73d d32a 8ebc 3523 da3c
00000150: cbfa 90bc e6af 8cbd f1e9 3e3d 301e 51bd
00000160: 1afc 86bd 68dc be3d b905 973c a397 113d
00000170: 38c5 343d da4d 1cbe 9312 093d 9236 e03c
00000180: 61f4 8d3d 9dc8 65bd 2597 ebbb f394 e3bb
00000190: 6d7d abbb 540a 88bd 7d28 5b3d 67de 55bd
000001a0: f328 f1bc 90b0 203d 02de 0eb8 2459 86bd
000001b0: b654 683d 5647 65bd f2fd b2bc e76c 003d
000001c0: 24f4 793d bdfb 70bc bc60 803b 4b6d d93c
000001d0: 6220 083d a028 00be e477 393d 1dbc 81bc
000001e0: 4e5c b13d 8986 c63c d977 b73c 8537 3b3c
000001f0: b743 993d 3323 af3d 0d17 97bc ce3f f5bc
00000200: 3517 a63d 15a8 54bd 50db 093d b388 5cbb
00000210: 2a75 93bc 3e91 f83d a52c 123c dac7 dcbc
00000220: f4af e23c 4156 b1ba ac6c 363c 8d03 41bd
00000230: 35dc 0dbe 2b62 323e 6422 db3c a30f f6bd
00000240: e289 553d 8884 2f3d 6b44 5bbd d62e 93bc
00000250: 7826 b03c a24d dcbb 4966 53bc 4994 113d
00000260: 154e ad3c 2619 e33a 911a 353d 3d4e 883d
00000270: 9b3b 8dbc ac75 a0bd 87dd 18bd 48a9 a13c
00000280: 7362 113d 79b2 a83c 2bcd d4bb 65a4 9cbc
00000290: 50f3 00bc 0943 0cbe a053 15bc 99c5 b53c
000002a0: 3c7b 2dbc ec45 ef3d c2e3 9abb 0abc a2ba
000002b0: d5b6 be3c 8960 d63c afb4 ee3c 3c37 af3c
000002c0: 6e58 1f3b afd0 e53d 72db 1fbd 4462 99bd
000002d0: a380 28bd d64d c2bd 3448 053d c710 a7bb
000002e0: 9802 3bbd 2a53 9e3c 61c9 163b 0512 753c
000002f0: c32f edbd b593 08bd f5ed c33c 57af a8bc
00000300: a497 cb3c a4fa 243d a4fd c2bc e2a3 4ebc
00000310: 310a a03d b5c3 b6bc fe02 30bb aaf9 16bd
00000320: 6d8d 63bd 0205 b13c dce7 ec3c 603c 143d
00000330: 81a6 bf3c daa8 573b 0676 60bd 6848 2ebd
00000340: 863d 38bc 45da 92bd ae3f b9bc d212 8f3b
00000350: 9202 58bd 3204 db3d c8a7 a9bc a5c8 a4bc
00000360: bc06 8fbb 159d 1bbd c61f 9abc 78b9 1abd
00000370: 1c79 16be fead c9bd 7554 493d d05e 3bbd
00000380: ea69 df3d 1952 96bd d658 373d 0fb7 003c
00000390: e0b3 dabd 864d b9bd 6542 c0bc bbc7 2cbb
000003a0: 3974 073c 1814 4ebc 9204 52bd f5df 853d
000003b0: 2a3e 1dbd 853f 763c e17a f13c b350 f03c
000003c0: 8a5c 5cbd 6a6c 7a3d 74ed ee3c ba32 51bd
000003d0: 7c0c e1bd 8243 003e c459 833c 2153 fbba
000003e0: 67bd ddbc 4b8e e63c 2e8b 2e3d a79a a9bc
000003f0: 40f4 4d3c 1b16 90bc 9258 2bbd f509 fcbb
-0.024685869 -0.07805984 0.032481544 -0.006717202 -0.08714863 -0.101350665 -0.015286702 0.06087703
-0.030643601 -0.06309305 -0.052908342 0.013276901 0.0049325298 -0.07127365 0.046931844 0.021518596
0.0013954786 -0.14033403 0.043810256 0.012411795 0.017053278 -0.028963868 -0.05152577 0.03985915
0.057523128 0.059103712 -0.0016385701 0.037387274 -0.07733413 -0.013029833 0.04303915 0.016143125
-0.003922924 0.012570559 0.018049369 0.13147597 -0.007259814 0.0064756386 -0.017994741 0.12942247
0.01661514 0.023068735 -0.035984673 -0.13807625 0.14112411 -0.01639654 0.006431206 -0.11016553
0.012040381 -0.048235703 -0.0033354897 -0.022865053 -0.060559258 -0.10102912 0.017969549 -0.009453244
-0.013123428 -0.01723295 0.004787809 -0.018407622 -0.0068261223 -0.07017709 0.019134404 0.05813918
-0.008065205 -0.07614 0.047644943 0.0750916 0.0877328 -0.06421413 -0.011609891 0.07754567
0.045042124 0.06791033 0.0019640662 0.017166292 -0.02643036 -0.025105681 0.0130462395 0.037380494
-0.014089743 0.11304164 -0.017354405 0.026628116 -0.017697712 -0.068694875 0.046609823 -0.05105418
-0.06591053 0.09319383 0.018435346 0.035545003 0.044133395 -0.15264073 0.03346498 0.027369771
0.06931377 -0.056099523 -0.0071896487 -0.0069452464 -0.005233458 -0.06642595 0.05350541 -0.052214053
-0.029438471 0.039230883 -3.40622e-05 -0.06559971 0.05672141 -0.055976234 -0.021849606 0.031353857
0.061023846 -0.014708457 0.0039177816 0.026541373 0.033234008 -0.12515497 0.045280352 -0.01583677
0.08660184 0.024234073 0.022396015 0.011426811 0.07483619 0.085516356 -0.018443609 -0.029937651
0.08109895 -0.051918108 0.03365642 -0.0033650815 -0.018000204 0.12137078 0.008921777 -0.026950765
0.027671792 -0.0013529734 0.011134308 -0.047122527 -0.13853534 0.1742026 0.026749797 -0.12014701
0.05213345 0.042851 -0.053532045 -0.017966669 0.021502718 -0.0067231217 -0.012902805 0.035541806
0.021155396 0.001732622 0.04421479 0.06655548 -0.017240336 -0.07834944 -0.03732064 0.01973404
0.03549428 0.020592915 -0.0064941845 -0.019121358 -0.00787051 -0.13697447 -0.009114176 0.022188948
-0.010588463 0.116832584 -0.004726858 -0.0012415659 0.02328054 0.026169078 0.029138891 0.021388642
0.0024314183 0.11221444 -0.03902764 -0.07489446 -0.041138303 -0.09487502 0.03253956 -0.0050984356
-0.04565677 0.019326765 0.0023008215 0.0149579095 -0.115813754 -0.03334399 0.023917178 -0.020591421
0.024852581 0.040278092 -0.023802586 -0.012612315 0.07814444 -0.022310117 -0.0026857252 -0.036859192
-0.055554796 0.021608833 0.028919153 0.03619039 0.023394825 0.003290704 -0.054800056 -0.04254952
-0.011245137 -0.07170538 -0.022613373 0.004366257 -0.052736826 0.106941596 -0.020709887 -0.020115206
-0.0043648165 -0.037991602 -0.018813979 -0.037774533 -0.14694637 -0.098476395 0.04915281 -0.045744717
0.109088734 -0.07339878 0.044762455 0.007856145 -0.1067884 -0.090479895 -0.02346916 -0.0026364166
0.008267456 -0.012578033 -0.05127389 0.06536857 -0.038389362 0.015029793 0.029477539 0.029335355
-0.05379919 0.061138548 0.02916596 -0.051073767 -0.10988709 0.12525752 0.016034015 -0.0019174555
-0.027067853 0.028144022 0.0426132 -0.020703627 0.012570441 -0.017588666 -0.041832514 -0.0076916167

fc1.bias f4 [256]
00000000: 704a f9bd f9e8 f63d 7944 f03d 470f cd3d
00000010: 1ce4 acbd 2667 62be d26d 56be b09a 903c
00000020: 24d3 74be 83ed 21be 58ee c73d e8ac 51bd
00000030: a5c8 1e3d 4072 3abe 8b53 fb3b a3c1 2a3e
00000040: 1115 fc3c e73f d33c af86 06be db63 22be
00000050: 1c51 463d 50e4 42be 5ad5 82bd 2989 2bbe
00000060: 0bd5 9dbc f3fc 73be 8c0d 153c 4296 eaba
00000070: f476 2dbe 5070 82bd ed78 91bd 1dc5 afbd
00000080: 32a4 a4bd 8048 323b 0d83 e6bd 84b9 ce3c
00000090: 2dfd 3cbe 3ed3 553e 346a 14be f228 563d
000000a0: 09a2 19be d6e0 14be da4e 21bc 04d7 2fbe
000000b0: 9a75 45bd 3626 a7bd b4cb 84bd 5394 3bbe
000000c0: 87be ff3d b6f8 db3d 9e60 4bbd 80ab 2f3e
000000d0: 20a2 97bd e442 26be 1fb6 ae3c c2ec b6bd
000000e0: 1b07 103e 7773 d6bd 87cd 2bbe 7c3a 163e
000000f0: cd87 ed3c 634d 673d 7cdc ccbc 50d8 4abe
00000100: d2fe 633d 17e0 9dbc 7d5d 12be 7c95 ed3d
00000110: e98b 5fbe c5f3 0bbe 42fc 62bd ddd4 40be
00000120: d0b7 38be b2f8 b7bd 50eb 96bd 840f 3f3e
00000130: 80e4 bc3d b867 3d3e f563 4e3d 7dd0 efbc
00000140: ab74 0fbd 5ff8 dfbd 433d 3fbe f309 56be
00000150: dbc9 ce3d cc5f dcbd b41d bcbd 1e52 b23d
00000160: b1c1 00be cc82 823d 9ba9 76bc 1a23 203d
00000170: b422 cfbd c164 153e 5a76 2dbe 1946 87be
00000180: 363e 573e 0217 11be 848c 333e cc01 c63d
00000190: 62a1 2b3e 07bf 713d 5778 b33c 38ec 103d
000001a0: dba0 0bbe 6f3c 1a3e 0770 0b3e 54ce c5bc
000001b0: 52ec 953c 7936 9dbd f507 c5bd d2e8 39be
000001c0: b337 c1bd 4736 36be 0d07 92bd 0f0b ee3d
000001d0: 8233 4b3e b3ce 62be 6e4e 44be 4f8e 0c3e
000001e0: ddcb cabd 4bf5 a3bc b360 d63d 3bea 203e
000001f0: f3f1 8b3d 7504 623d c53b 8abd 2cdf ac3c
00000200: 4181 263d de9c 65be 2671 52be 8efd 1a3e
00000210: 7e6c 67be 1748 d83d 83c5 fc3d 4f13 223e
00000220: 7dce 493d acea 023d 056c 523d 5390 023e
00000230: 3196 613c 1fe6 09be 041a dd3d 8fad 813c
00000240: eab5 3a3e cf28 21be 4ef1 9dbd 0d69 0fbe
00000250: aa7a 00bd 8a73 3b3e 39dc 4fbd 8c49 793e
00000260: e831 1a3e 0cac 33be 8287 0d3e 3be6 973c
00000270: fc21 323e c423 7fbc bdc9 74bd db5e 2a3e
00000280: bdfd 12be 1487 0abd 9231 dabc 4f33 8dbd
00000290: 2dc5 4fbd 6e5c 163e 01c1 f7ba a915 fb3d
000002a0: 61ad 453d 883f 163e 1ec5 623d c128 5bbe
000002b0: 9f95 45be eab4 6fbe 3d3f 2ebe b035 6cbe
000002c0: 1f59 87bd cd0f 213e 505e 15be 42d3 8a3d
000002d0: 5d1c 1dbe b367 143e 0084 fb3d 6042 da3d
000002e0: e9e1 453e abb1 19be 9348 1abe 773a afbd
000002f0: a64a a53d c8bf ec3d f986 813d 39b3 cd3d
00000300: 5275 dabc 005b 10be b7dd 473e 7b5c 2ebe
00000310: eebe 2dbe 70e8 ef3d bff7 3b3e aa1a f23c
00000320: d461 ceba 0c3f f4bb 7c77 9c3c 24ae f4bd
00000330: acfd 173e 79e2 613e bd4e 2fbc d89b 1b3e
00000340: f732 1fbd 5492 e3bd 1812 f93c 3bd9 cfbd
00000350: 3e43 293e 2c54 a2ba ca28 c1bd 1c6f 2abe
00000360: 1d1a 023e bbcb e73d c03e 0a3d d34a 34bd
00000370: bcc8 debd 4c6a 603d 7625 573e 3094 8dbd
00000380: 324c 783c a08b 57be 6484 893d 5a30 0bbe
00000390: fad6 8ebc 1406 f9bd 4cec 173e 9857 e33d
000003a0: fb19 a5bd a16c c4bd 7621 8e3d 6d56 143d
000003b0: 80da f7bd 8aea 773d 0aad 9b3d 1373 0a3e
000003c0: d819 01be dcec 09be 0e12 973d 90c7 0ebd
000003d0: 218e adbd fa8d 603e 11e7 50bd 0cc8 f5bd
000003e0: 57c2 71bd 8626 a0bd a2c9 64bd 085c 3cbe
000003f0: 3359 163e 4437 603e 3d47 33be 0645 163e
-0.12172401 0.12056155 0.1173181 0.100126795 -0.08441946 -0.2210966 -0.2094033 0.017651886
-0.23908669 -0.1581326 0.09762257 -0.051190287 0.03876557 -0.18207645 0.007669871 0.16675429
0.030771764 0.025787307 -0.13137315 -0.15858404 0.048417196 -0.19032407 -0.0638835 -0.16751541
-0.019266626 -0.23826961 0.009097468 -0.0017897564 -0.16939908 -0.06369078 -0.07103143 -0.08582518
-0.0803913 0.0027203858 -0.11255465 0.025234945 -0.18455954 0.20881364 -0.14493638 0.052285142
-0.15003218 -0.14538893 -0.00984546 -0.17171866 -0.048207857 -0.08161585 -0.06484166 -0.183183
0.12487512 0.10740797 -0.04965269 0.17155266 -0.0740397 -0.16236454 0.021327076 -0.08931877
0.1406521 -0.10471242 -0.16777621 0.14670748 0.028995419 0.056470286 -0.025007479 -0.19809079
0.055662937 -0.019271893 -0.14293475 0.116007775 -0.21830715 -0.1366721 -0.055416353 -0.18831201
-0.18038869 -0.08982982 -0.07369101 0.18658262 0.092232704 0.18496597 0.050388295 -0.02927422
-0.035023373 -0.10936045 -0.18675713 -0.20902233 0.100970946 -0.10760459 -0.09185353 0.08707069
-0.12573887 0.06372604 -0.0150550855 0.039095975 -0.10114041 0.14589216 -0.16939679 -0.26420668
0.21019825 -0.14168933 0.17534071 0.096683115 0.16760781 0.05902007 0.021907968 0.035381526
-0.1363558 0.15062116 0.13616954 -0.024146236 0.018301163 -0.076764055 -0.09620658 -0.1815522
-0.09434452 -0.17794143 -0.07130251 0.11623203 0.19843867 -0.22149162 -0.19170544 0.13726161
-0.09902165 -0.020014426 0.10467663 0.15714352 0.068332575 0.05518003 -0.067496814 0.02110251
0.04065061 -0.22423121 -0.20550975 0.15135786 -0.2259998 0.10560625 0.1234236 0.15827678
0.04926919 0.03196208 0.051372547 0.12750368 0.013768719 -0.1346669 0.10795978 0.01582983
0.18233457 -0.15738223 -0.07712041 -0.14004917 -0.03136698 0.18305793 -0.05074713 0.24344462
0.150581 -0.175461 0.13821223 0.0185424 0.17395777 -0.015572492 -0.059762705 0.16637747
-0.14354606 -0.033820227 -0.026634965 -0.06894552 -0.05072515 0.14683697 -0.0018902124 0.12259991
0.04826105 0.14672673 0.055363767 -0.21402265 -0.19295357 -0.23408857 -0.17016311 -0.23067355
-0.066087954 0.15728684 -0.14586759 0.067785755 -0.15342851 0.14492683 0.122810364 0.10657191
0.19324459 -0.15009181 -0.15066747 -0.08556073 0.08070879 0.11560017 0.06324572 0.1004395
-0.02666727 -0.14097214 0.19518171 -0.17027466 -0.16967365 0.11714256 0.18356226 0.02955373
-0.0015745708 -0.007453805 0.019099943 -0.11947277 0.14842862 0.22059049 -0.010699925 0.15196168
-0.038866963 -0.11111894 0.030404136 -0.10148855 0.16529557 -0.0012384704 -0.09431608 -0.16643947
0.12705274 0.113181554 0.03375125 -0.04401667 -0.10878131 0.054788873 0.21010384 -0.0691303
0.015154885 -0.21049356 0.06714705 -0.13592663 -0.017436493 -0.121593624 0.14836234 0.111006916
-0.08061596 -0.09591032 0.06939976 0.036215235 -0.121022224 0.06052641 0.07601364 0.1352046
-0.12607515 -0.13469261 0.073764905 -0.034858286 -0.084743746 0.2192916 -0.051001612 -0.120010465
-0.059023228 -0.07819848 -0.055856355 -0.18394482 0.14682464 0.21896082 -0.17507644 0.14674768

fc2.weight f4 [128, 258]
00000000: 4d37 9d3c 7dba 20bb 2224 e23d 73c7 bc3c
00000010: 5409 8e3d 5bc9 b0bd b1f2 983d e663 b23d
00000020: 555c b1bd 5f17 78bc 2923 273d cd18 14bd
00000030: 3c58 9cbd 3859 d9bc 9e7d e63c 1325 573d
00000040: 4981 a3bd e118 b1bc 0e3c 5d3d 6b4b 4bbe
00000050: 612a 04bd 6a76 c4bd dbd5 af3c f6f8 323d
00000060: d765 91bd 4281 cabc e611 5bbd 0f48 983d
00000070: fcf0 d33c 0676 aa3b ac59 06bb e461 f73d
00000080: fa80 b33c cd4c 48bb 96b1 50bd 892f f13c
00000090: 398e f33b 8fff 983d c86b 2cbd 5ad7 4abd
000000a0: bdc7 35bd cdf7 3abc 4eb5 2bbd e63b e2bd
000000b0: 57c9 1abe a20c 52bd f09b 29bd 7469 64bd
000000c0: 572b 81bd ba89 c13c 2da5 c9bd e80c 853d
000000d0: 3dfc 353d a91e 813d f4da 9abd 0ad7 c73c
000000e0: 68a9 e33c 8e11 823d 197d 5e3c f8fd 463d
000000f0: 7f06 f03b aec9 fabb 748f 483d 58e0 9cbd
00000100: b07e 4dbc c50a b2bd c6ab 44be 156c 00be
00000110: d3ac 4f3d 2278 72bd 9557 5eba 6f9e 80ba
00000120: 1c44 18bc 8dfc 2e3d 7ac4 25bc 41c1 6bbd
00000130: fc02 ad3d 94b0 483d 376b c93d 0a66 8dbd
00000140: 96be 06bc e910 983c 52a0 6e3d f5ef 6cbe
00000150: a552 e5bd 4732 ae3d 1006 cb3d c13e f53d
00000160: 3bef 6dbe ff8a debd d3a6 7d3d eda2 40bf
00000170: 6e9e d5bc 617e 0e3d 3f73 373d 57ce d2bd
00000180: c892 963d 2d1d 4bbc fda2 04bd 42d8 54bc
00000190: 0b81 a1be 2427 3cbe c6fe c9bd 1413 d13c
000001a0: c4cc 9dbd 6293 5abd 783e 9bbb cd95 34be
000001b0: 42bd a2bc 2f51 fc3b aaf0 9a3d 3476 7fbd
000001c0: e25f 76bd acb8 d3bd 1e96 73bd 4539 983d
000001d0: 9c7f a4bd 7901 a73b 8c7d 1e3e 762a 873d
000001e0: d3eb abbc 15c9 8a3d 1f0b 4abd 43ef 523d
000001f0: c17a 2bbd 2777 09bd f796 3ebd 0041 213d
00000200: 76a2 39bd 93b5 bebc 398d c9bd 6b65 4bbc
00000210: 2c8d 01be a248 643b dc31 f13d 0d3b d23d
00000220: ec0f 903d c944 dcbd b99e ad3c 431a 483d
00000230: b4e0 01bd a0e1 a8bd 65c1 0d3e 31e9 47bd
00000240: ca51 463c c68b 0fbf 5329 11bc 6c9c 72bd
00000250: 67b3 843d acdb 823d 731b 993c 8375 b63d
00000260: 720c 78bd a5ff 92bd 5858 35bd b20c 51bd
00000270: 39e1 163d 7dfa 993d fa77 4dbc 4c41 ee3d
00000280: 7adf 56bc 3f4c 3c3d 3546 643d 310a 00bd
00000290: 2d58 9fbc c5c7 f3bc b65a 88bb 2ec3 30bd
000002a0: c679 7d3d 8106 003e 28cb 34bd 67f6 063c
000002b0: c0e9 dc3d 71d8 c4bb 4111 713c a644 523d
000002c0: 1b6d b53d 9292 153d 2301 9d3c 5930 38bd
000002d0: 2337 26be 1eb5 9cbd c794 2cbf 800e a1bd
000002e0: b2e5 35bd 5d43 853d 8826 8ebd d0f3 383c
000002f0: b775 1abd f1f8 d13d 92b5 783c b8f6 cabd
00000300: e76c 5ebc 84f1 0abd 4b07 8b3d 774f 7f3c
00000310: f7f2 683d 2c2a af3c 4c50 5b3d e74d 21be
00000320: de49 c13d 9392 143d 1260 8e3d 07ab 79bb
00000330: 72cc 563d 3706 96bd b32b ca3d f478 70bd
00000340: e201 03be c39c b93c ea77 0fbb 78c0 fbbc
00000350: 7648 9d3d 88ee 0aba 3220 513b 2b4a 163d
00000360: 8c1b d13d 060d 69bd 5b4d f53c 7b93 963d
00000370: 0be7 24bd 3e55 b3bd 1a9b 7b3d ab3b acbd
00000380: d129 0dbd 1897 59be 9e12 79bd e194 afbd
00000390: 306c 12be c8a8 41bd 72b7 61bd 4dfe c5bc
000003a0: e9ab f43d fa6b 223b d7eb 0d3d 3677 9a3c
000003b0: d556 80bc e671 a2bc c1e4 5f3a 39ce 663d
000003c0: 668f ffbb 01aa 65bd b2a3 633d 54eb 53bd
000003d0: 5be9 a83d 9d08 34bd aff7 27bc 3da2 d03d
000003e0: ea24 9cbd b91d e0bb 45f1 f0bb a918 d0bd
000003f0: 046c 97bd 8378 f23d 8623 913c 3ca7 363d
0.019191409 -0.0024525218 0.11042048 0.023044324 0.06935373 -0.086321555 0.07468165 0.0871046
-0.08660189 -0.015142291 0.040805016 -0.036156464 -0.07634017 -0.0265318 0.02813607 0.05252559
-0.079836436 -0.021618308 0.05401235 -0.19852988 -0.03226698 -0.09592898 0.021464279 0.04369446
-0.070995025 -0.024719838 -0.053483866 0.07435619 0.025871746 0.005202058 -0.0020500226 0.12079218
0.021912087 -0.0030563355 -0.05095061 0.029441612 0.0074327257 0.07470619 -0.042094976 -0.04952178
-0.04437994 -0.011411619 -0.041920952 -0.11046581 -0.15115868 -0.05128158 -0.04140848 -0.05576463
-0.063070945 0.023625243 -0.09845958 0.06496602 0.044430006 0.06304676 -0.07561293 0.02439453
0.02779074 0.063510045 0.01357963 0.048582047 0.007324993 -0.0076534366 0.048964933 -0.07659978
-0.012542412 -0.086934604 -0.19206151 -0.1254123 0.050701927 -0.0591966 -0.00084816787 -0.0009812842
-0.009293582 0.04272132 -0.010117644 -0.05755735 0.08447835 0.048996523 0.09834903 -0.06904228
-0.00822415 0.01856275 0.058258362 -0.23138411 -0.11197404 0.085056834 0.09913266 0.1197486
-0.2323579 -0.10866355 0.061926674 -0.75248605 -0.026076522 0.034788493 0.04478764 -0.102932625
0.07352215 -0.012397093 -0.032382 -0.012991013 -0.31543764 -0.18374306 -0.09863047 0.025521792
-0.077050716 -0.05336321 -0.0047376715 -0.1763527 -0.019865636 0.0077001075 0.07565434 -0.062368587
-0.060150035 -0.10337958 -0.059469335 0.07432798 -0.08032152 0.005096611 0.1547758 0.06599896
-0.020986473 0.067766346 -0.049327012 0.05149771 -0.041865114 -0.0335609 -0.04653069 0.03936863
-0.04532095 -0.02327994 -0.09841389 -0.012414317 -0.12651509 0.0034833332 0.11777088 0.10265169
0.07034287 -0.10755307 0.021193849 0.04885317 -0.031708434 -0.082461596 0.13843305 -0.048806373
0.012104461 -0.5607265 -0.00885995 -0.059231207 0.06479531 0.06389555 0.018689847 0.08909132
-0.060558744 -0.071776666 -0.044273704 -0.051037498 0.036835883 0.0751848 -0.012540812 0.11633548
-0.013114804 0.04597115 0.055731017 -0.03125972 -0.019451225 -0.029758343 -0.004161204 -0.043154888
0.06188371 0.12502481 -0.044139057 0.008237458 0.10786772 -0.006007247 0.014713586 0.051335
0.08858701 0.036516733 0.019165581 -0.044967983 -0.1623197 -0.07651733 -0.67414516 -0.07864094
-0.044408508 0.06506989 -0.06940943 0.011288598 -0.037709918 0.1025256 0.0151800085 -0.09910339
-0.013575769 -0.033921733 0.067885004 0.015582911 0.056872334 0.021382414 0.053543374 -0.15752374
0.09437917 0.036272597 0.06951918 -0.0038096325 0.052441068 -0.07325404 0.09871616 -0.0587091
-0.12793687 0.022657758 -0.0021891543 -0.030731425 0.076798365 -0.0005299826 0.003191006 0.036691826
0.10210332 -0.056897186 0.029944113 0.073523484 -0.040259402 -0.08756493 0.061427213 -0.08409818
-0.034463707 -0.21249044 -0.06080877 -0.08573318 -0.14299083 -0.047280103 -0.055106588 -0.024169112
0.11946852 0.0024783597 0.034648743 0.018855672 -0.015666405 -0.019829702 0.0008540862 0.056349013
-0.007799077 -0.05607033 0.055576034 -0.0517381 0.08247634 -0.043953527 -0.010251923 0.101871945
-0.07624228 -0.0068394807 -0.0073529803 -0.101609536 -0.07393649 0.11839392 0.017717134 0.04459308

fc2.bias f4 [128]
00000000: f1b1 903d a1ef 5c3c d6fb 063c 7ad8 1abc
00000010: 4386 84bc 2e05 b6bc bcea 9e3c ca6e 683c
00000020: ddb3 1e3c ff89 62bd f1e6 923d ea39 78bd
00000030: 977d a53d d740 32bd 15ba f9bc 0c48 69bd
00000040: 186e e0bc cc1f 1b3d 69f3 453d 823b 283c
00000050: e0c5 5fbd f933 493d 0785 4a3b b9c7 21bd
00000060: 4868 0dbc 0272 d0bd d5dd 963c 5746 dd3c
00000070: 7e5b 0e3d 697c 2a3d faa1 b03c 6f2b 263d
00000080: d3bf b73c 77f6 a33c 30b3 9c3a 4f3b 253d
00000090: c8a1 123d 2f3e 8aba acb4 863d e011 23bc
000000a0: 68d0 34bd ac26 85bd 8884 9c3b 4d0a b53c
000000b0: ff5a d33c c5f9 50bd 706c a5bd 0af9 1dbd
000000c0: 769d be3c f5a5 be3c 11ff ddbc 459f d23c
000000d0: 6b2a 9a3c 0a17 71bd 519a 843d ebb9 58bd
000000e0: a59c 9b3d eaa4 4cbd 762f 373d 60e7 01bd
000000f0: 09b4 1bbc b136 59bd 1c31 cfbc 9688 8c3d
00000100: 8717 a4bc e00f 8cbd 61b0 ce3c c1ca 633d
00000110: aa01 dabc 388a f2bc 78e4 08bd d570 d23c
00000120: 8ba0 3abd f686 2437 b6d4 fcbc 4679 9dbc
00000130: 5076 20bd 8c1c 3a3d ca97 533d 5d83 513c
00000140: b015 8cbd 3014 08bd fe06 2a3c 0c93 49bd
00000150: 70d5 3a3b f250 c23c 5790 93bd fae6 13bd
00000160: 4a1a 8c3d 8177 183d 4937 82bb f5ee 80bb
00000170: f4aa 37bd a5f6 373d efcc 143d a194 4cbb
00000180: e30e e3bc 7af2 c6bc 792e c5bc 81fb e93c
00000190: a7fc c13c 700b 343d fdea 1c3d 294c 3f3d
000001a0: 4ca1 543d b1e8 89bd 9ffe 96bc 7d54 703d
000001b0: 5f15 233d 3c96 1cbc 3612 913d 17a2 043b
000001c0: 1518 6c3a 5414 3a3d 8e1e fd3c c23d 683d
000001d0: 19e1 243d 2ede 77bd d1e7 4b3d 0dc4 ce3c
000001e0: de9a 623d e3e9 873c 98d3 dabc 00e6 88bc
000001f0: 0283 83bc b272 8b3c f3e8 dcbc 6d28 f33c
0.0706519 0.013484866 0.008238753 -0.009451026 -0.016177302 -0.022219267 0.01939904 0.01418657
0.009686437 -0.055307385 0.07172955 -0.060602106 0.08080595 -0.043518867 -0.030484239 -0.056953475
-0.027396247 0.03787212 0.048327837 0.010268094 -0.054632068 0.04912183 0.0030902044 -0.03949711
-0.00863082 -0.10177995 0.018416325 0.02701108 0.034755222 0.041622553 0.021561611 0.040568765
0.022430336 0.020014985 0.0011955258 0.040339764 0.035798818 -0.0010547097 0.06577429 -0.009952992
-0.044144064 -0.06501517 0.004776541 0.022099638 0.025800226 -0.05101945 -0.080773234 -0.03856758
0.023268443 0.023272494 -0.027099164 0.025710711 0.018819055 -0.058859862 0.06474746 -0.05291168
0.07598237 -0.04996196 0.044722997 -0.031714797 -0.009503373 -0.053030673 -0.025291972 0.06861989
-0.02003075 -0.068389654 0.025230588 0.055613283 -0.026612122 -0.029606923 -0.03342101 0.025688568
-0.045563262 9.806585e-06 -0.030863147 -0.019222867 -0.03917533 0.04543738 0.05165843 0.012787667
-0.06840074 -0.033222377 0.010377644 -0.0492125 0.0028508566 0.023720238 -0.07205265 -0.03610895
0.06840952 0.037223343 -0.0039738757 -0.003934736 -0.044840768 0.044912953 0.036328252 -0.003121652
-0.02771706 -0.024285544 -0.024070011 0.02856231 0.023680044 0.04395622 0.03831004 0.04670349
0.051911637 -0.067338355 -0.01843196 0.058674324 0.039815303 -0.009557303 0.070835516 0.0020238215
0.0009006274 0.045429543 0.030898359 0.05669952 0.040253732 -0.06051462 0.049781624 0.025239969
0.055323474 0.016591018 -0.026712224 -0.016711235 -0.01605368 0.017022464 -0.026966548 0.029682362

fc3.weight f4 [1, 128]
00000000: b115 ad3d 5068 48bd c9a6 80be b724 cd3d
00000010: 4c54 613d c32d 6b3d 4987 6e3d 7eee 023d
00000020: b206 b1bc 94f3 f1bc 78fa c5bd 8126 52bd
00000030: f8ac cb3c 5cbd fcbc e83b 14bd 9dc6 073e
00000040: 879b 203d 0442 38bd 2d24 0a3e 6568 123d
00000050: f230 16bd 9480 4d3d 4ea9 91bc 2dc8 04be
00000060: 8546 bd3c f254 713d e193 963c 0b03 71bc
00000070: 20fc 3abd 9e5f d13c 0bc4 5d3d 1069 d0bc
00000080: 1532 c2bd a9a5 453d e6d1 70bd 334b c8bd
00000090: a3c1 b4bb d81a 20bc 6c08 38bd d9f1 e5bc
000000a0: 2577 253c ba77 4ebd d1d6 73bd 1e5f 49bd
000000b0: 0ae5 f43d 5b34 733d ed4e 703d 2bfc 6ebd
000000c0: a27c 0d3d 2d26 dbbd eb1f 2fbd 3dd5 c9bc
000000d0: 6fc0 6ebd acef c13d 20f1 ca3c 4911 1cbc
000000e0: ac92 f1bd 3f6e 15bd a746 ebbc df13 85bc
000000f0: ceaf 17bd 5d02 013e 1474 57bc 0ae0 f8bc
00000100: a6c3 183d ff5b 9f3d 84b7 09bd 143e 9cbd
00000110: be68 c4bc 5d58 a3bc cde1 ccbd 3ada 3fbd
00000120: 45da 38bd 7a4d cdbd cb99 e8bd 5a3e 4c3d
00000130: 0d31 2abd 4729 3abe ee11 533d 3429 c33c
00000140: 7b9d cabd 7a24 053d 074d 93bc 52bf 09bd
00000150: 605c 7f3d d6ec ac3c a52a e83d 6270 2c3d
00000160: e6a3 0a3e d0e4 2bbe 4206 c4bc 7df9 8b3e
00000170: fe5f 663d 7427 bf3c 7572 803d a95f 223d
00000180: 26fe 303d 3464 283e 851a 95bd 99b1 cfbc
00000190: e97c 363d 6914 a03d f7ca 14bd 52ae a23d
000001a0: aa53 173d 714c a9bc b3d5 3c3d 8435 8f3d
000001b0: 4e98 03bd 0155 213d 4488 adbd 0d87 f33c
000001c0: 7173 0fbe ae9b c43c a8ac cf3c f52b 883c
000001d0: dddf c7bd 02f1 57bd efd3 e3bc 89f4 c53c
000001e0: cd99 333d 0509 6b3d b154 13bd 6321 fbbc
000001f0: b3d0 1c3d 4969 8abd dae7 af3d b1b0 70bd
0.08451403 -0.048927605 -0.25127247 0.100167684 0.055012032 0.05741669 0.058234487 0.031965725
-0.021609638 -0.029535092 -0.09666914 -0.05130625 0.024862751 -0.030852012 -0.036189944 0.13259359
0.039210822 -0.044984832 0.13490362 0.03574409 -0.03666777 0.05017145 -0.017780926 -0.12966986
0.023104915 0.0589189 0.018381061 -0.014710198 -0.0456506 0.02555829 0.05414204 -0.025440723
-0.09482209 0.04825369 -0.058793925 -0.09779968 -0.0055162474 -0.009772025 -0.044929907 -0.028069424
0.010099207 -0.05040715 -0.059531037 -0.049162976 0.11957748 0.059376102 0.05866902 -0.058345955
0.034542687 -0.10700641 -0.04275505 -0.024637813 -0.058288988 0.09469542 0.02477318 -0.0095256055
-0.117955536 -0.036482092 -0.028720213 -0.016244827 -0.037032895 0.12598558 -0.013150234 -0.030380268
0.03729596 0.07781219 -0.03362228 -0.07629028 -0.023975726 -0.019939596 -0.100040056 -0.046838976
-0.045130033 -0.10024543 -0.11357459 0.04986415 -0.041550685 -0.18179809 0.05153077 0.023823358
-0.09893318 0.03250549 -0.017981065 -0.033629723 0.062343955 0.021109026 0.11336259 0.042099364
0.13539085 -0.16786504 -0.023928765 0.27338782 0.05624389 0.023334242 0.06271831 0.03964201
0.043211125 0.16444474 -0.07280449 -0.02535324 0.044552717 0.07816393 -0.036326375 0.07943405
0.036945023 -0.020666333 0.046102237 0.06992629 -0.03212767 0.039387707 -0.08473256 0.029727483
-0.14008881 0.024000015 0.025350884 0.016622523 -0.097594954 -0.052720077 -0.027811019 0.024164455
0.043847848 0.05738165 -0.03596944 -0.030655568 0.03828497 -0.06758363 0.08589144 -0.058762256
